Models/Multi_model_4.pth (torch, 189644 bytes, 9 tensors)

weight f4 [256, 10]
000000 72 00 6c 3e 57 e1 c1 be 70 ba 2f bd ba a8 dc bd
       0.23047045 -0.37867233 -0.04290241 -0.107743695
000010 4a e1 9b 3e d0 1d d2 3e f0 95 7b bc 1d 30 8c be
       0.3044532 0.4103837 -0.015355572 -0.27380458
000020 a4 30 d6 3e eb f3 90 3d 13 7a 95 3d 19 16 29 be
       0.41833985 0.07077774 0.072986744 -0.16512336
000030 5a 7e 92 3e 20 ed bb bc c2 b3 59 3e 32 c7 14 3e
       0.28612024 -0.022940218 0.21259978 0.14529112
000040 e3 64 9a 3e ae 7e 82 bd 06 8c 6c 3d 08 c6 a0 be
       0.30155095 -0.063718185 0.057750724 -0.31401086
000050 3f 6c a5 be 2d 47 52 be 4f 89 84 3d 43 83 c8 be
       -0.32309148 -0.20534964 0.06471502 -0.39162645
000060 0a 1e 7a be dc 07 7a be 7f 70 97 3e ea 14 0d be
       -0.24425521 -0.2441706 0.29578015 -0.1377751
000070 7a 48 2c bd 13 c2 c1 bd b7 5c 8f 3e 68 f4 33 be
       -0.042061307 -0.09460845 0.28000423 -0.17573702
000080 c0 7b 51 3e dd 96 fd bd 19 7d da bd d8 21 c5 3e
       0.20457363 -0.123822905 -0.10668392 0.38502383
000090 6e 4a 64 3e 7a 42 aa 3d 8b 4a 49 be a1 87 28 3e
       0.22294018 0.08313461 -0.19657342 0.16457988
0000a0 35 84 45 be cf a2 98 3e 0a ca d2 bc 00 22 64 bc
       -0.19288714 0.29811713 -0.025731105 -0.013924122
0000b0 8e 1f 95 be c2 d6 b7 3d c4 66 d8 3e 80 c4 42 be
       -0.29125637 0.08976509 0.42265904 -0.19020271
0000c0 3e f8 29 3f 67 25 31 3f 50 0a 12 be 98 dc 26 bd
       0.6639441 0.69197696 -0.14261746 -0.04073772
0000d0 b0 2a 53 3e c3 36 9a 3e 9b d5 43 3e fc e8 e6 3d
       0.20621753 0.30119905 0.19124453 0.11274907
0000e0 7f e9 39 be b9 f1 60 bd 6a a6 2b 3e bd c8 90 3e
       -0.18155478 -0.054918025 0.167627 0.2827815
0000f0 6e b4 b0 3d b9 bf b5 3e 22 92 6e 3a 99 d0 8f be
       0.08628164 0.35497835 0.0009100755 -0.28088835
000100 4a ac 65 bc d4 85 cc 3d 21 17 85 3e 6a 63 09 3e
       -0.014018128 0.09986463 0.25994208 0.1341683
000110 c0 61 76 be a8 c7 89 bd 29 f8 92 3e 9b cf 9f 3e
       -0.24060726 -0.067275345 0.28704956 0.31213078
000120 00 ec 6d bd ae 12 b6 3d f0 8f 2d 3e f5 28 6d 3e
       -0.058086395 0.088902816 0.16949439 0.23160155
000130 d9 c3 28 3b 66 f1 32 be 0f 4d e7 bc b4 a7 63 3e
       0.00257515 -0.17474899 -0.028234987 0.22231942
000140 9d 60 1a 3e 9c c3 09 bd e9 67 6e 3e 6f 67 1f be
       0.15075918 -0.033633813 0.23281826 -0.155668
000150 07 13 45 be c2 24 46 3e 12 0a 44 3e fb b5 90 3e
       -0.1924554 0.1934996 0.19144467 0.2826384
000160 ed 5c ab 3c 57 2c fc 3d 39 2d 16 be 2c d0 74 be
       0.020918334 0.12313145 -0.14665689 -0.23907536
000170 38 0b 2a be 4d 4c 51 3e 60 2d f4 bd b4 18 27 3e
       -0.16605842 0.20439263 -0.11922717 0.16318017
000180 bb aa 00 be 92 38 b6 be 66 6c 42 3e 29 f3 65 3d
       -0.12565129 -0.35590035 0.18986663 0.0561401
000190 2f 55 25 3e b3 ae 0a be d4 1d 17 3e d3 f6 2b bd
       0.16145776 -0.13543205 0.14757472 -0.041983437
0001a0 e0 cc 82 bd 8d fa bf 3e 02 26 6e 3e 88 58 d7 3d
       -0.06386733 0.37495843 0.23256686 0.10514933
0001b0 e8 31 a8 be 40 fd e7 bd df 5c 4e be c8 97 28 be
       -0.32850575 -0.113276005 -0.20152615 -0.1646415
0001c0 98 8d 0a be 47 63 75 3e 26 ca 0d bd 1e e2 11 be
       -0.13530576 0.23963653 -0.034616612 -0.14246413
0001d0 d2 df 0a 3e 93 72 35 bc 71 27 b4 be c7 d8 f2 3d
       0.13561943 -0.01107468 -0.3518634 0.11857753
0001e0 ed 2a 1a 3e 7e e1 85 be 17 cf d4 bc 90 2b 86 3e
       0.15055437 -0.261486 -0.025977654 0.2620511
0001f0 5b 45 6c 3d 40 5f 23 be 45 fe 7d be 06 81 73 bd
       0.05768333 -0.15954304 -0.24804027 -0.05944922
000200 f3 3c 0c 3f fd 69 fe 3e c2 82 70 be c0 7b 8e 3d
       0.547805 0.49690238 -0.2348738 0.06957197
000210 f4 23 dc bc fc c7 ef bd 65 70 58 3d a7 59 ca 3d
       -0.026872613 -0.11708066 0.052841563 0.09880381
000220 71 a0 12 3e bb 12 9c 3c 31 34 a8 3e 7f c3 ea 3e
       0.14319016 0.0190519 0.3285232 0.45852277
000230 93 7d 48 3e d1 5f c6 bd 72 1a a6 be 5b d8 9b 3e
       0.19579153 -0.09686244 -0.3244205 0.30438504
000240 48 b9 87 3e ee 28 de 3d d2 e4 8a be b6 62 00 be
       0.26508546 0.108476505 -0.271277 -0.12537655
000250 69 c0 8c be 39 09 2b 3e 48 9b 6b be 2a 56 9c bd
       -0.27490547 0.16702737 -0.23008454 -0.07633622
000260 16 82 99 be 39 78 a0 3e b8 4f be 3d 9b 6b 30 3e
       -0.2998206 0.31341723 0.09292549 0.17228548
000270 52 a4 e1 3d 0d 82 92 39 ef 46 42 3e a5 62 a0 3e
       0.1101767 0.00027944185 0.18972372 0.3132526
000280 73 cb 07 3f 56 94 01 3f 3a 7f 1d bd fa 57 6d 3f
       0.53044814 0.5061697 -0.03845141 0.92712367
000290 be 2e 61 3c e5 20 d4 bd 5b 41 a4 3e 32 86 7d 3e
       0.013744054 -0.10357837 0.32081112 0.24758223
0002a0 ee eb 60 3d 31 aa e6 3d 62 39 8b bd 3f a3 a0 3e
       0.0549125 0.1126293 -0.06798054 0.31374547
0002b0 97 47 96 3e bb 61 8c 3e c0 ec cf 3b b4 73 06 3e
       0.29351494 0.27418312 0.0063453615 0.13130075
0002c0 20 c4 bf bc 52 2a 57 be 90 62 4b be 48 8d 3a be
       -0.02340895 -0.21012238 -0.19861817 -0.18217957
0002d0 9b cd 16 3e 6e 28 5c 3e b9 a3 7c 3e 00 eb b2 3c
       0.1472687 0.21499798 0.2467183 0.021840572
0002e0 cd e5 c0 3d a5 44 ce bd 99 2d 9e 3e 66 42 0a be
       0.09418831 -0.10071687 0.30894163 -0.13501891
0002f0 ed 1f 6c 3e 0d 70 8a 3e f7 34 a5 3e 3b 40 df bd
       0.23059054 0.27038613 0.3226697 -0.10900923
000300 89 1c 98 3e 8d 7a 2b be 01 27 73 be 35 d9 46 be
       0.2970927 -0.16745968 -0.23745348 -0.19418795
000310 43 af 84 be a6 8e fa bd 0c b4 64 3d b8 40 7e bd
       -0.25914964 -0.12234239 0.05583577 -0.06207344
000320 88 1e 37 be 87 ea 82 3e cb a6 8a 3e fb 90 17 be
       -0.1788274 0.25569555 0.27080378 -0.148014
000330 30 ed 26 be d5 42 36 be c1 3e 40 be 50 8c 5e be
       -0.16301417 -0.17798932 -0.18773939 -0.21733212
000340 6c 65 e2 bd 1d 37 30 3e 35 83 8f bd 56 83 95 3e
       -0.11054501 0.17208524 -0.07007448 0.29201764
000350 63 4f 54 3e b9 bb ed bd f7 f2 53 3e 54 74 5c 3d
       0.20733409 -0.11608071 0.20698152 0.053821877
000360 7a 76 09 3e 06 53 12 3e 01 3f 85 3e f4 97 1b be
       0.13424101 0.14289483 0.2602463 -0.15194684
000370 d0 a9 72 3e 7c 09 04 be 59 a6 9b 3c a1 c1 d9 bd
       0.23697591 -0.12894243 0.01900022 -0.10632635
000380 7a fb 37 be c7 31 61 3d f2 45 35 be 8f d1 fb bd
       -0.17967024 0.054979112 -0.17702463 -0.122958295
000390 cd 25 b5 be 98 da fc be 75 0b f1 be fc eb 24 be
       -0.35380402 -0.49385524 -0.47079054 -0.16105646
0003a0 34 fb 8f 3c 06 ad 1c be 33 f6 ae 3d 01 2f c5 3e
       0.017575838 -0.15300378 0.085430525 0.38512424
0003b0 0c 07 0f bf b8 68 9a 3f c6 76 f5 be 61 4a 90 bd
       -0.5587013 1.2063208 -0.4794218 -0.07045437
0003c0 bf 67 43 be d4 44 00 3e 75 cd 14 3e c6 44 b2 3e
       -0.19082545 0.12526256 0.145315 0.34818095
0003d0 81 4b 4e bb 51 ba 0b be 81 f6 36 3e e3 ce f4 3d
       -0.003147811 -0.13645293 0.17867471 0.11953523
0003e0 4f ee 25 3d e2 b9 c9 3e 60 1a a0 bc fc 50 21 3e
       0.040510472 0.3939963 -0.019543827 0.1575355
0003f0 27 67 9c 3e b5 2b 93 be b5 f2 8b 3e 94 49 7f be
       0.3054745 -0.28744283 0.27333608 -0.24930412

bias f4 [256]
000000 9c ff a7 3c f2 13 12 be a3 26 9a be 1a 63 3c 3e
       0.020507626 -0.14265421 -0.30107602 0.18397179
000010 78 93 2f 3f d8 f0 14 be 99 c1 60 be 81 62 1e 3e
       0.68584394 -0.14545 -0.21948852 0.15467264
000020 bf 59 f7 bc c9 56 bf 3d f2 77 70 be 34 a4 7f 3c
       -0.030194161 0.09342725 -0.23483256 0.015603114
000030 88 e1 06 3f 1f d7 d7 3e e6 2f 35 3e d4 02 1c 3b
       0.52687883 0.42156312 0.17694053 0.0023805397
000040 74 cc 1e 3c 83 57 35 be e5 a5 8d 3e de b3 dc bd
       0.0096923 -0.17709164 0.2766563 -0.107764944
000050 b8 0d a1 bd 72 1d 02 be ee 58 88 bc c6 20 f1 bc
       -0.07863945 -0.12706545 -0.016643967 -0.029434573
000060 e1 25 18 be c8 68 21 3d ce 21 ba bd 97 48 16 3e
       -0.148582 0.039406568 -0.09088479 0.14676128
000070 3d 17 c4 bd a5 0e 29 3e f4 59 75 3f d3 a7 42 3e
       -0.09574745 0.16509493 0.9584038 0.19009332
000080 a0 0a 9d 3e 87 29 d4 3e 06 71 1e bd cd 58 57 bd
       0.3067217 0.41437933 -0.038682006 -0.05257492
000090 f2 d2 b3 bd 32 7b cc be 10 23 7a 3d f3 71 d1 be
       -0.08780469 -0.3993774 0.061068594 -0.4090725
0000a0 28 3b d5 bd 88 dd 89 bf 85 89 f7 3e 3e 56 3f 3e
       -0.10411674 -1.0770731 0.48347107 0.18685243
0000b0 0f d2 b5 3d 4c db 37 be 42 9c 66 bf fe 78 82 3d
       0.08877956 -0.17954749 -0.9008218 0.06370734
0000c0 1f fd 32 be a7 9d d4 3d 55 f3 93 3e 33 fe 97 3e
       -0.1747937 0.10381632 0.28896585 0.29686126
0000d0 52 fd 8e 3d b5 d1 2c be fd 05 22 3e 8b 2c 91 3e
       0.06981911 -0.16876872 0.15822597 0.28354296
0000e0 8e 98 26 be 34 7c 2d 3e 47 68 20 3f 53 54 98 3e
       -0.16269132 0.16941911 0.62659115 0.29751834
0000f0 93 de 6b 3e f5 f0 12 3e 7c f9 80 3e 77 98 c9 be
       0.23034124 0.1434973 0.2519034 -0.39374134
000100 c6 e8 a3 bd 89 69 c7 3d 65 8b 33 3f 26 8e 97 bd
       -0.080033824 0.09736926 0.70134574 -0.074001595
000110 22 3b 23 3e db 95 a9 be a9 c3 8d 3d 97 a2 f0 3d
       0.15940526 -0.33122143 0.06922085 0.117497616
000120 c4 28 1d 3e c7 f0 5b 3e 68 f9 ff 3e 7a 06 d7 3d
       0.15347582 0.21478568 0.4999497 0.10499282
000130 48 b9 aa 3d 00 af 8e bd d7 ed 69 be 52 27 24 be
       0.08336121 -0.06966972 -0.22844635 -0.16030625
000140 fc 86 37 be 6e 28 0e 3f 80 82 c2 3e 7d b4 a1 3e
       -0.17922586 0.5553044 0.3799019 0.31583014
000150 6c 0b 50 bf 27 3a a8 3f dc 56 88 be 76 bc 71 be
       -0.8126743 1.3142747 -0.26628768 -0.23607048
000160 a9 67 f4 be a0 f3 8d 3d ae 9c 0b 3e 5b d8 0b 3e
       -0.47735336 0.069312334 0.13633987 0.13656752
000170 ae 86 2e be dc 0f 90 3e 77 ac 81 be f9 53 8f 3e
       -0.17043564 0.281371 -0.25326893 0.27993754
000180 a0 03 16 be 2e 07 d0 be 69 2f 86 bf 00 a4 75 be
       -0.1464982 -0.40630478 -1.0483218 -0.23988342
000190 22 e1 a0 bd 2d 96 a8 3e ac a9 a9 be a7 22 8e 3e
       -0.07855441 0.32927075 -0.33137262 0.27760813
0001a0 8e 28 e9 bd d9 1e 92 3e cc eb e2 3e c6 2e 08 3d
       -0.11384688 0.2853916 0.44320524 0.03324773
0001b0 4b 42 85 be e9 0a 87 bd 7a d1 98 3e e0 3e c9 3c
       -0.2602714 -0.06593878 0.29847318 0.024566114
0001c0 1c 1f a8 be 52 fb 9b be 64 18 52 be 90 07 9c be
       -0.32836235 -0.3046518 -0.20517117 -0.3047452
0001d0 0f bd 6a be b2 32 06 be 48 94 24 3e 8b 6d 32 be
       -0.22923683 -0.13105276 0.1607219 -0.174246
0001e0 f8 e4 06 3e b4 54 6f be ed 41 6d 3e 76 0f fb 3e
       0.13173282 -0.23372155 0.2316968 0.49035233
0001f0 53 6b cf 3d cf 91 03 3f 08 42 8a bf b6 e6 3c 3e
       0.10127892 0.5139436 -1.0801401 0.18447384
000200 5e d0 a6 3d c1 4e ca 3c 05 40 18 3f ed c2 f7 bc
       0.08145212 0.024695756 0.59472686 -0.030244315
000210 93 82 3b 3f 53 54 78 3d 39 2b 0e be 57 f7 8f be
       0.73246115 0.060627293 -0.13883676 -0.28118393
000220 06 e5 0b 3f ee 2d a4 be 61 24 78 3d e9 ec b9 be
       0.5464634 -0.32066292 0.06058157 -0.3631356
000230 64 ef 10 be 3a b7 4a 3d dd ac 94 3e a7 49 c9 bd
       -0.1415382 0.049491145 0.29038134 -0.09828501
000240 ad c1 ee 3d 4d 0c ac 3d 8b 65 7e be 4b ac 3f 3d
       0.116580345 0.08400784 -0.24843423 0.04679517
000250 a8 27 ff 3d ae f7 fd bd c6 35 95 3f a4 dd 4b be
       0.12458736 -0.12400757 1.1657035 -0.19908768
000260 46 20 9e be 17 0e a1 be 2a fb a3 3e 2b d2 03 3e
       -0.30883998 -0.31456062 0.3202756 0.12873141
000270 27 e6 d3 3e d9 cd d2 3e 91 76 6b 3d 58 6c 23 3e
       0.4138653 0.41172674 0.05748612 0.15959299
000280 28 9d 65 be 0d a2 0f 3e 08 43 91 be 12 fe 44 be
       -0.22423232 0.14026661 -0.28371453 -0.19237545
000290 12 e6 61 be 38 39 39 bd 1c fd ef be ab 84 b8 3e
       -0.22060421 -0.045220584 -0.46872795 0.36038718
0002a0 c8 1b 9e be 95 7f c5 bd 67 04 ec 3e 72 ca 21 be
       -0.3088057 -0.09643475 0.4609711 -0.15799883
0002b0 09 8d 47 bc 4e b4 83 3e 17 ab 04 be 57 60 9d 3e
       -0.0121796215 0.257235 -0.1295589 0.30737564
0002c0 39 5a 01 3d cf bb da 3d a1 45 87 be 1d 04 5d 3e
       0.031580184 0.10680353 -0.2642031 0.215836
0002d0 90 0c 53 3e f3 94 f8 3d 48 6a 68 3e 85 b0 72 be
       0.20610261 0.12137785 0.22696793 -0.2370015
0002e0 9e ba 92 be cd 65 db bd 29 42 05 3e 6c 17 12 3e
       -0.28658003 -0.10712776 0.1301352 0.14266747
0002f0 ba 02 40 3e 60 dd 22 3c 32 16 c2 be 30 c4 22 be
       0.1875104 0.009940475 -0.3790756 -0.15895152
000300 c6 21 36 bf 05 e2 84 3d cb 07 8b 3d 23 b3 6c be
       -0.71145284 0.06488422 0.06788596 -0.2311521
000310 60 ff b2 3d f0 31 dc 3e 14 8a 14 be 77 db 44 be
       0.08740115 0.4300685 -0.14505798 -0.19224344
000320 e4 03 72 be bb 64 67 be 7f 20 a4 bf 77 ab 79 be
       -0.23634297 -0.2259702 -1.2822417 -0.24381815
000330 fb fb b3 3e ec 74 6b be 03 2b d3 3e 59 93 a5 be
       0.35153183 -0.22993821 0.41243753 -0.3233898
000340 38 20 00 bf f2 dc 24 be 2d 9c 66 be 38 2d 4b 3d
       -0.5004916 -0.16099909 -0.22520514 0.04960367
000350 20 06 97 3e a6 89 96 3e 43 30 e8 be b1 11 29 3e
       0.2949686 0.29401892 -0.4534932 0.16510655
000360 dd 16 f3 bd fb 86 43 3e 80 ce cc bd 3a 21 f1 3e
       -0.11869595 0.1909446 -0.10000324 0.47095662
000370 42 2c 38 be 48 6b 42 be b5 6f ce bc 67 80 bf 3e
       -0.17985633 -0.18986237 -0.02519975 0.3740265
000380 1c da 84 bc 05 6e 82 be 53 a5 5f bd 55 43 f1 3d
       -0.016217284 -0.25474563 -0.054601025 0.11780421
000390 8b 75 6f 3f 36 ae 8a be ae d3 da be 80 2b f8 3c
       0.9353873 -0.27086037 -0.42739624 0.03029418
0003a0 88 2e e0 3d c5 62 63 3f 6c 12 e2 3c b2 e1 c5 be
       0.10946375 0.88822585 0.027596675 -0.38648754
0003b0 81 60 89 be 65 20 41 3e 70 49 51 3f a5 2c 8b be
       -0.2683144 0.18860014 0.8175268 -0.271825
0003c0 aa 4d 20 be 64 dd bc 3e 03 2a 98 be 67 c0 3b 3e
       -0.15654626 0.36887658 -0.29719552 0.18335114
0003d0 85 22 54 3e f4 1e 88 bd 89 16 0d 3e a1 5e ad be
       0.20716293 -0.06646529 0.13778128 -0.3386126
0003e0 62 21 0a 3e 40 85 e2 3d 1f e1 af bd 4b 9c 28 3e
       0.13489297 0.11060572 -0.0858786 0.16465871
0003f0 b9 9f 80 be 46 9d 11 3e b9 cd 2d 3e 0b e6 29 be
       -0.2512186 0.14220151 0.16973008 -0.1659166

weight f4 [128, 256]
000000 23 58 d8 bc 7d 1e 3e 3d 10 3e fd 3c b8 56 e7 3c
       -0.026409214 0.046415795 0.030913383 0.028239593
000010 c8 19 ba bc e4 cb 69 3d 6a 49 1a bd b4 7a 08 3d
       -0.022717372 0.05707921 -0.03766767 0.033320144
000020 e8 97 23 3d 9d 29 92 bd d2 23 32 3d 6e 8b 87 bc
       0.03993979 -0.07136843 0.043491192 -0.016545977
000030 da dd 80 3d 8a 96 50 3d 89 a2 54 bd 61 a7 00 3d
       0.06292315 0.050924815 -0.051912818 0.031409625
000040 63 b5 68 3c 11 c0 58 3d 49 05 f4 ba b1 4c 13 bd
       0.014203402 0.052917544 -0.0018617298 -0.03596181
000050 c6 9c 0a 3c 32 a6 10 3b c5 88 b3 bc 2f c2 87 3c
       0.008460229 0.0022071716 -0.021915803 0.016572086
000060 71 1d 9d bc 56 44 af 3c 64 4e 08 3d 15 76 8a 3c
       -0.019179078 0.02139489 0.033277884 0.016902009
000070 eb 36 2a 3d 58 ed 05 3d 33 59 0d 3c c9 a0 f3 3a
       0.04155628 0.03269705 0.008627224 0.0018587346
000080 6f c4 45 bd a4 54 06 3d a7 82 05 3d fc c3 2b bc
       -0.048283037 0.032795563 0.032595303 -0.010483738
000090 35 dd a7 bc 88 ca e1 ba 57 19 43 3d 0a a9 c6 3a
       -0.020491222 -0.0017226497 0.047631588 0.0015156579
0000a0 e4 9e 8f bc 66 0d a2 3d 0d cb 4b bd 30 f0 a9 bb
       -0.01753182 0.07912712 -0.04975419 -0.0051861033
0000b0 8a a6 e4 bc 06 45 3e 3b c0 81 ca 3c b1 97 9b 3c
       -0.027911443 0.002903284 0.024720073 0.01899323
0000c0 a6 c4 ab bc 75 ab 50 3c 01 6f aa 3c 85 76 dc bc
       -0.020967793 0.012736191 0.020804884 -0.026911983
0000d0 fc 68 2e 3c df 10 c3 bb 5c d5 72 bc 27 49 87 bd
       0.010645147 -0.005952939 -0.014821377 -0.066057496
0000e0 9b f2 aa 3c 7a 23 e4 bc 3c 32 c1 bc 20 c3 06 3d
       0.020867636 -0.027848948 -0.023583524 0.03290093
0000f0 0a 21 73 bd 00 a6 01 bd a0 9a 2d 3d 4d 16 81 bc
       -0.05935768 -0.03165245 0.04238379 -0.015757704
000100 f5 09 bf 3c a7 93 b4 bc 9c 59 34 bd 2c 1c a7 bc
       0.023320178 -0.022043062 -0.04403077 -0.020399176
000110 f5 1f a5 3d 69 90 67 bd 56 ee 21 3c 3f b3 6d bd
       0.08062736 -0.056534205 0.009883484 -0.05803227
000120 3b d0 7f bd 4d 5b 26 bd 93 ff 75 3c 30 3a 02 bc
       -0.062454443 -0.040614415 0.015014547 -0.007948443
000130 b4 58 ec 3b a6 a4 a0 3c 01 f6 4c 3d 7c a8 15 bd
       0.0072127227 0.01960976 0.050039295 -0.036537632
000140 4c 42 52 bc 00 a1 17 bd 2a 70 2a 3d 8e 66 81 3c
       -0.012833189 -0.037018776 0.041610874 0.015795972
000150 12 53 a7 bc f5 fe 06 bd 26 f8 41 bd 79 16 5f bd
       -0.020425353 -0.03295799 -0.047355793 -0.05446479
000160 b3 7e 79 3c 77 bb 94 3c 8d d9 de 3c 27 9b b4 3a
       0.015227961 0.018155796 0.027203346 0.0013779149
000170 b3 3f ec bc 0e 39 74 bd 23 75 46 3d 0e e6 8b 39
       -0.028838968 -0.059624724 0.048451554 0.0002668355
000180 d1 be b3 bc 99 b7 1d bd 73 ab 4c bd 87 1c 98 3c
       -0.021941574 -0.03850517 -0.049968194 0.01856829
000190 63 6b 5a bd 38 fe 77 bd 27 6e e0 bc 6b de 12 bd
       -0.05332507 -0.060545176 -0.027396275 -0.035856646
0001a0 aa 74 aa 3c b9 2d 80 bd a3 72 09 3d b1 a4 3e bd
       0.020807583 -0.06258721 0.03355659 -0.04654378
0001b0 21 24 93 3d 57 c2 13 b9 68 33 36 3b 6e ea ca 3c
       0.071846254 -0.0001409141 0.0027801637 0.024769988
0001c0 eb 3c 15 bd 9b e1 0c 3d d3 45 5d bd 5f bd 02 3d
       -0.03643505 0.03439484 -0.054021668 0.03191888
0001d0 7b df 49 bd a4 0e 60 3d 88 43 d9 bc fb 99 4d 3d
       -0.049285393 0.054701462 -0.02652146 0.050195675
0001e0 bd 59 24 bd 83 18 15 3c da ea f9 bc f6 e1 0b 3d
       -0.040124644 0.009100082 -0.030507494 0.03415104
0001f0 03 0c 8b 3d 39 65 69 bd 31 b3 bb bc ff 1a 9e 3c
       0.067894004 -0.0569813 -0.022912594 0.019299982
000200 73 fe f5 3c 17 52 2c bb 57 01 e7 bb 5f 53 98 bd
       0.030028557 -0.0026294047 -0.0070497203 -0.07437777
000210 7e 6f 85 bb 5c 0f 04 bd 57 c0 94 3d d5 6d c8 3c
       -0.004072129 -0.03224121 0.072632484 0.024466434
000220 13 dc e7 bc 44 bb b2 3c 19 e3 89 bd 66 cc c0 bc
       -0.028303182 0.02181781 -0.067327686 -0.023534965
000230 e5 72 99 bc 34 10 0b bc c8 59 70 3a 1c ea d0 bc
       -0.018731544 -0.00848775 0.0009168652 -0.025502257
000240 ce cc e3 3b 8e 97 13 3d 9a d7 e5 bc 93 03 87 bd
       0.006951905 0.036033206 -0.028056908 -0.065924786
000250 54 1d 01 bd b5 25 11 bd 82 24 47 3d fa e7 ee 3c
       -0.03152211 -0.03543635 0.0486188 0.02916335
000260 ef 05 e2 3c c0 b0 e2 bc 14 ee 6c 3c dc c2 26 bc
       0.02759072 -0.027672172 0.014461059 -0.010178294
000270 69 cf 23 3d cb 63 0b 3d 2e da 93 bc 00 3f f8 3b
       0.039992724 0.034030717 -0.018048372 0.0075758696
000280 af a9 2a bd 11 9a 8e 3d 9e 44 b4 3c 98 51 a7 bc
       -0.04166573 0.069629796 0.022005375 -0.02042465
000290 17 a1 21 bd 60 2f 0c bc 9c 55 87 3c 7f 44 00 3d
       -0.039460268 -0.008556217 0.016520314 0.031315323
0002a0 20 7d 90 3c ab 40 83 bd 14 28 1e 3c 5e e5 4d 3c
       0.01763779 -0.06408819 0.00965311 0.012566892
0002b0 42 d4 7b bd 4d 25 89 bc c4 b1 d7 3c 12 d6 01 bd
       -0.06148172 -0.01674142 0.026329882 -0.031698294
0002c0 de 89 04 bd fb a3 8c bd d7 bb 00 bd 22 c5 55 3d
       -0.032358043 -0.06867214 -0.031429138 0.052189954
0002d0 61 f9 65 3d 73 e5 13 3d 59 06 43 3c fe ba 2b bc
       0.05614603 0.03610749 0.011903369 -0.010481594
0002e0 09 c5 d2 3c 5d 49 e0 3c 4e d1 8d bc a1 6d 23 3d
       0.02572872 0.027378732 -0.017311718 0.039899472
0002f0 91 b4 fc 3c 05 85 55 bd 2d ee 6d bd b9 5a 80 bb
       0.03084782 -0.05212881 -0.05808847 -0.003917065
000300 e2 52 da bc a8 bf 0a bd 46 ee cc bc 71 91 09 bd
       -0.02665085 -0.033874184 -0.025015961 -0.03358597
000310 cf e5 4b 3d fe 69 37 3c f4 fc 39 bc 35 52 54 bc
       0.04977971 0.011194704 -0.011351813 -0.012959053
000320 82 eb 11 bc 48 48 0f bd b5 eb 21 3d 0c bb f0 3c
       -0.008906247 -0.034981042 0.03953143 0.029386066
000330 e7 f6 b6 bc ae f3 7e 3d 3e 92 21 3d 99 87 37 bd
       -0.02233453 0.06224411 0.039446108 -0.04480705
000340 61 df 03 bd ab 2a c0 bc 76 4e 01 3d 16 5a 8f 3d
       -0.032195453 -0.023457846 0.031568967 0.069996044
000350 38 5d 15 bd 60 c4 40 3d fd e4 da 3c fe 2d c0 bc
       -0.036465853 0.047062278 0.026720518 -0.02345943
000360 67 66 22 3d 7e 4b d6 bc ab 71 24 bd b8 90 0f bd
       0.03964844 -0.026159044 -0.040147465 -0.035050124
000370 b8 6a 48 3a de 2c 42 3c 7f 30 db 3a b6 03 77 bb
       0.0007645297 0.0118515175 0.0016722827 -0.003769142
000380 d9 ab 46 bd 8b 01 97 bd f9 a0 7c 3d 70 8c 0a bc
       -0.04850373 -0.07373341 0.061676953 -0.0084563345
000390 b5 98 47 3d 98 26 b7 bc f6 fc ea bc 08 65 b5 bc
       0.048729617 -0.02235727 -0.028685074 -0.022142902
0003a0 fa a2 6e bb 92 ca 59 bd d2 5a 06 bd d5 00 51 bd
       -0.003641306 -0.0531717 -0.032801457 -0.051026184
0003b0 f9 ea 0c bc 74 b4 1b bc 7d 82 29 bc 1a ae 79 3c
       -0.008600944 -0.009503473 -0.010346052 0.015239263
0003c0 42 d0 82 3d df f5 40 bd e3 3a 3d 3d f6 22 e7 bc
       0.06387378 -0.04710948 0.046198737 -0.028214913
0003d0 1d ae 08 bd 81 da 4c bd 31 b8 09 3b e0 4a 80 ba
       -0.033369172 -0.05001307 0.0021014328 -0.000978794
0003e0 c5 ae 73 3c 39 0f 80 3c 86 96 5f 3d 19 05 20 bd
       0.014873211 0.015632259 0.05458691 -0.03906736
0003f0 8f 43 74 bd 25 fe af 3a 2a 09 55 bc 64 5b 5c bc
       -0.05963474 0.0013427181 -0.013002673 -0.013449524

bias f4 [128]
000000 0e 8f 1f bd 12 f2 58 bc a0 c5 a5 bc 84 67 62 3c
       -0.038954787 -0.013241308 -0.020235837 0.013818625
000010 ed 66 bf bc 7a 3f 27 bc f9 76 22 bd 7c 64 e7 3c
       -0.023364509 -0.010208005 -0.039664242 0.028246157
000020 b8 70 01 bd 71 df 67 bd b2 29 33 bd 6d b3 86 3c
       -0.031601638 -0.056609575 -0.043740936 0.016442979
000030 41 a7 3e bd 39 d2 8d bc 16 36 18 bc 14 90 58 3d
       -0.046546225 -0.017312156 -0.009290239 0.05287178
000040 d0 19 70 3d fc f3 0e bd 22 7b 97 3b 4d bf 8c 3c
       0.058618367 -0.03490065 0.004622833 0.017181063
000050 92 0f 26 bd dd 60 0d 3c 90 79 0a bd 7a db 81 bd
       -0.040542193 0.008629051 -0.033807337 -0.0634069
000060 51 94 22 3c e4 57 ae 3c 84 37 e7 3c d8 a8 97 3d
       0.009923057 0.021282144 0.028224714 0.07405251
000070 bb 6e 49 3d 02 16 39 bd 25 da 3b 3a 3b 3b cd bc
       0.049177866 -0.045187004 0.000716599 -0.025052657
000080 b7 28 57 bc 7e b3 2b 3d fd aa 31 3d 15 b9 f7 bc
       -0.013132266 0.041919224 0.043375958 -0.030239621
000090 76 0e 4f 3d e0 b8 43 3c 7d be c0 bc 2e 2f c3 bb
       0.0505509 0.011945933 -0.023528332 -0.005956552
0000a0 7f a6 8f 3d 53 73 56 bd 6c 40 d3 3b 60 f1 45 bb
       0.070141785 -0.052356075 0.0064468887 -0.0030203685
0000b0 74 06 8c 3d 2c 1f 23 3d 19 a5 30 bd 58 a6 08 bc
       0.06837168 0.03982465 -0.0431262 -0.008340441
0000c0 7c 16 4e 3b ba 3c 28 bd ae 83 84 3d bf 0e 95 3d
       0.0031446507 -0.04107354 0.064704284 0.07278203
0000d0 14 0a 28 3c c0 e2 d6 3c e6 7c cc 3a 3f 4a 16 3c
       0.010256309 0.02623117 0.0015601187 0.009172975
0000e0 18 2e c4 3a 51 12 27 bd 70 dc 88 3b 13 b0 e5 bc
       0.001496735 -0.040788952 0.004176669 -0.02803806
0000f0 8b f8 56 bc 49 6b 64 bc 7f 40 35 bd 8f 92 2c 3d
       -0.013120781 -0.013941594 -0.04425096 0.042131957
000100 9b 80 a3 3a 80 82 c3 bc 39 bc 2c bd 8e a0 a0 3c
       0.001247424 -0.023865938 -0.04217169 0.019607808
000110 87 87 c6 3c 07 bf 53 3d b7 03 d7 3c 92 54 a6 3c
       0.024234546 0.05169585 0.026246889 0.020303998
000120 e3 d4 51 bc 2c 35 fd bc a7 51 11 bd 1f 55 d4 bc
       -0.012807104 -0.030909143 -0.03547826 -0.025919495
000130 66 f3 b3 3c 65 59 3e 3d 9a fa da bc 51 6a 28 3d
       0.021966647 0.046471972 -0.026730824 0.041117016
000140 4f 3c 30 bd 47 9d f0 3c 82 18 39 bb 43 d5 90 3c
       -0.043026265 0.02937187 -0.0028243368 0.017679816
000150 a1 37 9d 3b b6 de 78 3d d8 21 c9 3c 26 1d 33 3d
       0.0047978912 0.06075927 0.02455227 0.04372897
000160 4b 65 eb bc 82 3b 3a 3d 7f c5 a5 bc ff 2c 86 3d
       -0.028734824 0.045466907 -0.020235775 0.06551551
000170 da d5 32 3c 4f 0d 37 3d 38 6f a5 bb b8 57 60 bd
       0.010915244 0.044690426 -0.0050486587 -0.054771155
000180 f6 b5 be bc b2 d6 f4 bb c3 88 31 bd 16 30 e5 3c
       -0.023280125 -0.0074718827 -0.043343317 0.02797703
000190 5e 2d b6 bb 56 b4 72 3d 1d fe b9 bb 2b 75 04 3c
       -0.0055596074 0.059254013 -0.0056760446 0.008084576
0001a0 fa 3d c2 bb e3 63 41 3d f7 f2 ab bb a6 71 ac 3d
       -0.0059277983 0.0472144 -0.0052474695 0.08420114
0001b0 72 fa d6 bc 1f 8d 31 3d be 86 66 3d 63 5c 2f 3d
       -0.026242469 0.043347474 0.056280844 0.042812716
0001c0 b7 69 70 b9 10 76 15 3c d2 93 9c 3c 8d 9d 3c 3d
       -0.00022927565 0.009122387 0.019113455 0.04604869
0001d0 44 4f 1b 3c 1e 19 14 bd 9f 15 52 bd 7d 16 67 bc
       0.009479348 -0.036156766 -0.05129015 -0.014104483
0001e0 21 49 8e 3d 86 58 f6 bc 15 1f e7 bc 1c a7 8a bc
       0.06947542 -0.030071508 -0.028213063 -0.016925387
0001f0 e1 59 ea 3a 8b 43 b2 3b f3 57 0d bd 9a 27 05 3c
       0.0017879569 0.0054401807 -0.034507703 0.0081271175

weight f4 [64, 128]
000000 1b 26 51 3d b5 a0 61 bd 68 8e 55 bd fa 9b a6 bd
       0.05106173 -0.055084903 -0.052137762 -0.08135219
000010 6f c4 a3 bd da 13 3f 3d d5 58 ec bd 6c 06 3a 3d
       -0.07996451 0.04664979 -0.11540381 0.04541628
000020 d4 02 bf be bd 02 bc bc be 57 a1 3c db 9c 30 3d
       -0.37306845 -0.022950524 0.019695159 0.04311834
000030 78 9e 9e 3a 9e b1 8a 3d 26 55 93 3d 76 b2 c2 3c
       0.0012101671 0.06772159 0.07193975 0.023766737
000040 cc 54 0c be 50 84 08 be 7e bf 7f 3d da 4f 27 bd
       -0.13704222 -0.13331723 0.06243848 -0.040847637
000050 5b 34 c1 bd 5d 25 85 bd 98 c1 5d bd 7a 18 a5 3e
       -0.09433814 -0.06501267 -0.054139704 0.32245237
000060 75 cc 6f 39 7b 0f 90 3d 97 6b ce 3c 3a f2 bc bc
       0.00022868982 0.07034203 0.025197787 -0.023064721
000070 5b e7 53 3c dc 62 91 3d 50 11 ea be 87 b3 1f 3d
       0.012933577 0.07098934 -0.45716333 0.03898957
000080 ac 36 de bd 0a c1 34 3d d6 f4 a9 3d 67 6d 2a 3c
       -0.108502716 0.04412941 0.08298652 0.01040206
000090 ff 2b c0 bd 93 83 22 3e 13 be ec bd f8 76 b0 bd
       -0.093833916 0.15870504 -0.11559691 -0.086164415
0000a0 b9 27 ca bc f5 76 e3 3c 7c ba 35 be 3c bd ed 3c
       -0.024677144 0.027766684 -0.1774692 0.029020898
0000b0 4f 3b 74 3d 51 c6 a3 3d 9c 1a 54 3e c0 f9 a0 3d
       0.059626874 0.0799681 0.20713276 0.07860136
0000c0 1f c3 ec bc 24 8b 25 be 4e 03 af 3b dc e5 ba 3d
       -0.028901635 -0.16166359 0.00534097 0.091258734
0000d0 d7 d8 99 3d dd 2f 9b bd 12 18 c3 3d 6d 58 8b bd
       0.07512062 -0.075774886 0.095260754 -0.06803975
0000e0 84 db e1 bd 08 1e 7e 3d c9 e2 82 bd 6e 03 92 3d
       -0.110281974 0.06204036 -0.06390912 0.071295604
0000f0 95 f4 08 3f b9 cf 70 bd 53 17 be bd 76 1c 93 bd
       0.534982 -0.05879185 -0.092817925 -0.07183163
000100 b4 4a 1d 3d ef 7e 07 bc 50 c5 98 bc 0c f1 88 be
       0.03840132 -0.008270009 -0.018648773 -0.26746404
000110 25 1e 2a 3c d4 8d 28 3d c1 04 bf ba dc bf bb 3d
       0.010383164 0.041150883 -0.001457356 0.09167454
000120 62 d6 94 bc 05 38 84 3c db 05 bb bd d7 e3 f5 3d
       -0.018168632 0.016139993 -0.09131976 0.120063476
000130 08 a5 d4 bc c1 b1 10 bc 2e 94 b2 bd 28 f6 c0 bc
       -0.0259576 -0.008831442 -0.08719669 -0.023554876
000140 bf 10 88 3d d0 09 02 be 86 b3 87 3d 2d 52 91 3d
       0.06643819 -0.12699056 0.06626038 0.07095752
000150 29 10 7f 3e 4e d5 87 be ff 0e 1d be 9f 25 de be
       0.24908508 -0.26529926 -0.15337752 -0.43388078
000160 bc 8d 9c bc 78 90 28 3d ad 3c 26 3d a5 ed 62 bd
       -0.019110553 0.0411534 0.04058521 -0.055402417
000170 68 18 73 3c d4 33 a9 3c 0e 63 ed bd c2 5d 00 be
       0.014837362 0.020654596 -0.11591159 -0.12535766
000180 94 43 4d 3d 51 46 2c 3d 0b e5 83 3d 00 5e 56 bb
       0.050113276 0.042059246 0.06440171 -0.0032709837
000190 d2 11 60 bd aa 2c 78 bd f2 49 e1 3d de c4 7c bd
       -0.054704495 -0.06058947 0.11000432 -0.061711185
0001a0 72 57 91 bc 7e 53 30 3d 38 cc ba 3d df e2 8b bd
       -0.017741892 0.043048374 0.09120983 -0.068303816
0001b0 61 b0 05 3b f5 6f 2e bd fa 33 05 3d a6 7a c4 bc
       0.002039932 -0.04258724 0.03252027 -0.023984265
0001c0 2e 5a 20 3f 24 bd 1c bd 47 dc e2 bd f8 19 20 bd
       0.62637603 -0.038266316 -0.11077171 -0.039087266
0001d0 04 e7 d0 3c e4 06 f2 3d bb 5c c3 bc 69 18 b4 bd
       0.025500782 0.118177205 -0.023847928 -0.08793718
0001e0 f8 49 9b 3d 03 19 fc 3b 61 39 18 3b ee 6d 6d bd
       0.07582468 0.0076934113 0.002322756 -0.057966165
0001f0 31 3d a4 3e df 32 38 3d c8 a0 b6 be eb c6 6e be
       0.32077935 0.04497039 -0.3566954 -0.23318069
000200 43 1b 0a 3c 6f ba cb 3b 84 9e c6 bd 56 ed 80 bd
       0.008429351 0.006217293 -0.09698203 -0.06295268
000210 da 36 d1 bd 4a c6 8e 3c 70 39 c1 3e 00 0e 89 3c
       -0.1021554 0.017428536 0.37739134 0.016730309
000220 0c 7a f6 3e 9b 9a ae bc 0d 45 b5 3c 84 52 4c bd
       0.4813999 -0.021313956 0.022127653 -0.04988338
000230 1d b8 5d be 29 f2 ab bc 5d dd 8c bd 79 44 00 bd
       -0.21652265 -0.020989494 -0.06878159 -0.0313153
000240 9d 94 97 3e 2d ea b3 bd 00 b0 b7 3d 5e 16 b1 bc
       0.2960557 -0.087849 0.08969116 -0.02161711
000250 49 cd 96 bb e2 e0 c8 bc 98 47 dd 3d 4a 6f 3a 3c
       -0.0046021086 -0.024521295 0.10804671 0.011379072
000260 ba 44 c1 3a 04 53 7f bc 03 d5 77 3d 1d 46 53 bc
       0.0014745214 -0.015583757 0.06050588 -0.012895134
000270 93 b9 4d bc a5 93 d9 bd 35 e6 4d 3e 56 67 93 bd
       -0.012556451 -0.10623864 0.20107348 -0.07197444
000280 54 74 93 3d 91 f3 0b 3d df 2d 72 bd 09 fa 15 bc
       0.07199922 0.03416783 -0.059125777 -0.009153851
000290 ef f5 99 3d ec db 4a 3d 74 eb 30 3b c3 bc 9b be
       0.07517611 0.04952614 0.002699581 -0.3041745
0002a0 76 3c 00 3e fc b2 ab 3d 42 b6 4e bd ef 3b 18 bd
       0.12523064 0.08383748 -0.050466783 -0.037166532
0002b0 bf f2 49 bd 7f ba c4 bd c2 96 53 3e c1 8a 22 be
       -0.049303766 -0.09605884 0.20662978 -0.15873243
0002c0 11 2f 5c 3e 45 1e 9e 3c 2c f5 2a 3d ad 65 07 3d
       0.2150233 0.019301543 0.04173772 0.03305595
0002d0 41 20 8d 3c 75 40 e8 3b 73 57 68 bc e1 cb 5d 3d
       0.017227294 0.007087762 -0.014181006 0.054149512
0002e0 0f 8e 21 3d 98 94 d8 bc 83 95 cf bc 70 4a ad bc
       0.03944212 -0.026438043 -0.025339847 -0.021153659
0002f0 43 3b 35 bd 8b d9 ea bb 3a f1 36 bd 74 da 61 be
       -0.04424597 -0.0071670464 -0.044663645 -0.2205599
000300 8e 0f df bc 27 d3 40 3d c5 7d 45 bd d2 61 78 3e
       -0.027229097 0.04707637 -0.048215646 0.24256065
000310 70 a9 af 3c d5 b5 42 3d b6 8b 86 bd 17 65 bf bd
       0.021443099 0.04753669 -0.065696165 -0.09345453
000320 fe 77 e9 3d 4c dc ae bc a3 56 82 bd 8d 9e 1f bd
       0.1139984 -0.02134528 -0.06364181 -0.038969565
000330 15 e0 33 be 6d 24 a2 bd 1e 9f ff bc d3 2a 6c 3d
       -0.1756595 -0.07917104 -0.031203803 0.057658028
000340 c9 a4 6d bc b6 72 06 be 53 c8 3d 3c c3 cb 06 be
       -0.01450462 -0.13129696 0.011583406 -0.13163666
000350 09 59 dc be 06 c0 28 be 68 a9 0c 3f f7 14 6c 3e
       -0.43036678 -0.16479501 0.54945993 0.23054872
000360 5d 3f 13 bd d8 26 62 3c e7 41 07 3d 94 0c 57 3c
       -0.0359491 0.013803206 0.033021834 0.013125557
000370 a1 ae 96 3d f8 8c 2e bd 9d 59 84 3d 53 12 66 3e
       0.073575266 -0.042614907 0.06462405 0.22467928
000380 e8 97 8a 3b 0b 7c 13 bf 56 6f f2 be 02 50 5a bd
       0.0042295344 -0.5761115 -0.47350568 -0.053298958
000390 82 a6 6d 3d bb 87 5c 3e e8 9e d9 3c d1 44 b6 3d
       0.058020122 0.21536152 0.02656503 0.088998444
0003a0 42 e3 ba bc 62 d5 4e bd f6 9a 6d bd 7e 45 be 3d
       -0.022813443 -0.050496466 -0.05800911 0.09290598
0003b0 b3 d9 29 bd 38 bd 80 3d 52 97 1e 3d a8 44 33 3c
       -0.04146738 0.062860906 0.03871853 0.010941662
0003c0 76 40 57 3e e0 59 7c 3c 4e 40 87 bc 3f 8d 91 bc
       0.21020684 0.015402287 -0.016510155 -0.017767547
0003d0 48 73 5f bb 3d 52 08 3d 64 7a d9 3d 6a 01 a9 3d
       -0.0034095813 0.033281554 0.10619047 0.08252223
0003e0 7f 70 a3 bc a3 11 c9 bd 14 61 15 3d dd 0e 41 bd
       -0.019951103 -0.09817817 0.036469534 -0.047133315
0003f0 92 63 db bc 35 47 92 3e 34 3e 53 3c 43 92 8b 3d
       -0.026780877 0.28569952 0.012893248 0.068150066

bias f4 [64]
000000 45 40 cc 3d 06 0e 0b 3d d9 7e bb bc 0e 9b 71 3d
       0.09973196 0.03394892 -0.022887634 0.058985762
000010 3d 9f 1f 3d 0e 82 93 bc a2 14 14 3d b4 c6 c7 3d
       0.03897022 -0.01800635 0.03615249 0.097546965
000020 3c 20 48 3d 63 92 dd bd 1f 94 3c 3d cc 54 b8 3d
       0.048858866 -0.10818937 0.046039697 0.09000549
000030 95 33 00 bd 84 e1 15 bd f2 63 9f 3c 50 45 34 3d
       -0.031299192 -0.03659202 0.019456837 0.044011414
000040 3d fc c6 3c 8c 67 72 bd 9e b3 5a 3d 95 a4 37 bd
       0.024290198 -0.05918078 0.053393953 -0.044834692
000050 b9 0b 43 bd c1 c5 cf bd 2b 00 af 3d c3 08 e6 3b
       -0.0476186 -0.101451404 0.08544954 0.0070200874
000060 dd 0b 93 bd 8d 1e 94 3b ce d3 ca 3c f1 78 7c 3d
       -0.07179997 0.0045202435 0.0247592 0.061638776
000070 ad 37 55 bd 51 99 ef 3c 8f b3 b0 bd b2 95 c6 bd
       -0.05205505 0.029247912 -0.08627998 -0.09696521
000080 b2 67 b1 bd 25 74 8d 3d 0f a0 d3 bd 2c 74 45 bc
       -0.086623564 0.069069184 -0.10333263 -0.012051623
000090 e0 07 eb 3d 3f e9 4a 3d 4d b5 5f bd 4e 1c 1c bd
       0.114761114 0.049538847 -0.05461626 -0.03811293
0000a0 d5 a6 00 bd 60 6d 94 bd dd 32 88 bc df 3c c6 3d
       -0.031409103 -0.07247424 -0.016625816 0.09679579
0000b0 fc 05 fb 3b b3 3a 5a bc 8c 17 3a 3d 85 5e fc b9
       0.0076606255 -0.013319659 0.045432612 -0.00048135608
0000c0 0a bb 7a bd df ba 4d bd 5c 63 eb 3c 28 8d c3 bc
       -0.06121353 -0.050227042 0.028733902 -0.02387102
0000d0 af c5 07 bd 1c 58 58 3c d3 fe ae bd 61 26 7c 3d
       -0.03314751 0.013204601 -0.085446976 0.06156004
0000e0 7e 25 05 bc 0b e4 78 bb c5 cb 51 bd d2 3d 7b 3d
       -0.008126615 -0.003797772 -0.05121972 0.061338253
0000f0 82 74 a7 bd de c2 85 3d c9 c4 bb 3c 36 ef e9 bd
       -0.08176519 0.065313086 0.022920983 -0.11422579

weight f4 [32, 64]
000000 83 31 b2 3d d0 3a 0f 3e 0b 21 27 3d 72 42 35 bd
       0.0870085 0.13987279 0.040802997 -0.04425282
000010 93 d3 8a 3d 2a a8 a8 bd 32 36 b1 3d 11 fb 88 3e
       0.06778636 -0.082352 0.08652915 0.26754048
000020 05 28 b5 3e 67 05 c3 bc c2 07 f5 bd af 7d 63 3d
       0.35382095 -0.023806287 -0.1196437 0.055539783
000030 dd 1f 08 bc 4d e1 32 3e 65 5c 00 be 10 1c 82 3d
       -0.008308378 0.17468758 -0.12535246 0.06353009
000040 87 ee aa bd 1c 11 19 be 9f 9b b9 3d 44 a4 26 3e
       -0.08346277 -0.14947933 0.090628855 0.162736
000050 08 e1 87 3d a6 6b 9c bc 33 e6 05 3e 19 a4 b8 3d
       0.06634718 -0.0190943 0.13076095 0.09015674
000060 a9 e5 22 bb 7c b0 46 bb 51 c3 03 3e fe bf 6b 3d
       -0.0024856126 -0.0030317595 0.12867476 0.057556145
000070 c4 a2 46 3d e2 47 16 bd 7b 43 92 bd b5 f8 93 3d
       0.04849507 -0.036689647 -0.07141777 0.072251715
000080 5a 33 3b 3c d4 6a 70 3e 2d 85 e1 bd 8b ba ce bc
       0.011425817 0.23478252 -0.110117294 -0.025235435
000090 fb 6e 88 3e 14 87 93 bd 57 76 03 3e 1b 08 04 3e
       0.2664717 -0.072034985 0.12838112 0.12893717
0000a0 e1 5f 9a bd 18 58 0f bd 9b ae ca 3d c3 96 6d 3e
       -0.07537819 -0.034996122 0.098965846 0.23202042
0000b0 85 4f 24 be f5 28 72 3e 03 0e 4b bd 6c de 0e 3b
       -0.1604596 0.23648436 -0.04957391 0.0021800054
0000c0 60 a7 00 bd ba 90 c9 bd 27 63 2d bd ba 0a 81 3d
       -0.03140962 -0.098420575 -0.042330887 0.06300874
0000d0 21 e4 e4 bd 31 99 1b 3e a5 ee a8 3c 2c 15 8d bd
       -0.11176325 0.15195157 0.020621607 -0.06888804
0000e0 94 57 59 bd 8e 25 7f bc fc f8 11 be 38 78 8f bd
       -0.053062037 -0.015572919 -0.14255136 -0.07005352
0000f0 6e e8 aa 3c 15 a1 c0 3d b8 ee 02 3e 85 94 32 bd
       0.020862784 0.09405724 0.12786376 -0.04359867
000100 48 65 01 3e 2d 00 ee bd 7d cc 04 bd 0d 5c 67 bd
       0.12636292 -0.11621127 -0.032421578 -0.05648427
000110 d0 07 e2 be 78 7c 18 3d a1 0f 9d 3d 22 10 f8 3d
       -0.44146585 0.037228078 0.076689966 0.12112452
000120 46 00 9f bd ac f5 d7 bb f5 0f 9c bc 3b ad 90 3c
       -0.07763724 -0.0065905657 -0.019050578 0.017660728
000130 fb 70 44 bc f1 2d 40 3e c0 6c 79 be cb b9 22 bc
       -0.011989827 0.18767525 -0.24357891 -0.009931992
000140 b7 0c 13 3e 51 78 ab bd 76 f1 0a 3d 5d 53 74 3e
       0.14360319 -0.08372558 0.03392168 0.23859926
000150 7c a5 4e 3d 84 bd 32 be 58 f1 d0 bb b5 a4 da bc
       0.050450787 -0.17455107 -0.0063764267 -0.026689867
000160 c5 56 ac bd 79 f1 b5 bd 30 bf b8 bd e9 20 38 be
       -0.084149875 -0.08883948 -0.09020841 -0.17981304
000170 3f 83 84 3e 97 00 8c be 8b 14 85 bd ca 1a c7 bd
       0.25881383 -0.273442 -0.06498059 -0.097219065
000180 6a 54 0c bf bc f6 af 3e 4d bd b4 bc c6 6f 96 bd
       -0.54816306 0.3436793 -0.022062922 -0.07345538
000190 6e 89 c2 bd 13 7b eb bd 6e 77 12 bd 93 bd 39 3d
       -0.09498869 -0.11498084 -0.03575843 0.045346808
0001a0 bd 46 56 bd a7 e5 74 3d 9f ec d0 3d 5c 82 0d be
       -0.052313555 0.059789326 0.10201382 -0.1381926
0001b0 91 87 74 3c ff ae cb bd c0 90 91 3d ea ae 22 3e
       0.0149249 -0.09945487 0.07107687 0.15887037
0001c0 b6 19 1e bc 5c 66 0c bc 46 f2 98 3e 3c 1d 4e bd
       -0.009649685 -0.008569326 0.2987234 -0.05032085
0001d0 31 b6 40 3e da 80 67 3e 4a 83 cc bd ce 3d 7b 3d
       0.188195 0.22607747 -0.09985979 0.06133824
0001e0 59 d1 ee 3d 15 55 d7 3c c1 13 66 bd a4 8e f3 3d
       0.11661024 0.026285687 -0.056171183 0.11892441
0001f0 61 53 0c 3e c3 dc 3a be 27 f4 c0 3d 1e ff 96 3d
       0.13703682 -0.18248276 0.09421568 0.073728785
000200 39 30 8d bd 19 68 7c 3d cb c0 c2 bd f2 08 bd 3d
       -0.06893963 0.061622713 -0.095094286 0.09230222
000210 33 f8 87 3d e1 a4 20 3e 06 73 bb 3d b6 74 82 3e
       0.06639137 0.15687896 0.09152798 0.25479668
000220 02 29 e2 3d 92 c7 83 3d 60 db af bd e7 e7 a0 3d
       0.11042978 0.064345494 -0.08586764 0.07856732
000230 a6 63 15 bd 37 d9 0f 3e 42 47 5b 3d 9a 81 bc bd
       -0.036471985 0.14047705 0.053534754 -0.09204407
000240 8c f2 08 3e 98 72 b3 bd a7 5f 39 3d a9 a6 6c 3a
       0.13373774 -0.087620914 0.045257237 0.000902752
000250 78 08 9d bb a2 1a 27 3d 5b db cf 3d f0 85 3a 3e
       -0.0047922693 0.040796883 0.101492606 0.18215156
000260 89 85 f2 3c 22 2f f3 bc 00 19 71 3d e8 b2 32 bd
       0.02960469 -0.02968556 0.058861732 -0.04362765
000270 ba f8 92 3a 1d c5 c2 3d 49 13 c6 bd 97 2a aa bd
       0.0011213042 0.095102526 -0.09671647 -0.083089046
000280 15 27 1e be 27 40 5c 3d 6f 06 20 3d f0 36 12 3e
       -0.15444596 0.053772118 0.039068636 0.1427877
000290 70 3d 2d 3e 8b c3 e2 3d 5f 0b 39 3d bd 8b 1f 3d
       0.16917968 0.11072453 0.04517686 0.038951624
0002a0 ef fb 01 3e 86 cd f4 bd 17 0e 17 bb 07 b6 48 3e
       0.12693761 -0.11953263 -0.002304917 0.19600688
0002b0 4d 37 d5 bd 73 6a 2a 3e 76 c5 0c be 25 08 a0 bd
       -0.104109384 0.1664217 -0.137472 -0.078140534
0002c0 ae e0 74 bd 58 4e 6c bd a3 d0 a8 3c 2f 7a 5e 3d
       -0.059784584 -0.057691902 0.020607298 0.054315742
0002d0 1e 30 35 3c 93 7c c0 3d 5d 92 c2 3d 25 7a 66 bd
       0.011058835 0.09398761 0.09500573 -0.05626883
0002e0 1b 47 02 bd 43 51 b6 3c e5 c7 83 bd ac e7 89 3d
       -0.031806093 0.022255545 -0.06434611 0.06733641
0002f0 52 00 b1 bd 5b bb 5e 3d b7 c8 17 3e 4b 32 87 3c
       -0.08642639 0.054377895 0.1482266 0.016503474
000300 98 64 15 bd 29 f9 a7 3d a5 ba b5 3e 5e 49 fa 3c
       -0.036472887 0.082018204 0.3549396 0.030552562
000310 9f 9c 0c bd cf f7 89 bd b9 a4 a1 3d c7 50 38 be
       -0.034329053 -0.06736719 0.078927465 -0.17999564
000320 2d 68 d6 bd 96 3b c7 3d 6b b6 21 be 1b 75 ca bd
       -0.10469089 0.09728162 -0.15792243 -0.09885617
000330 eb cf 04 3e 49 3b 38 bf 10 5c 1c 3d fb d9 35 be
       0.1296994 -0.7196546 0.038173735 -0.17758934
000340 60 10 64 bd 09 fa c4 3e 1d bd b4 3b f0 11 aa bd
       -0.05567968 0.38472012 0.005515708 -0.083042026
000350 1c 52 cd bc 66 b2 04 be 37 fe e5 3d 79 9c aa 3b
       -0.025063567 -0.12958679 0.11230128 0.0052066413
000360 80 49 8b bd da 4d b4 bd 6a 9c da bc ac ee 0c bc
       -0.068011284 -0.088039115 -0.026685912 -0.008601826
000370 a3 c6 c5 be be b5 89 be ea 38 34 bd 6f ed b1 bd
       -0.3862811 -0.2689647 -0.04399959 -0.08687865
000380 45 b1 8f bd 46 f2 cf be 6f ff ba bd 96 45 c5 bd
       -0.07016233 -0.40614527 -0.09130751 -0.09632413
000390 29 cd 97 bd db ef f1 3d 06 0e 70 3d 13 d3 fd bc
       -0.07412178 0.11813327 0.058607124 -0.030984437
0003a0 80 17 bc 3d b4 3b 01 be a7 60 38 bd d9 0b 90 3d
       0.0918417 -0.12620431 -0.04501405 0.0703351
0003b0 6f 56 ab bd d8 53 04 3e 43 f1 48 3d 62 53 36 3e
       -0.08366095 0.12922609 0.04905821 0.17805246
0003c0 78 1d 96 bd aa af 05 3e 50 5a 87 bd c5 66 f3 bd
       -0.073298395 0.13055292 -0.066090226 -0.11884836
0003d0 d6 83 20 3e 96 b0 34 bf ad e0 8b be ea 5b 06 3d
       0.15675291 -0.7058195 -0.27319852 0.0328025
0003e0 e8 2f 6f bd 2b f5 e2 bc 84 50 8a 3c e1 23 3f 3d
       -0.058395296 -0.027704796 0.016884096 0.046665076
0003f0 96 9e 67 3d 07 b4 e4 3e 17 5c be bd 9e 9b 95 3c
       0.056547724 0.446686 -0.092949085 0.01826268

bias f4 [32]
000000 ae 68 65 bd 81 60 91 3b 11 7e aa 3d 68 bb 46 3d
       -0.056008033 0.004436553 0.083248265 0.04851857
000010 b5 28 97 3c 52 53 b8 3c 37 b0 6b bd 9c 49 80 3d
       0.018452028 0.022500668 -0.0575411 0.0626404
000020 6e 9e c7 bd fc 30 37 bc 49 14 a1 3d a7 b4 36 bc
       -0.09747015 -0.011181112 0.07865197 -0.011151469
000030 68 ad 3b bd 17 36 b5 3d 4a 77 92 bd 64 4e 02 3d
       -0.04581967 0.088482074 -0.07151659 0.03181304
000040 ab 14 9d 3c 91 7b ab bd 7e 56 57 bd e5 5b 3a bd
       0.019174894 -0.08373178 -0.05257272 -0.045497794
000050 fe e9 28 3d 84 5b 39 3b 02 55 e3 bc e0 0b 90 bc
       0.041238777 0.0028283307 -0.027750496 -0.017583787
000060 a0 b4 ee bc a7 5a b5 3d ec 0e 26 3e a3 68 83 bd
       -0.029138863 0.08855181 0.1621663 -0.06416442
000070 2f 76 a0 bd fd bb 47 3d c4 6d 5d 3d 29 c7 6a bd
       -0.07835042 0.048763264 0.05405976 -0.05731884

weight f4 [1, 32]
000000 fe a7 d2 3e c3 39 b8 3e 19 af be 3e eb d7 b5 be
       0.41143793 0.3598157 0.37242964 -0.35516295
000010 3f 80 b3 be 6d 53 ae 3e 06 29 bc be b1 22 ae 3e
       -0.35058782 0.34048024 -0.36750048 0.34010842
000020 69 70 ce be fd d5 d6 be af f8 a5 be 70 94 ba be
       -0.40320137 -0.41960135 -0.32416293 -0.36441374
000030 7e 73 97 3e 4d 4b 9d 3e aa ad 93 3e 1f ee ba be
       0.295803 0.30721512 0.28843433 -0.36509797
000040 ca 4d b6 3e 76 9d 93 be 58 78 d2 be b9 85 bb 3e
       0.35606223 -0.2883107 -0.4110744 0.3662546
000050 49 d7 a2 be b6 e5 ab be 34 94 bc be 54 56 cf 3e
       -0.31804875 -0.33573693 -0.3683182 0.4049555
000060 bd b1 ad 3e 68 80 cc be ce 38 95 3e a6 6f e8 be
       0.33924666 -0.39941716 0.291449 -0.4539768
000070 ad 57 c9 be 34 a0 da 3e 0a a3 b4 3e 00 00 bc 3e
       -0.39324704 0.4270035 0.3528064 0.3671875
