Models/Multi_model_10.pth (torch, 189658 bytes, 9 tensors)

weight f4 [256, 10]
000000 ab a4 ed 3d d1 73 5d be e5 41 0a be 90 af ee 3d
       0.116036735 -0.21626212 -0.135017 0.1165458
000010 71 93 9c be 2e 3d 2d 3d 5c 35 6d 3d d1 21 bc 3c
       -0.3058124 0.042294674 0.057912216 0.022965344
000020 46 48 e3 be e9 ad d5 bd 51 fe 90 be 84 4b 06 be
       -0.44391078 -0.10433561 -0.28319028 -0.13114744
000030 c4 5a 05 be 8c 18 55 bd 04 c8 8b be b8 5a f7 be
       -0.13022906 -0.052025363 -0.27301037 -0.483114
000040 ca bf 3b 3c 8e 66 ba bd 12 10 7f be ad 7d 94 bc
       0.0114593 -0.09101592 -0.24908474 -0.018126333
000050 ca 8c 05 bf bb b7 25 bd d6 52 15 3d e5 c2 ce 3e
       -0.5216795 -0.040458422 0.03645595 0.40383068
000060 bb 7e a9 be c7 e1 e2 3d 25 1c a4 3e 4b db 42 be
       -0.331045 0.1107822 0.32052723 -0.19028966
000070 e1 b6 87 3d 35 8e cc be 85 1e 66 3d 79 bf ab be
       0.06626678 -0.39952245 0.05618145 -0.3354452
000080 a1 16 ac bb f8 b6 e9 bc ff b8 c4 bd 6d 31 31 be
       -0.005251721 -0.02852963 -0.09605598 -0.1730401
000090 06 e4 b7 bd ca 92 b7 3d f4 12 ce 3e f9 b2 c1 3e
       -0.08979039 0.08963545 0.40248835 0.37831858
0000a0 72 b3 2c 3e 3c 9f ca 3d 77 c6 9f 3e a4 f2 d4 3d
       0.16865328 0.09893653 0.31206104 0.103978425
0000b0 3f b4 37 be 90 8e 88 bc 1a c5 13 be 98 eb 36 3e
       -0.17939852 -0.016669542 -0.14430657 0.1786331
0000c0 93 7e 94 3e 00 9e cf bb de 11 b1 3d 42 bb f3 bd
       0.29002818 -0.0063359737 0.08645986 -0.11900951
0000d0 24 47 eb bb e1 06 42 bd 11 d8 5e be 37 62 10 bd
       -0.0071801115 -0.04736984 -0.2176211 -0.035249915
0000e0 3a 4e e2 bd 86 66 94 3d 06 a0 23 3e ad 08 a8 3d
       -0.11050077 0.07246117 0.15979013 0.0820478
0000f0 82 fa d8 be dc 4e 85 be 79 b2 c5 3c be cd 26 3d
       -0.42378622 -0.26036727 0.024132954 0.040723555
000100 9d c8 34 3d 41 59 26 be 30 1a f7 3d 3a 9e 8a bd
       0.044136632 -0.16244985 0.12065542 -0.067684606
000110 a9 8c 00 be 2e 91 2f be ec 88 ae 3c 43 02 79 3c
       -0.12553658 -0.17145225 0.021305524 0.015198293
000120 13 69 36 3e 53 8e a7 3e d3 55 9a 3e 02 45 db bd
       0.1781352 0.32725772 0.30143604 -0.107065216
000130 8d 48 f4 bd cd ef 74 be f5 b4 0d 3e f1 7d c7 3c
       -0.119279005 -0.23919602 0.13838561 0.024352046
000140 98 e9 31 3e 7c e5 4d 3d e8 51 a5 3d 96 9a 1e bf
       0.17374265 0.05026768 0.08072263 -0.6195463
000150 fc 6a 4d 3e aa 9c 70 3e aa 96 66 3e 60 7c 92 3e
       0.20060343 0.23497263 0.22518411 0.28610516
000160 15 21 8d 3e 25 2d 8f 3e 33 e9 37 bd f2 49 87 3e
       0.27564302 0.2796413 -0.04490013 0.26423603
000170 aa d0 81 be a8 c4 91 3e 0e 35 ef 3b 45 1e 11 be
       -0.2535451 0.2847035 0.007300026 -0.14171703
000180 5b 8c 84 be ad 6e a0 3e 0b 2c 4f be 60 0e 87 be
       -0.25888333 0.3133444 -0.20231645 -0.26378155
000190 fe 29 64 3d 05 88 95 3e 19 97 85 be 7c ed 62 bc
       0.05570411 0.29205337 -0.2609184 -0.013850566
0001a0 54 8b 09 3e c6 eb d5 3d 67 1a 57 be ee 65 ac 3d
       0.13432056 0.10445361 -0.21006165 0.08417879
0001b0 69 57 87 be c4 c0 61 3e 7c ee 6f 3e eb 37 b8 3d
       -0.26433876 0.2204619 0.23430818 0.089950405
0001c0 b2 12 b9 bc 7f 7d c1 bd 89 37 35 be b2 9a 59 3e
       -0.022591922 -0.094477646 -0.17696966 0.21250418
0001d0 e1 7c e1 bd 55 bc 16 3e 1f 10 17 be 1a e5 bd 3e
       -0.11010147 0.1472028 -0.14752243 0.37088853
0001e0 67 99 98 bd 6b 66 7d 3e 19 8b 82 be 14 dd 99 be
       -0.07451134 0.247461 -0.25496748 -0.30051482
0001f0 21 65 77 be 37 6a ba 3d 83 b3 1f be f6 de 1e be
       -0.24159671 0.0910229 -0.15595822 -0.1551474
000200 f7 1c c8 ba fe 24 29 bd d9 0f 55 be 8c ab 32 3e
       -0.0015267421 -0.041295044 -0.20806827 0.17448252
000210 92 b9 50 3e 14 3b 81 3d 94 13 64 bd f2 85 09 bc
       0.2038329 0.063100964 -0.055682734 -0.008393751
000220 f9 99 be 3d 75 e0 b7 3e 95 df 84 3e 2c f4 dc 3e
       0.09306712 0.35913435 0.2595183 0.43155038
000230 b4 0b 23 be 0d 96 27 3e 8b 08 97 3e be fd 5c 3e
       -0.15922433 0.16365834 0.29498705 0.2158117
000240 a7 a3 8b be eb 8a 45 bd 55 1e 8c be d7 98 9e 3e
       -0.27273294 -0.048228186 -0.27366892 0.30975983
000250 b4 1c 87 3e 6a 3a 85 be 58 ef 9f 3e 5a 57 4c 3e
       0.26389086 -0.2602113 0.31237292 0.19955197
000260 42 4c 27 bd 9b 04 cc 3e ef f7 94 bd 24 fa 3c ba
       -0.04084421 0.39847264 -0.07273852 -0.0007208905
000270 0c c7 80 3e 30 96 a7 bb 12 9f 6a 3e 79 f2 f2 3e
       0.2515186 -0.0051143393 0.22912243 0.47450617
000280 a0 20 bd bd ac 34 59 be 34 08 97 be a0 1a 3f 3c
       -0.09234738 -0.21211499 -0.29498446 0.011664063
000290 e8 fa 12 3d 34 71 e3 bd a7 bf 80 3e 94 83 ca 3d
       0.035883814 -0.11105576 0.2514622 0.09888378
0002a0 d8 ea 1f 3d 32 08 53 be dd 25 61 be 8e 44 8a 3d
       0.039042324 -0.20608595 -0.219871 0.06751357
0002b0 b9 86 85 bd 00 12 95 bd 19 8b 91 3e 50 16 b1 3d
       -0.06519837 -0.07278824 0.28426436 0.08646834
0002c0 20 4e 6f 3f c3 7f 1c 3f c1 ca bc 3d e0 b2 3d 3f
       0.93478584 0.6113245 0.0921836 0.74101067
0002d0 42 17 b9 3e fa e7 0b be 2e c9 36 3e 1e 17 a0 bd
       0.36150557 -0.13662711 0.17850181 -0.07816909
0002e0 1b ba a1 3e a9 94 35 be 6c 5e 86 3e ad a0 1a bd
       0.315873 -0.1773249 0.26243913 -0.03775089
0002f0 5f e1 98 3e 7e 28 a7 3e c0 e2 94 bd 80 17 59 be
       0.29859444 0.3264808 -0.07269812 -0.21200371
000300 3c 62 51 be 01 53 71 3e 5c 1d 58 3e 58 5f 8d bb
       -0.2044763 0.2356682 0.2110495 -0.0043143444
000310 c9 bd 17 3d c2 b8 e3 bd 6b e7 ec bd 3c 4a 7f 3e
       0.037046228 -0.11119224 -0.11567577 0.24930662
000320 e6 20 14 3e 56 2c 9a be f4 88 9e be a8 ab 30 bd
       0.14465675 -0.3011195 -0.30963862 -0.043132454
000330 5e 8f 5a 3e e5 85 8f 3e fc 6d 90 be cd 6c 8f be
       0.21343753 0.2803184 -0.2820891 -0.28012696
000340 20 bf 95 3c 5d 5f 9a be a7 43 6c bf 09 d3 58 3f
       0.018279612 -0.3015088 -0.9229073 0.84697014
000350 9e f6 8a 3a 99 ec 84 bf 46 ba 69 be 3f 26 7d be
       0.0010602062 -1.0384704 -0.22824964 -0.24721621
000360 a3 06 10 3f fe 72 d1 3e da 6c 36 3f de 5b 47 3f
       0.56260127 0.40908045 0.71259844 0.77874553
000370 dd 2c e7 3e 4d ac ff 3c 3d d7 86 bd c8 ab 31 3f
       0.45151415 0.03121009 -0.06584022 0.6940274
000380 4b 05 50 3e 09 f5 94 3e 2e ca 8f be 26 9c b2 bd
       0.20314519 0.29093197 -0.28083938 -0.08721189
000390 58 71 d8 3e 9f 60 d2 3e fb 66 34 3f c2 29 81 bd
       0.42273974 0.4108934 0.70469636 -0.06306793
0003a0 f0 9f 24 bd e3 18 32 3f 43 71 89 3e b1 f0 5b 3e
       -0.04019159 0.69569224 0.26844224 0.21478535
0003b0 65 50 2e be 26 dc 07 bf 58 72 0f bf e8 0d f1 be
       -0.17022856 -0.53070295 -0.5603385 -0.47080922
0003c0 c9 fa c0 be 1d 7f 00 bd 9d eb 1b be c6 47 2a be
       -0.37691334 -0.031371225 -0.15226598 -0.16628942
0003d0 bc b8 bb be 3a d9 9f 3d ae fe f7 bd ce e2 71 3e
       -0.3666438 0.078051046 -0.12109123 0.23621675
0003e0 c0 76 64 3d b2 8d a5 3c 1e 0f 24 3f 1c a3 15 bd
       0.05577731 0.020209167 0.64085567 -0.036532506
0003f0 ab 61 cc ba 7b 5b 8c 3d bc ce d7 3e 5d 8d 5f bc
       -0.0015593072 0.06853386 0.42149913 -0.0136445435

bias f4 [256]
000000 67 bf a4 3d 78 97 c1 be a1 69 74 be fd 7d 57 3e
       0.080443196 -0.37810874 -0.23868419 0.21044154
000010 80 22 d0 bb b3 96 eb 3d 18 82 b1 3e 8f ca 82 3d
       -0.006351769 0.11503353 0.34669566 0.06386291
000020 0a 37 95 3e ad b7 12 be 00 94 db 3d d7 73 20 bc
       0.29143554 -0.14327879 0.10721588 -0.009793243
000030 65 02 75 bd 6e e2 69 3c 9e fc 97 3e 90 d0 73 3e
       -0.059816737 0.014275176 0.2968492 0.23810029
000040 c5 3b 8f 3e 27 f3 90 3e 01 ff bf bd ad 50 15 bd
       0.27975288 0.2831051 -0.0937481 -0.03645389
000050 ef 19 65 be 5a fd 6e 3f 08 7f eb 3e 2f a4 d3 bd
       -0.22373174 0.93355334 0.45995355 -0.1033405
000060 b0 35 60 3e 2f f8 08 bf e3 9f c6 be 7a ea f8 bd
       0.2189548 -0.535037 -0.3879386 -0.12154098
000070 11 73 9d be 92 77 05 bf 61 7b 6c 3f bb 0b f0 3d
       -0.3075185 -0.52135575 0.9237576 0.117209874
000080 7b d9 92 bd c7 56 23 be 90 91 76 bf 47 7a 58 bf
       -0.07170387 -0.15951072 -0.9631586 -0.8456158
000090 63 35 13 3f df 1f 9d 3e 8d 4d 07 3d 58 fe 33 be
       0.57503337 0.30688378 0.033032943 -0.17577493
0000a0 d6 42 81 bd c0 bd 00 3f 87 8e 56 be 5f d6 90 be
       -0.06311576 0.50289536 -0.20952807 -0.28288552
0000b0 d7 05 8c 3e a4 eb de 3e db 8b 34 be 5f 31 97 bd
       0.27348205 0.43539155 -0.17631476 -0.07382464
0000c0 a7 8b f4 be d9 bc b7 be 8b 77 03 3e 8e 88 40 be
       -0.47762796 -0.35886267 0.12838571 -0.18802091
0000d0 84 07 ec be c8 b8 d9 be 93 7f 1f bf 0e 99 a2 3e
       -0.46099484 -0.4252379 -0.6230404 0.31757396
0000e0 c4 38 87 bc be eb 5c 3d e4 5c ef be 3a aa df be
       -0.01650656 0.05393576 -0.46750557 -0.4368456
0000f0 23 58 20 bf 12 8a 11 3e 5f 95 ed 3e 26 e9 09 bf
       -0.62634486 0.14212826 0.46403024 -0.5387138
000100 6e 4b 98 3e 09 30 e1 3e c6 f6 4b 3e 2e 38 0a 3e
       0.29745048 0.4398196 0.19918355 0.13497993
000110 2a c4 58 3e 8b bd ea bd 11 9b a0 3e ec 71 44 bc
       0.2116858 -0.11461934 0.31368306 -0.011990052
000120 71 0f da be ea bd 3a 3d db 0e 43 be a0 f8 5b 3d
       -0.42589906 0.045591272 -0.19048636 0.053703904
000130 f9 34 a0 bd 43 07 39 bd 59 41 1d 3e 02 7d d1 3d
       -0.07822604 -0.04517294 0.1535696 0.102289215
000140 97 08 35 be b4 ff 86 3e 37 7c 05 be 2d 21 a0 bf
       -0.17679058 0.2636696 -0.13035665 -1.2510124
000150 cf 13 a7 3e e5 39 d1 3e 66 7b 2a be 71 93 11 bd
       0.326323 0.40864483 -0.16648635 -0.035541
000160 2b f5 cf 3d 90 b5 74 be e6 87 e2 3d ec d0 c3 bd
       0.10154184 -0.23897386 0.11061077 -0.09561333
000170 32 86 6a be cf 23 b3 3e 0b 5d e3 bd 99 6a a7 3d
       -0.22902754 0.34988257 -0.11101731 0.08174629
000180 25 b9 9e 3e 59 c5 c2 3e 21 21 2b be 9b e7 a0 3e
       0.3100063 0.3804119 -0.16711856 0.314267
000190 e7 b4 d6 3e 03 e9 1f be 61 c8 16 be 57 5a b9 3d
       0.41934893 -0.1561623 -0.14724876 0.09050434
0001a0 5a a0 8b be 41 11 fc 3d 8e 86 a9 bd 27 02 06 be
       -0.27270776 0.123079784 -0.082776174 -0.13086759
0001b0 93 c2 94 be 51 29 79 be 18 d2 b8 bd b8 f6 86 be
       -0.29054698 -0.24332167 -0.09024447 -0.26360106
0001c0 67 ee 9a be de c5 68 be a1 8d 3c bc e9 ff 3e bd
       -0.30260012 -0.2273173 -0.011508376 -0.046630774
0001d0 94 dd f6 3e 63 90 cd 3d 25 dd 2a 3e 79 8e 85 3e
       0.48215926 0.10037305 0.16685922 0.2608526
0001e0 40 46 07 3f ba 40 70 3e 75 2d 00 bf ee 02 a5 3c
       0.5284157 0.23462191 -0.5006936 0.020142999
0001f0 a0 31 2d 3e 3b c4 09 bf 5c d4 5b bc 78 bb 6e bd
       0.16913462 -0.5381505 -0.01341733 -0.058284253
000200 42 5c 71 be 00 8a fd 3b 74 98 27 3e bb f9 4f 3d
       -0.2357035 0.007737398 0.1636675 0.05077527
000210 7f 35 cc 3e e5 a1 42 bc 16 f5 db 3c d5 e2 1c be
       0.39884564 -0.011879419 0.026850265 -0.15320905
000220 81 76 02 be 15 53 73 3f 2c 3a 94 3e a3 88 d5 bd
       -0.12740518 0.9504865 0.28950632 -0.10426452
000230 12 f0 a1 3e 3a 98 73 3d 78 52 90 3f ff 61 e9 3e
       0.31628472 0.059471346 1.1275167 0.45582578
000240 02 f9 4b 3e 5a eb 1c be 97 d0 d6 3c b5 c9 88 3e
       0.19919208 -0.15324154 0.02622251 0.2671639
000250 d7 48 8e be b4 52 9d 3e 2e e8 8a be 29 c9 0e 3f
       -0.27789947 0.3072716 -0.27130264 0.55775696
000260 e9 cf 0c be b6 12 aa 3e a4 fb 07 3e c7 a2 95 be
       -0.13751186 0.332174 0.13279587 -0.29225752
000270 10 96 80 be a0 6d ae 3e 5f 99 00 3e ab ab 63 be
       -0.2511449 0.34068012 0.12558506 -0.22233455
000280 0e 72 47 3e fe bf c9 3d d5 44 fd be 20 aa c0 bd
       0.19477102 0.09851073 -0.49466577 -0.09407449
000290 cd 41 00 3e c8 be 5f bd 66 13 9e 3e 9f 12 eb be
       0.12525101 -0.054625303 0.30874175 -0.45912644
0002a0 5b 17 3f be 8c a3 4a be 7a ab 83 bd c9 65 bb be
       -0.18661253 -0.1978895 -0.06429191 -0.36601093
0002b0 07 1c 85 3e 44 e8 5c be a4 2c 49 3e 54 82 81 3e
       0.25997946 -0.21572977 0.19645935 0.25294745
0002c0 d3 a2 f5 3c 0c 84 89 3f 7b 7e 64 be 30 dd 55 3e
       0.029984867 1.0743423 -0.22313873 0.20885158
0002d0 97 d0 9f bf 53 f4 c8 bc 5a 7c 52 be 79 23 3c 3e
       -1.2485532 -0.024530565 -0.20555249 0.18372907
0002e0 5f 19 91 3e bc 2e bf bd 95 b3 ae be d6 4e 55 3b
       0.2833967 -0.09335086 -0.34121385 0.003254821
0002f0 9a 5a e6 3e d1 3a 08 be ba ee b6 be 40 a4 98 be
       0.44990999 -0.13303687 -0.3572901 -0.29812813
000300 a3 59 6e be 81 cf 7c be ab 32 8d 3e 13 7d a7 be
       -0.23276381 -0.24688531 0.2757772 -0.32712612
000310 0a e1 45 be 68 aa 3a bf 9a 69 64 bf ae 67 c3 be
       -0.19324127 -0.7291627 -0.89223635 -0.3816504
000320 bf 60 cf 3d 18 66 22 be bb 71 f1 3e 23 ba ad 3e
       0.10125875 -0.15859258 0.47157082 0.33931074
000330 81 f0 04 be 5f 71 84 be c9 28 35 3e da 44 af 3d
       -0.1298237 -0.25867745 0.1769134 0.08558054
000340 ea 1b 9d 3e 6c f4 e8 3d f2 1b 9e 3d 00 fd f7 3c
       0.3068536 0.11374745 0.07720174 0.030272007
000350 73 e6 90 3e e4 bf 75 be e1 85 0f 3e 27 98 91 be
       0.2830082 -0.23998982 0.14015914 -0.28436396
000360 36 67 b9 be d0 85 f3 bd 23 e8 ad bc f8 9b 0f bf
       -0.36211556 -0.11890757 -0.021228855 -0.56097364
000370 8d 9f 15 3f cb 9c a6 be 1e e4 0f 3e 91 e2 d5 3d
       0.5844658 -0.325415 0.14051864 0.10443605
000380 c9 f9 7f be a9 c0 b7 3d 51 32 71 be b3 c5 25 bf
       -0.24997629 0.08972294 -0.2355435 -0.6475479
000390 7c 7a 75 3e d7 f3 48 3e 40 3f 09 3c f2 1f 17 3e
       0.23972505 0.19624268 0.008376896 0.1475828
0003a0 8b 46 f1 3e 19 7a fe be 18 4f 91 be 71 34 90 3e
       0.47124133 -0.49702528 -0.28380656 0.2816501
0003b0 cc 11 f2 3d 3f 4d 73 be 52 83 bc 3a 9c 80 32 be
       0.11819801 -0.23759936 0.0014382398 -0.17431873
0003c0 f1 39 bb be 49 c4 44 bf 75 d6 0e be 8d 0d b1 3f
       -0.36567643 -0.7686201 -0.13948996 1.383226
0003d0 80 b2 8c 3c 0e a0 91 be a7 c2 3e be d0 30 19 3e
       0.01717496 -0.28442425 -0.18628941 0.14960027
0003e0 e1 c6 a0 be 47 49 e9 bc fc b2 b1 bd b4 b6 8d bd
       -0.31401733 -0.028477324 -0.08676717 -0.069196135
0003f0 4e 1a 35 3e 7f c1 94 bd 43 27 94 3d 38 9f 0a be
       0.17685816 -0.07263469 0.07234051 -0.135373

weight f4 [128, 256]
000000 94 23 a6 bc 87 b1 06 3d 0a 25 be bd a2 8e ec bb
       -0.020280637 0.032884147 -0.092844084 -0.0072191516
000010 56 f1 24 bc 91 bb d6 3d af 62 36 3d a8 4f 39 3d
       -0.010067305 0.10484994 0.044527706 0.04524198
000020 15 48 f8 bc 10 4c 18 bd 2e 51 19 bd fc 27 2f bc
       -0.030307809 -0.037181914 -0.037430935 -0.010690685
000030 b5 23 93 3c fc ec 5b bd b0 48 f4 3c a8 f1 e6 3c
       0.017961362 -0.053692803 0.029819816 0.028191403
000040 36 43 0c bd 5f 44 8d 3d 83 b7 fb 3c 6f 94 cb bc
       -0.034243785 0.068978064 0.030727154 -0.024851052
000050 db d9 81 3d bd cc 11 3e 13 12 d9 bc 12 63 8c bd
       0.06340381 0.14238258 -0.026497876 -0.06854834
000060 8c 35 52 3d 4a 37 6a be 0d 86 db 3d 5a 16 be bc
       0.051320598 -0.22872654 0.107189275 -0.023204017
000070 bf 3a f5 bb 73 6b a6 bd e5 7c 77 3e c2 9e 2e 3d
       -0.0074838097 -0.08125963 0.24168737 0.042631872
000080 fc 8b 1d 3d 37 01 ba 3c 16 cf 07 be 05 1c 73 be
       0.038463578 0.022705657 -0.13262591 -0.23741157
000090 5d fe a2 39 9d 97 34 3e 14 7f ad bb 2a f9 6a bd
       0.00031088563 0.17635961 -0.00529469 -0.057366528
0000a0 cc f6 2c 3d bd 31 37 3e db f4 af bc 75 5d 93 3a
       0.04222755 0.17890067 -0.02147906 0.0011243062
0000b0 dc 86 b2 bc 53 61 37 3c 01 56 44 3c 54 28 4c 3d
       -0.021792822 0.0111926375 0.011983396 0.049843147
0000c0 94 53 ad ba ad be 4f 3b 74 be 2a bd c8 ee 71 bd
       -0.0013223761 0.0031699345 -0.041685537 -0.05906561
0000d0 91 4d 0a bd 65 bb 00 bd 52 93 1e bd d1 59 0a bd
       -0.03376538 -0.031428713 -0.038714714 -0.03377706
0000e0 40 75 06 bd eb e9 1a 3a e1 4a 9c bc ef 6c 38 bd
       -0.032826662 0.000590949 -0.019078674 -0.045025762
0000f0 11 11 81 be b7 d5 99 bc c7 72 2f 3e 4c 25 32 3d
       -0.25208333 -0.018778665 0.17133628 0.0434926
000100 3d dd 8a 3c a8 a7 cf bb ce 22 5a bd cc fb 6b 3d
       0.016951198 -0.006337125 -0.05325585 0.05761318
000110 72 d1 37 bd 79 81 b9 bc c9 b3 29 bd e9 94 7f 3a
       -0.044877477 -0.022644745 -0.041431222 0.00097496674
000120 bf 6a c9 bd fe 30 19 bd 8c dd 09 3c fa 2c b4 3d
       -0.09834813 -0.03740024 0.008414637 0.08797641
000130 13 a3 23 be 65 78 ed bd a8 70 2c bc ca a2 22 3e
       -0.15980177 -0.11595229 -0.010524906 0.15882412
000140 b4 76 61 3d b1 ad e0 3c 7e aa d8 3c 28 98 63 be
       0.055044845 0.027426573 0.026448485 -0.22226012
000150 44 8f 94 bd a1 03 2d 3d 5d 8e 4b be 67 93 7a 3b
       -0.07253888 0.04223979 -0.19878526 0.0038234831
000160 c2 ef 36 bb 04 5e 60 3d 6f e0 5d bc e4 ea 5a 3d
       -0.0027913903 0.05477716 -0.013542279 0.053446665
000170 8d 46 63 bd a8 a8 04 3e 77 0a 0d bd 36 e1 9b 3c
       -0.055487204 0.12954962 -0.03443381 0.019028287
000180 03 29 81 bd ae 2c 12 bd cc 35 d8 bc a0 e1 ca bc
       -0.063066505 -0.03568714 -0.02639284 -0.02476579
000190 2a 4f 01 bd 38 eb 41 bd 23 e2 36 bd e0 97 79 3d
       -0.031569637 -0.047343463 -0.044649255 0.060935855
0001a0 c4 10 7e 3c 41 53 66 3c b6 4f 37 bd 97 e4 57 bd
       0.015506927 0.014057935 -0.044753753 -0.052708235
0001b0 89 03 58 bd 69 cc 9d 3c 9c 2d 56 3d 68 2d 11 3d
       -0.052737746 0.01926251 0.05228959 0.035443693
0001c0 27 20 a6 3d 71 50 e9 3c e4 9d 99 bb 7b b7 15 3d
       0.08111601 0.02848074 -0.0046880115 0.036551934
0001d0 25 35 4d 3e c4 b3 88 bc 6a 8e 23 bd e5 91 55 3d
       0.20039804 -0.016687281 -0.03993074 0.05214109
0001e0 ee e5 39 3e 67 73 e8 3c 3d 49 ac be ea ae 8e 3d
       0.18154117 0.02837534 -0.33649626 0.06966956
0001f0 fc 15 6f bc 86 8f 65 bd d1 f9 dc bd 8c 3b 58 3d
       -0.014592644 -0.056045078 -0.10789836 0.052791163
000200 1a 05 78 bc ec ba a3 3c ea b0 16 3d 37 5a 1e bd
       -0.015137935 0.019986592 0.036789812 -0.038660254
000210 8e 54 c0 3d 1e 7c 87 bc 57 02 58 bd 6e fc 38 bd
       0.093911275 -0.016538676 -0.052736606 -0.04516261
000220 fb b1 c0 bc 26 6a 68 3e 0c 5b db 3d ac 70 fe 3c
       -0.023522368 0.22696742 0.10710725 0.031059586
000230 0c 22 d1 bd 9e a3 1a 3d 67 89 3f 3e 3d ec 9c 3d
       -0.10211572 0.037753694 0.18704759 0.076622464
000240 58 20 ce 3c a8 85 8a bd 2e 14 a7 bd 3f 9d 47 bd
       0.025161907 -0.06763774 -0.08158146 -0.048733946
000250 d2 93 3c bd 53 df 4b 3d 5a b1 e4 3d 05 8b f5 3c
       -0.04603941 0.049773525 0.111666396 0.029973516
000260 0f db ff bc 7b 8e fa 3c d8 65 3c 3d 50 2f 14 bd
       -0.031232385 0.030585518 0.045995563 -0.036177933
000270 64 ce b5 3c bb d0 32 bd a7 7e 0d 3c 47 62 0a bc
       0.022193141 -0.043656092 0.008636153 -0.008446283
000280 52 dc 10 bd 32 3d 10 bd a1 4f 98 3c c8 e8 30 bd
       -0.035366364 -0.03521461 0.018592658 -0.043190747
000290 1b 46 0f be 92 a5 7c bd 32 0a fe bc f3 b2 73 3d
       -0.13991587 -0.061681338 -0.03101072 0.05949683
0002a0 41 48 b8 bd cb da 7e 3d 67 c7 dd bd a8 56 f8 bc
       -0.08998156 0.062220376 -0.108290486 -0.030314758
0002b0 33 de ae bb da f7 27 be b6 bf 40 3e 51 66 86 3d
       -0.005336547 -0.16403142 0.18823132 0.06562484
0002c0 6d 76 28 3d d3 03 59 3b 2f 17 cf 3b 60 21 ae bc
       0.041128565 0.0033113852 0.0063199024 -0.021256149
0002d0 95 e4 3e bd bd 10 a7 bd 14 df 8a 3c a2 fb 37 bb
       -0.04660471 -0.081574894 0.016952075 -0.0028073569
0002e0 a1 65 88 bc 63 8c 31 3d 03 27 20 3c 4e 29 11 be
       -0.016650023 0.043346774 0.009774926 -0.14175913
0002f0 33 51 f7 3c f2 3c 81 bd ed 59 a7 bb a2 3f 1f 3d
       0.030190086 -0.063104525 -0.0051071555 0.038879044
000300 81 d7 5d bd 81 1c 50 bd 24 38 c1 bc 36 1b 2f 3d
       -0.0541606 -0.050808433 -0.02358634 0.04275056
000310 71 e2 21 3d 48 87 5e be f9 3e 33 be 3b 4f 1c 3c
       0.039522592 -0.21731293 -0.17504491 0.009540374
000320 0d be 9e bd 24 70 97 3d 76 ed 83 3c ef 3f 9e 3a
       -0.07751093 0.07394436 0.016104441 0.0012073497
000330 a1 23 b6 bd a1 d4 00 bd 7c 17 37 3d 9a fe 82 bd
       -0.088935144 -0.03145278 0.04470013 -0.06396218
000340 23 c0 55 be 23 2f f3 bd 22 3b 79 bd 75 b3 68 bc
       -0.20874076 -0.11874225 -0.06084741 -0.014202942
000350 9b 43 43 3d 60 87 0d bd ad a2 9c bd e8 69 76 bd
       0.047671895 -0.03455293 -0.076482154 -0.060159594
000360 7c 8a a3 3a b3 58 de 3b 5d 5f 4a bd 5d ec 23 be
       0.0012477185 0.006785476 -0.04940735 -0.16008134
000370 28 11 2a bd 38 00 52 3c f1 e4 1f bd 86 35 28 bd
       -0.041520268 0.012817435 -0.039036695 -0.04106667
000380 8f 7f 27 3c f2 10 8e bd b0 cb 9f 3d 33 66 8d 3a
       0.010223283 -0.06936826 0.07802522 0.0010787904
000390 07 20 d8 bc b6 62 07 bd 5e 9f ba bc fb c8 7f 3d
       -0.02638246 -0.033053122 -0.02278107 0.06244753
0003a0 8e bd 0b bd 15 e1 7c bc cc aa bb 3c 62 07 f8 3a
       -0.03411632 -0.015434523 0.02290859 0.0018923099
0003b0 67 ec 0c bd a7 29 12 3c b6 60 73 b9 35 bf bf bc
       -0.03440514 0.0089210635 -0.00023210314 -0.023406604
0003c0 bf d4 af bd 76 57 a0 be 80 65 0b 3e da 83 1d bc
       -0.085855 -0.31316727 0.13612938 -0.009613955
0003d0 80 ce 6a bd ae 84 3c bd 29 b9 df bb 16 dd fb 3c
       -0.05732584 -0.04602497 -0.0068274927 0.03074507
0003e0 9b b4 17 3e 34 f9 19 be f2 c3 40 3d 70 b5 5c bc
       0.1481499 -0.1503647 0.047061868 -0.013470992
0003f0 89 82 54 bd de bf 82 3d 5d 72 48 3c d2 fd 82 bc
       -0.0518823 0.06384252 0.012234298 -0.015990172

bias f4 [128]
000000 4d b8 96 3c f1 30 c0 3c 48 1a 10 bd 27 1e 84 3d
       0.018398428 0.023460837 -0.035181314 0.064510636
000010 51 4c 99 3d 9f f7 c8 3c e3 e9 c3 3c 05 2c d1 b9
       0.07485259 0.024532137 0.023915237 -0.00039896384
000020 58 66 d9 bc 80 f7 5d bd 99 77 5e bd 80 79 75 bd
       -0.02653806 -0.054191113 -0.054313276 -0.059930325
000030 b3 b0 52 3d b6 48 91 3d 2f 95 2f bd fd d6 50 bc
       0.051438045 0.07093947 -0.042866882 -0.01274657
000040 6a 71 0d bd 79 12 f2 3c ae b4 3b 3d be 61 30 bc
       -0.03453199 0.029549824 0.045826606 -0.010765491
000050 21 7e 2f bd 26 5a 6d bc d9 49 93 3d 33 f2 32 3d
       -0.042844895 -0.014486825 0.0719182 0.04368801
000060 77 19 de 3c a8 59 28 bd 41 78 ce bc 07 96 64 bd
       0.027111752 -0.041101128 -0.025203826 -0.05580714
000070 b4 bf c0 3c 0c 0e 6c bc 47 02 a0 3c 02 20 b2 bc
       0.023528911 -0.014407646 0.019532336 -0.021743778
000080 b6 54 01 bd 0e 16 11 bd 7f bb 4b 3c 1c ba 74 3d
       -0.031574927 -0.035421424 0.012434839 0.0597478
000090 f6 7f d0 bc 0a 4d 7c 3d 7d ad 07 bd 0f 2b b0 bb
       -0.025451642 0.061596908 -0.033124436 -0.0053762267
0000a0 d9 ed fc 3c ad 89 14 bd 62 42 41 3c 27 20 a3 3c
       0.030875133 -0.03626411 0.011795612 0.019912792
0000b0 79 d5 0a 3d 44 70 67 bd 9d fd c4 3c 51 0c 03 bd
       0.03389499 -0.05650355 0.024046713 -0.031994168
0000c0 7c 80 bb bc 23 5e 6c 3d ba 4f 4a bd 5c 37 90 bd
       -0.022888415 0.057706963 -0.04939244 -0.07041809
0000d0 23 f0 ee 3c 5c 66 87 3d 86 b0 54 3c 2f e5 df 3c
       0.02916724 0.066113204 0.01298154 0.027330963
0000e0 c5 6f 62 bd f7 ff 41 bd d1 d6 6b 3c f7 11 66 bc
       -0.055282373 -0.047363248 0.014394478 -0.014042369
0000f0 e8 84 6b bd c0 38 6e 3d 54 72 98 3c a8 93 45 bd
       -0.057499796 0.05815959 0.018609203 -0.04823652
000100 e1 29 1d bd 6e 58 13 3d 67 ac 8b 3c 7a f8 0f 3d
       -0.038370017 0.035973005 0.017049981 0.035149075
000110 d5 18 14 bc 58 ed 5c 3d 82 4e b2 bc e1 3c 0a bd
       -0.009039124 0.053937286 -0.021765951 -0.033749465
000120 11 4b 12 3d 90 28 9b bd 52 ed ca bc ca 9e 09 bd
       0.03571612 -0.07576096 -0.024771366 -0.0335987
000130 2e 5f a7 3c 17 77 9f bd cf 54 89 bc fc 21 99 ba
       0.020431127 -0.077863865 -0.016764073 -0.0011683102
000140 4a 47 78 bd e0 e4 f1 3c 6f 49 1a bc 3e 45 64 bd
       -0.06061486 0.029528081 -0.009416922 -0.055730097
000150 1f fa a2 3d 58 35 d3 3c b6 93 93 3c dd 07 35 bd
       0.07957863 0.025782272 0.01801477 -0.044196952
000160 1e e4 84 3c 71 0d b2 bc d1 1e 71 3d 4a 8b 22 3d
       0.016222056 -0.021734925 0.05886728 0.039683618
000170 5e fb 13 3d d9 25 40 3c 9c 8a 0c 3c 8a f0 8e 3d
       0.036128394 0.011727774 0.008577969 0.06979473
000180 a9 91 9c 3c 8d 2b 48 3d 13 f5 d6 bc b4 d2 c4 3c
       0.019112425 0.04886966 -0.026239907 0.024026252
000190 e7 2f 70 bc 4e 08 a4 bb 0d 4e 8b bc eb 2c a2 3d
       -0.014659858 -0.005005873 -0.017004991 0.07918724
0001a0 3b e6 0d 3d b9 b3 26 bd 2b 6e 88 bd cc 7f 0e 3d
       0.034643393 -0.04069874 -0.06661638 0.034789845
0001b0 a7 8f 4f bc 5c 58 95 3b a3 64 47 bd a6 97 f4 bc
       -0.012668527 0.0045576524 -0.04867996 -0.029857468
0001c0 69 db 0f 3d 23 3a 56 3c c4 a7 63 3d 76 c4 1d bd
       0.035121355 0.013075384 0.055579916 -0.038517438
0001d0 d7 d5 59 bb cc 38 86 bd 40 f3 99 bd bc ae 52 bc
       -0.003323903 -0.06553802 -0.075170994 -0.012859043
0001e0 90 1e 31 3d e7 39 4e 3d 17 92 99 bc 43 d7 17 bd
       0.043242037 0.05034819 -0.018746419 -0.037070524
0001f0 47 54 7b bd 0b 94 85 3d 1a 8b 85 3d 8e 0f 8c 3d
       -0.06135967 0.065223776 0.06520672 0.06838904

weight f4 [64, 128]
000000 14 ae 6b 3c ee 02 18 3f 63 d2 cf bc 7d f2 92 3e
       0.014384765 0.5937947 -0.025368875 0.2870063
000010 e7 11 58 3c 6f 0e 97 3d 1b 3d 02 3e f8 5f c0 3d
       0.013187862 0.073758 0.12718622 0.093933046
000020 27 77 2c bd bd f6 f3 bd c1 cb 20 3b 16 cd a9 3c
       -0.04210582 -0.11912296 0.002453551 0.020727675
000030 0d 59 fc bb 30 c8 c8 3e 44 4b 55 3d d1 5b 98 3d
       -0.0077010454 0.3921523 0.052073732 0.074393876
000040 b4 50 36 3e 72 20 7b 3d 6e 0b a1 3d fa 08 02 3d
       0.17804223 0.06131024 0.07863508 0.031746842
000050 e0 6c a6 3c 7a 70 21 3d cb 8d da bb df fd 61 bd
       0.020315588 0.039413907 -0.006669735 -0.05517375
000060 05 d8 6c bd 72 61 cd be 3e cb 2a be a3 97 86 3d
       -0.0578232 -0.40113407 -0.16679093 0.06571891
000070 fe ed 72 3e 44 b6 30 be 55 d9 31 3b 9d dc 39 3d
       0.237236 -0.17257029 0.0027137597 0.04537641
000080 0e 03 28 3d 15 87 de 3e 78 be 9f 3d fd 37 37 bc
       0.04101854 0.43462434 0.07800001 -0.011182782
000090 08 bd f6 be ea 22 cd bd d2 5e 00 3d 42 64 34 3d
       -0.48191094 -0.10016425 0.031340428 0.044040926
0000a0 67 8c de be d6 e0 1c 3e f6 5a 85 3d 3e ee 2e 3d
       -0.43466493 0.15320143 0.0651149 0.042707674
0000b0 60 b7 a9 bd 2c 83 d0 3c a6 07 85 bd 34 47 f9 bd
       -0.08286929 0.025453173 -0.064955994 -0.12171784
0000c0 c0 ec 1a 3c c8 99 93 bd 16 3a fe 3d 1e 77 5d 3d
       0.00945586 -0.07207066 0.12413423 0.054068677
0000d0 5e ca 57 bc 3e 0c b8 bd 0a 39 3d 3d 47 f7 24 bc
       -0.013170807 -0.0898671 0.046196975 -0.010068721
0000e0 50 5b c6 3c aa 97 61 be 80 33 44 bd c8 46 d9 bd
       0.024213463 -0.22030511 -0.047900677 -0.106092036
0000f0 b7 11 b5 bd 4e f0 02 3d 9b c0 88 bc c9 e3 3a 3d
       -0.088412695 0.031967454 -0.016693404 0.04562739
000100 83 82 a4 3d 5d a3 51 bd fc f1 f2 3d b6 2e 9c 3d
       0.08032706 -0.051181186 0.11862561 0.07626097
000110 7d d7 21 3d 8e 40 eb bd 3c cc 75 bd fc e1 47 3e
       0.039512146 -0.11486922 -0.060009226 0.195198
000120 c6 df 42 bd 49 57 62 3d b1 1a b5 bd 1f fd 94 bd
       -0.04757669 0.055259023 -0.088429816 -0.072748415
000130 b7 c2 9c 3d 15 bf c5 3e 86 02 56 bd 41 31 04 3e
       0.076543264 0.38622347 -0.0522485 0.12909414
000140 50 03 d1 bc 7d 4a d5 3c 33 42 32 bd 22 c4 99 bd
       -0.025514275 0.026036495 -0.043520164 -0.075081125
000150 a2 a3 01 3d 55 7b 16 bf 38 0e 21 3d 76 90 6a 3e
       0.031650193 -0.5878194 0.0393202 0.2290667
000160 0f 53 34 bd 7f b5 24 3e 84 47 7e be 66 71 b0 3d
       -0.044024523 0.1608486 -0.24831969 0.08615379
000170 8f 7a 01 be cc 6d 83 bd e6 30 dd 3c ed c4 53 3d
       -0.12644409 -0.064174265 0.027000856 0.051701475
000180 8d 45 b0 38 d4 03 eb bd f4 ff f9 3c d6 ec 31 3e
       8.405289e-05 -0.114753395 0.030517556 0.17375502
000190 97 62 39 be 83 b2 29 3e 5e 3b 8f bd b9 91 51 be
       -0.18104015 0.16572003 -0.06993745 -0.20465745
0001a0 2b 5d 89 3c 29 01 5d 3a dd 72 16 bd 29 e7 0a bd
       0.016768059 0.0008430654 -0.036730636 -0.033911858
0001b0 4b 89 38 3e 82 45 a8 3d 6e a8 f1 3c e9 32 27 3d
       0.18021123 0.082163826 0.029499259 0.040820036
0001c0 59 af dc bc c1 7c 6d be 4b e9 e9 3d 4b 3d f0 bb
       -0.026939081 -0.23192121 0.1142145 -0.0073315254
0001d0 c6 e6 f4 bd bf a1 94 3e f9 3b 06 3d fd 97 24 be
       -0.11958079 0.29029652 0.032772038 -0.16073604
0001e0 42 c1 3b bd be 96 b1 be 98 66 ed be 1b ec a6 be
       -0.045838602 -0.3468532 -0.46367335 -0.3260201
0001f0 73 70 53 bd c2 a1 ca bc 39 8f 92 3d 3c ae c8 3d
       -0.05162091 -0.024735335 0.07156224 0.097988576
000200 49 ba bb bb d9 aa 8a bc e3 44 84 3c 79 de de bc
       -0.005728994 -0.01692717 0.016146129 -0.027205693
000210 fb 94 da 3d 7a 14 dc bd 38 2c 99 be f4 5a 08 be
       0.10672947 -0.10746093 -0.2991655 -0.13315946
000220 12 7e 40 3e c3 ff 9e bd de 3e 5e 3c 3c 95 93 bd
       0.18798092 -0.077636264 0.013564793 -0.072061986
000230 22 10 4a 3d 45 14 85 3e f7 99 ca ba 80 c6 b0 3a
       0.04933179 0.25992027 -0.0015457262 0.0013486892
000240 e2 79 ac 3d dc f7 3c bc b7 f0 15 bd 07 2b 90 bd
       0.08421685 -0.011533704 -0.036606517 -0.07039457
000250 7d 3f da 3d 73 58 9e bd 32 07 fa 3c 62 d4 a3 3d
       0.10656641 -0.07731714 0.03052101 0.07999493
000260 bc c1 db bd 85 75 1f be b1 41 46 bd 50 53 ba be
       -0.10730311 -0.15572174 -0.048402492 -0.36391687
000270 1f 90 ca bc 51 3d 7c 3e 6f ca 77 bd be c8 d4 bd
       -0.024726925 0.24632765 -0.06049579 -0.10389851
000280 a7 02 f4 3d 95 e2 08 be 07 66 d2 bd 78 4f 8e bc
       0.119145684 -0.13367684 -0.102733664 -0.017371878
000290 ac ff 06 bd 56 1b d0 3c 3c 3c 8b 3c 32 11 57 bd
       -0.03295867 0.02540366 0.016996495 -0.052506633
0002a0 f2 a8 28 3c e2 7f 17 bd ad 84 74 bd 21 05 a8 bb
       0.010294186 -0.036987193 -0.059696842 -0.0051275645
0002b0 d5 30 82 bc 50 df 77 bd f4 dc 8f 3c 55 cf 11 bd
       -0.015892426 -0.0605157 0.017561413 -0.035598118
0002c0 a7 aa 15 bd ea 61 89 3c 08 77 0e 3e 15 b0 c8 bc
       -0.0365397 0.016770322 0.13912594 -0.024498025
0002d0 9d 89 90 3d 2f e6 e3 3d 31 7f 4a bd 3e d6 0f 3d
       0.07057498 0.111278884 -0.049437705 0.035116427
0002e0 70 51 98 bc a0 10 49 bd 5c e8 58 3e a5 98 33 3d
       -0.01859352 -0.04908812 0.21182388 0.043846745
0002f0 1a f5 83 3d 00 0b 7c bd 62 47 32 3d 51 6a d7 bc
       0.06443234 -0.061533928 0.043525107 -0.026295813
000300 33 25 65 bd ea 38 70 bd a6 a9 fe bc b3 40 74 3c
       -0.05594368 -0.058648027 -0.031086754 0.014908004
000310 c5 0a f9 bd 33 0c 80 bd 00 a3 6e 3e 58 b5 be be
       -0.12160257 -0.06252327 0.23304367 -0.3724773
000320 d1 ec 6c 3d 1a ef af 3c a2 b0 a8 3d b2 9c 24 bd
       0.057843033 0.021476317 0.08236815 -0.0401885
000330 55 a3 d9 3c c3 9d 17 be 77 f7 f9 be 48 63 e9 3d
       0.02656714 -0.14806275 -0.48821613 0.113958895
000340 72 dd f0 3c f6 13 98 3b a4 c5 9f bd 88 0c c3 3c
       0.029402468 0.0046410514 -0.07801369 0.023809686
000350 dc f9 c7 bc 5c 11 3b be 16 c7 b8 3d d2 a4 5c be
       -0.024411134 -0.18268341 0.09022348 -0.21547249
000360 d2 51 91 3d a2 ca 9f 3d 1d ff 23 3e 3d 55 ca bc
       0.07095684 0.07802321 0.16015287 -0.024698848
000370 57 84 0f 3d ec 44 eb bd c7 24 40 3d 80 33 8b 3d
       0.03503832 -0.11487755 0.046910074 0.06796932
000380 85 5d 1e bd c6 4f 06 3e e6 40 b5 3d ef 13 1c be
       -0.038663406 0.13116369 0.08850269 -0.15241979
000390 bd aa 2e bd 9d e8 86 3d 15 82 76 bd 97 e6 97 3e
       -0.042643297 0.06587336 -0.06018265 0.29668114
0003a0 d3 7d 40 3c af 70 51 be 68 99 ea bc 30 06 76 3e
       0.011748749 -0.20453142 -0.028637603 0.24025798
0003b0 f6 92 9d bc 64 cf 8b bd 5f d3 1d be dd a2 01 3d
       -0.019235115 -0.06826666 -0.15412663 0.03164946
0003c0 88 f9 0c 3e 8c 2b 35 3e da bb 46 3d 21 87 01 bd
       0.13767064 0.17692393 0.048518993 -0.03162301
0003d0 40 f4 c8 3d 2e 6d 71 be 86 a8 81 be 19 9d 87 bd
       0.09812212 -0.23576805 -0.25323886 -0.06621761
0003e0 0e cd c9 3e e7 df a7 3d 09 7a 0c 3e 41 23 fc 3e
       0.39414257 0.08197003 0.13718428 0.49245647
0003f0 0e 88 23 bb 8a d4 82 bd 5d eb 16 3d fb d2 dd 3d
       -0.002495292 -0.06388195 0.036845554 0.10831257

bias f4 [64]
000000 21 56 1a bc 92 d5 44 bd cb 48 55 3d 1e d8 3e 3d
       -0.009419949 -0.04805524 0.052071374 0.046592824
000010 7d 71 dc 3d 0c ff bd bb 25 4e 84 bd 3a e8 3e 3d
       0.10763834 -0.005798226 -0.064602174 0.046608187
000020 05 3c e3 3d c1 1c 92 bb 0b aa 2e 3c 56 f1 90 bd
       0.11095432 -0.004458994 0.010660659 -0.07077281
000030 d4 38 f9 3a d2 e3 3b 3d 84 ca 31 bd 80 0a 2e 3d
       0.0019014128 0.045871563 -0.043406025 0.042490482
000040 9c 02 92 3d 06 7f 85 3c 0e c0 68 3d 9d 37 b8 3d
       0.07129404 0.016295921 0.056823783 0.089949824
000050 b7 95 ac bb 9e f0 9f bc e7 76 9f 3d c8 64 78 ba
       -0.005266871 -0.019523915 0.07786351 -0.0009475467
000060 fe 9c 1d 3d fe 4b 9f 3c a2 0a 88 3c c1 3a 72 bc
       0.038479798 0.019445416 0.016606633 -0.014784516
000070 df f5 da bd ba 3d 2e 3d 1c ff 20 3d ac e2 23 3d
       -0.106914274 0.042539336 0.03930579 0.040011093
000080 e8 f9 3f bd 71 6c 55 3d da 24 84 bc d1 65 6d 3c
       -0.04686919 0.05210537 -0.016130853 0.014489607
000090 1b 8a 49 3d 96 12 51 3d 07 72 61 3d 5f 9c 3a bd
       0.049203973 0.051043116 0.055040386 -0.045559283
0000a0 78 a8 b0 3d 31 1e 3c 3c 34 ae ad bd 9f 14 f5 ba
       0.08625883 0.011481808 -0.08480492 -0.0018698162
0000b0 35 5f 3d bc 25 56 ee bd df ca 3e bd 9b 07 f3 3d
       -0.011558344 -0.116375245 -0.04658019 0.11866685
0000c0 eb d6 14 bd b3 c5 06 bd 2b c9 68 bd 04 f6 aa bc
       -0.036337774 -0.032903384 -0.056832474 -0.020869263
0000d0 a6 e0 e9 bc c2 3a fb bc 93 5c 2e 3d ad 3c 7e bd
       -0.028549504 -0.030667666 0.042568754 -0.062069584
0000e0 6c a8 78 bd a3 d0 cd 3d 09 c5 50 bd 66 16 06 be
       -0.060707495 0.1004956 -0.050969157 -0.13094482
0000f0 6c b6 ed bc a5 e5 24 3b 4d b7 ca bd 88 1d 0f 3d
       -0.02901765 0.0025161293 -0.09898243 0.034940273

weight f4 [32, 64]
000000 28 29 62 3e 41 f1 0d be 82 b8 67 3d c4 55 30 bd
       0.22086012 -0.13861562 0.056572445 -0.043050542
000010 44 11 d8 3d d5 bd 59 3d 93 04 e2 bd b7 12 9a be
       0.10550168 0.053159554 -0.11036029 -0.30092403
000020 95 c0 88 bd 49 07 17 3e e6 30 26 3e 57 a6 38 3d
       -0.06677357 0.14748873 0.16229591 0.04508051
000030 39 65 c5 bd 91 29 5c bd bc 61 b7 bd 99 b1 04 3e
       -0.09638447 -0.05375058 -0.08954188 0.12958373
000040 44 3b de ba b3 04 e4 bc 64 57 a4 bd 9b dc 1d 3d
       -0.0016954918 -0.027834272 -0.08024481 0.038540464
000050 49 57 02 3e e4 8c 91 bd 84 20 e9 3c 7f 1e 85 bd
       0.12728609 -0.07106951 0.028457887 -0.06499957
000060 6e 02 c5 3d fc 38 70 bd 1f ee 74 be 9d fa 81 3d
       0.09619604 -0.058648095 -0.23918961 0.06346629
000070 3e 98 f2 bd fa e3 b0 3d 2a 6d 7b bd a7 43 9b 3d
       -0.11845444 0.08637233 -0.061383404 0.07581263
000080 92 f4 5d be ab 03 d5 3d 1d e8 a2 bc 35 c5 84 3d
       -0.21675327 0.1040109 -0.01988607 0.06482927
000090 44 1d 03 be ab b2 10 bd e8 8c d1 bc b3 7d 1f bd
       -0.12804133 -0.03532664 -0.025579885 -0.038938235
0000a0 40 c8 bc 3d 04 8b 6c bd f5 36 18 be 94 2b 36 be
       0.09217882 -0.057749763 -0.14864714 -0.17790061
0000b0 de 6c 69 3e 49 0f aa bc 77 2f c5 3d 15 af bc 3d
       0.22795436 -0.020759242 0.09628194 0.09213082
0000c0 89 4a af bd 6b f8 1c be 28 c1 5b 3e 0b aa 94 3d
       -0.08559138 -0.15329139 0.21460402 0.072589956
0000d0 eb 1d e5 be 6e 20 e2 bd 69 7e 75 bd fd 83 b0 3d
       -0.44749388 -0.11041342 -0.059935007 0.08618925
0000e0 66 f2 c8 bd a9 e3 57 3c 5a 84 ff 3d c2 de 6a 3b
       -0.09811859 0.013176837 0.12476416 0.003583834
0000f0 fc 58 e3 bd 45 ef ae 3d 56 8d 71 3d 68 85 91 3d
       -0.11100957 0.08541731 0.05897268 0.07105523
000100 29 ff 97 be 66 77 7b 3d 0b 0a 50 bc 60 17 c9 3d
       -0.2968686 0.061393164 -0.012697707 0.098189116
000110 b2 e4 50 bd 52 b7 2f 3d 7d 21 0b bd 23 e8 89 3e
       -0.05099935 0.042899437 -0.033967484 0.2693492
000120 fe c5 2f bc 78 1f 93 3d c0 83 08 3d 52 d4 2a 3c
       -0.010728357 0.071837366 0.03332877 0.010426598
000130 0a 75 30 3e 67 2d 37 bd 52 e4 3d 3e 9f ed d0 bc
       0.17232147 -0.044721033 0.18544129 -0.025503932
000140 7b ad 15 3e 74 3e 00 3e b8 60 cf bc 01 6a 56 bd
       0.14616959 0.12523824 -0.025314674 -0.052347187
000150 99 ac 08 be 20 48 d9 3d 6a 45 35 be 04 17 13 3e
       -0.13347091 0.1060946 -0.1770226 0.14364249
000160 a1 fc d3 bd 30 f4 03 3e 33 a6 42 3e 82 99 af bc
       -0.103509195 0.12886119 0.19008712 -0.021435503
000170 73 2e a5 3d a1 9b 35 be 28 e8 e9 3c 40 39 95 bd
       0.080655 -0.17735149 0.028553084 -0.0728631
000180 7e f3 1b 3e e6 1b 3e be 7a f6 07 bd 67 a1 a9 bd
       0.15229604 -0.1856533 -0.033194043 -0.08282738
000190 93 7d f1 3d a2 e3 34 bd 27 89 57 bd 72 60 c6 bd
       0.117915295 -0.0441624 -0.052621033 -0.09686364
0001a0 eb e8 b6 3d f5 47 61 3d fc 15 b5 3d bf 4a c8 3d
       0.08931144 0.055000264 0.08842084 0.09779882
0001b0 d1 d4 39 be 10 5c 3a 3e d0 e2 90 bd 61 5b 32 bc
       -0.1814759 0.18199182 -0.07074511 -0.010886044
0001c0 db 63 8d 3d cd 69 d6 3d c5 5c b1 be 60 98 17 be
       0.069038115 0.10469399 -0.3464109 -0.1480422
0001d0 36 87 0c 3f 53 4e 9f 3d 02 67 39 bc ef 35 83 be
       0.54893816 0.07778611 -0.011316063 -0.25627086
0001e0 bc 28 02 3e 67 28 0f be 6a 25 71 be 0d ac 7b bd
       0.12710851 -0.13980256 -0.23549429 -0.061443377
0001f0 57 4c 51 bd 19 76 78 3d 6c f7 02 3e 94 03 63 bc
       -0.051098194 0.0606595 0.12789696 -0.013855834
000200 76 ba 26 3d ea 0e 8f 3d 28 cd 45 bd a6 3f 0e be
       0.040705167 0.069852665 -0.048291355 -0.13891467
000210 b9 4a 07 3e 3a d6 2e bc 17 bd 05 be 12 7a ce bc
       0.13212098 -0.010671193 -0.13060413 -0.025204692
000220 89 d6 ef 3d 1b e6 68 bd 3d 6a 4a bd be a6 12 3e
       0.11710841 -0.05686007 -0.049417723 0.1432142
000230 aa 26 5e bb ac 37 88 bd 99 d3 a4 bd d3 ad a9 3d
       -0.0033897557 -0.066512436 -0.080481716 0.082851075
000240 9d 44 9e bd d2 1a b3 bd 03 01 c5 bd 18 4b 10 3d
       -0.07727931 -0.0874535 -0.096193336 0.035227865
000250 ee 3a 14 3d 79 ce f6 bd fe c9 b1 3d 49 f7 1c be
       0.036189012 -0.120511 0.08681105 -0.15328707
000260 3f 31 6f bb 48 3e 94 bd 1b 66 2f be cb ca 33 3c
       -0.0036497859 -0.07238442 -0.17128794 0.010973643
000270 f2 f4 0e be af e9 38 3d 37 a1 6c 3d 09 3d 0e 3e
       -0.13960627 0.045144733 0.057770934 0.1389047
000280 f4 04 6c 3d d3 1d e5 3d e6 e0 20 3e a6 85 2a 3e
       0.05762191 0.11187329 0.15710792 0.16652545
000290 f2 b8 b4 3c a7 c5 ce bc da 35 f7 bc 56 16 c0 bc
       0.022060845 -0.025240732 -0.030177046 -0.02344815
0002a0 94 bd 87 3d c1 8b 72 3a 74 a1 d9 bd 58 ef 09 be
       0.06627956 0.00092523923 -0.10626498 -0.13470209
0002b0 55 ee b6 bd 49 db 46 3d 30 20 d6 3c 04 26 6f 3d
       -0.08932177 0.04854897 0.026138395 0.058385864
0002c0 ac 50 ef bd 1d 14 c0 bc f7 5f 69 3d 56 f1 12 3e
       -0.11685309 -0.02344709 0.056976285 0.14349875
0002d0 e9 72 e5 bd a2 8a a8 bd 94 a7 f9 3c 21 92 d0 3d
       -0.11203558 -0.08229567 0.030475415 0.10184122
0002e0 d3 2a a5 bd 78 b7 30 3e 32 b9 97 3d 9a c1 17 be
       -0.08064809 0.17257488 0.0740837 -0.14819947
0002f0 b0 32 23 3d cf a3 22 3e a5 9f e6 bd a5 c9 37 be
       0.03984326 0.158828 -0.112609185 -0.17948015
000300 e4 7c 02 be 36 c7 88 3d af 99 ea 3d b4 c0 cf 3c
       -0.12742954 0.066786215 0.11455094 0.025360443
000310 43 d4 45 bd 3c fb 76 3d f5 cb 62 3d cd 3f 3e 3e
       -0.04829813 0.06029819 0.05537029 0.18579026
000320 3a d2 b6 bd 56 8f 09 be 5f 61 b4 bd c4 d1 9d bd
       -0.08926816 -0.13433585 -0.088076346 -0.07706025
000330 fc 63 b5 3e 49 4c 0b ba 77 0a 75 bd 04 77 e1 bc
       0.35427845 -0.00053137966 -0.059824433 -0.027522571
000340 b2 e1 9e bc 32 df 3b bd bd 96 3a 3d 5d 38 92 3c
       -0.01939473 -0.045867153 0.04555391 0.017849142
000350 01 83 a5 bd c2 f0 b4 3d eb 76 a5 bd 00 59 d3 3d
       -0.08081628 0.088349834 -0.080793224 0.1031971
000360 80 0d e3 bd 04 0c ec 3d 28 01 8b 3e cf bd 96 bd
       -0.11086559 0.11525729 0.2714932 -0.07360422
000370 52 31 3d bd 67 af ca bd fd 58 33 3d 6f 7f 5f bd
       -0.046189614 -0.098967366 0.043786038 -0.05456489
000380 8d 03 95 3c bb 34 83 be e6 31 43 3d e6 a7 29 be
       0.01819017 -0.25626168 0.04765501 -0.16567954
000390 52 a9 dc 3d ec 4b 84 3d d9 8b 12 3c a3 44 0c bc
       0.10774483 0.064597934 0.008944475 -0.008561286
0003a0 14 b8 b9 bd d6 13 81 bd a3 2c b9 bd 7d d3 73 3d
       -0.09068313 -0.063026115 -0.09041717 0.059527863
0003b0 46 cc 8a 3d 7c 18 41 3e 17 a0 99 3c f6 c1 20 be
       0.06777243 0.18856996 0.018753095 -0.1569899
0003c0 c3 46 16 3e ee 8d 3a 3e f9 c5 3e be 03 b1 2e bd
       0.14675431 0.18218204 -0.18630208 -0.04264928
0003d0 c8 14 03 3e 15 b6 63 3e a9 45 80 bc da 65 a5 be
       0.12800896 0.22237428 -0.015658217 -0.3230427
0003e0 09 42 89 3d 87 59 39 bd 35 2e b6 be ae 73 14 bd
       0.06702048 -0.045251396 -0.35582128 -0.036243133
0003f0 43 77 1a bc ce dc 47 bd 4e de 3a 3d ae d0 6d 3d
       -0.009427848 -0.04879456 0.045622163 0.05806034

bias f4 [32]
000000 d9 06 24 bd bb cb 29 be 90 f1 2d bd b6 33 56 bd
       -0.040045593 -0.16581623 -0.0424667 -0.05229541
000010 87 44 7b bc 43 40 b0 bd 19 b3 49 bd c5 3f 84 3d
       -0.015336162 -0.08606007 -0.049243066 0.064574756
000020 b7 bc 8a bc 10 7e 4b 3c f2 e2 b9 3d 3d b9 7f 3d
       -0.01693569 0.012420192 0.090764895 0.062432516
000030 ac ee 77 3d e8 ff 87 3d 3e 0f a0 bd dd 17 d4 bd
       0.06053035 0.06640607 -0.07815407 -0.10356114
000040 6f 55 b3 3d a6 26 af bd 40 92 2a 3d 1e 5a c9 bc
       0.087565295 -0.085522935 0.04164338 -0.024579104
000050 2a cf dc bd 28 e0 15 bd a5 71 f0 3c 79 36 8a 3c
       -0.10781701 -0.036590725 0.029351065 0.016871678
000060 df 4b ce bb ab f5 ad 3d cd 88 e5 bd dd cb 03 3d
       -0.0062956656 0.08494123 -0.11207733 0.03217684
000070 e0 a2 a5 3d e0 d6 5a 3d 31 33 8a bc c1 c7 c8 3c
       0.080877066 0.053427577 -0.016870113 0.024509313

weight f4 [1, 32]
000000 0f 10 e7 3e 27 0b be be 71 96 d1 3e af 69 c6 be
       0.4512944 -0.37117884 0.4093509 -0.38752505
000010 70 d5 d1 be 5e e5 b5 3e 05 c1 8e be 18 a2 9f 3e
       -0.40983152 0.35526556 -0.27881637 0.31178355
000020 95 9f e8 3e 65 8f 87 be ef 06 ca 3e 83 9b bc be
       0.4543425 -0.2647659 0.39458415 -0.36837396
000030 05 e4 b9 3e c9 5f ac 3e fa 60 b5 3e 43 6b b2 be
       0.36306778 0.33666828 0.3542555 -0.3484746
000040 78 c2 c2 3e dc 13 95 be d7 1e ab 3e 47 b1 a3 be
       0.38038993 -0.29116714 0.33421966 -0.3197119
000050 62 09 e0 be d3 39 d1 3e a5 1a bc 3e 3f b8 bc 3e
       -0.4375716 0.4086443 0.36739078 0.3685932
000060 f8 71 b8 3e f0 f0 a1 3e 5a de c0 3e a9 54 e6 be
       0.3602445 0.31629133 0.3766964 -0.44986466
000070 7b e1 c0 3e 50 bf b8 3e 4e 98 af 3e c5 cf d7 3e
       0.37672028 0.3608346 0.34295887 0.42150703
