Models/Multi_model_10.pth (torch, 279438 bytes, 5 tensors)

weight f4 [256, 10]
00000000: 0725 febe ee54 213e 3e78 13be b825 babd
00000010: daef 0f3d 3a3f e4be 4642 86be 9b20 1dbc
00000020: 2213 6fbd 5048 a0be 488c b8be 4790 bebe
00000030: c2d0 e0bd c8f8 e1be 2faf 40be 6402 afbe
00000040: 684a 01bd 30a2 fc3d 0ac4 b83e 0d74 24be
00000050: c2c1 65bd e056 cdbd a2a8 e1bd c1a2 273e
00000060: 385c 3abf f09c a2bd 30b1 a53e 4b4e 003e
00000070: 2f60 363e 06f9 dd3e 00ed 0abf 94c3 a6be
00000080: 7128 14be 3f8c 2abf 37ae f5bb 8c1e e0bd
00000090: 391f 1d3e 5923 393e d815 803e f77f c43e
000000a0: 5727 ca3d ba9f 31be 533d f7bd ab54 ebbe
000000b0: bb26 92be d655 d6be 62b8 163e 25b3 b23c
000000c0: d7e2 c93e 16f9 babc de9f ffbe 4f00 a5be
000000d0: c6e3 fcbd f4e6 98be eb66 67be 94bc 35be
000000e0: 71ac 263e 79ff a9bc 1a7a 5abb 5db1 a83d
000000f0: 4eb2 e33e 7d8f 51be 4ea9 d6bb ab7d f1bd
00000100: 8ce1 aa3d a2b9 943e 62a9 683e 8efe 9e3e
00000110: 5d14 8ebe b484 babe f9ae 17be 3cf6 5cbe
00000120: d31b 823d 4c1f c33e ac89 363e 1acf aabe
00000130: 4b60 013f a7e2 5a3e 776b 9c3c 81ab e63d
00000140: 12c3 50bd 5c03 9d3d a3ca c03d a74b 7ebe
00000150: 78bf dcbd f197 78bd c9da b53e ee0c 32be
00000160: 72c5 66be cab2 16be adc7 ca3e efe2 38be
00000170: 326b 863d 2407 84bd e6af 593e b010 24be
00000180: 463d 323e 9eeb 553e 11e5 71be cde7 0abe
00000190: 5ab8 21bc 584e 7a3e a8de 0bbe 5e01 c7be
000001a0: 8c62 ebbe 6d84 a5be 9abb 5c3e fd2a a33e
000001b0: e4ad 7f3e 4239 313e 2a6e 25bf 4abd 9dbe
000001c0: 8950 c23d 607e 973d 4c07 49be 5c06 84be
000001d0: abba 853d 2ee3 5dbe 39c9 753e 133d cabd
000001e0: 37d2 d3be 518a ac3d 817d 07be 076f 70be
000001f0: bccb 9bbe 2ae5 3cbe 3662 223e 32ca 7a3e
00000200: 7263 973e 4f00 b83d 002c d1be 85b7 23bf
00000210: 37f3 113d 8502 76bf 5f5a 95be 679d 353e
00000220: f628 59bd 7803 023f 21ed 3cbd d970 c8bc
00000230: 377c 84be e2ff 44bd fe42 e4bd 6809 0cbe
00000240: ffb3 04bf 4f8e 6dbe 46a4 c53e d6df 773e
00000250: c041 1a3f 283d 753e 82cf bbbe a002 b1be
00000260: 43f2 e23d 18ae 3e3e 2914 50bd 2ebf 703e
00000270: 36e2 a8bc 218d 05be 1154 a2be 1a8a 253e
00000280: d8ab 8fbe 501c 913e b1e9 1cbe a4b8 dfbe
00000290: cf37 cfbe f474 42be 9c0a 7e3e 66d9 123e
000002a0: 88b6 ab3e 0876 883e e407 03bf 123f 7a3d
000002b0: ac5e cdbd 0f28 a33e a25a 38bf 1911 9a3b
000002c0: 8b81 f5bb 4192 293e 8b17 803e 51e4 853e
000002d0: 460e 913e 182a 8c3e faa8 313e 0f48 6fbe
000002e0: 4f71 193e 2ae5 4e3e e021 753c 0257 91bc
000002f0: cc26 90be ae54 91be 7045 72be be1c 9c3d
00000300: 5488 313b 639d e7bf 4cf1 f0bd e5c0 8e3e
00000310: 07ee dfbe 1d55 2d3f 5b65 713d 8835 0bbd
00000320: f432 15bf fec2 963d 11f5 0bbe b8eb 31be
00000330: 8173 adbe 478b 3fbd c7ec 093e edeb 5f3e
00000340: bcf2 923d 9412 a83d 2978 e63e b2e4 923e
00000350: c00f 81bb 7ec8 a0be d9e8 1abd f6fa 09be
00000360: c1d9 5d3e b146 23be dcec 8a3e 8743 373e
00000370: 2ea0 9bbe f36d 1c3e 4da4 c1bd 3ceb 933d
00000380: f3de 3abf 92b6 2c3c fc94 503e 62f6 923b
00000390: ce4a 213f c1f1 b23d 1eee 34be 8d9e 0fbd
000003a0: c3c7 6f3e 7af7 c8bb a800 b1be b2b6 ebbd
000003b0: 16c7 0b3f cd3e 60bd d30c c83d 698d 01bf
000003c0: f596 c9be 24c7 763e 0714 123e fea0 e7bb
000003d0: acbb 6dbd 1b9f cdba 8613 92be e9e7 f23d
000003e0: 00cf 263c 6a99 2e3e c4ae ef3e 13d0 993e
000003f0: ccb4 a23c e323 78be 2eb2 4fbe 5ac2 1dbd
-0.49637625 0.15755054 -0.14401338 -0.090892255 0.03514085 -0.44579488 -0.26222438 -0.009590293
-0.058367856 -0.3130517 -0.36044526 -0.3721945 -0.109773174 -0.44135118 -0.18816827 -0.3418151
-0.0315651 0.12335622 0.36087066 -0.16059895 -0.056092985 -0.10026336 -0.11018492 0.1637068
-0.72796965 -0.0794009 0.32361746 0.12529866 0.17810129 0.43354052 -0.54267883 -0.3257109
-0.14468552 -0.6662025 -0.0074975747 -0.10943326 0.15343942 0.1807989 0.25016665 0.3837888
0.09870785 -0.17346087 -0.120722435 -0.45963034 -0.28545174 -0.41862363 0.14718774 0.021813938
0.39430878 -0.022823852 -0.49926656 -0.32226798 -0.12348132 -0.29863703 -0.22597854 -0.17747718
0.16276719 -0.020751702 -0.0033336938 0.08236954 0.44471973 -0.20464893 -0.0065509444 -0.117915474
0.08343801 0.29047877 0.22720864 0.31053585 -0.2774991 -0.3642937 -0.1481284 -0.21578306
0.06352963 0.38109815 0.17825955 -0.3336113 0.50537556 0.21375524 0.019094212 0.112631805
-0.050967284 0.076666564 0.0941365 -0.24833547 -0.10778707 -0.060691778 0.35518482 -0.17387745
-0.22536257 -0.1471664 0.39605466 -0.18055318 0.06563415 -0.064466745 0.21258506 -0.16021991
0.17406186 0.20890662 -0.23622538 -0.13564987 -0.009870613 0.24443948 -0.13659155 -0.3886823
-0.45973623 -0.32327595 0.2155594 0.31868735 0.24968678 0.17306998 -0.6462122 -0.3080848
0.09488017 0.07397151 -0.1963169 -0.25786102 0.06529745 -0.21668693 0.24002542 -0.0987493
-0.4137132 0.08424819 -0.1323147 -0.23479854 -0.30428874 -0.18446794 0.15857777 0.24491194
0.29568058 0.08984434 -0.40853882 -0.63951904 0.03563234 -0.96097594 -0.2917051 0.17735825
-0.05301758 0.5078654 -0.04612458 -0.024467872 -0.25876018 -0.04809559 -0.1114559 -0.13675463
-0.5183715 -0.23198818 0.38601893 0.2420648 0.60256577 0.2394911 -0.36681753 -0.34572315
0.11081364 0.18621099 -0.050800476 0.2351043 -0.020615678 -0.13042118 -0.31704763 0.16165963
-0.28060794 0.28341913 -0.15323521 -0.43695557 -0.40472266 -0.18989927 0.24808735 0.14340743
0.33537698 0.2665255 -0.51183915 0.061095305 -0.10027823 0.318665 -0.72013295 0.004701745
-0.0074922494 0.16559698 0.25017962 0.26150754 0.28331202 0.27375865 0.17349616 -0.23367332
0.1498463 0.20204607 0.01496169 -0.017741684 -0.281546 -0.28384918 -0.23659301 0.0762267
0.0027089315 -1.8094906 -0.11764774 0.27881542 -0.43736288 0.67708 0.05893455 -0.0339866
-0.58280873 0.073614106 -0.13667704 -0.17375076 -0.33877185 -0.046763685 0.1346923 0.21867342
0.07175204 0.082066685 0.4501355 0.28690106 -0.003938645 -0.31402963 -0.037819717 -0.1347464
0.21665098 -0.15944935 0.27133834 0.17896853 -0.30395645 0.15276317 -0.09455166 0.07222602
-0.72996444 0.010541575 0.20369333 0.0044849375 0.6300477 0.08737517 -0.1766896 -0.035063315
0.23416047 -0.006133017 -0.34570813 -0.11509456 0.54600656 -0.05474739 0.09768071 -0.506064
-0.39372984 0.24099404 0.14265452 -0.0070687523 -0.058040306 -0.0015687676 -0.2853052 0.118606396
0.010181189 0.1705071 0.46813023 0.3004156 0.019861601 -0.2423244 -0.20282814 -0.038515426

bias f4 [256]
00000000: 0c39 b7bd 16fb e13c 8b23 383e 3351 bb3e
00000010: 35d4 033f 367e 61be a5f2 b4bb 9e98 973d
00000020: 0b3e 05bf 6069 0bbe 91fd 613e 4188 bcbd
00000030: 0cd0 733e 5f16 9fbd 957f 883d c9cb eebe
00000040: d42e 0d3f c290 5f3c 2cc9 03bd 562a 0d3e
00000050: e06c ca3d fe76 043e 1235 083f f454 47be
00000060: a1b2 9f3d 7aef 76be 50bb 86be 2419 21be
00000070: eaeb 9dbc 3aaf 9d3e 9ed2 e23d 52ea 3e3e
00000080: f892 7dbe cb22 ac3d d34a c9be 5436 823d
00000090: 3bb2 2bbe 821d 90be ddfe 87bc cb54 813e
000000a0: 1ac5 46be 504c afbe 6abd 85be c90d b63e
000000b0: 806a 17be 56d9 b2be e5c0 c7bd 3f8f 8b3e
000000c0: 55bf 323e e00c 5fbe bda9 993e bf1b ad3e
000000d0: 977d 0e3e 3495 8fbe f6ba 0cbf 0621 b0be
000000e0: cfe0 703d 622d 86be 14c3 763e 1f4c 183e
000000f0: e177 1fbe 5826 a23e 02db f5bd c7c9 213f
00000100: a072 d3be a448 d63e aa19 0bbe c8c0 053f
00000110: dbef 6dbe 246f 78be bef4 a53e 2792 ffbe
00000120: 61f7 0d3e 1b7b 1abe e9f1 08be 0b7e 743e
00000130: fa75 f3bd 7bdc d63d 9be5 1eba 5655 b33d
00000140: 2321 b0be c66c a03e f830 1dbe 4411 193e
00000150: abd8 7c3e cd28 5d3e e8da f0bd 0324 7bbe
00000160: 6a3a 2a3f 1f21 2abe 3285 ff3e 6dcf 793e
00000170: 7eaf 303e 4b8b 0e3e ad24 d03e a7d8 0b3e
00000180: a5f9 803d df44 e63d 3e35 dabe 4302 ef3d
00000190: a905 07bd 7b62 3dbc f70b 10bf d610 713c
000001a0: a8ef 68bd 8344 b4be 46c4 aabc aee5 5abc
000001b0: 8e67 073e f3a4 33be 66ca f43b 0747 dd3e
000001c0: 116b 043f 2d3d 0bbd 890c 3abd 842d 033e
000001d0: b22e 383c 4704 38be f5f2 0e3f 9b25 af3e
000001e0: 638a d33d 28c8 c6be d6da 71be ebe7 bf3d
000001f0: efbf 813a fb2f 0c3c 7336 c7be 004f 2f3f
00000200: e422 a73d bb46 24bd 1693 03bf 88e6 873e
00000210: db3c 813e 4b6e 673e 2bf5 03bc 67d3 93bd
00000220: 7dd1 fbbd d2ce ffbd c62e 84be d5fb d4bb
00000230: 8379 c13e 8f05 3dbe 20f6 a03d 9f1a b8be
00000240: 73ee 72be 03d3 a9be 3247 4a3e 793f c63d
00000250: adfb 203f 2a8a 1d3f 426c 96be 3a77 bd3e
00000260: cdd6 8b3c 78b3 a3be 0fe1 4abe 1c15 6cbd
00000270: 00b3 fbbd 0060 f43d 27d7 8f3e acfb 7fbe
00000280: 3607 7ebd 01ce 9b3e 37be 6a3d 6d40 15be
00000290: 3f15 f13e 629d a23e 04e6 1d3e e316 7fbe
000002a0: 284b cd3c 84d2 04bd b5f7 493e c7f7 55be
000002b0: b585 4bbe 66b9 db3e 613f 63be f1d3 e43d
000002c0: 7f9a 0abe 4fd5 163e 475f fc3e a1b2 00bb
000002d0: e246 353e 4d0f bdbe f579 ca3b be3f 2d3e
000002e0: 5320 dbbe dce2 863e 48a5 b93e 0668 843e
000002f0: c727 373e a164 0d3e c569 203f 052b 6abd
00000300: 425d 53bc 9076 a03d 5f99 28be 28b7 b33d
00000310: 875a 383d b63f e13d 6293 86be abf9 06bd
00000320: 43d9 8bbe d324 393e 4eba 433d 5589 ecbe
00000330: 7a70 27be 7b7f 1e3e d6c3 e6bc e724 ac3e
00000340: cc88 96be fbff efbe b63e bb3d cdbc 50bc
00000350: caba 463e 138f 95bc 1081 c03e d27b 0c3e
00000360: 695e d9be 8341 7bbe fe9d 523e 7021 7dbd
00000370: 06e2 903d 1df0 3fbf 85c2 6ebb 16f4 c8be
00000380: 8192 3abe 6df6 223f cda9 303e 98cb 163e
00000390: 7f9e 943e 4950 c2be 8f8c 7f3e d382 e0bd
000003a0: ae69 b53d e246 eb3c 531e aa3e 084f 3f3e
000003b0: 13b8 0f3f 7081 393e e567 a8be a50f 96be
000003c0: 1b1c bebd 8d06 26bd 740d f63e 941f 43bd
000003d0: b8f4 afbe dec2 df3d 3ba6 a83d 7a53 883d
000003e0: 1cfa 043f e83f 2bbe d6cd f63e 7c9a e1bc
000003f0: 24bb bc3c efea b33e ee4a 2c3e 54be f03d
-0.08946428 0.027585547 0.17982309 0.36585388 0.5149568 -0.22020802 -0.0055220895 0.07402156
-0.52047795 -0.13614416 0.22069384 -0.09205676 0.23809832 -0.07767939 0.06664959 -0.4663985
0.5514958 0.013645353 -0.032174274 0.13785681 0.098840475 0.12936017 0.5320598 -0.19466001
0.07797743 -0.2411479 -0.26314783 -0.15732247 -0.019277532 0.3079775 0.11075328 0.18644074
-0.24763095 0.08405074 -0.393149 0.063580185 -0.16767208 -0.28147513 -0.01660102 0.25260004
-0.19411126 -0.3423791 -0.26121074 0.35557392 -0.1478672 -0.3493144 -0.097535886 0.27257726
0.174558 -0.21782255 0.30012313 0.3381023 0.13915096 -0.2804352 -0.5497278 -0.34400195
0.058808144 -0.262065 0.24097854 0.14872788 -0.15573074 0.3166988 -0.12004663 0.6319851
-0.4129839 0.41852295 -0.13584009 0.52247286 -0.23236029 -0.24261147 0.32413286 -0.49916193
0.13863899 -0.15086024 -0.13373531 0.23876207 -0.118877366 0.10491272 -0.00060614356 0.08756511
-0.3440028 0.31332988 -0.15350711 0.14947993 0.24692027 0.21597596 -0.11760503 -0.24525456
0.6649538 -0.16614197 0.49906307 0.24395533 0.17254445 0.13920324 0.4065298 0.13656865
0.06297616 0.11243605 -0.42618746 0.11670353 -0.032964382 -0.011559124 -0.56268257 0.014713487
-0.05686918 -0.3520852 -0.020845544 -0.013360424 0.13223097 -0.17543392 0.007470417 0.43218252
0.5172587 -0.03399389 -0.04542211 0.12810332 0.011241602 -0.17970382 0.55839473 0.34208378
0.103291295 -0.38824582 -0.23618636 0.09370407 0.000989912 0.008556361 -0.3890873 0.6847992
0.08160952 -0.040106516 -0.5139631 0.2654307 0.25241742 0.22600667 -0.008054058 -0.07218056
-0.12295816 -0.1249062 -0.25816935 -0.0064997473 0.3778802 -0.18459152 0.078594446 -0.3595781
-0.23723774 -0.33168802 0.19753721 0.09680075 0.62884027 0.61538947 -0.2937947 0.37005025
0.017070198 -0.3197286 -0.19812416 -0.05763732 -0.12290001 0.11932373 0.28093836 -0.24998349
-0.062018596 0.30430606 0.05731031 -0.14575358 0.47086522 0.317607 0.15419775 -0.24911074
0.025060251 -0.032427326 0.19723399 -0.20895301 -0.19875224 0.42914885 -0.22192146 0.11173237
-0.13535498 0.14729808 0.4929144 -0.001963772 0.17702821 -0.36925736 0.006179089 0.16918847
-0.427981 0.26344955 0.36258912 0.25860614 0.17886268 0.13807918 0.6266139 -0.057169933
-0.012900652 0.07835114 -0.16464756 0.08775169 0.04500821 0.1099848 -0.2628432 -0.032952946
-0.27314195 0.18080454 0.047785096 -0.46198526 -0.163515 0.15478317 -0.028169554 0.33621904
-0.29401243 -0.46874985 0.091428205 -0.012740326 0.19407192 -0.0182567 0.37598467 0.13719109
-0.42454842 -0.2453671 0.20568082 -0.061799467 0.070743605 -0.7497576 -0.003643186 -0.39248723
-0.1821995 0.63657266 0.17252274 0.14726102 0.29027173 -0.37951878 0.24955963 -0.10962453
0.088580474 0.028720323 0.3322626 0.18682492 0.5614025 0.18115783 -0.32891765 -0.2930881
-0.092827044 -0.04053359 0.4805714 -0.047637537 -0.34366393 0.1092584 0.08234831 0.06656547
0.51944137 -0.16723597 0.48203915 -0.027539484 0.023038454 0.35140178 0.16825458 0.11755052

weight f4 [256, 256]
00000000: 501e 4dbd 0e30 eabd fdc4 c8bd bea2 66bd
00000010: 8831 cfbd 96b3 21bd 5752 bdbd 34c9 123c
00000020: 4c38 04bc 4713 1dbc b635 03be cfc6 bd3c
00000030: 028c 2fbd 15e5 f23c f970 02be 1856 383d
00000040: 2b50 9cbc b7c7 e1bd 6ca1 40bd fdb5 e83d
00000050: 5053 c3bd 5d9c 95bd e341 1cbd 1684 49bd
00000060: 0132 ea3c 618f 92bd 8c53 bbbd db04 f93c
00000070: 51e7 60bd ad2d 533d 9ac9 ff3a 7bfe 59bd
00000080: 2cec 1f3d 49f2 0b3c b922 3cbd 6576 e4bd
00000090: 6efa d7bc c11f 873c 63a6 b0bd a608 ddbb
000000a0: 8a52 94bc d764 85bd 2412 d2bc 2f1b 1cbd
000000b0: 6087 8abd 98a7 9dbb 0305 ffba 76e6 d8bd
000000c0: 5e70 fbbc 5e35 1fbd ca80 f3bc 1939 aabd
000000d0: 8390 39bd 7a8f 5b3c 2d8c 3a3c b5fb e2bb
000000e0: f405 a1bd e5d1 79bc f3a8 113d 92e9 58bd
000000f0: b1cd bebc 14c9 fbbc c155 0dbd 6b7c adbb
00000100: 0d16 c03b 2e02 f7bc 0123 8cbb df76 acbd
00000110: 06ac 66bd 1fd5 563a 36b9 b4bd 06a3 833c
00000120: ed7e b0bd 1370 37bd b6eb 52bd 60f4 83bc
00000130: 6c8a 1dbd 5988 abbc 0f52 0fbd 20ca 32bc
00000140: bde6 76bc 6d0d 813e fc59 0fbe 48fb 12bd
00000150: ae82 c3bd bbde 463e b147 0e3a 0760 433d
00000160: e85e 98bd 45f0 2f3c 4610 16bd a161 cebd
00000170: 3152 9ebd 7ef2 0d3d 8c6d 0ebc 18e7 30bd
00000180: 8bd4 5bbc d720 68bd 9d93 5e3d d126 71bd
00000190: 14a8 82bd 4b2e 00bd e349 46bd bd77 76bd
000001a0: 879a 993c b633 483c ae91 fdbc aad7 cfbc
000001b0: 0596 673d 9d6e 8fbc 701f 74bc dbee fcbd
000001c0: 26dd c9bd e657 85bd f2b5 a6bd 0f62 75bd
000001d0: 1444 a9bd 083e 52bd 97ba 94bd 644e 963d
000001e0: 69c3 033d 5c6e 3cbd b325 08bd 2511 74bd
000001f0: 5857 66bd f69e b8bc 9c26 d2bd b81c adbd
00000200: 426b bf3c 12c2 4cbd 86f2 3c3d 98c3 653e
00000210: 774b 85bd 8190 c33c 1c6f f9bd 8eb6 04bd
00000220: 318c 21bd d831 8bbb dc2d 82bd db15 f2bc
00000230: 93b6 92bd f0d1 69bd fd5e 8abc b05c 28bc
00000240: 8159 11bd 1e77 9dbc 5dcb 6fbd db97 a3bd
00000250: 6f75 e1bd c9ee b2bd 4e6a 5dbd c13b 02be
00000260: a02f 74bc 8048 8ebd 47d2 b1bd 40b0 0ebd
00000270: d25a 4cbd ed69 1e3d dc31 4cbd e7b9 13bd
00000280: 7f88 a4bc 8931 d53b 2234 bdbd bb5c 823c
00000290: 9b3f f6bd 4665 ddbc 92cf 6f3d a348 7ebd
000002a0: d513 7f3d 733b b33c 222b 04be b8bd afbd
000002b0: 1978 0e3d 8709 85bd 688e a53d 60e9 f23c
000002c0: 4ac3 22bd e2b9 b5bc 2ad0 e0bd ba4c f7bc
000002d0: fedd 513d 975c 123d 2018 00bd 83f4 a8bd
000002e0: 8ec2 4a3a dba7 8dbd 051a 0fbd 7c56 22bd
000002f0: 7cba d0bc 15c9 c2bd 0593 dbbc ff02 cbbd
00000300: 9a52 9a3b 2435 a43a f4fd d1bb b850 81bd
00000310: 4db3 aabd 0830 59bd 20c7 2a3d aa8b ddbd
00000320: bd4d f1bb f992 d5bc 5b41 f5bd 8d5a 06bd
00000330: 4090 cabd d324 35bc 3a4e e8bd 3add abbd
00000340: 414c 973b 0a47 95bd 4904 09bd 629d 39bd
00000350: 4e1c c1bd 9d1b 68bd 8ae0 33bd 6fa7 7fbc
00000360: a3d7 413d db62 82bd 584c 9abd 8050 a6bd
00000370: cb72 92bd e9a9 8abd 7770 3abd e060 9abb
00000380: 374f 16bd 025f 76bd ab79 00bc d213 9bbd
00000390: 0fcf 28bd 4b2d 31be 4836 debb b4f9 bebc
000003a0: 3395 65bc fd72 64bd f168 cabd 5d0a dbbc
000003b0: 928d b4bc 9b49 d6bd 6e8d 37bd a9e3 713c
000003c0: 3b94 e23c eac4 fbbc 3700 1dbd 9eb1 7fbd
000003d0: 48f8 70bd e140 a6bc aa90 a9bd 8cb3 373e
000003e0: f43f 01be c61e c23c 1764 f4bd 9b77 0dbd
000003f0: 9085 453d c164 bcbc ad0b 05bc 4a88 cabd
-0.050077736 -0.11434947 -0.098031975 -0.056307547 -0.10116869 -0.039477907 -0.09244221 0.008959103
-0.008070063 -0.009587116 -0.12813458 0.023166088 -0.04285813 0.02965025 -0.12738408 0.04500398
-0.019081196 -0.11024421 -0.047028944 0.113628365 -0.09537375 -0.073052146 -0.038148772 -0.049198233
0.028588297 -0.071562536 -0.09146795 0.030397823 -0.0549081 0.05155723 0.0019515038 -0.053221207
0.03904359 0.008541652 -0.04593155 -0.111553945 -0.026364531 0.016494634 -0.08625486 -0.0067454157
-0.018105764 -0.06513374 -0.025643416 -0.03811186 -0.06764102 -0.0048112385 -0.001945645 -0.10590832
-0.03069323 -0.038869254 -0.029724497 -0.08311672 -0.045303833 0.013400907 0.01138596 -0.0069269785
-0.078624636 -0.015247797 0.035561513 -0.052957125 -0.02329144 -0.03073553 -0.03450561 -0.005294373
0.0058620037 -0.030152407 -0.0042766337 -0.0842111 -0.056316398 0.00081952097 -0.08824389 0.016068947
-0.08617959 -0.044784617 -0.051494323 -0.016107738 -0.038462088 -0.020939039 -0.034990367 -0.010912448
-0.015069661 0.25205556 -0.1399917 -0.03588417 -0.095464095 0.19420902 0.0005427553 0.047699
-0.07439977 0.010738437 -0.036636613 -0.10077215 -0.077305205 0.034655087 -0.00869311 -0.04318914
-0.013417373 -0.056671944 0.054339994 -0.05887491 -0.063797146 -0.03129415 -0.048410308 -0.060172785
0.018750442 0.01221936 -0.030953255 -0.025371391 0.056539554 -0.0175088 -0.014900073 -0.123502456
-0.09856634 -0.06510906 -0.08140172 -0.05990797 -0.08264938 -0.05132869 -0.07262152 0.073391706
0.03216878 -0.046003684 -0.033239078 -0.059586663 -0.05623564 -0.022536736 -0.102612704 -0.08452743
0.023366574 -0.049989767 0.046129726 0.22437894 -0.065085344 0.023872616 -0.121793956 -0.03240066
-0.039440338 -0.004247885 -0.06356403 -0.029551437 -0.071637295 -0.057084978 -0.016890997 -0.010276005
-0.03548575 -0.019221839 -0.05854355 -0.079879485 -0.11008727 -0.08736951 -0.05405646 -0.12718107
-0.014903933 -0.06947422 -0.08682685 -0.034836054 -0.0498913 0.038675237 -0.049852237 -0.036065962
-0.020084618 0.006506149 -0.09238459 0.015913358 -0.120238505 -0.02702583 0.058547564 -0.06208099
0.062274773 0.021878934 -0.12907079 -0.08581108 0.034782503 -0.06495958 0.080838025 0.029652297
-0.039737023 -0.022183362 -0.10977204 -0.030187953 0.0512371 0.03573283 -0.031273007 -0.08249762
0.00077346794 -0.069167815 -0.034936924 -0.03963326 -0.025479548 -0.095110096 -0.026803503 -0.09912681
0.004709554 0.0012528044 -0.0064084474 -0.06314224 -0.0833498 -0.05302432 0.041693807 -0.108176544
-0.0073640035 -0.026071059 -0.11975356 -0.0328012 -0.09890795 -0.011056143 -0.113430455 -0.08391805
0.0046172445 -0.0728894 -0.033451352 -0.045316108 -0.09429227 -0.05666696 -0.04391531 -0.015603884
0.047324788 -0.063665114 -0.07534093 -0.08120823 -0.07150801 -0.06770689 -0.04551741 -0.0047112554
-0.03669664 -0.0601492 -0.007841508 -0.0757214 -0.04121309 -0.17302434 -0.006781373 -0.023312427
-0.014012623 -0.055773724 -0.09883297 -0.02673834 -0.022040162 -0.10463258 -0.044812612 0.014763751
0.027658572 -0.030733544 -0.038330283 -0.06242525 -0.05883053 -0.020294609 -0.082795456 0.17939585
-0.12622052 0.023696315 -0.11933153 -0.034537893 0.04822308 -0.022997262 -0.0081204595 -0.09889276

bias f4 [256]
00000000: 106f ea3d 67a2 473c 34b3 fbbc 025a 293d
00000010: 6f85 a0bc 90ca e3bd 45fe 09bd 8952 113d
00000020: 96ce d1bc 7e00 21bd 7404 3dbb bb03 8fba
00000030: 8872 833d 8ef2 8bbd 4e69 66bc 68d7 c73c
00000040: ce0a 1f3d 749d 2c3c b9aa ea3d 559c 3c3c
00000050: f2b9 0b3d 846d 1fbd 9844 66bd be10 5c3c
00000060: d5d0 2e3d 7b27 e5bb 7cc0 823d 6041 6b3c
00000070: c25a 9f3d 2c1a 4abd fcf6 afbc f93a 1a3e
00000080: 2d2b 90bb fd0b 173d 0264 873d a974 d23c
00000090: 1f93 27bd 4d84 cfbc 1690 133c 0d26 983a
000000a0: d77a 1abd fe8d 173e ea74 093d b026 b6bb
000000b0: f00a 9bbc 3b29 80bd 61eb 97bc 3a8d 1dbb
000000c0: 7b2a 8b3c da33 923d 4938 7b3c 60c7 54bd
000000d0: 3ba0 3abd 4c26 ecbc d292 81bb bf0e e5bb
000000e0: ca2c 413d 8f33 243e 46ca d9bd 4803 263c
000000f0: 5bd6 7bbc b611 b83c a17c 72bd 90cd 5ebd
00000100: 8ef8 a33c f076 773d fa85 1a3e 105a 143c
00000110: c22c 5fbd b3e3 043d 41e3 8fbc 4e64 e2bc
00000120: 7422 4fbd 95e6 953d 8c6d 123d 68a2 653b
00000130: 4de4 233d a5ac de3d ca4b 5d3c be0b a43d
00000140: 1286 39bc 803a be3d dfbf c7bc 034a 043b
00000150: ac40 06bd f1b0 d53c 29fe e0ba 6e90 80bc
00000160: c76b 413d 9188 b3bd 78d0 67bc de1a d1bc
00000170: 0599 3cbd f719 b6bc d935 1dba 27e1 0d3d
00000180: 16d8 fc3c 60a1 f23c a6e2 663c 0c70 e7bc
00000190: b7fc 46bc 3118 dcbd d2da faba 5a2c 21bd
000001a0: c800 12bd 1c9d d43d 7c8d 1b3e 58ca c739
000001b0: 3b03 17bc 878c c8bb b76b eb3d 6f77 25bc
000001c0: 0a61 153e 34e3 353d 4bab 40bc 9e64 24bd
000001d0: 812e 443b 786f bd3c b9c3 de3c e696 40bd
000001e0: 8e4c 59bc b708 b63d 90d1 92bd 8423 fc3c
000001f0: 7125 91bc ae8c daba de2e d53c 4720 833d
00000200: 8514 1c3d 1ed4 c0bc 7b2d 62bd bc7f b53d
00000210: 96ae b3bb 0cab 6fbc 6d29 41bb 5489 aeba
00000220: d4c3 943d d9b8 90bd 5609 acbc fe92 2bbc
00000230: 2d95 2d3e bef4 d9bb 381a 9a3c 03fe 16bd
00000240: 909c 2c3d 2701 5ebd 68b4 42bd e473 eebb
00000250: e17c 26bd 98f9 7ebd 6b7d df3e 5c69 4ebd
00000260: cb76 6dbd 939a 573d 34cd 99bd 33ea 6a3d
00000270: dfa0 9a3d c5d4 0c3d 6d02 753d 389d 67bd
00000280: 2c9b 8ab8 c3a1 c7bb b63a 503c bcd1 303d
00000290: f037 bc3c cff5 06bd 37b4 f23c 95fe 3e3d
000002a0: 5001 203d bf15 593d ad6c 243c ab88 ccbd
000002b0: 2c15 60bd 9252 293e fb47 4fbc 1cd1 8c3c
000002c0: 1536 8ebc 17d6 5fbd 8674 bc3c c2f8 643d
000002d0: 5afd 9e3c 42ae 943c e397 993d e833 b3bc
000002e0: 1d1e 5c3d f941 83bd 74e9 723d c838 13bd
000002f0: ce56 f7bc 2fc9 f93c aa08 bb3d fa18 93bc
00000300: 4843 f93c ae3f 953c 9f23 eb3b acfd 1e3d
00000310: 7fc6 9f3c 0ba2 1cbb b0fa 08bd 1aec df3d
00000320: 16c2 b63b c981 9f3c 285d cb3d 1523 523d
00000330: 6781 f7bc f4ba 95bb 164d ecbc 5ea5 fb3d
00000340: e3b3 673d 3187 86bc 8192 543d e18c 5b3d
00000350: 7a10 f33c 0889 b7bc 7241 483d aff6 abbc
00000360: 075a 873c 2ff8 143e cc96 4dbd b083 51bd
00000370: af68 26be fa63 bb3a 9dc1 243d 65a0 54bd
00000380: 1fce 8abc 8a42 fb3c 1dc4 6abd 7e26 f43c
00000390: 64cb 5dbd ea6d d9bc bab5 213d 764c 9dbd
000003a0: 056f a8bb b9f1 5fbb 3096 d03c fbb8 433c
000003b0: ffd4 3abd b614 a63d a04f 0a3d edf3 3d3e
000003c0: 52bd 073d a3c6 a93d fa25 043e 1c3b d03c
000003d0: d0b8 10bd 05d5 74ba c388 87bd 3bbf 463d
000003e0: 23c4 83bd fc12 a53b 6e2c 29bc 4170 05bc
000003f0: 3702 afbd c333 86bd a6a6 0d3d c267 aebd
0.11446965 0.012184716 -0.0307251 0.041345604 -0.019594876 -0.1112262 -0.033689756 0.035479102
-0.025611203 -0.03930711 -0.0028841766 -0.0010911146 0.064183295 -0.06833373 -0.0140631925 0.024394706
0.038828664 0.010535587 0.11458344 0.011511882 0.03411288 -0.0389228 -0.05621776 0.013431726
0.042679626 -0.006993232 0.0638437 0.014358848 0.077809826 -0.049341366 -0.021480076 0.15061559
-0.004399678 0.036876667 0.06610872 0.025690394 -0.04091179 -0.02533164 0.009006521 0.001160802
-0.037714805 0.1480026 0.033558764 -0.005558811 -0.018926114 -0.06257864 -0.018544855 -0.0024040476
0.01698803 0.07138796 0.015333244 -0.05194795 -0.045562964 -0.028826855 -0.00395427 -0.0069902833
0.047161855 0.16035293 -0.10634284 0.010132618 -0.015370931 0.022469383 -0.059200887 -0.05439526
0.020015981 0.060416162 0.1509017 0.009054676 -0.054486044 0.032443713 -0.017564418 -0.02763572
-0.050569966 0.07319371 0.035749003 0.0035039429 0.040012646 0.10872773 0.013506839 0.08010052
-0.011323469 0.09288502 -0.024383483 0.0020185716 -0.03277652 0.026085349 -0.0017165589 -0.01569387
0.047221925 -0.08766282 -0.014148824 -0.025525507 -0.04604437 -0.022229178 -0.00059970986 0.03463855
0.030864757 0.029617965 0.014092123 -0.02825167 -0.012145213 -0.10746802 -0.00191387 -0.039348938
-0.035645276 0.10381529 0.15190691 0.00038106996 -0.009217079 -0.006120268 0.11495154 -0.010099276
0.14587799 0.04440613 -0.011759589 -0.04013502 0.0029934945 0.023124442 0.027192937 -0.047018908
-0.013262881 0.08888381 -0.07168877 0.030778654 -0.017718049 -0.0016674006 0.026023325 0.06402641
0.038105506 -0.023538645 -0.055219155 0.08862254 -0.0054834587 -0.014628183 -0.0029474155 -0.0013316073
0.07263914 -0.07066507 -0.021000545 -0.010472057 0.16951437 -0.00665149 0.01881133 -0.03686334
0.042141497 -0.054200318 -0.04753533 -0.007276999 -0.040646438 -0.06224975 0.43650374 -0.050393447
-0.057974618 0.052637648 -0.075098425 0.057352256 0.07550215 0.0343826 0.059816767 -0.05654642
-6.609256e-05 -0.0060922815 0.01270931 0.04316877 0.022975892 -0.032949265 0.029626949 0.046629507
0.03906375 0.052999254 0.010035676 -0.09987005 -0.05470769 0.16535404 -0.012651439 0.017189555
-0.017359773 -0.05464753 0.023004781 0.055901296 0.019407917 0.018149499 0.07499673 -0.021875337
0.053739656 -0.06409068 0.05930467 -0.035942823 -0.030192759 0.03049144 0.09132512 -0.017956246
0.03042759 0.018218841 0.007175877 0.03881614 0.01950383 -0.0023900296 -0.0334422 0.10933705
0.005577336 0.019471066 0.099298775 0.051302988 -0.030213071 -0.0045694057 -0.028845351 0.12287401
0.056568038 -0.016421886 0.05189753 0.05360115 0.029670943 -0.022404209 0.04889054 -0.020991651
0.01652242 0.145478 -0.05019264 -0.051150978 -0.16250871 0.0014296763 0.040223707 -0.051910777
-0.01694399 0.030671377 -0.057315934 0.02980351 -0.054149047 -0.026541669 0.03947995 -0.076805994
-0.0051401877 -0.0034171178 0.02546224 0.011945958 -0.045613285 0.08109419 0.033767343 0.18550082
0.033139534 0.0828984 0.12905112 0.02541881 -0.0353325 -0.0009339604 -0.06617882 0.048522215
-0.064338945 0.0050376635 -0.010325534 -0.008144439 -0.08545344 -0.065528415 0.034582756 -0.08515884

weight f4 [1, 256]
00000000: f8e1 07bc 2858 8aba eadb 763c 0df4 243d
00000010: d3d4 b63b a0b1 e4bb 3145 c7bc 74a6 86bd
00000020: 746a 3cbd bc8b a23a 55db ce3c 9098 4fbc
00000030: f03d 8e3c a4cf d4bc dfeb fcbc 9280 e8bc
00000040: 16b9 34bd 5ab1 78b9 fc36 c9bc 3ef9 d5bc
00000050: 1af8 49bd 3563 8abd 80fa 40b9 e603 10bd
00000060: badc f2bc 51f9 92bd b6fa 823c 2eab 29bd
00000070: 16e8 bcbd 0f6b 88bd c2b7 a6bd a1d3 3abe
00000080: 67fc 99b8 99f9 883b b287 583c 20a5 e93c
00000090: 1263 29bd 445f 69b9 14fe cc3c 8bb0 a6bd
000000a0: 50a3 fdbb 626a b0bd 5716 51bd 3512 28ba
000000b0: f941 89bc 8fb7 90bc 348d d4b9 55ce 57bd
000000c0: a624 50ba cbee 063d c779 9cb9 8ea9 83bd
000000d0: f11c 91bd 8cc3 4dbd 4cbb 573b d97a b0bc
000000e0: 08c3 be38 ebad e0bc 182c 80bd dfb0 6fba
000000f0: cd24 9e3c dcdd 9aba f957 153b 7c14 51bd
00000100: ad12 46b7 e859 71bc 659f b2be f9ea ec3c
00000110: 05cc 56bd 3aa1 9bbd 5a30 a0bc ebc0 d1bc
00000120: 12c5 27bc dd1b f33c 6438 d0bc d4ca 6938
00000130: 9626 39b8 b59f cabd b78e f239 267b 883c
00000140: 29cc 9eba 62f1 6cbe d149 2abd 4e5d f939
00000150: ad30 5cbc a545 94b9 5b27 abbd e36d 2bbd
00000160: 57d1 813c 925d 40ba 1c42 cf38 09e9 91bc
00000170: 0b05 2dbd 3c09 343b 0e63 153c 153f ffb8
00000180: 2939 403b 5a8e 84bd ae34 23bd cd43 0cbc
00000190: e602 023c ac10 d4bc 441c abbd a8f9 84bd
000001a0: b126 d8bc 7457 24be 04dc 49bd d2d4 9cbd
000001b0: fe7f 85bd 442b 613b 4e1f 1cbe 2bff f1b8
000001c0: 997f e1bd 6f2a 33bd f672 2f3c eec7 58bd
000001d0: a3eb 0ebd 27e7 8abd a6d2 943c a33a 94bd
000001e0: ea6b 95bc b003 da39 4c9d bfbb 00ff 00bc
000001f0: 647c 8abd 15e2 a9bb 6a58 b3bb 1c1f 86bb
00000200: 737a 14bb f9d3 94bd 5fba 7c37 518d fdbd
00000210: 5b44 7fbd 27f3 46b9 8c55 9ebd 32e7 78b9
00000220: cf66 aebd bfc6 babb dfe6 73bc 3e55 0fbc
00000230: 0730 45be a22a de3b 8e5c 96bd 550c b4bc
00000240: 4d5a 69bd 5a10 a7b9 3822 023a fb08 3dbd
00000250: a922 15bd d9af 233b 426c 0e3f 8e5f 8bb9
00000260: a8d1 7fb9 eff1 e4bb 4897 dfb9 0efc 27bd
00000270: a9a2 05bd 0ec7 8539 adb8 e7bb cb78 21ba
00000280: 75a3 f23c d7d4 be3b 3b1a 55ba 0208 b8ba
00000290: 83e2 10bd 0b14 063d 11c2 9b38 25d2 b4bd
000002a0: 0dbf 04be 9122 88bd bc90 2dbc fde1 66bc
000002b0: 5123 df38 df41 2dbe 014d 3d3c 3e4b 603a
000002c0: 3871 9fbd cd52 1cba 50af 61bd dec5 00bd
000002d0: aecc 8fbd f593 65bd a079 cc3c 06ce b8bd
000002e0: 9a53 163d e443 5ab8 b491 dfb9 7b04 ccbb
000002f0: e796 a138 9b23 17bd 943c b9bb cf16 6839
00000300: 27ce abbc f275 3ebd 5bb4 04bd a89d 5ebd
00000310: f3a4 99b9 525b 10bd fc55 17bd d242 c9bd
00000320: d295 94bc 0674 0fbd 44a1 bcbd d5f2 a5bd
00000330: 1c61 90b8 46bd d5ba c0b7 69bd 615b 483d
00000340: 1619 aa3b 7870 f1b9 d68f 053c 952d fbb8
00000350: 12fd 2cbb 94d0 edb7 3279 273d e037 d73c
00000360: 8b57 f23c b54d 29bd 6cee 27bb 6636 4cbd
00000370: ed31 a8be 3de6 58bd 4853 0dbc a259 57bd
00000380: 26d5 8f38 3cc3 f9bc 042c c739 a06a 85bd
00000390: 3097 7cbd 8638 f1bb 8bb0 a1bc c492 acbd
000003a0: 36ee 43b9 5495 c7bc ecd4 03bd 1562 86bd
000003b0: 8944 843c f012 f73c e058 be39 86a2 fdbe
000003c0: 4f51 bfbc 20c3 7cbc 3918 92bd 9ebd 8dba
000003d0: a3cf f4bd 86b2 3d3c e1b9 9fbd c1c8 aebd
000003e0: 3609 caba f68f a83c c8ad 1cbd 6fb5 01bc
000003f0: a582 b4bb b75d 90bd 708b 41bc eb17 b0bb
-0.008293621 -0.0010554837 0.01506708 0.040271807 0.00557957 -0.0069791824 -0.024324985 -0.06574717
-0.04599996 0.0012401263 0.02525107 -0.012670651 0.017363518 -0.025977917 -0.03087419 -0.02838162
-0.044121824 -0.00023717192 -0.024562351 -0.026119824 -0.049308874 -0.067572035 -0.00018403865 -0.035159968
-0.029646266 -0.071764596 0.015988689 -0.041423015 -0.092239544 -0.06661045 -0.08140518 -0.18244793
-7.342622e-05 0.004180145 0.013215946 0.02852112 -0.041354246 -0.00022256101 0.025023498 -0.08139142
-0.0077404156 -0.08614041 -0.051046696 -0.00064114045 -0.016755091 -0.017665653 -0.00040540996 -0.052687008
-0.00079400314 0.032942574 -0.0002984537 -0.06428824 -0.07085598 -0.050235316 0.0032918034 -0.021542953
9.0962334e-05 -0.02742668 -0.0625841 -0.00091434823 0.019304657 -0.0011815387 0.0022788031 -0.051044926
-1.1806068e-05 -0.014730908 -0.34887233 0.028920637 -0.052440662 -0.07599111 -0.019554306 -0.025604686
-0.010239856 0.029676372 -0.025417514 5.5740427e-05 -4.4143373e-05 -0.09893743 0.00046264168 0.016660284
-0.0012115288 -0.23138955 -0.041574303 0.00047562498 -0.01343934 -0.0002828065 -0.08357116 -0.041852843
0.015846891 -0.0007338162 9.882843e-05 -0.017811315 -0.042241137 0.0027471324 0.009117855 -0.000121710975
0.0029330945 -0.06472464 -0.03984516 -0.008561087 0.007935261 -0.025886856 -0.083550006 -0.06492931
-0.026385637 -0.16048986 -0.04928209 -0.0765778 -0.06518553 0.0034358064 -0.15246317 -0.00011539304
-0.110106654 -0.04374164 0.010708561 -0.052925043 -0.03489269 -0.0678237 0.018166851 -0.072377466
-0.018239934 0.00041582948 -0.0058476087 -0.007873297 -0.06762007 -0.005184422 -0.0054731863 -0.004093064
-0.0022655993 -0.07266993 1.5063763e-05 -0.123804696 -0.06232105 -0.00018973333 -0.077311605 -0.0002373725
-0.08515703 -0.005699962 -0.014886587 -0.008748351 -0.19256602 0.0067799846 -0.07341872 -0.021978537
-0.056970883 -0.00031864905 0.00049642054 -0.046151143 -0.036410008 0.002497664 0.5563394 -0.0002658334
-0.00024396798 -0.0069868485 -0.00042646588 -0.041011862 -0.032625828 0.00025516044 -0.0070715756 -0.0006159662
0.029618958 0.0058237123 -0.0008129214 -0.0014040472 -0.03537227 0.03273396 7.427124e-05 -0.088291444
-0.12963505 -0.06647218 -0.010593589 -0.014091966 0.00010640047 -0.16919659 0.011554004 0.0008556134
-0.07785267 -0.0005963266 -0.05509883 -0.0314387 -0.070214614 -0.056049306 0.02496034 -0.09023671
0.036700822 -5.203848e-05 -0.00042642432 -0.00622612 7.705186e-05 -0.03689919 -0.0056529734 0.00022133741
-0.020972325 -0.0464992 -0.032398563 -0.05434957 -0.0002930533 -0.03524334 -0.036947235 -0.09827198
-0.018137846 -0.035022758 -0.092104465 -0.08102957 -6.884543e-05 -0.0016307018 -0.057060003 0.04891527
0.0051909788 -0.00046050898 0.008151969 -0.00011977103 -0.002639596 -2.8349728e-05 0.040887065 0.02627176
0.02958276 -0.041333873 -0.0025624288 -0.049856566 -0.3285059 -0.052953947 -0.008625813 -0.052575715
6.858473e-05 -0.030488603 0.00037989032 -0.06514478 -0.06166762 -0.0073614744 -0.019737503 -0.08426431
-0.0001868539 -0.024363197 -0.03218548 -0.065616764 0.016145961 0.030160397 0.0003630584 -0.49538058
-0.0233542 -0.015427381 -0.07133526 -0.0010813957 -0.11953666 0.011578208 -0.077991255 -0.085343845
-0.0015414122 0.020576458 -0.03825167 -0.007916792 -0.005508738 -0.07049125 -0.01181303 -0.005373945
