Models/Office_model_10_300.pth (torch, 189728 bytes, 9 tensors)

weight f4 [256, 10]
000000 c1 c6 6b be ec 21 1f 3e ff 02 45 3e d7 a4 8a 3e
       -0.23025037 0.15540284 0.19239424 0.27078888
000010 38 ab 71 be 09 02 55 be 73 53 f2 bc d4 16 23 3e
       -0.23600471 -0.20801558 -0.029580807 0.15926677
000020 e0 c6 12 be 69 3a 2a 3e 74 11 34 3e c8 5b 22 3e
       -0.14333677 0.16623844 0.17584783 0.15855324
000030 93 9a 78 be 97 6d 76 be 3e 93 8b 3c d7 da 82 be
       -0.24277715 -0.24065243 0.017037984 -0.25557587
000040 7b 70 5e be 73 35 43 3e f3 9d 80 be d1 91 6a be
       -0.21722595 0.19063358 -0.25120506 -0.22907187
000050 94 f2 dc 3d 9e 8c 82 be 90 f4 98 be b6 af 9f bd
       0.107884556 -0.25497907 -0.29874086 -0.07797186
000060 40 11 df bb 46 a3 71 3e 6c 7d bb 3d a4 6c 9e be
       -0.0068074763 0.2359744 0.09154782 -0.3094226
000070 1c 30 2f 3e 7b 63 1c be e8 31 f6 bc c2 af 92 3e
       0.17108196 -0.15272324 -0.030053094 0.28649718
000080 af 0d 91 3e 1b 55 85 3e e9 4e 6c be b1 eb 9a be
       0.28330752 0.26041493 -0.23076977 -0.30257943
000090 19 33 54 be 00 f7 54 3d bb 7b 1c 3e 17 56 79 3d
       -0.20722617 0.05199337 0.15281574 0.060873117
0000a0 b1 02 a4 3e 0e f5 47 3e 85 4d f5 bc 7d 42 1c be
       0.32033303 0.19527075 -0.02994419 -0.15259738
0000b0 69 14 ee 3d be c6 29 be d3 8c 9c 3e 0a b2 ee be
       0.11624987 -0.1657972 0.3057619 -0.46620208
0000c0 f6 ff 92 bd 93 5d 99 be 18 0d b2 3e a5 44 3e 3e
       -0.07177727 -0.29954204 0.34775615 0.18580873
0000d0 d4 e6 e5 bc f8 07 5d 3e 17 68 ed 3d 52 61 64 be
       -0.028064169 0.21585071 0.11592119 -0.2230275
0000e0 86 be e3 3e 43 68 18 3e a3 92 8f 3d 65 47 12 3e
       0.44481295 0.14883523 0.070103906 0.14285047
0000f0 7f 9c 55 3e 7d 19 98 bd c4 6c 22 3e 13 14 db 3c
       0.2086048 -0.074267365 0.15861803 0.02674297
000100 16 d4 ce bd c6 b4 e0 bd 16 66 4e 3c 96 d6 73 3d
       -0.10099046 -0.1097198 0.012597581 0.059530817
000110 fc 8b 14 3e 03 6a 05 bd 95 73 8d 3d 80 58 9d be
       0.14506525 -0.032571804 0.06906811 -0.30731583
000120 57 44 50 3d dc 7e da be fa 5d 5e be 0a 5c 27 be
       0.050846424 -0.4267491 -0.21715537 -0.16343704
000130 20 95 21 be e0 bb f3 bd 3d 9f 6d be 40 59 6f be
       -0.15779543 -0.11901069 -0.23205276 -0.2337389
000140 54 18 ae 3d 06 58 3a be 2e 9b 1c 3e 78 51 4c 3e
       0.08500734 -0.18197641 0.15293571 0.19952953
000150 07 4e 07 be ef fc 41 be d7 3a 07 3e b2 14 42 3e
       -0.13213359 -0.18944143 0.1320604 0.18953207
000160 a1 eb 8f be 12 02 90 3c 15 f0 39 be 66 79 8c be
       -0.28109458 0.017579112 -0.1815799 -0.2743637
000170 5c 1c bf bd 0e c0 4b 3e 97 c6 71 3c 04 de ea be
       -0.09331581 0.19897482 0.01475682 -0.4587251
000180 25 d9 81 3e bf f5 28 be 62 01 18 bd bd d4 3c 3e
       0.2536098 -0.16499995 -0.037110694 0.18440528
000190 58 ce 61 be 6c af de bd fd 52 32 3d 3b f9 28 3e
       -0.2205137 -0.10873303 0.043536175 0.16501324
0001a0 eb 2b 85 be d4 03 59 3e 3d 1a df bc a8 a2 4e 3e
       -0.2601007 0.21192867 -0.027234191 0.20179236
0001b0 fc 5c 07 bf 4a 77 37 bd a0 8f 4c be 28 ad 69 bd
       -0.5287626 -0.044791497 -0.19976664 -0.0570499
0001c0 33 c6 a0 be d7 b5 90 3e 90 70 b1 3d d2 10 d5 bd
       -0.31401214 0.28263733 0.08664048 -0.10403599
0001d0 27 88 95 3e 00 72 92 3b e7 9a 85 3e 1f 94 82 be
       0.29205438 0.0044691563 0.26094744 -0.25503632
0001e0 c4 0f 89 be 23 4e 47 bd 68 ed 86 3e 32 1b a0 3e
       -0.2676984 -0.0486585 0.26353002 0.31270748
0001f0 30 57 64 3d 94 30 be bc 46 72 27 be fc fd 86 3e
       0.05574721 -0.023216523 -0.16352186 0.2636565
000200 db aa d5 bd 09 f7 99 be c1 1f a1 3e 5a ae dd 3d
       -0.10432979 -0.30071285 0.3146954 0.108242705
000210 c9 3c 31 3e 14 9a 19 be eb d8 08 3e f8 1b 3d 3e
       0.17308344 -0.15000182 0.13363998 0.184677
000220 38 17 29 3e c3 7f 5e 3c 71 57 54 3e ca 42 40 3e
       0.16512764 0.013580265 0.20736481 0.18775478
000230 bb 25 06 bf 8d 74 9c 3e 19 9a 86 bd fb bb a9 be
       -0.5240132 0.3055767 -0.065723605 -0.3315123
000240 c4 cb 15 be e3 a9 2d bf d5 37 85 3e ba f8 23 be
       -0.14628512 -0.6783735 0.2601916 -0.1601285
000250 77 ca 7f 3d 23 86 29 be 54 2e 92 3d e3 b6 8a 3e
       0.062448945 -0.16555075 0.07137743 0.27092656
000260 13 54 a0 3e 28 f4 49 be 9f 77 84 3e 38 3a 85 bd
       0.31314144 -0.19722044 0.25872514 -0.06505245
000270 30 04 19 3d c8 eb 16 3e 1c 2b 1d 3e 98 6b 4e bd
       0.03735751 0.14738381 0.15348476 -0.05039558
000280 19 f9 eb be 87 71 9f 3d de 87 b4 bd f0 58 6f be
       -0.46088484 0.077853255 -0.08814977 -0.2337377
000290 73 43 72 be 21 ad 1b be 0f 69 8f be 48 be 84 3e
       -0.23658542 -0.15202762 -0.2800984 0.25926423
0002a0 51 d3 3c be f1 e9 5a 3e 57 b0 93 be a5 bb 0b be
       -0.18439986 0.21378304 -0.28845474 -0.136458
0002b0 8a 58 89 bb ac df a0 3e 6d ac 06 3e dd b0 86 be
       -0.004191463 0.31420648 0.13151713 -0.2630681
0002c0 2e 8f aa be f6 0b 51 3e 88 10 4d 3d 6a 8d 94 3e
       -0.33312362 0.20414719 0.050064594 0.2901414
0002d0 e2 f8 fa 3d 6d c8 ad be 50 c5 4b be 09 4f 51 3e
       0.12254502 -0.33941975 -0.19899487 0.20440306
0002e0 41 8d 9c be f3 75 a6 3d 08 8b d3 bd 6a 5a 18 3d
       -0.30576518 0.08127966 -0.103292525 0.0371956
0002f0 be fc d2 bd c1 fc 87 bd 9c 8c 9b be 8d 36 90 3e
       -0.10302113 -0.06640006 -0.30380714 0.2816662
000300 4c a3 93 be f0 bb bf bc be 58 8e bd 65 4a 83 3e
       -0.28835523 -0.023405045 -0.0695052 0.25642696
000310 7a 43 58 3e 16 70 6a 3e 5e e3 42 3e ec 17 db 3d
       0.2111949 0.2289432 0.19032046 0.10697922
000320 9a 12 aa 3e a7 b9 2d 3e f8 b0 ba 3d 45 5a 2e bd
       0.33217317 0.16965352 0.09115785 -0.042566556
000330 c9 47 45 3e 3b f5 e0 3d 94 df b6 bc 8c 5a 42 3d
       0.19265665 0.10984274 -0.022323407 0.047449633
000340 93 7d 26 be 4a 26 de 3d 2c e2 21 3e bb 00 a8 bd
       -0.1625884 0.10847147 0.15808934 -0.08203264
000350 b3 85 2d be 4e 6f 10 be 19 a5 54 3e ef 53 6f bd
       -0.16945533 -0.1410496 0.20766105 -0.058429655
000360 c2 c9 e6 bd 44 10 8b be 39 37 c6 bd cb 4e 91 3e
       -0.11268951 -0.27160847 -0.09678502 0.28380427
000370 6b 68 13 bc da 46 f9 3c 65 38 66 3e 37 73 94 3e
       -0.008997063 0.030429292 0.2248245 0.28994152
000380 1d d7 20 3d 1d 20 98 3e 94 a3 94 3e 71 1b 14 3e
       0.039267648 0.29712 0.2903105 0.14463593
000390 1b ea c1 3c d3 2b ec 3d a9 6d aa bc 2c 90 57 3e
       0.0236712 0.11531796 -0.020804243 0.21051091
0003a0 5e bf 39 3e be 28 5a be 62 1c c4 3e d1 9f 16 be
       0.18139407 -0.21304604 0.38302904 -0.14709403
0003b0 5f 56 fc 3d 7d 17 8c be 59 50 c6 3d 8c af 91 3e
       0.123211615 -0.2736167 0.09683294 0.28454244
0003c0 58 cd c7 3e 73 94 77 be 12 d3 9f bc f3 26 59 bf
       0.39023852 -0.24177723 -0.019509826 -0.84825057
0003d0 8e 51 be 3d e3 f6 d7 3d 0b ac c5 be e6 61 a8 be
       0.09292899 0.10545137 -0.3860782 -0.3288719
0003e0 3e 86 1f be cb 2c 94 3e cc ce d4 bd 67 b0 8e bd
       -0.15578553 0.28940424 -0.10391006 -0.0696724
0003f0 4f ea 88 be c0 b1 4b 3e 43 e4 ce 3d 17 19 99 3e
       -0.26741263 0.19892025 0.10102131 0.29901955

bias f4 [256]
000000 f6 86 9b be fe 69 c9 bd e0 aa ff bc 4e dd 71 be
       -0.30376405 -0.098346695 -0.03120941 -0.23619577
000010 d2 08 12 3d 3a e6 1e bd 89 bc 03 3e 02 26 6b be
       0.035652943 -0.03879378 0.12864889 -0.22963718
000020 31 1a 98 3e d3 84 4d be 9e 86 e5 be d3 07 14 be
       0.29707482 -0.200702 -0.44829267 -0.1445611
000030 8b 59 ae bd 1a f7 a0 bd ec dd 1a bd 2a 44 0b 3e
       -0.08513173 -0.07859631 -0.037809297 0.13600221
000040 37 57 a9 be 63 a9 fb 3e 09 e7 ff bd 70 c6 85 3d
       -0.33074352 0.4915267 -0.12495238 0.065319896
000050 d9 a6 2a be 39 da 3d 3e c5 a1 93 3e 0f b0 b3 bc
       -0.1666521 0.18540277 0.28834358 -0.021934537
000060 ba 2a 6b bd 0f 38 5f be 91 2d 06 3e 16 41 52 3e
       -0.057413794 -0.21798728 0.1310332 0.20532641
000070 b0 c8 95 3d fa 84 40 bf 40 64 56 bd 1f 07 97 be
       0.07313669 -0.75202906 -0.0523417 -0.2949762
000080 18 d6 bd be 7d 4d da bd 67 45 8f 3e 45 9b 6e 3e
       -0.37077403 -0.10659311 0.27982637 0.23301418
000090 46 d1 0b 3f 47 43 de 3d a0 34 d2 be 07 2b cd 3e
       0.546162 0.10852676 -0.41055775 0.4007189
0000a0 d8 0b ca be 54 03 47 be ca 83 d8 3d fa 48 1e 3e
       -0.3946216 -0.19434863 0.10572012 0.15457526
0000b0 49 4b 8d bf 88 a5 84 3e 47 c2 8b be a7 51 87 be
       -1.10386 0.2590754 -0.2729666 -0.26429483
0000c0 88 37 75 bd 09 9c 43 bd ee 10 56 be 8e da 38 be
       -0.05986741 -0.04775623 -0.20904896 -0.18052122
0000d0 6b 18 17 be 33 5b 96 3e 42 3c 0c 3f 12 f4 71 3e
       -0.14755408 0.29366454 0.54779446 0.23628262
0000e0 84 0b 44 3b c5 a6 cf bd 18 d4 f0 be fa 82 0b 3d
       0.002991409 -0.10139231 -0.47036815 0.034060456
0000f0 99 89 92 3e 71 70 83 bf 1f e7 44 be 4c 56 16 bf
       0.28620604 -1.0268689 -0.1922879 -0.5872543
000100 8b df 82 bf 83 f7 9d 3e f6 e4 5a 3e dc 0e ec 3e
       -1.022447 0.308529 0.21376404 0.46105087
000110 39 f9 47 3e 42 ab 3b be ed c6 21 3e 7d 43 ae 3e
       0.19528665 -0.18327048 0.1579854 0.34035864
000120 19 b9 1f 3d 65 d4 55 bd 30 76 58 3d 74 e9 15 3f
       0.038994882 -0.05220451 0.052847087 0.58559346
000130 0c 29 28 3d b8 10 51 3d 98 ef 10 be ea ba 90 3e
       0.04105477 0.051041335 -0.14153898 0.28267604
000140 a8 e6 7f 3d b3 a2 85 3d 50 16 87 3d d2 f1 11 bc
       0.06247583 0.06525173 0.06596053 -0.008907752
000150 f1 7c e2 be cc cc da 3e 5f f4 4f be 8a 63 96 3e
       -0.44235948 0.42734373 -0.20308064 0.29372817
000160 1e 31 a4 bb 64 61 86 3e 04 76 92 3e e9 9f c4 be
       -0.005010738 0.26246178 0.28605664 -0.38403252
000170 25 49 bc 3e 0f 40 92 bd 68 cf 2b 3c 1e ea a9 be
       0.36774555 -0.071411245 0.010486461 -0.3318643
000180 6c b8 b1 be 7a 7a 46 3e e0 af 49 bc 30 e1 a1 be
       -0.34711015 0.19382659 -0.012309998 -0.31617117
000190 4d 10 04 bf cb f8 7f 3e c0 ad 75 be ca ee 44 be
       -0.51587373 0.2499725 -0.23992062 -0.19231716
0001a0 3c ea e6 bd 28 04 55 3e 84 41 51 be 27 c6 db be
       -0.112751454 0.20802367 -0.20435148 -0.42924616
0001b0 87 b5 db 3d 30 f5 83 3d 42 12 28 be 2b f6 51 be
       0.10727983 0.0644325 -0.16413215 -0.20504062
0001c0 cf c1 9d be ee 38 c4 3d b0 3f 00 3e 45 78 23 be
       -0.30811927 0.09581171 0.12524295 -0.15963848
0001d0 41 28 47 be 4b a8 ad be 3f a4 af 3e 26 c0 55 bf
       -0.1944895 -0.3391746 0.34304997 -0.8349632
0001e0 3e bc f2 be 76 75 dd bd 63 4a 55 bd 99 ad da bd
       -0.47409242 -0.108134195 -0.052072894 -0.106776424
0001f0 03 9f 4d 3e a8 fe 83 be 0c 41 f8 3d a0 7f 9a 3d
       0.2008019 -0.25780225 0.12121782 0.07543874
000200 1f f4 ff be c5 5c f8 3c 80 f3 17 3f 7c 0a 03 3e
       -0.49990937 0.030317673 0.59355927 0.12796968
000210 24 93 58 3e 6c 02 88 be 64 1d 14 bd 69 e5 2e 3e
       0.2114988 -0.26564348 -0.03616084 0.170797
000220 fe 04 52 3e 50 cc 5e 3e 02 91 4d bf 14 de 78 3e
       0.20509717 0.21757627 -0.8029939 0.24303466
000230 15 4b 59 bc 65 c5 19 be 05 b2 12 3e 26 3e 97 3e
       -0.01326253 -0.15016706 0.14325722 0.29539603
000240 e9 00 84 be 7e c8 88 be 34 be e6 bd 52 d3 37 be
       -0.25781944 -0.26715463 -0.11266747 -0.17951706
000250 e8 d3 3c bd a4 dd e9 bd 7f 86 25 bf 90 1b fd 3d
       -0.046100527 -0.11419228 -0.6465835 0.12358773
000260 8f 62 9b be 15 dc 0d bf 15 98 79 bd 3a 8b ed bd
       -0.30348632 -0.55413944 -0.060936052 -0.11598821
000270 f0 bc 0c 3e 79 f4 97 3c 40 94 8c bc 98 45 1d bf
       0.13743949 0.01854919 -0.017160535 -0.61434317
000280 c2 a0 9e 3e 41 f3 a1 3e fd 0c 72 3d fc 8d 21 3e
       0.30982023 0.316309 0.059094418 0.15776819
000290 d7 66 98 3f 71 21 bf bc 03 b3 88 3e 31 3b 5a 3e
       1.1906384 -0.023331376 0.26699075 0.21311642
0002a0 a8 87 39 3d 25 dd 4b bf ca 72 ac 3d 57 e6 d8 be
       0.045295388 -0.79634315 0.08420332 -0.42363235
0002b0 39 7f 31 3e 27 d2 28 3f 2d ec 7b bd cb 35 5a be
       0.17333688 0.6594567 -0.06150453 -0.21309583
0002c0 5d 2d d2 bd 1d a5 ed bd a0 bc 50 bc fa d0 5f 3e
       -0.102625586 -0.116037585 -0.012740284 0.21857062
0002d0 62 cf 59 3e 2b fb 90 be 5b ce 85 be 0c bb 1b 3e
       0.21270517 -0.28316626 -0.26134 0.15208071
0002e0 2f cb 67 be eb 10 c5 bd e7 27 b3 be c9 6a c4 3d
       -0.22636102 -0.096223675 -0.3499138 0.0959068
0002f0 32 89 17 3e 4e 30 3b 3e fc e9 d5 be 2e 24 2a 3d
       0.1479843 0.18280146 -0.41780078 0.04153841
000300 15 cd 04 3f 02 e4 f1 be 5c 39 9d 3d 2a d0 58 3d
       0.5187543 -0.4724427 0.07676956 0.052932896
000310 24 87 a5 3e f0 f1 83 3e 9c 15 7c 3e dd d7 dd 3d
       0.32329667 0.2577052 0.24617618 0.10832188
000320 de f1 a7 bc 8b 41 6f be 88 5e 87 3e 4e 5e 32 bf
       -0.020501073 -0.23364846 0.2643931 -0.6967515
000330 4d 15 9c 3c f8 fc 37 3f 5c 33 40 bd 12 cc cc be
       0.019053126 0.71870375 -0.04692398 -0.39999443
000340 56 b4 b6 be fa 94 c5 3d 93 ed 90 bd fc 57 c6 be
       -0.3568446 0.09647556 -0.07076564 -0.38739002
000350 fb 65 0c 3f f7 b6 e7 bd 39 b1 55 bf b7 38 02 3e
       0.5484311 -0.11314195 -0.83473545 0.12716947
000360 76 46 4a 3d f7 86 89 3f d6 ac de bd 2e 8b 02 3f
       0.049383603 1.0744313 -0.108728096 0.5099362
000370 70 22 5d 3f 75 44 1e be ba 5b 32 3d 52 52 9c be
       0.8638067 -0.15455802 0.04354451 -0.30531555
000380 40 e7 02 bf 96 93 35 be a9 a4 6c 3e 4b cd a5 3d
       -0.5113411 -0.17732081 0.23109688 0.08095797
000390 f3 0b 70 3e ac af 57 be 69 d8 de be 37 ce 8b 3e
       0.23442058 -0.21063107 -0.43524483 0.27305767
0003a0 0c 6c 7c bc 72 26 ce 3e f8 f1 07 3f 55 0a 58 3e
       -0.01540662 0.40263706 0.5310359 0.21097691
0003b0 49 40 4c be 04 d2 15 bd 36 9c 00 be 1d e3 db 3d
       -0.19946398 -0.03657724 -0.1255959 0.10736678
0003c0 30 6b a4 3e 97 8d 28 3f 72 2b ec bd b7 ad dd 3b
       0.32113028 0.6584105 -0.11531724 0.006765093
0003d0 24 aa db be e8 79 43 bd cb 10 bd 3e 57 50 9c 3e
       -0.42903244 -0.04772368 0.36926875 0.30530044
0003e0 19 83 75 be 6b 70 7d 3e 59 d1 4e be 1d 73 f9 be
       -0.23975791 0.24749915 -0.20197047 -0.48720637
0003f0 16 2f 17 be af 98 66 3e c4 83 08 bf 56 bb 0f 3f
       -0.14764056 0.22519182 -0.5332606 0.56145227

weight f4 [128, 256]
000000 2e a8 99 bc 3f 21 7d 3d 17 6f d4 3c a3 04 8d 3c
       -0.018756952 0.061799284 0.025931878 0.017214125
000010 5a 9e e1 3c 8e 96 d3 bd a3 fc 2b bd c8 1a c9 bd
       0.027541328 -0.103314504 -0.04198898 -0.09819561
000020 38 b5 83 3c 63 9b 88 bc 3d a9 57 bc ef 9f 72 3d
       0.016077623 -0.016675657 -0.013162908 0.059234556
000030 33 ba 6b 3d d4 86 7b 3c 5e c2 4c bd ff a4 72 bd
       0.05755062 0.01535197 -0.04999005 -0.059239384
000040 ec 6f 69 bd e3 72 51 3d b1 95 81 bc 9d e0 19 bd
       -0.056991503 0.051134955 -0.015818449 -0.037567724
000050 fc 0d 5e 3d 54 ee 35 bc d1 a0 da 3c 8a 83 5e 3c
       0.054212555 -0.011104185 0.026688011 0.013581166
000060 20 71 48 bd 98 9c 68 3c f6 38 a2 3b 9f e2 c5 bc
       -0.04893601 0.014197491 0.004950638 -0.024155913
000070 5d be ba 3b b9 8c 1e 3d cf 23 06 3d 73 c2 3f 3b
       0.0056989626 0.038708422 0.032748993 0.0029260188
000080 ff 7f 05 be 44 fc 95 39 62 a4 92 3c 29 19 18 bd
       -0.13037108 0.00028607447 0.01790065 -0.03713337
000090 f1 2c fb 3b 7f 68 06 3e e1 c2 a0 3b 7c 2c 49 bd
       0.0076652695 0.131258 0.004906044 -0.04911469
0000a0 03 dc bf bd bf ed ae 3c fe 83 f2 bb f1 ec 02 3d
       -0.09368136 0.0213536 -0.0074009886 0.031964246
0000b0 9d 84 ff bc d1 97 19 bd 54 3a e2 3c ce f0 ce 3c
       -0.031191165 -0.0374983 0.027615704 0.025261309
0000c0 93 6f 24 bd 31 7a 15 bd 90 19 3b ba bd b9 9a 3c
       -0.040145468 -0.036493484 -0.0007137293 0.018887395
0000d0 22 16 76 3c 05 ed 22 3d d0 61 48 3d 1d b1 29 3d
       0.015019925 0.03977682 0.048921406 0.041428674
0000e0 82 a4 66 3b 3f f2 12 be 21 6d ec bd c8 f0 0b bd
       0.003519327 -0.14350222 -0.11544252 -0.034165174
0000f0 df fc 98 3c e2 fe 24 3d b3 04 9c 3b 7d 92 b0 bd
       0.018675266 0.040282138 0.0047613024 -0.086216904
000100 a8 95 b2 bc fd ba 4d bd 15 70 27 3d 2e 0f 3d 3d
       -0.021799877 -0.050227154 0.040878374 0.046157055
000110 a2 a2 1c 3d 69 85 3a bd 45 bc 75 bd 90 fe df 3d
       0.038241036 -0.045537386 -0.059994 0.10937226
000120 97 69 26 3d 9f 85 2e bd 19 35 4d bd ed fb 4b 3d
       0.040628042 -0.0426079 -0.050099466 0.049800802
000130 49 0b c5 3d 39 05 37 bd ba 1a 11 3c 04 29 89 bc
       0.09621293 -0.044682715 0.00885647 -0.01674319
000140 f1 14 2d 3d d1 fd 72 3c b6 d6 a1 bb 6e d6 01 bd
       0.0422563 0.014831022 -0.0049389256 -0.031698637
000150 9e 29 9c bd 65 b4 22 ba 7d d1 77 3d af a3 05 3e
       -0.07625125 -0.00062066905 0.060502518 0.13050722
000160 97 66 b0 3c 33 cc 4e 3d 0b e1 c7 bc d7 12 0e be
       0.021533294 0.05048771 -0.024399301 -0.13874374
000170 8f 6d e2 3d f7 eb 4b 3d f3 d5 51 3d 74 8c c8 bc
       0.11056053 0.04978558 0.05122943 -0.024481036
000180 7f 58 d6 3b 81 94 1e 3d 00 46 57 3a ad e5 68 bd
       0.0065413113 0.038715843 0.000821203 -0.05685966
000190 e6 2c 82 3c d8 c1 70 bd 6f 26 eb bc f5 26 7d 3d
       0.01589055 -0.058778614 -0.02870485 0.06180473
0001a0 bd f5 16 bd 1d 3b 4c bd 54 08 32 3d 17 cd 1a be
       -0.036855448 -0.049861062 0.043464974 -0.15117298
0001b0 a0 38 2d bd f4 65 c1 bc fd b2 3d 3d 75 c3 35 bd
       -0.04229033 -0.023608185 0.046313275 -0.044375855
0001c0 76 1c 13 3d 2f ce 0e bd cd d5 23 bd 13 d2 4b bd
       0.035915814 -0.0348646 -0.03999882 -0.04976089
0001d0 2b 35 6c 3d 1b 2f 54 bd a1 e6 83 3d c1 af 28 3d
       0.057667892 -0.051802736 0.06440473 0.041183237
0001e0 51 cc 93 bd 3f 22 ee bc 32 db 8c 3d d9 c8 06 3d
       -0.07216705 -0.029069064 0.06877746 0.032906387
0001f0 99 37 f3 3c 85 1f ba 3c d7 94 52 3d 01 7f 5f 3d
       0.029689597 0.022720108 0.051411476 0.05456448
000200 23 8f 7c bd ad 67 10 3d 4f a9 c2 bc e4 75 40 3d
       -0.061659943 0.035255123 -0.023762373 0.04698743
000210 d8 fb 05 3d 23 45 4c bd 83 be 46 3d 26 43 cc bd
       0.03271088 -0.04987062 0.04852153 -0.09973745
000220 e4 64 42 bc 35 f9 51 3d a7 98 1b bd d9 ef 94 bd
       -0.0118648745 0.051263053 -0.037987377 -0.0727231
000230 8d c3 6a bd d3 c8 63 3b 47 16 c5 bd 4b cb a5 3c
       -0.057315398 0.0034757152 -0.0962339 0.02023854
000240 b5 d1 3e bd eb 73 4c 3d 6f 70 28 bd 59 3b f5 bd
       -0.04658671 0.049915235 -0.04112285 -0.1197421
000250 92 30 b5 39 ff 79 81 3c 31 d5 24 bd c5 94 33 bc
       0.00034559198 0.015805243 -0.040242378 -0.010960762
000260 2e 8a 00 3d 8d 7d 57 3d aa ba 59 3c 3e a8 15 3d
       0.03138178 0.05260997 0.013289133 0.0365374
000270 62 0a 5d 3c 64 52 9a 3b ad 80 e2 bc 1d 55 ff 3c
       0.013491245 0.0047095288 -0.027649248 0.031168515
000280 db 17 78 bd 1a 26 0b bd 47 fe 78 3d fe f7 bb bb
       -0.060569625 -0.033971883 0.060789373 -0.00573635
000290 a9 5b 39 3d f7 e9 6e 3d b7 07 c8 3c af 20 d2 3c
       0.04525343 0.058328595 0.024417741 0.02565035
0002a0 97 f0 ab 3c ef f5 08 bd 5d 33 fd 3c 95 4b 79 3d
       0.020988746 -0.033437666 0.030908281 0.060863096
0002b0 6a eb 0d bd a0 dd e1 3d e2 0f 9b bd 9b ea 89 3c
       -0.034648336 0.110286 -0.07571389 0.016835501
0002c0 86 e2 de bb f1 b0 ab bc 5f fb 8c ba fb a1 00 3e
       -0.006801906 -0.020958396 -0.0010756067 0.1256179
0002d0 7d 24 1e 3d 05 9d ad 3c 58 52 8d 3a 8f 2f 32 bc
       0.038609017 0.021193037 0.0010781987 -0.010875597
0002e0 93 a9 69 bc 49 2b a4 3b 0c 7d 25 3c 03 66 50 3d
       -0.014261621 0.005010043 0.010100614 0.050878536
0002f0 3d 9e 5d bd e7 a2 53 bb ad 60 2a bb 03 04 1b bd
       -0.054105986 -0.0032293142 -0.0025997565 -0.037845623
000300 3f 3e 42 bd 30 93 2f ba 25 3b 95 3c 8b 1b 81 bc
       -0.047422644 -0.0006697653 0.018216679 -0.015760204
000310 0b c2 7c bd 4c 4d ec 3d 30 ad 35 3d 29 bd b6 3d
       -0.06170849 0.11538181 0.044354618 0.08922798
000320 38 77 96 3c 0b 5d 65 bd 28 92 86 bd 2b 42 40 bd
       0.018367395 -0.055996936 -0.06570846 -0.046938103
000330 ec 94 17 3d d4 83 70 3b 7a d7 62 bd f8 8e 0a 3c
       0.037007257 0.003669967 -0.055381276 0.008456938
000340 01 48 30 be 9e 04 a0 bd df 2c 7d 3d a9 9c 2f bd
       -0.17214967 -0.07813381 0.06181037 -0.042874012
000350 e0 f2 f2 3d 8e 98 54 3d d4 19 49 3c d2 12 06 bd
       0.11862731 0.0519033 0.012274224 -0.032732792
000360 3e 28 29 bb b8 a2 47 3c ed c7 4a bd a1 29 5f 3d
       -0.002581134 0.012184791 -0.04950707 0.05448306
000370 80 b7 58 bb c5 e3 5f 3c d7 66 c1 3d 38 7d 00 3b
       -0.003306836 0.013665144 0.09443443 0.0019605886
000380 af f9 a4 bd 1d b5 8f bc b3 3d 68 3d f7 b1 27 bd
       -0.08055436 -0.017542416 0.056699466 -0.040941205
000390 3d c6 b4 bc 3b 5f 6e 3d 98 ad b0 bd c7 61 4a 3d
       -0.022067184 0.058196288 -0.086268604 0.049409654
0003a0 95 88 fe 3c 06 28 44 3d ff 96 bf 3b 8a 9c 75 bc
       0.031070987 0.04788973 0.0058468576 -0.014990935
0003b0 3a b0 59 3d 32 1b 51 3d e9 7e c5 bc 47 13 51 3d
       0.05314658 0.051051326 -0.024108367 0.051043775
0003c0 ca 00 63 3b 00 46 3e 3d d3 2c 8f bc 13 25 09 3d
       0.0034637921 0.046453476 -0.017477429 0.033482622
0003d0 16 41 3b bd 4d 56 35 bd 5c c2 33 3d be 24 21 3d
       -0.045716368 -0.044271756 0.043886527 0.03934168
0003e0 fd 79 86 3c c8 b6 4f bd fc 0d 6c bc 90 f0 30 bd
       0.01641559 -0.050711423 -0.014407631 -0.04319817
0003f0 78 3a 74 3c ab 70 62 3d fe bb d5 bd 18 4b 9d 3b
       0.014906518 0.05528323 -0.10436247 0.0048002116

bias f4 [128]
000000 ff 33 79 3d a2 8f 8d 3d fe fd 52 bd e3 f0 52 bd
       0.060840603 0.069121614 -0.051511757 -0.05149926
000010 4c 68 af bd 3a 9d c2 bc fb 19 f9 3c 9c 34 14 3c
       -0.08564815 -0.023756612 0.030407896 0.009045746
000020 a7 a1 8c bd 67 3d c4 3b fc 4a ee 3b ec 83 51 bd
       -0.0686677 0.005988765 0.0072721224 -0.0511512
000030 30 0f 06 bd 7b af 10 3d 21 45 b4 3d 9e 05 0c bc
       -0.032729328 0.0353236 0.08802248 -0.008546261
000040 c7 75 2c bd 76 44 cd 3c bf da cb 3c 60 ee 89 bd
       -0.04210451 0.025057059 0.02488458 -0.067349195
000050 d6 74 50 bd 50 fe b4 bc fa 72 14 bd 24 0d 20 bb
       -0.050892673 -0.022093922 -0.036242463 -0.0024421895
000060 de 95 72 3c bb 7d e2 3b 53 2a ba 3c 97 a7 0c 3d
       0.014806239 0.006911961 0.02272526 0.034339514
000070 88 85 2f 3d 99 33 37 3d 12 91 2d bd 23 22 cd 3c
       0.042851955 0.04472694 -0.042374678 0.025040692
000080 0b 2b 89 3d 3f 7d 9a bd aa 11 35 3d 6e 6e 83 3b
       0.06697663 -0.0754342 0.0442063 0.004010967
000090 21 e0 96 3c 7f 4e 8e 3b aa d4 00 3d b8 4b 48 bc
       0.01841742 0.0043428536 0.031452812 -0.012225084
0000a0 ce f9 0e bd 5a 7a cc bc 67 14 a0 3d 19 cb a3 3d
       -0.0349062 -0.024960686 0.078163914 0.07997722
0000b0 94 01 bf bb d3 64 fa bc 6b 1c 9b 3d dc 8c 71 bd
       -0.0058290455 -0.030565655 0.0757378 -0.058972225
0000c0 d1 8f 49 bd b7 2c ba 3c 39 d5 fe bb 48 da 9e 3d
       -0.04920942 0.0227264 -0.007776883 0.077564776
0000d0 aa 78 b9 3b 6c 8b a7 3a 0a 15 22 3d e2 e6 8d bc
       0.005660136 0.001278264 0.039570846 -0.017322008
0000e0 45 e5 4a 3d d0 74 3f 3d f9 5f cb 3c 92 77 96 3d
       0.049535055 0.04674226 0.024826037 0.07347025
0000f0 ea 33 ce 3c ca f3 22 3d 10 46 14 3d 52 04 12 bd
       0.025171239 0.039783277 0.03619963 -0.03564865
000100 5c c6 a4 bd 15 ec a0 3c 24 c1 95 bb 90 9f 82 3c
       -0.080456465 0.019643823 -0.0045701433 0.015945226
000110 ce 9b 2c bd 80 22 18 bb 82 5a b5 bb be 7e 61 3d
       -0.042140774 -0.0023213923 -0.005534471 0.05505251
000120 13 67 77 bd 1a 7f a1 3a 29 27 d3 3c 4f 6b 8a bc
       -0.060401034 0.0012321204 0.025775509 -0.016896872
000130 fe f8 0f 3d ec d2 2b bc c4 b0 2e bc d5 f2 92 bd
       0.035149567 -0.010487299 -0.010662261 -0.07175223
000140 73 26 99 3c 3f 36 f2 3a 5f 8e 8e bc 86 c6 ac 3d
       0.018695092 0.0018479301 -0.017401872 0.08436303
000150 99 fe ec bb b5 a9 0c bd f0 2f a1 3d 86 b9 68 bc
       -0.007232499 -0.034341533 0.078704715 -0.0142043885
000160 2d 44 1d bd da df 6d 3d d3 a3 b1 3c 74 80 81 bc
       -0.038395096 0.05807481 0.021684563 -0.015808322
000170 f0 aa 50 bc 26 a4 b0 bd 81 89 3f bd cf 9b 3d bc
       -0.012736067 -0.08625059 -0.046761993 -0.011572792
000180 51 74 ab bd 7f df 62 bc b6 d5 58 bd f4 0e 8f 3d
       -0.08371795 -0.013847231 -0.052938186 0.06985274
000190 d4 2c f8 3b b7 18 3b 3d c5 87 d4 bc b4 83 67 ba
       0.0075737033 0.045677867 -0.025943646 -0.0008831576
0001a0 a7 84 e3 bc bf f0 0b bd 92 39 5e 3c a4 5b 46 3d
       -0.027773215 -0.03416514 0.0135635305 0.04842724
0001b0 97 f7 9e bc 9d 45 a5 3c 32 54 13 bd e5 ed 51 3d
       -0.01940517 0.020174796 -0.035968967 0.051252265
0001c0 7b 20 1d 3c cf d8 ec bb 19 8c 8a 3d 50 c5 8c 3c
       0.0095902635 -0.007227994 0.06765003 0.01718393
0001d0 a3 08 5b 3c fc 7e af 3d bd bc 74 3d 82 19 24 bc
       0.013368758 0.08569142 0.059750307 -0.010015847
0001e0 21 26 9f 3d 5e 77 95 bd bb 06 72 bd 5e 7d 6b 3d
       0.077709444 -0.07298158 -0.05908845 0.057492606
0001f0 d7 e9 2b 3d ea 1b d5 bc 4f b0 96 bd 90 fb 70 bc
       0.041971054 -0.026014287 -0.07357847 -0.014708415

weight f4 [64, 128]
000000 36 95 e2 bc d8 52 9f bc 2a 3b 8d 3d 26 4e 31 bd
       -0.02765904 -0.019448683 0.0689605 -0.04328742
000010 37 bc 69 3d 2f 7c bc 3c bf 9f 10 bd ae 37 00 bd
       0.05706426 0.023008434 -0.035308596 -0.0313031
000020 a3 c7 59 bd a0 8e 9d 3d 9d 27 9a 3d 7e 84 03 bd
       -0.053168904 0.07693219 0.07527087 -0.032108776
000030 76 30 1b bc 84 aa cc bd e9 74 89 bd c7 14 70 bc
       -0.009472003 -0.09993461 -0.06711752 -0.014653391
000040 6f c7 f1 3c 49 51 f1 3d 5a 32 52 3d 77 4e d9 bd
       0.029514043 0.11783082 0.05131755 -0.10610669
000050 bd 1b 2b 3d eb 6c 49 3d 71 7d cd 3c aa b4 92 bd
       0.0417745 0.049176138 0.02508423 -0.07163365
000060 44 21 c5 3d fb 14 dd 3d 79 c8 5f bb 94 e1 cd bc
       0.096254855 0.10795017 -0.003414659 -0.025131978
000070 62 14 9a 3c 8e 11 28 3d ab 13 e6 bc de 83 d5 3d
       0.018808547 0.041032366 -0.02808555 0.10425542
000080 dc 00 c8 3d 8c c3 a7 bc d5 b5 af 3b 0e a2 67 3d
       0.09765789 -0.020478986 0.0053622522 0.05655103
000090 76 97 bf 3c a6 05 11 3d ed d2 0a 3d 60 ef d1 bc
       0.023387652 0.035405777 0.03389256 -0.025626838
0000a0 94 cf 52 bd 2b 6d 4a 3d 30 ce 40 bc 19 6b 3d 3c
       -0.051467493 0.049420517 -0.011767909 0.011561179
0000b0 b0 fb 08 3d e8 51 be 3d 0e e5 11 bd ca f6 5f 3d
       0.033443153 0.09292966 -0.035618834 0.054678716
0000c0 7f 9f d1 bd 05 a8 de bb ec 30 0b bd 42 d6 98 3d
       -0.102354996 -0.006794932 -0.033982202 0.074627414
0000d0 43 b8 ca bc 33 2f 03 3d 1b 6d 00 be 0e dc f0 3d
       -0.024746066 0.032027435 -0.1254162 0.11760722
0000e0 bd 96 bb 3c f7 b2 bb 3b ca cc f5 bd ac 9c a0 3c
       0.022899026 0.0057281214 -0.12001951 0.019605957
0000f0 0b cb 92 3d 62 30 ca bc 5a fb 88 3d 1d 8f d8 bd
       0.071676336 -0.024681274 0.066885665 -0.10574172
000100 b9 ba 8f bd 13 5a da bd 73 96 54 bd c1 b8 a0 bd
       -0.070180364 -0.106617115 -0.051901292 -0.07847739
000110 b0 b5 b8 bd bc b7 3e 3c 9b 0b e8 3d d7 47 d4 bd
       -0.09019029 0.011640485 0.113303386 -0.10365265
000120 99 02 e0 3c 4d 33 0b bd 9c 80 58 3c f9 46 3e 3d
       0.027344989 -0.03398447 0.013214257 0.046454404
000130 df c4 a5 bd 3e b2 bd bd a5 6c 7f bd ab 7b 05 3d
       -0.08094191 -0.092625126 -0.06235947 0.032588642
000140 98 4b 88 3d 33 14 d0 3c 2c 4b a8 3d 72 e6 98 3c
       0.06655043 0.025400257 0.08217463 0.018664572
000150 3d 9e 73 bd 14 46 39 bc 0d df dd 3c bf d6 90 3c
       -0.05947708 -0.011308212 0.027083898 0.017680524
000160 8f 83 89 bd 0c db 57 bd 4d 1c c6 bd 92 c2 52 bd
       -0.06714546 -0.052699134 -0.09673367 -0.051455088
000170 e1 03 5c 3d e1 35 5a bd bf 86 dc bd 75 e2 dc bd
       0.053714637 -0.05327404 -0.10767888 -0.10785381
000180 c1 6a 9c 3b 0c 61 8f bc b2 59 49 ba 5e 77 f9 3d
       0.0047734682 -0.01750233 -0.0007680907 0.121809706
000190 67 ac 42 bd c1 df f0 bd d3 4c 05 bb ff 1b 97 3d
       -0.047527697 -0.11761428 -0.002033998 0.07378387
0001a0 e3 35 dc 3c 1f 71 9a bd 9f a9 5f 3d 4e 48 1f 3d
       0.026881164 -0.075411074 0.054605123 0.038887314
0001b0 7c 29 e5 bc 9e 61 ce bd 24 4f a9 3c d2 17 f1 3d
       -0.027973883 -0.10077213 0.02066762 0.117721215
0001c0 9d 57 c0 3d 49 ac 2c bd ee de ee 3d 5c 87 ed 3d
       0.09391711 -0.04215649 0.11663614 0.115980834
0001d0 5d 7a a2 bc 44 d2 ea 3d 26 8c d6 bd f1 c2 b3 bc
       -0.019833738 0.11465886 -0.1047595 -0.021943541
0001e0 b0 47 f1 3b 9b 5c 51 3b e2 50 0a bc 09 a6 bd bd
       0.007363282 0.0031946066 -0.0084421355 -0.09260184
0001f0 60 61 38 3c a9 fd f3 bb 40 e8 af bd 1a c0 71 3d
       0.011253685 -0.00744601 -0.0858922 0.059021093
000200 4a 79 b5 bc 21 50 b3 3c 86 60 17 bd 4a d5 48 bc
       -0.022152562 0.021888794 -0.036957286 -0.012257883
000210 39 6a df 3e 10 54 0d bb df 80 19 be 6c 2e 7c 3d
       0.4363573 -0.0021564998 -0.14990567 0.06156771
000220 0d a9 fb 3c be 8c 6b be 79 bc f0 3b da 31 88 3d
       0.030720258 -0.23002908 0.0073466864 0.066501334
000230 8a 12 4d bd 14 d1 f9 bb 66 68 2a bf fd 8a 6d bd
       -0.05006651 -0.007623801 -0.6656555 -0.057993878
000240 18 aa 53 bd 1c e8 11 3e 29 de 3b 3d e7 61 76 bd
       -0.051675886 0.14248699 0.045866165 -0.06015196
000250 cc de 82 bd 17 3b 4e bd 9c c3 42 3e 19 29 52 3d
       -0.063901514 -0.05034932 0.19019932 0.051308725
000260 e7 9d 46 3e 65 c6 2c bd e8 32 af bd 45 8e 8f bd
       0.19396172 -0.04218139 -0.085546315 -0.07009558
000270 a5 92 a7 bd 38 18 c9 bd d3 cf 08 3e c7 52 2f bd
       -0.08182267 -0.098190725 0.13360529 -0.042803552
000280 1c 37 c9 3a e7 ca 6e bd b2 df bd be 32 64 18 bf
       0.0015351507 -0.05829897 -0.37084728 -0.59527886
000290 d7 6f d3 bd fc a1 80 bd 52 2b 5e bc 11 b1 09 3e
       -0.10324066 -0.06280896 -0.013560133 0.13446452
0002a0 21 1d 02 bf 52 c7 ea bc 27 3e 14 bd fc 05 cb 3d
       -0.508257 -0.028659496 -0.036192086 0.09913251
0002b0 97 d6 0c 3d 5c ed 6e bd 2a 26 2e bd 9c 66 2b 3e
       0.034384336 -0.058331832 -0.042516865 0.16738361
0002c0 d5 08 e0 bd b2 27 ce bd c6 ec 3d 3d 61 d2 36 3d
       -0.109391846 -0.10066165 0.046368383 0.044634227
0002d0 1d 80 3c 3d 45 40 b7 bb 41 02 ec 3d 1d 4f ac 3d
       0.046020616 -0.0055923783 0.115238674 0.08413527
0002e0 31 95 73 bc 8e 51 61 bd be db 4d bd c7 4b 8a 3d
       -0.014867113 -0.055009417 -0.05025839 0.06752735
0002f0 ee e2 a8 3d 5c 18 c4 bd 14 37 6f 3d 12 e7 94 bd
       0.082464084 -0.09574959 0.058402136 -0.07270636
000300 00 53 60 3e 9a 16 46 3d b3 9f d9 3d 2b 8f 2c 3e
       0.21906662 0.0483614 0.10626163 0.16851489
000310 8c 1c 54 3d 99 d3 39 3a c1 f4 d6 3d 58 1a e1 ba
       0.051785037 0.00070887204 0.10495902 -0.0017173989
000320 00 cf 86 3e 73 29 af 3b af ed 04 bd 77 ae 34 bf
       0.26329803 0.0053455173 -0.032453235 -0.7057871
000330 e3 7a d3 3c 23 6a b0 bd f9 c6 8e bd cb 00 44 3d
       0.025815433 -0.08613994 -0.06971545 0.04785232
000340 61 f9 8c bd 0f 2b 0f 3d 48 58 21 bd aa 90 2c bf
       -0.06883503 0.034953173 -0.039390832 -0.6740824
000350 46 5c ac bc 44 68 ad bc e2 ea 8a bd 0e a0 e3 bd
       -0.021040093 -0.021167882 -0.067830816 -0.111145124
000360 25 06 2f be 4b fc 12 3d 90 78 e3 bd 6b c3 d3 bc
       -0.17092188 0.035885137 -0.1110698 -0.025850018
000370 b8 74 83 3d e2 5c 51 3d 44 90 7b 3e b6 b1 99 3d
       0.06418747 0.05111397 0.24566752 0.07504599
000380 05 fb 3a 3d 82 d5 24 3d c5 8d 03 3d 61 59 81 bd
       0.045649547 0.04024268 0.032117624 -0.06315876
000390 de 22 93 bd 2e e2 7b bd 87 77 31 3d b4 94 26 3d
       -0.07184385 -0.061495 0.04332688 0.040669158
0003a0 34 83 b6 3d 52 2e 54 bf f7 e3 da 3c 28 1f e6 bc
       0.08911744 -0.8288318 0.02672003 -0.028091028
0003b0 1e fd fd bc d7 05 66 bd c0 b1 75 bd ec 73 72 bd
       -0.031004485 -0.056157913 -0.05998397 -0.059192583
0003c0 c5 df 86 3d 52 f1 7b bd 01 17 09 3d ee de 95 bc
       0.065856494 -0.061509438 0.033469204 -0.018294778
0003d0 97 9f f4 3d 4c 69 89 bc f3 5a f4 ba c5 73 d7 bd
       0.11944502 -0.016773842 -0.0018642828 -0.10520128
0003e0 ea ef 9c 3d d9 c2 0a bd a0 33 9c bc 6e d2 ae 3e
       0.076629475 -0.033877227 -0.019067585 0.3414492
0003f0 59 82 19 bd f0 32 15 3e b9 76 98 3e 76 3b df 3d
       -0.037477825 0.14570212 0.29778078 0.10900013

bias f4 [64]
000000 a2 7f d6 bc 0d 08 ee bc e1 9f 8f bd 11 d5 b4 bc
       -0.026183907 -0.029056573 -0.07012916 -0.022074254
000010 a6 d3 bf 3c 96 c5 a8 bd 9e 1f 84 3c ef dc 04 3d
       0.023416352 -0.082408115 0.016128357 0.03243726
000020 fa 43 e0 bd f3 0e fb bc b5 dc 20 3d 96 22 36 bd
       -0.109504655 -0.030646777 0.039272983 -0.044466577
000030 0a 86 59 bd 70 52 a4 ba 7a e3 da bd e2 96 26 bd
       -0.053106345 -0.0012536775 -0.10687919 -0.040671237
000040 f4 bd 38 3c b8 f3 66 bd d1 93 dd 3c 8f 54 12 3d
       0.011275757 -0.056384772 0.027048023 0.035725173
000050 99 dd 38 bd ad ee 00 3d 44 63 cc 3d 41 3c 0c bd
       -0.045133207 0.03147762 0.09979871 -0.03423715
000060 3a 75 09 bb 3f f6 29 bd 91 0a fb 3b 51 a1 c1 3d
       -0.0020974413 -0.041494604 0.0076611717 0.09454597
000070 b1 94 ca bc cc 07 42 bd 65 3d c8 bd cd 47 ce 3b
       -0.024729105 -0.047370717 -0.09777335 0.0062951804
000080 69 fe c4 bd 87 38 36 bd a5 4a a5 bd 60 ad 67 bd
       -0.096188374 -0.044487502 -0.08070878 -0.056561828
000090 04 b7 ac 3c 86 93 11 bd f0 a4 ce 3c e4 2d c3 3c
       0.021083362 -0.03554108 0.025225133 0.023825593
0000a0 53 23 bc bc bf 9b dd 3d 6e c6 e7 3d 54 2d f3 bc
       -0.022966063 0.10820722 0.11317144 -0.0296847
0000b0 23 df 3b 3b f9 17 d4 bd 5c 34 c1 3d 71 81 6a bb
       0.0028666935 -0.10356135 0.09433815 -0.003578272
0000c0 97 71 b3 bd ae 5c 94 3d 35 12 ac 3d 13 2e af 3d
       -0.087619 0.0724424 0.0840191 0.0855371
0000d0 f1 10 eb 3b 65 bc 5c 3d ac fc 96 3d 0f c1 d8 3d
       0.0071736504 0.053890605 0.07372412 0.10583698
0000e0 31 6b e8 3d 15 05 b2 3d 41 36 c6 bd e7 0f 1f bd
       0.1134857 0.086923756 -0.09678317 -0.038833525
0000f0 2d 24 bf 3d 8c 8e 57 bd 14 32 cb bd cb 01 a0 bd
       0.09333072 -0.052626178 -0.09921661 -0.07812842

weight f4 [32, 64]
000000 84 73 8f 3d d4 f2 35 be 88 00 f3 bc c9 1d 8a 3c
       0.07004455 -0.17768413 -0.02966334 0.016859906
000010 9d 3a 09 3e 65 4a 37 3b 89 07 86 3d c9 0f 2a 3e
       0.13401265 0.0027967927 0.06544406 0.16607584
000020 7a 81 fc 3d 18 04 49 3d 9e b7 db bc 29 b5 05 be
       0.12329383 0.04907617 -0.026820954 -0.13057388
000030 24 aa 9a 3d 2a 8b 94 3d 8c 49 67 bc 65 77 18 be
       0.07551983 0.07253106 -0.014116656 -0.14889295
000040 ea 23 34 bd 6b 89 00 be 50 28 6f bd 97 19 5b 3a
       -0.043979563 -0.12552421 -0.058388054 0.0008358
000050 91 cb dd bd 7a 58 b5 bd 34 50 02 be 75 6f 12 3d
       -0.10829843 -0.08854766 -0.12725908 0.035750825
000060 ee f7 ad 3d 94 ef d2 ba 7f f9 9e 3d cf 40 6e be
       0.084945545 -0.0016093128 0.07762431 -0.2326691
000070 d2 9d 2e be 5e 27 27 3e 52 9e 12 bc 50 8f 19 be
       -0.17052391 0.16323611 -0.008948879 -0.14996076
000080 32 35 8e 3d 78 da 16 3d 5d 0a 7d 3d d6 b4 ff bd
       0.0694374 0.03682944 0.06177746 -0.124856636
000090 62 fa 1e be 42 e9 58 bd 92 d3 4b 3d 65 7b a1 3a
       -0.15525201 -0.052956827 0.049762316 0.00123201
0000a0 47 6f a9 3a 07 2a 2d be 67 d6 13 3d 32 e6 17 be
       0.001292684 -0.16910563 0.036093142 -0.14833906
0000b0 a5 96 00 3d 7c 00 19 3e 92 a9 87 bc 0e 01 b8 3b
       0.031393666 0.14941591 -0.01656035 0.00561536
0000c0 de 03 ce bd d5 e7 61 3b b0 fc b7 3d 5d a8 9b bd
       -0.10059331 0.0034470458 0.08983743 -0.07600472
0000d0 55 cf 0b 3e c7 b3 b0 bc fb 0f 14 3e c7 50 1c be
       0.1365331 -0.0215701 0.14459221 -0.15265189
0000e0 35 e2 4e 3d a8 bb 5a bd f1 17 33 3e c8 50 da 3d
       0.050508697 -0.05340162 0.17489602 0.10659939
0000f0 aa b5 90 bd 82 6c 0e 3e 12 ab 3c 3e 4c 4a b9 3c
       -0.070659 0.1390858 0.18424633 0.022618435
000100 9c 6e b1 bd a8 5e e6 be 48 b0 0c 3d 65 66 0e 3e
       -0.08663675 -0.44994092 0.034347802 0.13906248
000110 ff 9f 92 3d 76 9e b3 3c a4 2f 4f bd 3c 94 13 3e
       0.07159423 0.021926146 -0.050582543 0.14412016
000120 a3 03 18 3e 7d 49 ba bc 1d f0 dc 3c 3e 12 82 3d
       0.14845137 -0.02274012 0.026969964 0.06351136
000130 73 2d f2 3d e8 77 0d 3e 47 70 9b 3b 65 3f ca bd
       0.11825075 0.13815272 0.004743609 -0.09875373
000140 f3 af 12 3e 99 fb 91 bd 19 b9 8b 3d 2d 41 0a 3e
       0.14324932 -0.071280666 0.06822414 0.13501425
000150 02 f8 fd bd 17 59 22 3d 3c 47 3f 3d eb b2 b9 bd
       -0.12400819 0.039635744 0.046698794 -0.09067329
000160 10 74 ae 3d 87 6b 2d bd 38 4b 95 bd 15 56 05 bd
       0.08518231 -0.042338874 -0.072897375 -0.032552797
000170 7b 0b a3 bc 28 29 4e 3c 28 93 ae 3e a2 25 29 be
       -0.019902935 0.012583055 0.34096646 -0.16518262
000180 f9 4d be 3e 3c f6 86 bd ea 9b 45 bb 59 d8 5d ba
       0.37168863 -0.06589934 -0.0030152746 -0.0008462719
000190 98 9c dc bd 4b a5 e3 3c 7b 0e 43 3e f2 10 26 be
       -0.107720554 0.027788779 0.19048493 -0.16217402
0001a0 26 79 52 bd 6b e6 1a 3c 3e bd 98 3d 32 2a 87 3d
       -0.051385067 0.00945435 0.0745797 0.06599845
0001b0 43 29 55 3c 7c 25 09 3d 36 b0 53 bd cc 8f bd 3d
       0.013010326 0.033483014 -0.05168172 0.09255943
0001c0 e4 7b e9 bd eb a0 20 be 62 76 c6 3c 7a 1b 95 bc
       -0.114005834 -0.15686385 0.024226371 -0.018201578
0001d0 12 86 1e 3e 08 fd 80 bc b6 e7 15 3e e5 9e 42 3d
       0.15480831 -0.015745655 0.14639172 0.047514815
0001e0 09 41 19 bd 05 67 29 bd 97 a5 fe 3d d6 ca 9b bc
       -0.037415538 -0.041358013 0.124339275 -0.019017618
0001f0 3d 51 e0 3d 04 44 fc 3d 5d 9c c1 bd 59 e7 a6 bc
       0.10952995 0.123176605 -0.09453652 -0.020373987
000200 f7 e5 d8 3d 77 0d 06 3f d9 23 1a 3d 72 48 84 bd
       0.10590737 0.52364296 0.037631843 -0.0645913
000210 68 63 d0 bd 4f eb 0d 3c 29 00 ae 3d 59 25 1a bb
       -0.1017521 0.008662059 0.08496124 -0.0023520796
000220 7f 8e 15 3c c5 73 5a 3c e5 f0 69 3d d2 01 20 3c
       0.009128212 0.013333266 0.0571145 0.009766059
000230 c9 b3 85 bd 7d 55 5b be 1e 5a 34 be 6a 3c 19 bd
       -0.06528432 -0.2141933 -0.17612502 -0.03741113
000240 8b 1a 1d be 11 9a 66 3c 79 d2 3e 3d db cc 11 3d
       -0.15342157 0.014074818 0.04658744 0.035595756
000250 7e 22 c0 3c 3d 05 83 bc 99 da 2c 3d 5e 6f 12 3d
       0.023453947 -0.015993709 0.04220066 0.03575074
000260 b5 eb 5b bd f2 05 47 3c 5b b1 5e bc 96 51 f8 bb
       -0.053691585 0.012147414 -0.0135920895 -0.007578085
000270 13 33 c1 3d fc 55 2d 3e 32 92 d0 be 54 7d 1b 3e
       0.0943357 0.16927332 -0.40736538 0.15184528
000280 51 f0 dd be 31 70 bb 3d a2 bd 14 3b c7 28 9d bc
       -0.4334741 0.09152258 0.0022696038 -0.019184483
000290 c3 da c2 3d a2 ee 5f bd 08 09 38 be 8f 4d f1 3c
       0.09514382 -0.054670937 -0.17972195 0.029455928
0002a0 ff ae 14 be 94 05 80 3d a9 3c 8e 3d 64 a0 32 3d
       -0.1451988 0.06251064 0.06945164 0.04360999
0002b0 b9 a7 0b 3d 21 75 a8 3c a8 5d ca bd a6 30 cb 3d
       0.0340955 0.020563664 -0.09881145 0.09921388
0002c0 af 7c 3e 3e 43 13 50 3d 50 8d 41 be 1a 01 a7 3d
       0.1860225 0.05079962 -0.18901563 0.08154507
0002d0 0b a9 32 3c af 74 d3 3d ba 3f 13 be 75 08 47 3b
       0.010904561 0.1032499 -0.14379779 0.003037003
0002e0 60 59 be 3d 96 8a b1 3d 11 27 0d bd 1d 99 e1 bd
       0.09294391 0.08669011 -0.034461085 -0.11015532
0002f0 58 36 17 bd b0 c1 f3 bd d9 5c e1 3c 4b a5 02 3e
       -0.03691706 -0.11902177 0.027510094 0.12758367
000300 ec 85 99 3d 1c 52 a3 3e 13 4b f8 3c fc 52 3e bd
       0.07496247 0.31898582 0.030309236 -0.04646586
000310 8a b0 3e be fe 48 5b 3c 75 68 28 be 0c 63 b5 bd
       -0.18622032 0.013384102 -0.16446097 -0.08856782
000320 fe 08 8a 3d 7e 69 8e bd 9b 1d 65 3d 69 21 4e 3e
       0.067399964 -0.06953715 0.055936437 0.20129932
000330 8a 07 dc 3c c5 63 ec bd 95 c4 2c bd c3 c4 0f 3e
       0.026859064 -0.11542467 -0.042179663 0.14039902
000340 55 17 6b bd ea e0 87 bd 33 f5 14 3c 0f e0 b2 be
       -0.057395298 -0.06634696 0.009091663 -0.34936568
000350 76 99 bc 3d 62 ee 8c bd 80 56 9f 3d e8 aa 10 bd
       0.09208958 -0.068814054 0.077801704 -0.03531924
000360 b0 b8 1d 3b a3 4a fc 3c 9e 4a 70 3d eb 82 41 3e
       0.002406638 0.030797308 0.05866491 0.18897597
000370 1a 76 27 3e 80 37 90 be b6 37 86 bd 38 0e 23 3e
       0.16353646 -0.28167343 -0.06553595 0.15923393
000380 5b 83 c0 bd ff fb bd bd 52 23 26 bc 16 48 dc 3d
       -0.09400054 -0.0927658 -0.010140257 0.10755937
000390 c2 b3 02 bc 0d f1 57 bd 57 e0 9f bd 0a 69 5e 3e
       -0.007977428 -0.05272012 -0.07806461 0.21719757
0003a0 b2 3f 65 bd a7 00 9a 3d 26 26 75 bd a0 48 0b 3c
       -0.055968948 0.07519656 -0.059850834 0.008501202
0003b0 8b 09 15 3e 5f 2c 9f bd 5c 49 30 3e 25 7f 18 3d
       0.14554422 -0.07772135 0.17215484 0.03723063
0003c0 c1 25 6e bc 89 1b 8f bc 49 ca b7 bd e4 5b ad 3d
       -0.014535368 -0.017469184 -0.0897413 0.08464792
0003d0 36 12 da 3c 5f 66 96 3d 50 5e fc bc af 99 e0 3d
       0.026620012 0.073437445 -0.03080669 0.10966813
0003e0 f1 41 74 3d 4b 57 35 3d 0d 8c 2b 3d cf bf 64 bd
       0.0596332 0.044272702 0.04188161 -0.055846985
0003f0 33 4b 1c bd ef f5 04 be 26 79 24 3c 0a 1f 34 bd
       -0.038157653 -0.12984441 0.01003865 -0.043974914

bias f4 [32]
000000 06 d5 04 3d 48 c4 15 3d 48 17 55 3c 35 5c eb 3d
       0.032429717 0.03656414 0.013006039 0.114921965
000010 52 eb f2 3d 97 37 dd bd e7 c6 9b 3d d2 41 9c bd
       0.1186129 -0.108016185 0.07606297 -0.07629742
000020 d9 1b b6 3d 10 8d 02 3d 42 b9 0a be 6d 7e 34 3d
       0.0889203 0.03187281 -0.13547233 0.04406588
000030 54 fe 7f 3d ec c1 74 bd d9 cb 47 bd 25 9b e9 bd
       0.062498406 -0.05975525 -0.04877839 -0.114065446
000040 06 6a 11 be ed 56 a2 3d ec db 9b 3d 20 da 92 3d
       -0.14200601 0.07926736 0.07610306 0.0717051
000050 17 01 61 3c 02 95 a5 bc 71 3a 86 3d 7a e1 56 bd
       0.01373317 -0.020212654 0.065541156 -0.052461125
000060 7d 5a 9d 3d 52 81 20 be 4a 16 02 3e e4 31 38 3d
       0.07683275 -0.15674332 0.12703815 0.044969454
000070 d3 40 a9 bc 7f df 89 3d 9c 6d b7 bd 40 ee 12 3e
       -0.020660793 0.067320816 -0.08956453 0.14348698

weight f4 [1, 32]
000000 6c ec b4 be 3b 23 b7 be cf 47 a5 3e bc 02 9f 3e
       -0.35336626 -0.35769066 0.32281348 0.31056774
000010 92 e1 ce 3e 62 7c aa be 0a be d7 be 3d cd 8f be
       0.40406471 -0.33298022 -0.42137176 -0.28086272
000020 e9 fc 98 3e c0 87 c3 be 60 58 a2 be 86 82 8b 3e
       0.29880455 -0.38189507 -0.3170805 0.2724802
000030 36 c1 b4 3e a6 91 bb be 34 44 99 3e 28 81 a9 be
       0.35303658 -0.36634558 0.29934847 -0.3310635
000040 2d c5 b8 be 43 f1 ad be 64 8c 9b 3e 83 39 d8 3e
       -0.36087933 -0.3397313 0.30380547 0.42231378
000050 32 30 8e 3e 05 40 b6 3e 81 8b a0 3e c8 74 e1 3e
       0.27771145 0.35595718 0.31356433 0.4403441
000060 c1 62 be 3e 2a 9d c3 be 57 53 ae 3e 21 e9 8d 3e
       0.37184718 -0.38205844 0.34047958 0.27716926
000070 87 9b ab 3e 34 f0 a3 3e c6 aa a9 be c1 17 d2 3e
       0.33517095 0.32019198 -0.33138102 0.41033748
