Models/Office_model_4.pth (torch, 73102 bytes, 5 tensors)

weight f4 [128, 4]
000000 01 a0 55 be 07 4a b1 be e3 e5 1e 3e bf 85 51 3e
       -0.20861818 -0.3462679 0.15517382 0.20461176
000010 70 62 58 3c 37 aa 32 3f 01 d7 bb bd 12 3b 81 bf
       0.013207063 0.6979098 -0.09171868 -1.0096152
000020 5b c8 8e be 78 66 44 3e b9 c5 98 3d c5 64 a9 be
       -0.27887234 0.19179714 0.074595876 -0.33084694
000030 12 6a f8 3e 44 f2 9c bd cc 01 f7 3d 34 32 87 3e
       0.48518425 -0.07663396 0.120608896 0.2640549
000040 00 3b 9e 3e 88 de d7 be 62 42 9c 3e 57 bc f9 be
       0.30904388 -0.42161965 0.30519396 -0.48776504
000050 4e b1 18 bd 29 eb 52 3e dc c1 9b 3d ea 32 1a bf
       -0.037278466 0.20597519 0.07605335 -0.6023394
000060 b1 f0 5f be 03 82 eb 3c 15 72 77 3e 7c ac 98 be
       -0.2186916 0.028748518 0.24164613 -0.29819095
000070 cf 9a c0 3e ae 40 84 3f a8 a0 bf bd 79 73 86 bf
       0.3761811 1.0332239 -0.093568146 -1.050399
000080 8b a9 8d bf 74 52 ce 3d 53 bb 27 3e 9e 68 6f bf
       -1.1067365 0.100743204 0.16380052 -0.9351901
000090 7a e2 14 3f ca 7e 15 3f 6f 10 c0 bd f8 7f 80 bf
       0.58158076 0.5839659 -0.093781345 -1.0039053
0000a0 64 6b 21 3f 95 f2 dc 3e e2 49 bb bd 28 d8 a4 bf
       0.6305449 0.43153825 -0.091449514 -1.2878466
0000b0 80 aa 08 3f 18 91 3e 3e 12 d4 ee 3e 61 e5 b0 3e
       0.5338516 0.18610036 0.46646172 0.34550002
0000c0 5e c3 06 3f 8f f5 e7 3e ea 24 c4 bd f9 49 85 bf
       0.52641857 0.45304534 -0.09577353 -1.04132
0000d0 44 ae c8 ba 6c 8b 6e 3e 1e 2a bf bd 57 01 1f bf
       -0.0015310724 0.23295373 -0.09334205 -0.6211142
0000e0 20 41 44 3e f4 9f 06 bf ad 1e 1f 3e c1 65 27 be
       0.19165468 -0.5258782 0.15539046 -0.1634741
0000f0 63 bb 46 be fe 04 85 3e 63 9a b1 bd f6 19 eb be
       -0.1940742 0.2598037 -0.08672025 -0.45918244
000100 43 07 e0 3e be 94 50 bd 07 01 cb bd 71 c0 3e bf
       0.4375554 -0.0509231 -0.09912305 -0.7451239
000110 6f ca 0d bf 11 50 2e 3f a4 5e 57 bd 1a 16 45 be
       -0.55387014 0.6809092 -0.05258049 -0.19246712
000120 a3 21 10 bf 5e 7a 00 3e cb a6 0d 3d 9d de b7 bd
       -0.56301326 0.1254668 0.034582894 -0.08978007
000130 99 8a 9e 3e 3d 14 28 3f 41 0c ca bd bf a5 4c bf
       0.30965117 0.6565588 -0.098656185 -0.7994041
000140 ad 35 86 be 3f bf 6f 3e 44 a0 ac bd 40 e8 34 bf
       -0.26212826 0.23412798 -0.08429006 -0.70666885
000150 a4 7f 02 3e 02 03 a8 3e 2b 30 c7 bd dc 6c 93 bf
       0.12744004 0.32814795 -0.09725984 -1.1517596
000160 6e 3b dc 3d e3 9f 0b 3e 9e d8 c7 bd 24 02 8f bf
       0.10753523 0.1363521 -0.09758113 -1.1172528
000170 1f b6 f5 3e 4d d0 a0 3d 36 ea 8e bc db 5a f8 3e
       0.4799051 0.0785223 -0.017445665 0.48506817
000180 33 5b 84 bf 3d 7c ec bd cb 8b 84 3d 52 d7 d9 be
       -1.0340332 -0.11547134 0.06471976 -0.4254709
000190 4c 5e e6 3c 3c 92 47 3f 6e 73 b2 bd 55 e1 1e be
       0.028121136 0.7795751 -0.08713423 -0.15515645
0001a0 cb 31 51 bf c7 e4 b1 3e 5d ee 8e 3c 7c 65 3b be
       -0.81716603 0.34744856 0.017447645 -0.18300432
0001b0 0d 20 15 3e 22 33 e3 3e 2b 55 c0 bd f3 46 63 bf
       0.14563008 0.4437495 -0.093912445 -0.88780135
0001c0 ae 31 37 3d 39 e7 8c 3e e8 3e c4 3e 84 ae 12 bf
       0.044725113 0.2752016 0.38329244 -0.5729754
0001d0 a2 5d 22 3f 68 89 a3 3e 71 77 ca bd 19 ef 86 bf
       0.6342412 0.3194077 -0.09886063 -1.0541717
0001e0 22 8a 07 bf 0c 24 8c bd d6 5c 9d 3e ef 80 07 bf
       -0.5294515 -0.06842813 0.3073489 -0.5293111
0001f0 da 23 f5 3e d1 3f 26 bf 64 70 b0 3d da 50 9a bd
       0.47878915 -0.64941126 0.08615187 -0.075349525
000200 1a 52 4f bf 3f 74 a6 3e 09 51 61 bc 7a 46 74 be
       -0.8098465 0.32510564 -0.01375223 -0.2385501
000210 20 d8 7c bf 6d 04 c6 be 62 6a 32 3e ab 02 9b bf
       -0.9876728 -0.38675252 0.17423394 -1.2110189
000220 cb e2 43 3e 17 c4 95 be e2 2d 8b 3e 6d 3d a1 3d
       0.19129483 -0.29251167 0.27183443 0.07873044
000230 63 7d e9 3e e7 2a 00 be 63 28 67 3c c5 54 d3 be
       0.45603475 -0.12516366 0.01410875 -0.41275612
000240 58 8a 65 bf a9 ec 33 3e 05 96 77 3c 78 2a d0 37
       -0.8966422 0.17570747 0.015111451 2.4815308e-05
000250 b3 94 ef 3e 02 77 b2 3e e0 90 cb bd ff f8 72 bf
       0.46793136 0.3485642 -0.09939742 -0.9491119
000260 e7 41 ed be 30 75 4c be e2 b1 d3 3e dd 23 8d be
       -0.46339342 -0.19966578 0.4134665 -0.27566424
000270 73 36 98 bf 12 54 07 bf 27 36 c4 3d 38 92 7f bf
       -1.1891617 -0.52862656 0.09580641 -0.9983249
000280 cf e3 ae be 52 67 b7 3d d3 10 ae bd 1a 85 6f bf
       -0.3415818 0.08955254 -0.08499303 -0.9356247
000290 70 64 06 bf 1a e5 0b bf 54 82 18 3d df 05 7b be
       -0.52497005 -0.54646456 0.037233666 -0.24513958
0002a0 f7 96 36 bf dc d3 5b 3e 7e ef 4b 3d 14 74 8d be
       -0.71324104 0.21467537 0.049788944 -0.27627623
0002b0 ef f5 67 bf cd 03 14 be b3 5b 93 3d bc 64 35 bf
       -0.9060964 -0.14454575 0.071952246 -0.70856833
0002c0 a6 b3 33 3e 8b 81 0a bf 78 d0 ce 3e 6c 92 9b be
       0.17548999 -0.54103917 0.40393424 -0.3038515
0002d0 56 64 26 be 21 94 31 bf c2 06 b0 3e d4 f8 c0 be
       -0.16249213 -0.6936665 0.34380156 -0.3768984
0002e0 52 60 25 3f 80 04 ff 3e dd 27 bc bd 3b 3b 98 bf
       0.646001 0.4980812 -0.09187291 -1.1893076
0002f0 d5 fc aa 3c f9 d7 09 3f 40 13 c1 bd b2 b2 96 bf
       0.020872513 0.53845173 -0.094275 -1.1773283
000300 3b b1 a4 3e fd fa 0b bf d8 42 9d 3e f4 0d 84 3e
       0.32166466 -0.5467985 0.3071506 0.25791895
000310 e8 01 90 be 7d 6a 1b 3f bb a4 a6 bd 7a 19 2d bf
       -0.28126454 0.60709363 -0.081368886 -0.67617
000320 a8 c6 f6 3d c6 88 7f 3f cc 8a b9 bd 3b 05 2b bf
       0.120496094 0.99818075 -0.090596765 -0.66804856
000330 e2 2e e4 bd 55 6d 7e 3e fb 74 ba bd db cb 36 bf
       -0.11141755 0.24846394 -0.091043435 -0.7140481
000340 15 4b 82 3e 58 ad 16 bf 2a 70 0c ba c4 f5 9b 3d
       0.25447908 -0.5885825 -0.000535729 0.076152354
000350 d3 3f 24 bf 9b 19 a6 3e 7d 0a 21 3d 13 57 fd be
       -0.6415989 0.3244141 0.039316643 -0.49480495
000360 b1 05 08 3f 53 e8 84 3e b0 bf c4 3e 3a 4e 47 be
       0.53133684 0.259585 0.38427496 -0.19463435
000370 fa 70 b5 3e 1e 96 76 3f 1b 8b c6 bd d6 93 8b bf
       0.35437757 0.9632281 -0.09694501 -1.0904491
000380 63 63 da be 7f 21 20 bf bd 29 39 3e b7 d9 f7 3c
       -0.4265395 -0.6255111 0.18082328 0.030255182
000390 e3 74 14 3e 58 b5 0d be a7 61 43 3e 48 d0 ba be
       0.14497714 -0.13838708 0.1908022 -0.3648703
0003a0 4c d5 bd 3e 43 a5 b6 3e e2 30 ca bd c3 54 3d bf
       0.37076795 0.3567296 -0.09872605 -0.7395746
0003b0 f7 c6 41 3e 77 24 c0 3e 61 89 c3 bd 02 9c 68 bf
       0.18923555 0.3752782 -0.09547687 -0.9086305
0003c0 4d 72 99 3e 58 02 7c 3e 36 d6 35 3e 47 7e 78 3d
       0.29970017 0.24610269 0.17757496 0.060667302
0003d0 8a 91 91 3e f0 f8 ca bd 90 89 aa 3e 89 78 01 bf
       0.2843135 -0.09910762 0.33308077 -0.5057455
0003e0 44 dc 49 3f 38 88 ba 3d 2f 5e 9d bd c6 fd 9d bf
       0.78851724 0.09108013 -0.0768398 -1.234307
0003f0 e6 16 f0 3e db 2a 81 3e c1 d6 d2 bd 80 5e c1 be
       0.4689247 0.2522801 -0.10294867 -0.3776741

bias f4 [128]
000000 e0 a0 ac 3d 65 e6 56 3d e3 37 9c 3e 19 cc b5 bc
       0.08429122 0.052465815 0.30511388 -0.022192048
000010 fd 01 81 3e 1d f2 14 bf f1 ff b2 bd 8f 95 74 3f
       0.2519683 -0.58181936 -0.08740223 0.9554071
000020 ff e9 19 bf 3a da 11 bc d0 ae 60 3f 99 52 c8 be
       -0.60122675 -0.008902127 0.8776674 -0.39125517
000030 0a b4 dd 3e 39 bc 8b 3e 57 4f 84 3e 10 26 01 3f
       0.4330142 0.2729204 0.25841781 0.50448704
000040 1a f1 29 3f 2f 44 42 3e 75 c2 83 bd c9 b3 cf 3d
       0.66383517 0.18971322 -0.06433574 0.10141713
000050 e0 6e d8 3e d3 4c 1b 3e fa 1f 72 3f d4 e1 a3 be
       0.4227209 0.15166025 0.9458004 -0.3200823
000060 c1 c9 88 3e 5f 56 ad bd f3 4c a3 3e 1e 29 1e 3f
       0.26716426 -0.084637396 0.31894645 0.6178149
000070 ce e5 84 3e 62 57 60 3f 2d 63 29 bf 12 e8 3f 3d
       0.25956577 0.87633336 -0.66166955 0.04685218
000080 37 a3 17 3f 90 ac e1 be d5 c8 91 be ad 67 3a 3e
       0.5923342 -0.44076967 -0.28473535 0.18203612
000090 16 d7 2f 3f 5d 79 6a 3f 74 64 17 bd 6d 33 e6 bd
       0.6868757 0.91591436 -0.036961034 -0.112402774
0000a0 5b 98 75 3d e8 65 7a 3e e7 47 4d be 01 6f cf be
       0.05995975 0.24452937 -0.2004696 -0.40514377
0000b0 c0 24 e0 3d 26 59 f7 3c d5 64 7d 3f a7 68 9d 3e
       0.109445095 0.030193876 0.9898198 0.30743906
0000c0 3c 00 f0 3c 66 05 5d 3f c8 f0 21 3f d1 57 3f 3f
       0.029296987 0.8633636 0.6325803 0.7474337
0000d0 31 9e 3c bd 7b d2 e5 3c 10 99 08 bf cc c7 85 3f
       -0.0460493 0.028054466 -0.53358555 1.0451598
0000e0 e7 d5 da bd 1c e9 a1 be 92 33 35 3f 97 d5 20 3f
       -0.1068533 -0.3162316 0.70781815 0.6282591
0000f0 03 09 15 bf 30 41 08 bf 41 cc 32 3f 9d b1 7f 3e
       -0.58216876 -0.5322447 0.69842917 0.24970098
000100 9d 2f 0a 3f 55 6a 16 bf 9e 48 9f be 30 a0 8c 3e
       0.539789 -0.58756 -0.3111009 0.27465963
000110 73 0e 84 3f eb b0 80 3f ea 78 01 bf 20 4d 19 3f
       1.031691 1.0053991 -0.50575125 0.5988331
000120 32 92 0c 3e 7e 94 ac 3e bb 05 20 3f 95 cc 27 3e
       0.13727644 0.3370704 0.62508744 0.16386636
000130 11 40 69 3e 5f 7d 51 3e 29 31 2d 3e cb 98 1c 3f
       0.22778346 0.20457982 0.16913284 0.61170644
000140 00 e3 ea 3e 4e 9b a5 3e 65 0c 00 bf 0d aa 5a bc
       0.45876312 0.3234505 -0.5001891 -0.013346207
000150 ac f3 4a 3e 40 2c 3d 3f b9 4b 7c 3e f0 b8 eb 3d
       0.19819516 0.73895645 0.24638261 0.115098834
000160 95 a9 1a 3e dd 62 2f 3f 4a 90 8d 3e f3 81 09 bf
       0.15103753 0.6851023 0.27649146 -0.5371391
000170 8b fd 12 bf 73 d3 b5 bd 7a 06 dc be 53 5a cb bd
       -0.57418126 -0.08878221 -0.4297369 -0.09929337
000180 32 27 6b 3f 7f e1 a4 3e 2d 97 e1 bd cb 1d 2c 3e
       0.9185668 0.3220329 -0.110151626 0.1680824
000190 7c a2 c3 3b 97 7e 92 be a8 1b 2c 3e 58 52 f7 3d
       0.0059702974 -0.28612205 0.16807425 0.12076253
0001a0 5f 43 ba 3e 6b ed 05 be aa 05 bb be fa a9 86 be
       0.36379525 -0.13078849 -0.3652776 -0.26301557
0001b0 f4 a6 55 be 41 16 25 bf 71 48 a5 3e 34 04 d2 3d
       -0.20864469 -0.6448708 0.3228183 0.10254708
0001c0 e3 5e 1a 3f 71 5b 57 3f ff 32 8f 3e e0 2c e6 be
       0.60301036 0.84123904 0.27968594 -0.44956112
0001d0 37 d6 34 3e 1d e5 ee 3d 56 65 c5 be 78 10 d1 be
       0.17659841 0.11664794 -0.38553876 -0.40832877
0001e0 91 91 ad 3e fa 03 b3 3c b1 cf f3 be ec 15 a2 be
       0.3390012 0.021852482 -0.47619393 -0.3165735
0001f0 50 1a 3c 3f 4f c1 b0 3d b0 84 d8 be b4 a9 10 3f
       0.7347765 0.08630621 -0.42288733 0.56508946

weight f4 [128, 128]
000000 f4 8d 15 3d 32 cd af bd 83 50 89 bd fc f1 26 bc
       0.03651233 -0.0858406 -0.067048095 -0.0101895295
000010 5b f7 b1 3d d3 69 0f bc 08 f2 2f 3d e7 32 84 bc
       0.086897574 -0.008753258 0.04295543 -0.016137553
000020 bd 8d 33 3c 14 6d 21 bd 9e c5 aa 3d e2 e8 50 3d
       0.010959086 -0.039410666 0.08338474 0.051003344
000030 03 1e a3 3d e8 70 fe 3c 3b 2d 43 bc c9 6f 22 bc
       0.07964709 0.031059697 -0.011912639 -0.009914347
000040 70 28 52 bd a9 56 bd 3c ad 0e ff bc ed 92 b7 bd
       -0.051308095 0.023112612 -0.031134928 -0.08963571
000050 f7 a6 d6 3c 35 89 5a bd 4a 10 da 3b ab 14 37 3c
       0.026202662 -0.053353507 0.006654774 0.011174361
000060 1a 94 6e bb 83 d7 7a bc 0c da 6f bd 6f c9 a4 bd
       -0.0036404193 -0.015310171 -0.058557555 -0.08046233
000070 80 81 9a bd 48 17 a5 bd 19 65 75 3d d1 95 ab bd
       -0.075442314 -0.08061081 0.059910867 -0.083781846
000080 c7 13 a2 bd 48 62 05 bc 4f 79 23 bd 3b 27 18 3c
       -0.079139285 -0.008141108 -0.03991061 0.009286697
000090 84 29 bf 3d 7e 39 88 bd 25 f9 8a bd 6d fc 8a bd
       0.0933409 -0.06651591 -0.06785802 -0.06786428
0000a0 eb ae 4e bd a6 49 5f 3d 04 5b b7 3d 1c e9 92 bd
       -0.050459784 0.054513596 0.08952907 -0.07173368
0000b0 bb dd 9f 3d 31 92 f9 bc 04 5e 90 3d 5a 93 63 3b
       0.078059636 -0.030465217 0.07049182 0.003472528
0000c0 01 d7 fe bc 20 7b 96 bd b8 31 40 3d 5c 1c 8e bd
       -0.031108381 -0.07347703 0.046922415 -0.06939003
0000d0 e5 7a b8 bd 00 59 bc bc 28 91 95 bd 87 49 d0 bc
       -0.09007815 -0.022991657 -0.07303077 -0.025425686
0000e0 a0 7b 03 3d 45 62 d9 3c 49 eb 9f bc ae 69 ce 3c
       0.03210032 0.026536116 -0.019521372 0.025196876
0000f0 80 cc 92 3d 1a b1 9f bd 60 b8 e2 3b 63 ad 97 3d
       0.071679115 -0.07797451 0.006918952 0.07406118
000100 38 00 ca 3c bb fb a9 3d 1e 28 aa 3b f3 16 86 3d
       0.024658307 0.08299967 0.0051927706 0.06547346
000110 a3 56 86 bd 69 39 7a 3d 24 1f 9a bc 20 7b b4 3c
       -0.065594934 0.061089907 -0.018813677 0.022031367
000120 3d 0b 66 3b 4f 56 96 3d 8f 5c 96 3d 19 69 c4 bc
       0.0035101913 0.07340681 0.07341873 -0.023975896
000130 d2 69 12 3e 18 bd f3 bc 5a 1a 99 3d e1 9c 02 bd
       0.1429818 -0.029753253 0.07475729 -0.031887893
000140 87 fe a3 3d dd 70 0d 3d d8 10 8c 3d ee 73 08 3c
       0.080075316 0.034531463 0.0683915 0.008328421
000150 11 3e 93 bd 45 ac 14 3d 9a 7d e0 3c b0 4c bd bb
       -0.071895726 0.0362971 0.027403641 -0.005776964
000160 9e bf a9 3d 77 09 e1 b9 20 58 13 3d 96 cd a6 bd
       0.08288501 -0.00042922396 0.035972714 -0.08144681
000170 b5 cd 1a 3c bb e8 74 3c 12 cc 80 bd 40 db 4a bc
       0.009448458 0.014948065 -0.06288923 -0.012381375
000180 f1 e3 10 bc 89 31 11 3d 8a b1 33 bd 71 a8 72 3a
       -0.008843408 0.03544763 -0.043870486 0.0009256667
000190 b5 73 80 bd a8 66 da 3b 41 8a ea bc 51 a8 81 3c
       -0.06272069 0.0066650696 -0.028630378 0.01582733
0001a0 71 ad b1 bd 6d 8b 99 3d 80 78 00 3d 6b d9 b0 bd
       -0.086756594 0.074972965 0.031364918 -0.08635219
0001b0 89 9b 0e bb 63 e1 30 bd d7 28 ac bc 51 ee 56 bd
       -0.0021760187 -0.043183696 -0.021015568 -0.05247337
0001c0 bf 3b 67 bd b4 5b 22 3c 6b 59 7c bd b9 99 eb bc
       -0.056453463 0.009909559 -0.061608713 -0.028759824
0001d0 47 8e 8d 3d b8 8d de 3c 36 ac bb bd b8 38 7f bd
       0.06911903 0.027167186 -0.09163706 -0.06230995
0001e0 27 41 41 3d 3f 26 a5 bd cf cf 1d bb fa 66 62 3d
       0.047181275 -0.080639355 -0.0024080162 0.055273987
0001f0 c8 db 0f bd 35 68 17 3d f3 f0 ab 3d 61 f8 89 bd
       -0.03512171 0.036964614 0.08395567 -0.06736828
000200 af 2b 0a 3d 09 18 dd bc c7 ea 5c 3c 8f 07 60 3d
       0.033733066 -0.026989 0.01348371 0.05469471
000210 f3 71 73 3d 7d 65 2e bd f9 7f c8 3b ce b9 09 bc
       0.059434842 -0.042577256 0.006118771 -0.008406116
000220 64 1a a3 3c 6f 47 3b 3d fc b9 2d 3d e0 5c ad bd
       0.019910045 0.04572242 0.042413697 -0.0846498
000230 78 9a a1 3a 76 53 87 bd 5b 77 97 3b 38 7c b5 bc
       0.001232936 -0.06607716 0.0046223826 -0.022153959
000240 03 6b 29 bd 98 4c 91 3d f1 4c 8c 3d c4 d3 e0 bc
       -0.04136182 0.07094687 0.06850613 -0.027444728
000250 02 6b db 3c 04 a1 b9 3d 69 56 80 bc 50 91 85 bd
       0.026784424 0.090639144 -0.015666204 -0.06521857
000260 77 92 41 3d 65 e0 58 bb 87 42 89 3d 9b 93 b5 3d
       0.04725882 -0.0033092734 0.06702142 0.08866044
000270 ca f3 79 bd c5 d6 9d bd 8a 7d b4 3c 6d 7b 80 bd
       -0.06102351 -0.0770698 0.022032518 -0.062735416
000280 db 5e 7c bd 3e 6d 84 bd bf 8e 61 3d b1 96 c1 bd
       -0.0616139 -0.06466149 0.055067774 -0.0945257
000290 7a 2c d1 3c 49 95 3e bd 09 8c 6b bd 10 fb a7 3c
       0.025533903 -0.04652909 -0.057506595 0.020505458
0002a0 b1 56 0a 3d f0 6b fd bc 40 7c c5 bd ee 61 ea 3c
       0.03377408 -0.030935258 -0.096428394 0.02861115
0002b0 a8 11 50 3d 86 93 8b bc 9b f2 70 bc 12 b8 64 3c
       0.05079809 -0.017038118 -0.014706279 0.013959901
0002c0 03 27 b8 bd d5 77 ff 3c 22 43 6e bd 9c dd 86 bc
       -0.08991816 0.03118507 -0.05816949 -0.016463093
0002d0 e5 11 5f 3d d8 33 27 3d ab 12 65 bd bc 4f 59 3d
       0.054460425 0.040820926 -0.055926006 0.053054556
0002e0 8b 3f a8 bd bb 44 f1 bc 20 cb 55 3d ac a3 f9 bc
       -0.08215245 -0.029451719 0.05219567 -0.030473553
0002f0 f8 8d b4 bd 5c 91 25 bd a4 cc 94 3c e4 d8 a8 3b
       -0.08816141 -0.04042183 0.018163987 0.0051528085
000300 bd 2c be bd ef 71 f1 bc ff 60 fa 3b 17 61 96 3c
       -0.09285877 -0.029473273 0.0076409574 0.018356843
000310 ee be 16 3d e7 d2 e0 bc 33 4d 11 bd f6 0a 29 3d
       0.03680318 -0.027444316 -0.035474014 0.04127022
000320 9d 30 af bd c6 60 c6 bd d9 5c e3 3c e6 e8 a6 3d
       -0.08554194 -0.09686427 0.027754234 0.081498906
000330 8a 9d 5a 3c d3 93 56 3c 5c d9 a4 ba b2 29 9f 3d
       0.013343224 0.0130967675 -0.0012576985 0.077716246
000340 1c e3 a8 bd fc 5c 4e 3d 55 5a 92 3d 50 7e 15 bd
       -0.08246443 0.050381646 0.07146136 -0.036497414
000350 a2 84 69 3d b1 77 29 3d 09 3c cf bd 2a 8e 37 bd
       0.057011254 0.041373912 -0.10118873 -0.044813313
000360 fd e2 5f 3d f8 30 90 bb 3f 15 b4 3d cb a8 1c bd
       0.054659832 -0.004400369 0.08793115 -0.03824691
000370 cd fe 01 3d 63 d0 65 3d 0d 93 6c 3d 56 b0 86 3d
       0.031737138 0.056106936 0.057757426 0.06576602
000380 6c f2 63 3d f4 b0 d2 3b f6 77 8f 3b a9 86 56 bd
       0.055651113 0.006429786 0.004378314 -0.052374516
000390 9c 73 2e 3d 77 04 29 bd d7 89 8a 3d a7 3e 25 bd
       0.042590722 -0.041264024 0.06764572 -0.040342953
0003a0 36 d1 b2 3d ad bf 39 bd c4 41 27 3d 20 1b 95 bd
       0.0873131 -0.045348812 0.040834203 -0.07280564
0003b0 4d f8 d1 bd 94 de 1e bc db 71 9c 3d ac 7c 9a bd
       -0.10252438 -0.009696621 0.07638904 -0.075433105
0003c0 8a 48 53 bd 87 06 79 bd a1 d6 fb 3b 59 59 7a 3d
       -0.05158285 -0.06079724 0.007685498 0.061120365
0003d0 21 f0 41 3c 4f 0a c3 bc d0 16 b1 3d b0 74 ca 3c
       0.011837036 -0.023808626 0.08646929 0.024713844
0003e0 99 37 1e 3d b4 99 56 3d fe 76 03 bd 7e ab b9 3c
       0.03862724 0.052392676 -0.0320959 0.022664782
0003f0 17 a7 79 3d 7b 8c b3 bc 3b c5 91 3c cf d4 90 bd
       0.060950365 -0.021917572 0.017794242 -0.0707184

bias f4 [128]
000000 93 78 8a 3d 15 32 cf 3c 61 87 ef 3d 9d 48 aa 3d
       0.06761279 0.025292436 0.11695743 0.08314631
000010 24 d5 dd bd e5 44 92 3b 85 ea a4 3d bf 45 bb 3c
       -0.10831669 0.0044637793 0.080525436 0.022860406
000020 b9 24 34 3e c0 d9 ce 3c ef d9 16 bd 19 6b 47 3c
       0.17592134 0.025250316 -0.03682893 0.01217153
000030 d5 28 83 3d 99 99 13 3d 57 71 d2 bd 72 6a c7 3c
       0.064042725 0.036035154 -0.10275524 0.02434275
000040 e6 08 08 be 55 01 b2 3b 96 ae 82 3d 60 75 8e 3d
       -0.13284644 0.0054322877 0.06380956 0.06955981
000050 c7 93 64 3d 1f db 13 3d eb 17 ce bc 2f fb a0 3b
       0.055804994 0.036097642 -0.02515789 0.004912756
000060 0f d6 59 bd 1e ff 42 3d 60 12 b1 3c ab a0 64 3e
       -0.053182658 0.04760658 0.021615207 0.22326915
000070 e6 62 be bc d6 28 d3 3b 3a 6c bc bc 9f 50 d1 3d
       -0.023240518 0.006444077 -0.023000825 0.102204554
000080 70 1b bc 3b e2 a0 82 bd e9 30 28 be 89 c2 a6 3d
       0.0057405755 -0.06378342 -0.16424908 0.081425734
000090 bc 93 75 3d 62 25 09 3c ac 27 93 bb be fa 9b 3d
       0.059955344 0.008370729 -0.0044908132 0.07616185
0000a0 4f 8c 8f bd 80 f2 8b bd ea f8 05 bd 32 24 04 bd
       -0.070091836 -0.068333626 -0.032708086 -0.03226108
0000b0 de bc bf 3d 9a 0d b8 3d 4a b7 a9 3d 38 2c 0c 3d
       0.093621954 0.08986969 0.08286913 0.034221858
0000c0 d8 e8 01 3e d5 60 d7 bb 7b f6 63 bc 95 1e 0d bd
       0.12686479 -0.0065728226 -0.013913746 -0.034452993
0000d0 a0 df 5f bd b2 06 90 3d 5e 12 c5 3b a8 51 5e bb
       -0.054656625 0.07032527 0.0060141524 -0.0033923183
0000e0 54 46 15 bd e6 9d ac 3d 6a 9f 50 3d e8 0c 15 3c
       -0.036444023 0.08428554 0.05093328 0.009097315
0000f0 19 ea bf bd b1 2b 22 3e ca d2 14 3e e1 02 9b 3d
       -0.093708225 0.1583698 0.14533535 0.075689085
000100 90 d3 e1 3c da 84 cd bd ee 7a c3 3d 73 e1 0c bc
       0.027566701 -0.10035105 0.09544931 -0.008598673
000110 97 79 03 be 1d ac cb 3d 13 eb 0c be d1 3f ba 3d
       -0.12839352 0.099449374 -0.13761549 0.09094203
000120 82 13 6c 3e ec 81 21 3d 54 f5 de bc 94 da f2 bc
       0.23054317 0.039430544 -0.027216591 -0.029645242
000130 c8 0b 41 3d 21 6a c5 3b 26 7b dd 3c b8 44 88 39
       0.047130376 0.0060246144 0.02703626 0.0002599114
000140 03 9e a5 bc 0c 50 41 bd 1f 79 bf 3d 5f aa b7 bd
       -0.020216947 -0.04719548 0.09349274 -0.089680426
000150 73 f6 14 be e0 fc f3 bc 5b f7 73 3e 76 9c 00 3d
       -0.14547138 -0.029783666 0.23824827 0.031399213
000160 ae b3 bf bd 86 88 2d bd cc b0 84 3d 7e e0 c5 3c
       -0.09360443 -0.042366527 0.06479034 0.024154898
000170 7a 4d b3 bd cf 06 cf 3d 94 9d ed 3a 86 c0 09 3e
       -0.08755012 0.101087205 0.0018128627 0.13452348
000180 6f bb 45 3e 91 e5 3f bd 9b 25 b8 3c 9b 3a 3d 3d
       0.19309781 -0.04684979 0.02247887 0.04619847
000190 d7 b0 7c bd 8b 82 6b 3d 4a bc eb 3d a9 96 90 bd
       -0.061692085 0.057497542 0.11510523 -0.07059986
0001a0 9f 2a 26 bd 96 7b 8e 3c 05 a8 7b ba 5f 81 14 3a
       -0.04056799 0.017392915 -0.0009599927 0.000566503
0001b0 eb 9b 98 bc eb d6 b4 3d 93 b3 0a be 0f 2c ad bc
       -0.018629035 0.08830055 -0.13545065 -0.021139173
0001c0 05 23 a2 bc aa 8b 15 3c 5d 4b da bb db f9 cf 3d
       -0.01979209 0.009127537 -0.006661816 0.10155078
0001d0 1e b9 9b 3c a1 fa b7 3d fb 6d 97 bd 76 06 86 3d
       0.01900917 0.089833505 -0.07394024 0.06544201
0001e0 53 a4 42 3d 4f 1f 28 3e c9 73 8a 3d 5b 2c 13 3d
       0.047519993 0.16418193 0.067603655 0.035930973
0001f0 c2 bb 5b 3e ee 51 76 bd bc f8 12 3e 87 df 02 3b
       0.21458343 -0.060136728 0.14352697 0.0019969658

weight f4 [1, 128]
000000 8a 21 4a b8 9b d2 01 3a 28 0f c7 3d 1c 90 2b bd
       -4.819179e-05 0.0004952342 0.09719688 -0.04188548
000010 5a 5d dc 3a 2d 9b 87 3b 76 9d cd 3d 91 6d 2d 3d
       0.0016812489 0.0041383714 0.10039799 0.04234082
000020 94 1e 58 3b 98 24 b4 3d 16 d7 32 3b 20 58 c2 3d
       0.003297721 0.08796042 0.0027288846 0.09489465
000030 38 7b 95 b8 af a1 0d bc 9d 32 29 bd 38 15 c7 3d
       -7.127825e-05 -0.008644505 -0.041308034 0.09720844
000040 e7 09 eb 3a 35 95 f2 3d c4 63 3c 3d c2 cb 1c b9
       0.0017932028 0.11844865 0.04599358 -0.00014953225
000050 3d 46 81 bd ea 93 96 bc 56 6b e1 3d ec b5 ce bc
       -0.06312225 -0.018381078 0.11006801 -0.025233231
000060 cf 7c ac 3d 88 32 10 3d e3 02 a6 3c b3 48 b5 bd
       0.08422243 0.03520444 0.020265048 -0.08851757
000070 12 c5 51 bc 48 45 0a 3c 66 8b 22 3d ed f7 c1 3d
       -0.012803333 0.0084393695 0.039683722 0.09471116
000080 af d9 d9 3c 12 ff f0 3b 88 44 bd 3b 9a ae e6 3c
       0.026593057 0.0073546255 0.005775992 0.028159428
000090 f7 1c c4 3d 7f 84 17 3d 2d cb 1d 3d 7c 91 10 bb
       0.09575837 0.036991592 0.03852384 -0.0022059372
0000a0 b4 d2 38 39 d8 d7 24 37 f5 2d 51 3c da eb 84 3d
       0.000176261 9.825417e-06 0.012767305 0.064902976
0000b0 44 bb 49 3c 31 a6 23 ba a5 70 2b 3c a2 3a f0 bb
       0.012312714 -0.0006242721 0.010463868 -0.0073312083
0000c0 1d e6 20 be d0 80 b3 3b 3f 2d d8 3d e0 1d 3b 3c
       -0.15712781 0.005478002 0.10555505 0.011420697
0000d0 83 50 fd 3c e9 01 ff 3d b9 a1 15 3d 91 ec ef 3d
       0.03092218 0.12451536 0.036531184 0.11715043
0000e0 ce 4a 8e 3d 3f 8e 17 ba 8a 3f 34 bd 27 34 0f 3d
       0.069478616 -0.0005781389 -0.044005908 0.034961846
0000f0 9e c3 2c 3a ac ca c5 3c 33 75 27 3e e0 50 40 36
       0.00065904285 0.024144493 0.16353302 2.8657305e-06
000100 6e ea 25 bd 21 cf 21 3d 1b d2 e3 3c 30 dd 8d 3c
       -0.040506773 0.039504174 0.027810147 0.017317384
000110 d9 e6 8e 3b a5 a5 58 3d 7d ca 15 3c a0 4a 2d 3d
       0.0043610153 0.052892346 0.009142515 0.042307496
000120 bd 0a 59 be f4 c4 9e 3c 90 76 44 3d 45 63 d9 3b
       -0.21195503 0.019381024 0.047964633 0.0066341483
000130 17 1f 4f 3d 59 0f 1f 3d dd 13 55 3d a5 83 be 3d
       0.05056676 0.038832996 0.052020896 0.09302453
000140 d2 6e 12 3d 9b 6c 9c 3d 06 54 d7 3d ad 42 1a 3c
       0.035750218 0.07637902 0.10514073 0.009415311
000150 9e 0a 8d 3d dc bb 7b 3c f9 3e 40 be 5c 47 7d 3b
       0.06886791 0.015364613 -0.18774022 0.003864727
000160 ef ed 3a bc 94 c4 2f 3d 9f 46 6d 3c 53 6d 30 bd
       -0.011409267 0.04291208 0.014482169 -0.04307301
000170 a2 d9 84 3b 5f 5d e8 39 0b ce 41 3d 1c 9b 9f bc
       0.004054264 0.00044320055 0.04731564 -0.019483142
000180 c5 bb 4e be 0a b4 49 3d 1c 46 44 bd 2f c4 50 3d
       -0.20188816 0.049243964 -0.047918424 0.050968345
000190 f6 c3 53 ba 68 73 3d b9 a9 53 b4 38 1c b0 ae bc
       -0.00080782117 -0.00018067437 8.598652e-05 -0.02132421
0001a0 28 ba ad 3d 69 5c de 3d 95 2b be bb 2a 2f b0 3c
       0.08482772 0.108574696 -0.005803535 0.021506865
0001b0 2d d1 f0 3d 4d 51 4f bd 3e 62 af 3a e0 e8 4a 3d
       0.11758647 -0.050614644 0.0013380719 0.049538493
0001c0 f2 88 81 3d 8c e7 c0 3d 9d 62 76 3d 42 0f b4 39
       0.06324948 0.09419164 0.06015264 0.00034343643
0001d0 a0 46 8c 3d fe e4 6e 3c f6 37 c2 3d ec 95 00 3e
       0.06849408 0.014580963 0.0948333 0.1255719
0001e0 3a 3c 80 3c 33 49 e2 3a 7e 23 cf 3d 2d e9 9d 3d
       0.015653718 0.0017264247 0.101141915 0.077104904
0001f0 52 11 af bd 1d f8 fa bc ab 0e 8d 3c 85 8f 42 3d
       -0.085482255 -0.030635888 0.017218908 0.047500152
