Models/Office_model_10_200.pth (torch, 189728 bytes, 9 tensors)

weight f4 [256, 10]
0	0xbda6f163	-0.081515096
1	0x3e656c4f	0.22404598
2	0xbd0df999	-0.034661863
3	0x3e2312ce	0.15925142
4	0x3e312b8d	0.1730177
5	0x3d2c3ee7	0.042052176
6	0xbe7e6d50	-0.24846387
7	0xbe26553a	-0.16243449
8	0x3dbf331d	0.09335921
9	0x3e79948e	0.24373075
10	0x3e9066af	0.2820334
11	0x3d9ea2dc	0.07745907
12	0x3e6e6f1e	0.23284575
13	0x3e93be57	0.28856155
14	0x3dd4b9c8	0.103869975
15	0x3e896417	0.26834175
16	0xba2be200	-0.0006556809
17	0x3d577770	0.05260414
18	0x3e792a02	0.24332431
19	0x3e1fcbb2	0.15605047
20	0x3ebfa440	0.3743
21	0xbdd48891	-0.103776105
22	0x3a8c93ca	0.0010725197
23	0x3bc47684	0.0059955735
24	0x3da24197	0.079226665
25	0xbd05574b	-0.032553952
26	0x3e391cac	0.18077344
27	0x3e462ee9	0.19353832
28	0xbeb71059	-0.3575466
29	0xbd2a9888	-0.04164937
30	0x3e176dcb	0.14787976
31	0x3e3fed2d	0.18742819
32	0xbe2ddcb8	-0.16978729
33	0xbe6c2ba5	-0.23063524
34	0xbec8984a	-0.39178687
35	0xbdd54d84	-0.104151756
36	0x3e10ef26	0.14153728
37	0xbece711c	-0.4032067
38	0xbd39f14f	-0.045396145
39	0xbdb5b56b	-0.08872493
40	0xbe093fb7	-0.13403212
41	0x3d8db84e	0.06919919
42	0x3d09f151	0.033677403
43	0x3e83c631	0.25737146
44	0x3e6ad6d7	0.22933517
45	0xbe6a45d3	-0.22878198
46	0x3cf805f4	0.030276276
47	0xbdfbd6a6	-0.122968
48	0xbf02cbad	-0.51092035
49	0xbf0548ae	-0.52064025
50	0xbe75c190	-0.2399962
51	0x3d71f0f4	0.05906768
52	0xbbe86b57	-0.007092874
53	0xbe2e531e	-0.17023894
54	0xbe5a6533	-0.21327667
55	0xbd9ed413	-0.07755294
56	0x3d50c6b8	0.050970763
57	0xbc8cbeb6	-0.017180782
58	0x3e54bac4	0.2077437
59	0x3ed8c184	0.4233514
60	0xbe53a2dc	-0.20667595
61	0xbe6c43dc	-0.23072761
62	0xbe8c1750	-0.27361536
63	0xbe6f67a6	-0.23379382
64	0xbd5f0328	-0.05444637
65	0xbe19d785	-0.1502362
66	0xbe468969	-0.19388355
67	0x3ddec340	0.10877085
68	0xbe2fd516	-0.1717113
69	0x3c7e3d40	0.015517533
70	0x3eb9ab15	0.36263338
71	0x3d839eca	0.06426771
72	0xbd6f2b18	-0.058390707
73	0x3eaa43b2	0.33254772
74	0x3e38de8d	0.18053646
75	0xbc44de54	-0.012015898
76	0xbd847743	-0.0646806
77	0xbdd0d790	-0.10197365
78	0x3ee87af6	0.45406312
79	0x3e4a9b39	0.19785775
80	0x3de84ae2	0.11342408
81	0xbecb0fc2	-0.3966046
82	0xbe639d57	-0.22227989
83	0x3d918f11	0.07107366
84	0xbe76e61a	-0.24111214
85	0xbe1bc856	-0.15213141
86	0xbe62b821	-0.22140552
87	0x3e60a3ee	0.21937534
88	0x3db6c095	0.08923451
89	0xbd7de1df	-0.061982986
90	0xbd86da6c	-0.065846294
91	0xbe99f1b9	-0.30067232
92	0x3e95898b	0.292065
93	0x3e946435	0.28982702
94	0xbe863a62	-0.26216418
95	0x3e87f9cd	0.2655777
96	0x3e9f7cdd	0.3114995
97	0xbe390a9d	-0.18070455
98	0x3dfad558	0.12247723
99	0xbd715d10	-0.058926642
100	0x3e0f7725	0.14010294
101	0x3dbcdbda	0.09221621
102	0x3e88817f	0.26661298
103	0xbe89a083	-0.26880273
104	0xbdc8fb98	-0.09813613
105	0x3d9a61fc	0.0753822
106	0xbe05c909	-0.1306497
107	0xbe9938bc	-0.29926097
108	0xbe9f0ba3	-0.31063566
109	0x3e83202b	0.2561048
110	0x3ed46b1f	0.41487977
111	0x3ec34a7b	0.38142762
112	0xbcb0e7f1	-0.021594973
113	0x3d1f6e78	0.03892371
114	0xbe00d61e	-0.12581679
115	0x3e1d317a	0.15350905
116	0x3f3a360e	0.7273873
117	0xbe0e7b26	-0.13914165
118	0xbe10edc9	-0.14153208
119	0xbe5a1bf7	-0.2129973
120	0xbd237d4d	-0.039914418
121	0xbeb8a188	-0.3606074
122	0xbe6fe3f0	-0.23426795
123	0xbe65913c	-0.22418684
124	0xbba4be4f	-0.0050275694
125	0x3da32d4a	0.079676226
126	0x3e0b5553	0.13606767
127	0xbde39042	-0.11111499
128	0x3e28b6e2	0.16476014
129	0xbea57fb8	-0.32324004
130	0xbeb63cf5	-0.35593382
131	0xbe7c890b	-0.24661653
132	0xbe5134b5	-0.20430262
133	0xbe87d489	-0.2652934
134	0xbd21f006	-0.039535545
135	0x3d6c3d2e	0.057675533
136	0x3d833604	0.06406787
137	0xbd6b819b	-0.05749665
138	0xbea3df05	-0.32006088
139	0x3cbce3c9	0.023057835
140	0xbe33abdf	-0.17546032
141	0xbe37ee1e	-0.17961928
142	0x3e831302	0.2560044
143	0x3e9df2c8	0.3084929
144	0x3dcb5b5b	0.09929534
145	0xbce8fa6a	-0.02843972
146	0xbe0ad424	-0.13557488
147	0xbe2e70d6	-0.17035231
148	0x3e12bddf	0.14330243
149	0x3ceb7eaa	0.028746922
150	0xbe3b58f5	-0.18295653
151	0x3e014935	0.12625583
152	0xbc26366a	-0.010144809
153	0xbe1b4914	-0.15164596
154	0x3e8fe2f9	0.28102854
155	0x3e478e63	0.1948791
156	0xbed32f39	-0.41246966
157	0xbe5b3692	-0.21407536
158	0x3da58767	0.080824666
159	0x3e25b9c2	0.16184142
160	0x3e62bdf8	0.2214278
161	0x3dba5828	0.09098846
162	0x3e9257a7	0.28582498
163	0xbe54706f	-0.20746015
164	0xbe9f9707	-0.31169912
165	0xbe6f1ceb	-0.23350875
166	0x3e547b1c	0.20750087
167	0x3de1f8be	0.11033772
168	0x3db0597f	0.0861082
169	0xbe9d8409	-0.30764797
170	0xbe2ae063	-0.16687159
171	0xbd6af5f6	-0.057363473
172	0x3d0aaf76	0.03385874
173	0x3dc05ded	0.09392915
174	0xbe35baff	-0.17747115
175	0x3d7bf9a6	0.06151738
176	0x3eac0b7f	0.3360252
177	0x3e14191b	0.14462702
178	0xbe9ab3eb	-0.30215392
179	0x3e80cd45	0.25156608
180	0x3edbeb74	0.42953074
181	0x3ec4b794	0.3842131
182	0x3e35134d	0.17683144
183	0x3ec3f3fe	0.3827209
184	0x3eb50a33	0.35359344
185	0xbd7558ca	-0.05989913
186	0x3e9d4d7e	0.30723184
187	0xbe09179c	-0.13387913
188	0xbe4dc011	-0.20092799
189	0x3e380b30	0.17973018
190	0xbd9102db	-0.07080623
191	0xbe0ab985	-0.13547333
192	0x3e25f0e9	0.16205181
193	0x3e8deba6	0.27718848
194	0x3dd559e1	0.10417534
195	0xbe7a18e9	-0.24423565
196	0x3e4e1297	0.20124279
197	0xbe7f7480	-0.24946785
198	0x3eadab97	0.33919975
199	0x3eeba738	0.46026015
200	0x3e165141	0.14679433
201	0x3e86a47a	0.2629736
202	0x3e6e82c2	0.23292068
203	0x3e9ac526	0.30228537
204	0xbc395bf1	-0.011313424
205	0x3e036084	0.12829787
206	0x3e6cd829	0.23129334
207	0x3dbcd385	0.09220032
208	0xbcb7b4b3	-0.022425031
209	0xbd497c7f	-0.049190994
210	0x3d95cc79	0.07314391
211	0x3cb898a5	0.022533724
212	0x3dc9996a	0.098437145
213	0xbe2ad4f4	-0.16682798
214	0x3e0e6e67	0.13909303
215	0x3dd034e5	0.10166339
216	0xbdf7c80a	-0.12098701
217	0x3e80a8fe	0.2512893
218	0x3ec7f397	0.39053032
219	0x3ed19fbf	0.4094219
220	0xbe87994f	-0.26484153
221	0x3d873d2c	0.066034645
222	0xbc413a38	-0.011793666
223	0x3d983eb2	0.07433833
224	0x3da2207a	0.07916351
225	0xbe20858c	-0.15675944
226	0x3d111564	0.03542079
227	0xbdfb3fc8	-0.12268025
228	0x3e56b10b	0.20965974
229	0x3ebcf0ed	0.36902562
230	0xbca37c31	-0.01995668
231	0x3ea305b1	0.3184028
232	0x3e698a20	0.22806597
233	0xbe1c7964	-0.15280682
234	0xbd238887	-0.039925124
235	0x3d50cae9	0.05097476
236	0xbe6b77c9	-0.22994913
237	0x3d056931	0.03257102
238	0x3ea067fe	0.3132934
239	0x3e880a45	0.26570335
240	0xbe904004	-0.2817384
241	0xbe45eb2e	-0.19327995
242	0x3e92f139	0.28699663
243	0x3b9f4900	0.004860997
244	0xbe59bfc8	-0.21264565
245	0x3e04c848	0.12967026
246	0x3d934fdc	0.07192966
247	0xbae50f00	-0.0017475784
248	0x3e876837	0.26446697
249	0xbe744b38	-0.23856819
250	0x3de0d49d	0.10978053
251	0x3d48431c	0.048892125
252	0x3e476298	0.19471204
253	0xbdae1554	-0.08500162
254	0x3e9809b6	0.2969491
255	0x3e95e315	0.29274812

bias f4 [256]
0	0xbd8b56e4	-0.068036824
1	0x3da783d0	0.08179438
2	0xbe7fcf79	-0.24981488
3	0xbe8a6093	-0.27026805
4	0xbebe9234	-0.3722092
5	0x3f0202ce	0.5078553
6	0xbe9a1ca4	-0.30099976
7	0x3eaae6f9	0.33379343
8	0xbce2aec3	-0.027671224
9	0xbd845238	-0.064609945
10	0xbe899b63	-0.26876363
11	0xbe866426	-0.26248282
12	0xbdeb5002	-0.1148987
13	0xbec67342	-0.3875981
14	0x3e11127d	0.14167209
15	0xbda53ccb	-0.08068236
16	0xbe5ef653	-0.21773653
17	0xbc919b8e	-0.01777437
18	0xbde1872f	-0.11012112
19	0x3e8742f9	0.26418284
20	0x3d315b4d	0.04329996
21	0x3e8afa3d	0.27144042
22	0x3e6e9a66	0.23301086
23	0x3e260f2f	0.1621673
24	0xbe75eab6	-0.24015316
25	0xbe6307cc	-0.22170943
26	0xbe3c2e6e	-0.18377087
27	0xbe653d5f	-0.22386692
28	0xbd984879	-0.07435698
29	0x3e871241	0.26381114
30	0x3f22261e	0.6333941
31	0xbd5ea096	-0.054352365
32	0x3e845e39	0.25853136
33	0xbeaf43eb	-0.34231505
34	0x3f2c760f	0.67367643
35	0xbea61beb	-0.32443175
36	0xbd6410bb	-0.055680018
37	0xbe682607	-0.22670756
38	0xbe6ea5d5	-0.23305447
39	0xbf11238d	-0.5669487
40	0xbf482cfc	-0.7819364
41	0xbe164347	-0.14674102
42	0xbe70d8cc	-0.23520201
43	0x3ea27d8f	0.3173642
44	0xbe58cd9b	-0.21172182
45	0x3f813391	1.0093862
46	0x3e2ad80b	0.16683976
47	0x3caa9609	0.020823495
48	0xb93eeb36	-0.00018207435
49	0xbebb3dcd	-0.36570588
50	0xbd83b993	-0.0643188
51	0x3d6a2558	0.05716452
52	0x3e8dae8b	0.27672228
53	0xbe84034c	-0.25783765
54	0x3ee9b5c5	0.45646492
55	0xbe8a7fe7	-0.27050707
56	0x3f1128da	0.5670296
57	0xbf47db95	-0.7806943
58	0x3c4eba62	0.012617679
59	0x3f2c5dfa	0.67330897
60	0x3e3fddf2	0.18737009
61	0xbe1b05ef	-0.15138982
62	0xbbf5a11c	-0.0074960124
63	0x3dccff26	0.10009603
64	0x3e1ebb6c	0.15501183
65	0xbe1c781a	-0.1528019
66	0x3e808837	0.25103924
67	0x3d901529	0.07035286
68	0x3f30d663	0.6907713
69	0xbe74959f	-0.23885201
70	0x3de0c40b	0.10974892
71	0x3e99bf4f	0.3002877
72	0xbf7c48d7	-0.98548645
73	0x3e82ff5c	0.2558545
74	0xbe5b787e	-0.21432683
75	0xbd9b648a	-0.07587536
76	0xbdae8675	-0.085217394
77	0xbd058b2b	-0.032603424
78	0xbe8b9a7e	-0.27266306
79	0x3e245a5c	0.16050094
80	0x3ea47301	0.3211899
81	0xbe906568	-0.28202367
82	0xbdb2cdeb	-0.08730682
83	0x3e7bcb72	0.24589327
84	0xbcc80228	-0.02441509
85	0xbe771139	-0.24127664
86	0xbe2f94b1	-0.17146565
87	0x3ed2e3f7	0.41189548
88	0x3e2fcf88	0.1716901
89	0x3e87470f	0.264214
90	0xbe5ee926	-0.21768627
91	0x3de27c00	0.110588074
92	0xbee875aa	-0.4540227
93	0xbe3184a2	-0.17335752
94	0x3dec0eb9	0.115262456
95	0xbe4588c6	-0.19290456
96	0x3f7d7f7b	0.99022645
97	0xbef2b9ce	-0.47407383
98	0xbf10a4e9	-0.5650163
99	0xbe438427	-0.19093381
100	0xbe11d6fb	-0.14242165
101	0xbd92fa48	-0.071766436
102	0xbd8e91bd	-0.06961391
103	0xbed54fef	-0.41662547
104	0xbd58702d	-0.052841354
105	0x3e16db46	0.14732084
106	0xbf0cba55	-0.5497182
107	0xbf47a527	-0.7798638
108	0x3f504b54	0.8136494
109	0x3f0426ba	0.5162159
110	0xbe3fc5f7	-0.18727861
111	0xbdd898e3	-0.10576036
112	0xbec54fc6	-0.38537425
113	0xbe9b32ca	-0.30312186
114	0xbcaf6f20	-0.021415293
115	0x3e8edee7	0.27904436
116	0x3e8ad9f7	0.2711942
117	0xbe7e9d73	-0.2486475
118	0xbe536483	-0.20643811
119	0xbe37c522	-0.17946294
120	0xbe375153	-0.17902116
121	0xbca89ef9	-0.020583617
122	0x3e550e47	0.20806228
123	0xbe021eb6	-0.12707028
124	0x3bdd1dbe	0.0067479303
125	0xbe4b1a7b	-0.1983432
126	0xbf3e1052	-0.7424365
127	0x3cacaa82	0.021077398
128	0xbe85aaff	-0.26107022
129	0x3e642dec	0.22283143
130	0x3e6a628e	0.22889158
131	0xbd42396d	-0.047418047
132	0x3e6a8fc1	0.229064
133	0xbe9ae32b	-0.3025144
134	0xbe970697	-0.29497215
135	0xbe56cba2	-0.20976117
136	0xbe08673b	-0.1332063
137	0xbb90d832	-0.0044203037
138	0xbdfe6a48	-0.12422615
139	0xbe0d1d9c	-0.13780826
140	0x3c8532c2	0.016259555
141	0xbee53149	-0.44764164
142	0x3de80c0f	0.11330425
143	0x3e59302e	0.21209785
144	0xbdb662df	-0.08905577
145	0xbf0b6661	-0.5445309
146	0x3e3884a8	0.18019354
147	0xbea87f95	-0.32909837
148	0xbea5d399	-0.32388
149	0xbf15084e	-0.58215797
150	0xbe9080bd	-0.2822322
151	0x3df40268	0.119145215
152	0x3e8b7f5c	0.27245605
153	0x3eea97c5	0.45818916
154	0xbdac84c9	-0.08423764
155	0xbe78e201	-0.24304964
156	0xbf1dd377	-0.61650795
157	0xbe281190	-0.1641295
158	0x3dd4f8b4	0.10398999
159	0xbed94702	-0.42436987
160	0x3eb40e7c	0.351673
161	0x3e4827b6	0.19546399
162	0x3eaec456	0.34134167
163	0x3e8a6917	0.27033302
164	0xbe9a335e	-0.30117315
165	0x3e49d6a2	0.19710782
166	0xbec66ab6	-0.3875329
167	0xbe3c61d1	-0.18396689
168	0x3f0bfc22	0.546816
169	0x3cdec76c	0.027194701
170	0xbf0b0811	-0.54309183
171	0xbe82645f	-0.25467202
172	0x3f0c6de3	0.54855174
173	0xbb5a468d	-0.0033306212
174	0xbebf5636	-0.3737046
175	0xbd8c5ca8	-0.0685361
176	0x3cf78d20	0.03021866
177	0xbe8910ad	-0.26770535
178	0x3e8c8978	0.2744863
179	0x3f2916e5	0.6605056
180	0xbec4c5d4	-0.3843218
181	0x3df03129	0.117281266
182	0xbe3c321e	-0.18378493
183	0xbd9988f4	-0.07496825
184	0xbdc4c409	-0.09607703
185	0x3e3e5c46	0.18589887
186	0xbebf844c	-0.37405622
187	0xbd49b2fc	-0.04924296
188	0x3f16a90a	0.58851683
189	0x3c989ad1	0.01862851
190	0xbeaeac10	-0.34115648
191	0xbe97dffb	-0.2966307
192	0x3f24e8d6	0.6441778
193	0x3e9f4b87	0.3111231
194	0x3e9b12b9	0.30287722
195	0x3c85fba5	0.016355345
196	0xbe53c84b	-0.20681874
197	0xbe3777d9	-0.17916812
198	0x3d8d82d4	0.06909719
199	0x3d85303f	0.06503343
200	0x3e0cec80	0.13762093
201	0x3d3ed887	0.046593215
202	0xbd9ea156	-0.07745616
203	0xbea1ad07	-0.31577322
204	0xbe83da38	-0.25752425
205	0x3e15aecb	0.1461746
206	0xbb931790	-0.004488893
207	0xbba59500	-0.0050531626
208	0x3d515874	0.051109746
209	0xbe7a0d23	-0.24419074
210	0x3dbdfbd8	0.09276551
211	0xbeed6dcd	-0.46372834
212	0xbe907aab	-0.28218588
213	0x3c150691	0.009095804
214	0x3e9e67ee	0.30938667
215	0xbe514fbc	-0.20440573
216	0xbe179416	-0.14802584
217	0x3e11ce9c	0.14238971
218	0xbe1466cd	-0.1449234
219	0xbeb9fea1	-0.3632708
220	0x3ecef002	0.40417486
221	0xbd77087d	-0.06031083
222	0x3e57c3f6	0.21070847
223	0xbe755684	-0.23958784
224	0xbe158d8e	-0.1460478
225	0x3f47e836	0.780887
226	0x3e945ee9	0.2897866
227	0xbe2e1291	-0.1699927
228	0xbe11bf30	-0.14233088
229	0x3da3ef74	0.080046564
230	0xbef48a97	-0.47761986
231	0xbef15b28	-0.4713986
232	0xbe79fb83	-0.2441235
233	0x3db171b7	0.086642675
234	0x3e1c87be	0.15286157
235	0x3e454f98	0.19268644
236	0x3d1b6e25	0.03794684
237	0x3e5dde53	0.21666841
238	0xbe74bff7	-0.23901354
239	0x3e3e906a	0.18609777
240	0xbe67f3c1	-0.22651578
241	0xbc00de94	-0.007865567
242	0xbe94e312	-0.2907949
243	0xbe6d0e9d	-0.23150106
244	0xbe948034	-0.2900406
245	0x3db25cce	0.08709107
246	0x3cf6b8f9	0.030117499
247	0x3d428e66	0.047499083
248	0xbe978c1e	-0.29599088
249	0x3ed81143	0.4220067
250	0x3e899723	0.2687312
251	0x3e13cb04	0.14432913
252	0x3ea718fc	0.3263625
253	0xbc2c28df	-0.010507791
254	0x3d735470	0.059406698
255	0x3e35f9ee	0.17771122

weight f4 [128, 256]
0	0x3b6e4707	0.0036358254
1	0x3cb24993	0.021763599
2	0x3c63a47a	0.013894195
3	0xbd05aebe	-0.03263735
4	0x3ce9bd7c	0.028532736
5	0x3cfebf13	0.03109697
6	0xbd1b9968	-0.037988096
7	0xbd0e9e5d	-0.034818996
8	0xbd12b55b	-0.035817485
9	0x3c57ac13	0.013163584
10	0xbd125734	-0.035727695
11	0xbd125b8b	-0.035731833
12	0xbd5fd397	-0.054645147
13	0xbd9ca5f4	-0.076488405
14	0xbd050bea	-0.032482065
15	0xbd133167	-0.035935786
16	0xbd0cfc12	-0.03442008
17	0x3c981561	0.018564882
18	0x3cbcc318	0.023042247
19	0xbd2325b5	-0.039830882
20	0x3cf0f5d4	0.029414095
21	0xbcbd9068	-0.023140147
22	0xbd25c7ab	-0.04047362
23	0xbbf9495d	-0.0076076225
24	0x3d3f5438	0.046711177
25	0x3bc1b35e	0.005911275
26	0x3d2933eb	0.04130928
27	0x3c44d7f2	0.012014376
28	0x3d1677c9	0.03673533
29	0xbd37f0e2	-0.044907458
30	0x3d848651	0.06470931
31	0x3d260b73	0.040538263
32	0xbcab9b02	-0.020947937
33	0x3d37bc08	0.044857055
34	0x3d3a7985	0.045526046
35	0xbd1795cc	-0.03700809
36	0x3d886e13	0.0666162
37	0x3d98afff	0.074554436
38	0xbd1835dc	-0.03716074
39	0xbd3ec930	-0.046578586
40	0x3d6592f6	0.056048356
41	0xbda7ac42	-0.081871524
42	0x3bc80d33	0.006105089
43	0xbd11847e	-0.035526745
44	0x3cf1f716	0.029536765
45	0x3d0e8d9b	0.034803014
46	0x3d23a6b6	0.03995391
47	0xbbbcf2ef	-0.0057662646
48	0x3cdcf5ac	0.026972614
49	0xbd5b22c7	-0.053499963
50	0x3dc2ebfa	0.09517665
51	0x3d836876	0.06416409
52	0xbd7e5f00	-0.062102318
53	0x3c866706	0.016406547
54	0xbd0e05e6	-0.034673594
55	0x3c18c84d	0.009325099
56	0x3cb1170e	0.021617439
57	0x3cc7373f	0.024318336
58	0xbd8f2e13	-0.0699121
59	0x3d478bdb	0.04871736
60	0x3c78994d	0.0151732685
61	0xbc0f7dba	-0.008758003
62	0xbcae74af	-0.021295873
63	0xbd66eda0	-0.05637896
64	0x3d880eb7	0.06643432
65	0xbd9a0107	-0.07519727
66	0x3cf66c06	0.030080806
67	0x3cafb32e	0.021447744
68	0x3c97d25e	0.018532928
69	0x3af3458c	0.0018560155
70	0x3cfa66eb	0.030566653
71	0xbc11219f	-0.008858114
72	0xbc1c349f	-0.00953403
73	0x3cfe4809	0.031040208
74	0xbcfeb4f1	-0.031092139
75	0xbcfd7bfe	-0.030942913
76	0xbd88f6c5	-0.066876926
77	0x3c0b6700	0.008508444
78	0x3bb23645	0.0054385983
79	0x3d110090	0.035400927
80	0xbdbafbbd	-0.091300465
81	0xbcc57713	-0.02410463
82	0x3d564447	0.052311208
83	0x3c9e2cd1	0.01930848
84	0xbccdb94f	-0.025112776
85	0xbd598bda	-0.05311189
86	0x3d81fd0e	0.063470945
87	0xbd04e862	-0.03244818
88	0x3b8bfdea	0.0042722123
89	0xbce5b393	-0.02803973
90	0x3d6e3d6a	0.058164038
91	0x3ce3de7c	0.02781605
92	0xbbfcee5a	-0.0077188434
93	0xbd1d4916	-0.03839978
94	0x3d368999	0.044564817
95	0x3cd173c9	0.025567906
96	0x3c37eaa5	0.011225377
97	0xbcd24176	-0.02566598
98	0xbd2dcfb7	-0.04243442
99	0xbda0fb0b	-0.07860383
100	0x3cc65115	0.024208585
101	0xbcec61c7	-0.028855218
102	0x3c3a7298	0.01137986
103	0x3b04c5d1	0.002025951
104	0xbbb86523	-0.005627291
105	0x3d38ec1e	0.045147054
106	0x3d8b3821	0.06797815
107	0xbcb04d16	-0.021521132
108	0xbc80be55	-0.015715757
109	0x3d17fdb7	0.037107196
110	0x3c35978c	0.011083495
111	0x3c8be7c1	0.017078282
112	0xbd58684b	-0.052833837
113	0x3d91f761	0.07127262
114	0x3d0d54be	0.034504645
115	0xbd3cef50	-0.046126664
116	0x3d42ba97	0.047541227
117	0xbc00d2f3	-0.007862794
118	0x3c822d9c	0.015890889
119	0xbd295d48	-0.041348726
120	0x3ce742ac	0.028230034
121	0xbd6b8ec2	-0.05750919
122	0x3da20aaa	0.0791219
123	0x3d4d9cc8	0.050198346
124	0xbcaf0711	-0.021365674
125	0x3d0442ed	0.032290388
126	0x3cc6231c	0.024186663
127	0x3d0978c7	0.033562448
128	0xbc134416	-0.008988401
129	0x3d573e7a	0.052549817
130	0x3d58a41e	0.05289089
131	0x3b931365	0.004488396
132	0x3cbf07d2	0.023319159
133	0xbd9405dd	-0.07227681
134	0x3d823069	0.0635689
135	0xbd549195	-0.05189665
136	0x3d366215	0.044527132
137	0xbccc1424	-0.024911948
138	0x3ce2dc38	0.0276929
139	0xbd1e6c7e	-0.038677685
140	0x3cecd703	0.02891112
141	0xbd3ff7c6	-0.046867155
142	0x3d72b8d5	0.0592583
143	0xbb48c8c0	-0.0030637234
144	0xbd8680ff	-0.06567573
145	0xbc9e8157	-0.019348783
146	0xbc3bc7ac	-0.01146118
147	0x3b9130d4	0.0044308696
148	0x3d2ec03a	0.04266379
149	0xbc8bfc3f	-0.017088054
150	0x3c2e2e41	0.010631145
151	0x3d3ff530	0.04686469
152	0x3bb682e2	0.0055698017
153	0x3d44a274	0.04800649
154	0xbcbd08d2	-0.023075495
155	0xbcb68ff8	-0.022285447
156	0x3d7fa3cf	0.06241208
157	0xbda686d5	-0.08131186
158	0x3da414c5	0.08011774
159	0xbcdf8fbf	-0.027290223
160	0x3c7925b2	0.015206741
161	0xbce163ce	-0.02751341
162	0x3c3e0136	0.011596968
163	0x3b58c0e4	0.0033073956
164	0x3d025c89	0.03182653
165	0xbcf85f4a	-0.030318875
166	0xbc8ea0a8	-0.017410591
167	0xbd9fb7ea	-0.07798751
168	0x3d1dc8af	0.038521465
169	0xbd3a7d8f	-0.0455299
170	0x3d2f6f85	0.042830963
171	0xbc042cdc	-0.008067336
172	0x3d244a29	0.040109787
173	0xbc09b06f	-0.008403881
174	0xbc0f022a	-0.008728543
175	0xbc79ef2e	-0.015254779
176	0x3ca171b7	0.019707544
177	0xbcce6371	-0.025193902
178	0xbc7b7601	-0.015347959
179	0xbd2da015	-0.042388994
180	0x3d0de473	0.034641694
181	0x3da526d7	0.08064049
182	0x3d8737d5	0.06602446
183	0x3d2e1078	0.042496175
184	0x3d39c7ad	0.04535644
185	0x3d9b0a87	0.07570367
186	0xbc905a42	-0.017621163
187	0x3d05688c	0.032570407
188	0xbd66a04e	-0.056305222
189	0x3d034514	0.0320483
190	0x3d584653	0.05280144
191	0xbcdd0ac1	-0.026982667
192	0xbd0da221	-0.034578446
193	0x3d19ecb2	0.037579246
194	0xbd11946c	-0.035541937
195	0x3d6c4d23	0.05769075
196	0x3c61ab75	0.013773789
197	0x3d653390	0.055957377
198	0x3c41713c	0.011806782
199	0x3d234ad4	0.039866284
200	0x3d16c3a6	0.03680768
201	0x3c3fba70	0.011702165
202	0xbc6ff3ad	-0.014645499
203	0x3b83cce1	0.004022226
204	0xbcca3d13	-0.024687326
205	0xbd9204dd	-0.07129834
206	0x3d86ab77	0.06575673
207	0x3c8057b1	0.015666815
208	0x3d0ae3fc	0.03390883
209	0xbd3b36f6	-0.04570671
210	0x3d09cfd8	0.03364548
211	0x3d2dd28d	0.042437125
212	0xbc855506	-0.016275894
213	0x3bb43848	0.0054998733
214	0xbc535a64	-0.012899969
215	0x3cdc5224	0.026894636
216	0xbd2f75aa	-0.042836823
217	0xbd0a92bf	-0.033831354
218	0xbd580b2a	-0.052745022
219	0x3d4b8827	0.049690392
220	0x3d21e036	0.039520465
221	0x3c9c199c	0.01905518
222	0x3d35c43e	0.044376604
223	0x3d7f0b7c	0.06226681
224	0x3d48038c	0.048831508
225	0x3c817160	0.015801132
226	0x3b58875b	0.0033039663
227	0x3d804752	0.06263603
228	0xbc9bee20	-0.019034445
229	0x3ad13b69	0.001596314
230	0xbc86187e	-0.0163691
231	0xbc6bbcf7	-0.014388314
232	0xbd10173e	-0.035178415
233	0x3d9ad3f2	0.075599566
234	0x3d9bd183	0.076083206
235	0xbd75f948	-0.060052186
236	0x3c344c77	0.011004559
237	0x3da69860	0.08134532
238	0x3d09d766	0.033652686
239	0x3a394081	0.0007066802
240	0x3cc69247	0.024239672
241	0xba3df165	-0.00072457484
242	0xbc1e7de8	-0.009673573
243	0xbcf43dba	-0.02981459
244	0x3c0a8f7a	0.008457059
245	0xbd4305cf	-0.04761296
246	0xbc97daea	-0.018537004
247	0x3d9607ca	0.073257044
248	0x3c346af6	0.01101183
249	0x3c8cb75a	0.017177273
250	0x3d9427fb	0.07234188
251	0xbd88f54f	-0.06687414
252	0x3cfa4548	0.030550614
253	0x3d7cb535	0.06169625
254	0x3cad4179	0.021149384
255	0x3cbda4a3	0.023149794

bias f4 [128]
0	0x3bc928ba	0.006138888
1	0x3cd39c34	0.02583132
2	0xbc0864cf	-0.008324816
3	0x3d684126	0.056702755
4	0xbc909024	-0.017646857
5	0x3de1c059	0.110230155
6	0x3d1d53b2	0.038409896
7	0x3d4cfca1	0.050045613
8	0xbd1ede53	-0.038786244
9	0x3c6b53c0	0.014363229
10	0xbc4fdbf4	-0.012686718
11	0x3c30f3c6	0.010800308
12	0x3d1f50d2	0.038895436
13	0xbd8c109e	-0.06839107
14	0xbcec0251	-0.028809698
15	0xbc741785	-0.014898186
16	0xbd890479	-0.06690306
17	0xbc79c21b	-0.015244032
18	0xbd00efbb	-0.031478625
19	0xbd02d7c1	-0.03194404
20	0xbcab235b	-0.020890882
21	0xbd4baa9b	-0.04972325
22	0xbb91aebd	-0.0044458793
23	0x3ce6fa36	0.028195482
24	0xbd5de7d9	-0.054176185
25	0xbcf3f0a3	-0.02977783
26	0x3bfefbc1	0.0077814762
27	0xbd81ef26	-0.06344442
28	0x3d8629d6	0.06550948
29	0xbd95f926	-0.07322912
30	0xbd82628a	-0.06366451
31	0x3d819f05	0.06329159
32	0x3b6066e4	0.0034241015
33	0x3d6f448f	0.058414992
34	0x3d8a92d7	0.06766289
35	0x3d45efb4	0.0483243
36	0xbd8e9199	-0.06961364
37	0x3baf8205	0.0053560757
38	0xbb9eec05	-0.004849913
39	0xbcdc504a	-0.026893754
40	0x3d1584e8	0.036503702
41	0x3c8cf7ba	0.017207969
42	0x3cf1c6f6	0.029513817
43	0x3cb2c29c	0.021821313
44	0x3d7b53f0	0.061359346
45	0x3d201c1e	0.039089315
46	0x3cf3e99c	0.02977448
47	0xbc99a40f	-0.018754987
48	0xbd75c09b	-0.059998136
49	0x3d4fb8fb	0.05071352
50	0x3b1b4292	0.0023690802
51	0x3d85dbca	0.06536062
52	0x3d888827	0.06666594
53	0xbda4534a	-0.08023699
54	0xba416140	-0.0007376857
55	0x3d9f11c6	0.07767062
56	0x3d9780fb	0.07397648
57	0xbc41d2f5	-0.011830081
58	0x3cb2a8da	0.02180903
59	0xbba8fab8	-0.005156841
60	0x3d814019	0.06311054
61	0xbd17748b	-0.03697638
62	0x3d20b9a1	0.03923953
63	0x3ae683bd	0.0017586868
64	0xbd52e4fb	-0.051487904
65	0x3bfa1744	0.007632168
66	0x3cae0aa9	0.021245318
67	0xbbe29c68	-0.0069156177
68	0xbd70a670	-0.058752477
69	0xbd761bf2	-0.060085244
70	0xbd17b935	-0.03704186
71	0x3c079d43	0.00827724
72	0xbcf6cc2e	-0.030126657
73	0x3b89015b	0.00418107
74	0xbd4782c8	-0.048708707
75	0xbdc588d0	-0.096452355
76	0x3cb95018	0.0226212
77	0xbd6f0690	-0.058355868
78	0xbcfc8bd0	-0.030828387
79	0x3b685874	0.0035453113
80	0xbda221cd	-0.07916603
81	0xbb23d3bc	-0.002499803
82	0x3b8f8193	0.00437946
83	0xbafd044a	-0.0019303646
84	0xbd8cdc09	-0.06877906
85	0x3d3bc19a	0.04583893
86	0x3b4b7d5f	0.0031050069
87	0xbdace6a5	-0.084424295
88	0x3cb76378	0.022386298
89	0x3d61e262	0.055147536
90	0xbc22495c	-0.009905186
91	0xbd8a865f	-0.067639105
92	0xbd7d5382	-0.061847217
93	0xbd0338a2	-0.03203643
94	0xbd04783b	-0.032341223
95	0xbd241e23	-0.040067803
96	0x3d5223bd	0.051303614
97	0xbbc1902f	-0.0059070806
98	0xbc7fdc53	-0.015616494
99	0x3c247b42	0.010039153
100	0x3c1bf379	0.009518498
101	0x3d050ff7	0.03248593
102	0x3cdd3bf5	0.027006129
103	0xbccd6b12	-0.02507547
104	0xbd1ecf30	-0.03877181
105	0x3c946bfb	0.018117895
106	0x3d6d41ca	0.05792407
107	0xbd520106	-0.051270507
108	0x3a9ec09c	0.0012111845
109	0x3cdc6aec	0.026906453
110	0x3cff0d35	0.031134227
111	0x3cbfe0b1	0.02342257
112	0x3cac52c9	0.021035569
113	0xba9c5b36	-0.0011929038
114	0xbd1236f3	-0.035696935
115	0x3d983af3	0.07433119
116	0xbce8e09f	-0.02842742
117	0xbcb5fd90	-0.022215635
118	0xbc976f12	-0.01848558
119	0x3d9e0e0f	0.07717525
120	0xbcbb69c8	-0.022877589
121	0x3da33131	0.07968367
122	0xbda5c6d3	-0.08094563
123	0x3d0b6535	0.034032065
124	0x3cce40dd	0.025177414
125	0x3d16d1a0	0.036821008
126	0x3d54b2eb	0.051928442
127	0x3ce3136b	0.02771922

weight f4 [64, 128]
0	0xbca6403f	-0.020294307
1	0xbe7cdc44	-0.246934
2	0x3ddc513c	0.10757682
3	0xbd36c2e9	-0.044619475
4	0xbdecac31	-0.115562804
5	0xbb4aadc2	-0.0030926322
6	0xbe4673bc	-0.19380087
7	0xbc3a8cca	-0.011386106
8	0x3dd9f643	0.10642674
9	0xbd6c62d0	-0.057711422
10	0x3f609a86	0.87735784
11	0xbc752c57	-0.014964185
12	0xbe697cf8	-0.22801578
13	0xbc4db69f	-0.012555747
14	0x3bcf22e8	0.0063213
15	0xbda52a1a	-0.08064671
16	0x3d5cf3cc	0.05394344
17	0xbd704cff	-0.05866718
18	0xbd15cade	-0.036570422
19	0xbc483634	-0.012219954
20	0xbe0d67f1	-0.13809182
21	0x3d3ec957	0.04657873
22	0x3c6e2355	0.014534791
23	0xbc05dfd3	-0.00817104
24	0xbd830680	-0.06397724
25	0xbdcc3e94	-0.09972873
26	0x3e0655a3	0.13118605
27	0xbd6c8f7b	-0.05775402
28	0x3d1e8e0d	0.03870969
29	0x3cd039e9	0.025418239
30	0xbc589fd4	-0.0132217
31	0x3d936d2e	0.07198559
32	0x3f37ef47	0.71849483
33	0xbbf66400	-0.007519245
34	0xbdd815b0	-0.105510116
35	0xbce13b07	-0.027493967
36	0xbdb177f6	-0.08665459
37	0xbddabdbf	-0.106807224
38	0x3d26e80d	0.040748645
39	0x3d8817fa	0.06645198
40	0xbf22c7e4	-0.6358626
41	0x3d1f3dcf	0.038877305
42	0x3cc3c700	0.023898602
43	0x3e1e0914	0.1543315
44	0x3bc68875	0.0060587474
45	0x3dc05305	0.09390835
46	0xbd86483a	-0.06556745
47	0xbd52e036	-0.051483355
48	0x3cdbe1d4	0.026841082
49	0xbd8881f8	-0.066654146
50	0x3de254e8	0.11051351
51	0xbed23f93	-0.41064128
52	0xbed859e5	-0.42256084
53	0xbd94ab11	-0.07259191
54	0xbcff74a4	-0.031183548
55	0xbc9b641a	-0.01896863
56	0xbd083b43	-0.03325964
57	0x3f273a44	0.6532328
58	0xbc56a41f	-0.013100653
59	0xbd912362	-0.07086827
60	0x3d3772d8	0.044787258
61	0xbdd0f359	-0.10202665
62	0xbd809084	-0.06277564
63	0xbd1d70e6	-0.038437746
64	0xbd83bce2	-0.06432511
65	0xbd6a8129	-0.057252083
66	0xbe070a45	-0.13187511
67	0x3d3264b0	0.043553054
68	0x3ce49b24	0.027906008
69	0xbdc66f03	-0.096891426
70	0xbda4a238	-0.08038753
71	0xbf72a3d3	-0.94781226
72	0xbee8e435	-0.45486608
73	0x3daf40cc	0.08557281
74	0x3d5e268e	0.054235987
75	0xbd84794a	-0.064684466
76	0xbd5ca75b	-0.05387054
77	0xbdd5a348	-0.10431534
78	0x3eb91c40	0.36154366
79	0xbe24139a	-0.16023102
80	0x3d4740a4	0.04864563
81	0x3beb6803	0.00718403
82	0xbcf11ae4	-0.029431768
83	0x3b23c33d	0.0024988197
84	0x3c17eb53	0.009272414
85	0xbda81675	-0.08207408
86	0xbda6981e	-0.08134483
87	0x3cda9a0c	0.026684783
88	0xbd678b84	-0.056529537
89	0x3dd6778a	0.10472019
90	0xbd865304	-0.06558803
91	0xbc6002f5	-0.01367258
92	0xbbc8bdf3	-0.0061261593
93	0x3dad278b	0.08454808
94	0x3e3745a9	0.17897667
95	0xbd660aa3	-0.056162488
96	0xbe05ebc5	-0.1307822
97	0xbdaa0afe	-0.08302878
98	0x3d92697a	0.07149024
99	0x3b9afa66	0.004729557
100	0xbd26031c	-0.04053031
101	0x3c6485bd	0.013947901
102	0x3dd1a3ef	0.10236346
103	0xbd44b523	-0.048024308
104	0x3cda6356	0.026658695
105	0x3f0e1e9e	0.5551547
106	0x3c8ac1b2	0.016938064
107	0xbdcd0129	-0.10009987
108	0x3dc0537a	0.09390922
109	0xbd042c19	-0.032268617
110	0xbd44ca4c	-0.048044488
111	0xbc68ad65	-0.014201497
112	0x3d33cea2	0.043898232
113	0x3d2cb96d	0.042169023
114	0xbd841621	-0.06449533
115	0xbcec614d	-0.02885499
116	0x3c80ce62	0.015723411
117	0x3d5991b4	0.05311747
118	0x3d7a9194	0.06117399
119	0x3c88718a	0.016655702
120	0x3d95e197	0.073184185
121	0xbe2beb86	-0.16789064
122	0xbcbe4c04	-0.023229606
123	0xbe28d5d4	-0.16487819
124	0xbe98a088	-0.29809976
125	0xbc4ec134	-0.012619305
126	0xbd860050	-0.06543028
127	0xbd041141	-0.032243017
128	0xbcddf84e	-0.02709594
129	0xbd578c77	-0.052624192
130	0x3c132166	0.008980131
131	0xbdbef795	-0.09324566
132	0xbb6a5e3e	-0.003576174
133	0xbd5f89fd	-0.054574955
134	0x3d97b495	0.0740749
135	0xbddf97f8	-0.109176576
136	0x3c0b8314	0.008515138
137	0x3da72e86	0.081631705
138	0x3db5e8cb	0.08882292
139	0xbd67327d	-0.056444634
140	0x3c91b643	0.017787104
141	0x3dbef4be	0.093240246
142	0x3dcf80ba	0.101319745
143	0x3d5997cc	0.05312328
144	0xbcdd84b6	-0.02704082
145	0xbc6f2fb5	-0.014598777
146	0x3dcc4aa5	0.09975175
147	0x3bf7ee18	0.007566225
148	0x3cc021d1	0.023453625
149	0x3da62abc	0.0811362
150	0xbb633494	-0.003466879
151	0x3ceba28a	0.028764028
152	0xbd8156cb	-0.063153826
153	0xbd10c29f	-0.035341855
154	0x3d8cc1ce	0.06872903
155	0xbdb0431f	-0.08606552
156	0xbd9c9248	-0.076450884
157	0x3d10e5c0	0.035375357
158	0x3dc039dd	0.093860365
159	0x3d8a9560	0.06766772
160	0xbb618450	-0.003441114
161	0xbd4713c1	-0.048602823
162	0x3d13fcb2	0.03612966
163	0xbd225923	-0.03963579
164	0x3d3199e6	0.04335966
165	0x3d4c5d37	0.049893584
166	0xbcb66ee3	-0.022269672
167	0x3db37283	0.08762076
168	0x3ba35820	0.0049848706
169	0xbc79f8fc	-0.015257116
170	0xbde237b4	-0.11045781
171	0x3cabac8d	0.020956302
172	0xbd8b7083	-0.06808569
173	0xbdf0f42c	-0.11765322
174	0x3d8e847a	0.06958862
175	0xbdb88569	-0.09009821
176	0xbdc271f5	-0.09494392
177	0xbc2e0b03	-0.010622743
178	0xbdeaa648	-0.11457497
179	0x3ce9b562	0.028528873
180	0x3d4b3dd6	0.04961952
181	0x3e00839a	0.12550202
182	0xbc9eae13	-0.019370114
183	0xbda8b756	-0.082380936
184	0xbdc652a8	-0.09683734
185	0x3d1f01fe	0.03882026
186	0xbd93d0dd	-0.07217572
187	0x3df458e0	0.11931014
188	0xbdd2829f	-0.1027882
189	0x3dee7658	0.11643666
190	0x3d558f98	0.052138895
191	0xbd0783f5	-0.03308483
192	0x3dfe4dac	0.124171585
193	0x3dc11a93	0.09428897
194	0x3d055af9	0.03255746
195	0x3cbbd0c0	0.022926688
196	0x3dd7e780	0.10542202
197	0xbd01733b	-0.031604033
198	0x3da7b005	0.0818787
199	0x3cab0a1c	0.020878844
200	0x3d8c88a5	0.068620004
201	0xbd386bda	-0.04502473
202	0xbce65f87	-0.028121723
203	0xbc546029	-0.0129623795
204	0xbd66df90	-0.05636555
205	0x3d9a2d4e	0.075281724
206	0xbcbb154b	-0.022837302
207	0xba58762c	-0.0008257355
208	0xbcc77e8b	-0.024352333
209	0x3ca7b505	0.020472059
210	0x3cae73f5	0.021295527
211	0xbbfb0a4d	-0.00766114
212	0x3dc02a46	0.09383063
213	0x3cd824b7	0.026384695
214	0xbc94396e	-0.01809379
215	0xbc58cdca	-0.013232658
216	0x3d348614	0.04407318
217	0xbd298173	-0.041383218
218	0x3d93b45a	0.07212134
219	0x3dbfe20b	0.09369286
220	0x3d599786	0.05312302
221	0xbddf8c22	-0.109154
222	0xbd85aabb	-0.06526705
223	0xbd489f1f	-0.048979875
224	0x3cb1f403	0.0217228
225	0x3d8f27c2	0.06990005
226	0xbdb0c904	-0.08632091
227	0xbd57705f	-0.0525974
228	0xbd53d02e	-0.051712207
229	0xbca26a25	-0.019826004
230	0xba385339	-0.0007031444
231	0xbd0b39d5	-0.0339907
232	0x3dd88316	0.10571878
233	0x3d87fc40	0.0663991
234	0xbcaed08d	-0.02133968
235	0xbd1b64dd	-0.037937988
236	0xbb3c7d64	-0.0028761262
237	0x3d145a3d	0.03621887
238	0x3c6d60ff	0.014488458
239	0xbd2c7555	-0.042104084
240	0x3be11669	0.0068691266
241	0x3d19d5ea	0.03755752
242	0x3d59b499	0.053150747
243	0xbda216a9	-0.07914478
244	0x3da4c3d9	0.080451675
245	0x3e02cc07	0.12773143
246	0xbe048f90	-0.1294539
247	0x3b354bf8	0.002766369
248	0xbc32b32e	-0.010906978
249	0x3db01e1a	0.085994914
250	0xbc5b1e8b	-0.013373981
251	0xbc8735aa	-0.016505081
252	0xbc1e85a0	-0.009675413
253	0xbd0f04f0	-0.03491682
254	0x3d46d78d	0.04854541
255	0x3c0dc01d	0.00865176

bias f4 [64]
0	0xbc117078	-0.008876912
1	0x3d12ddd9	0.0358561
2	0x3d3dced1	0.046339814
3	0xbd4f6d18	-0.05064115
4	0x3d020261	0.03174055
5	0x3dbfe376	0.093695566
6	0x3c757444	0.014981333
7	0x3a6ef49f	0.0009115431
8	0xbd3c9995	-0.046044905
9	0x3d581f4c	0.052764222
10	0xbd3dfef5	-0.046385724
11	0xbd81d9d4	-0.063403755
12	0xbdaa858d	-0.08326254
13	0x3d73980d	0.05947118
14	0xbc91db69	-0.017804818
15	0x3c98512a	0.01859339
16	0x3d0529d1	0.032510582
17	0xbdd6c317	-0.10486429
18	0x3d760db7	0.060071673
19	0x3cb3b536	0.021936994
20	0xbcea3160	-0.028587997
21	0xbc1ecb0e	-0.009691967
22	0xbcf03c76	-0.029325705
23	0x3d820c2d	0.063499786
24	0xbcfc1ea0	-0.030776322
25	0x3d8a1cf5	0.06743804
26	0xbd4ee1fb	-0.05050848
27	0x3c341cc7	0.010993189
28	0x3cc7ca76	0.024388533
29	0xbd2046f5	-0.03913017
30	0x3c764f66	0.0150335785
31	0xbcd7cb5d	-0.026342088
32	0xbd2f236d	-0.042758394
33	0xbd33cb2d	-0.043894935
34	0xbd261b2e	-0.040553264
35	0x3ce67768	0.02813311
36	0xbd99f6b8	-0.07517761
37	0xba7e2eca	-0.0009696303
38	0x3d8d4a4f	0.06898939
39	0xbccb705c	-0.02483385
40	0x3dc3c6b1	0.09559382
41	0x3dc7c547	0.097544245
42	0xbaf16c0e	-0.0018419044
43	0x3ad022cb	0.001587951
44	0xbd498b16	-0.04920491
45	0xbdca716a	-0.09884913
46	0x3c02c011	0.0079803625
47	0xbce91b2a	-0.028455336
48	0x3b1337c0	0.002246365
49	0xbda2ef37	-0.07955783
50	0xbd29c573	-0.041448068
51	0xbdd90312	-0.10596289
52	0x3cbc4183	0.022980457
53	0xbd724a53	-0.059152912
54	0x3dc02ed1	0.093839295
55	0x3d9b9f8b	0.0759879
56	0xbd4e02df	-0.050295707
57	0x39a4569a	0.0003134504
58	0xbcb885a8	-0.02252467
59	0xbddf0a27	-0.10890608
60	0xbd1d1e37	-0.038358893
61	0xbd8bcf47	-0.068266444
62	0x3d694e49	0.056959424
63	0xbdc127f9	-0.09431452

weight f4 [32, 64]
0	0x3ec551ca	0.38538963
1	0xbdfaf770	-0.12254226
2	0xbe19f88b	-0.15036218
3	0x3c9e001b	0.01928716
4	0xba1f2cef	-0.0006072064
5	0xbd9d0fad	-0.076690055
6	0xbc1e5cd2	-0.009665685
7	0x3d7e7b75	0.062129457
8	0xbe090861	-0.13382103
9	0x3e9d16a8	0.30681348
10	0xbcec737c	-0.028863661
11	0xbcb3aff4	-0.021934487
12	0xbde74cf0	-0.112939715
13	0x3ced70ab	0.028984388
14	0x3dc0d979	0.094164796
15	0x3bfca6ec	0.0077103283
16	0xbda113b9	-0.0786509
17	0xbdd4c0bd	-0.103883244
18	0x3c86054c	0.016359948
19	0x3c0d045c	0.008606996
20	0x3d9e9ed1	0.077451356
21	0xbe22baff	-0.15891646
22	0x3e7a32c3	0.24433427
23	0x3ded7f5f	0.1159656
24	0x3d3c4678	0.04596564
25	0x3d6c505a	0.057693817
26	0x3e18a78c	0.14907664
27	0x3c65c49b	0.014023925
28	0x3dd2c503	0.10291483
29	0x3dc8f173	0.09811678
30	0xbf4f21b5	-0.8091081
31	0xbdd1486e	-0.10218893
32	0x3e8a7b6a	0.27047282
33	0xbe103aab	-0.1408488
34	0xbe6ba734	-0.23013002
35	0xbd67329c	-0.05644475
36	0xbd8499e0	-0.06474662
37	0x3bd4ff98	0.0065001957
38	0xbcd728a1	-0.02626449
39	0xbd77766e	-0.060415678
40	0xbd29017b	-0.041261178
41	0x3df05fd9	0.117370315
42	0xbd9f0429	-0.07764465
43	0x3d8369e8	0.064166844
44	0x3dbba3a9	0.09162075
45	0xbdc70240	-0.09717226
46	0xbdd086ca	-0.10181959
47	0x3d012044	0.03152491
48	0x3c0eb03f	0.0087090125
49	0x3bce685b	0.0062990612
50	0xbda35788	-0.0797568
51	0x3ccf4a0e	0.025303867
52	0xbe45a485	-0.1930104
53	0xbcdc4dfb	-0.026892653
54	0x3bc211b3	0.00592252
55	0xbf4cce7b	-0.80002564
56	0xbd4e05f0	-0.05029863
57	0x3d37755d	0.04478966
58	0x3dad108a	0.0845042
59	0xbcac64ee	-0.02104422
60	0x3e1f820e	0.15576956
61	0xbd40927c	-0.0470147
62	0xbd881ff9	-0.06646723
63	0x3f337396	0.70098245
64	0xbe973941	-0.2953587
65	0x3e0211d9	0.12702121
66	0xbdb63df5	-0.08898536
67	0xbdf73d8b	-0.12072285
68	0x3d28e0ed	0.04123013
69	0xbe08540e	-0.13313314
70	0xbdbd3087	-0.092377715
71	0xbd25d81e	-0.04048931
72	0x3e0507e6	0.12991294
73	0xbda2afee	-0.07943712
74	0x3dd6ddd8	0.10491532
75	0x3b8c0346	0.004272851
76	0x3e2be571	0.16786744
77	0xbdff5656	-0.12467639
78	0x3deff95a	0.11717482
79	0xbe979632	-0.29606777
80	0x3c4d2156	0.012520155
81	0x3d8057fd	0.062667824
82	0x3cb59925	0.022167752
83	0xbd28efa7	-0.041244175
84	0x3d987e1a	0.07445927
85	0xbd0488ab	-0.0323569
86	0xbe474944	-0.19461542
87	0xbe0b2949	-0.13589968
88	0x3cdb7559	0.026789354
89	0xbe3fbfa1	-0.18725444
90	0x3cf5c954	0.030003227
91	0x3e31507b	0.17315857
92	0xbe8b9b15	-0.27266756
93	0x3da7d1cb	0.08194312
94	0x3c0f0a8f	0.008730545
95	0x3cd18c17	0.025579495
96	0xbe1ad7ec	-0.1512143
97	0x3d3a890d	0.045540858
98	0xbd02b8e7	-0.031914618
99	0x3e2fdc28	0.17173827
100	0xbdbef4d8	-0.09324044
101	0x3d8c5854	0.06852785
102	0xbd86ee61	-0.06588436
103	0xbe218af5	-0.15775664
104	0x3c718ede	0.014743535
105	0xbdfadc9c	-0.12249109
106	0x3d8329c5	0.06404451
107	0xbe1cec7c	-0.15324587
108	0xbd92727c	-0.071507424
109	0x3dd24b72	0.10268296
110	0x3cd98631	0.026553245
111	0xbd9f8371	-0.07788742
112	0xbcd4aace	-0.025960352
113	0xbc1dfe75	-0.009643187
114	0x3c2800d6	0.010254106
115	0xbd5d06ef	-0.05396169
116	0x3e83d7ce	0.25750583
117	0x3d3d6fd5	0.04624923
118	0xbe20c8a2	-0.15701535
119	0x3e2fca86	0.171671
120	0x3e6fe8bc	0.23428625
121	0x3d6ec428	0.058292538
122	0xbf310446	-0.69147146
123	0xbc23fd6d	-0.010009152
124	0xbda01609	-0.07816703
125	0x3da7e1a1	0.08197332
126	0x3d3f1d27	0.04665866
127	0xbda2f0c8	-0.07956082
128	0x3d926d3a	0.071497396
129	0xbd113ab5	-0.035456378
130	0x3e0ccd9d	0.1375031
131	0xbdabd94e	-0.08391057
132	0xbd3e2a56	-0.046427093
133	0x3e221b21	0.15830661
134	0x395903b7	0.00020696117
135	0xbcd944f7	-0.026522143
136	0xbdfd607d	-0.12371919
137	0xbdf3ba7c	-0.119008034
138	0xbe21b9e5	-0.1579357
139	0xbce59d93	-0.028029239
140	0xbe1a1758	-0.15047967
141	0xbd235768	-0.03987828
142	0xbe80ddfb	-0.25169358
143	0x3d8cd452	0.068764344
144	0x3d83a21c	0.06427404
145	0xbe073ab7	-0.13205992
146	0xbd8254eb	-0.06363853
147	0x3d93e213	0.072208546
148	0xbcdb8663	-0.026797479
149	0xbc5ca17d	-0.013466236
150	0x3e32fccf	0.17479251
151	0x3e059fc6	0.1304923
152	0xbd8ad8ce	-0.067796335
153	0xbb971e10	-0.004611738
154	0xbd32b59e	-0.043630235
155	0x3bd6acb5	0.00655135
156	0x3e1ed326	0.15510234
157	0x3ceeadd8	0.02913563
158	0x3d898e16	0.06716554
159	0xbd60f16d	-0.05491774
160	0xbc88a82e	-0.016681757
161	0x3dc2aaa5	0.09505204
162	0xbdaed45d	-0.08536599
163	0xbceaf0c2	-0.028679255
164	0x3df15660	0.11784053
165	0xbe13cea5	-0.14434297
166	0x3ac275bd	0.0014836114
167	0x3def146e	0.116738185
168	0x3e050026	0.12988338
169	0x3dd38dfa	0.10329814
170	0x3da1a3f6	0.07892601
171	0x3d3498bb	0.044090968
172	0x3d50a7a8	0.05094114
173	0xbdbd18d0	-0.09233248
174	0x3d84412f	0.06457745
175	0xbe0f4358	-0.13990533
176	0xbd1ff75b	-0.039054256
177	0xbdb4ea01	-0.08833695
178	0x3e28a036	0.16467366
179	0xbdb89cfb	-0.09014317
180	0x3e344e0d	0.17607899
181	0x3e11fdd3	0.14256983
182	0x3dec2185	0.11529831
183	0x3e44c751	0.19216658
184	0xbe524876	-0.20535454
185	0xbba22350	-0.0049480572
186	0x3e99fde5	0.3007652
187	0x3c3b275a	0.011422956
188	0x3dffd74c	0.124922365
189	0xbe021ec1	-0.12707044
190	0xbcf92cea	-0.030416925
191	0xbe8ca142	-0.2746678
192	0xbe94282e	-0.28936905
193	0xbbafc3d2	-0.00536392
194	0xbda6b947	-0.081408076
195	0x3e171811	0.14755274
196	0x3e096813	0.13418607
197	0xbd2f00e6	-0.042725466
198	0xbd945366	-0.072424695
199	0xbc4f30ac	-0.012645882
200	0x3ddf06bb	0.108899556
201	0xbe447ab1	-0.19187428
202	0xbc8f8ad3	-0.017522251
203	0x3ca5c41f	0.02023512
204	0x3b901272	0.00439673
205	0x3d551a31	0.05202693
206	0xbd948d30	-0.07253492
207	0xbe0def00	-0.13860703
208	0x3dd561f6	0.10419075
209	0xbc073e93	-0.008254665
210	0x3e21bedc	0.15795463
211	0x3dffe828	0.12495452
212	0x3cffa2df	0.031205593
213	0x3db356f0	0.087568164
214	0xbebb7d0f	-0.3661885
215	0x3d632411	0.055454317
216	0xbe54b810	-0.2077334
217	0x3d9b1e75	0.075741686
218	0xbe1994a7	-0.14998113
219	0x3e0d9312	0.13825634
220	0xbdf1b3b5	-0.118018545
221	0x3d135db2	0.035978027
222	0x3d048c05	0.032360096
223	0x3de9be8e	0.114132985
224	0xbe27af18	-0.16375387
225	0x3c8fe96d	0.01756736
226	0x3dad0e10	0.08449948
227	0x3d57cbb0	0.052684486
228	0x3d802a1b	0.06258031
229	0xbd0647aa	-0.032783188
230	0x3bc94515	0.0061422684
231	0x3d2bc7ee	0.041938715
232	0xbe0fc4cf	-0.1403992
233	0xbd79c01e	-0.060974233
234	0xbdd42243	-0.103580974
235	0xbdac32fe	-0.084081635
236	0xbd5e3feb	-0.054260176
237	0x3d47c4a7	0.048771527
238	0x3b232564	0.0024894113
239	0xbca0bcef	-0.01962134
240	0xbdf0ec62	-0.117638364
241	0xbdc51f00	-0.096250534
242	0xbd9cc08b	-0.07653912
243	0x3d6de1e9	0.058076773
244	0x3de300c9	0.11084134
245	0xbcd1cf35	-0.0256115
246	0xbd110094	-0.035400942
247	0x3e2456a0	0.1604867
248	0x3e1fb927	0.15597974
249	0x3d5e3061	0.054245356
250	0xbf083848	-0.5321088
251	0x39b741f6	0.00034953625
252	0xbceb8831	-0.028751465
253	0x3dea02e6	0.11426334
254	0x3d3f16eb	0.046652716
255	0xbe06c29b	-0.13160174

bias f4 [32]
0	0xbd992774	-0.07478228
1	0xbd0c29c6	-0.034219526
2	0x3d0d0cff	0.034436222
3	0xbda177c2	-0.0788417
4	0xbe041450	-0.12898374
5	0x3e418c37	0.18901144
6	0x3d85c21f	0.06531166
7	0xbcf88a1d	-0.030339295
8	0xbcd4759c	-0.025934987
9	0xbdb2a3b3	-0.087226294
10	0x3d4d3f12	0.050108977
11	0x3dccd345	0.10001234
12	0xbc896e18	-0.01677613
13	0x3d697dab	0.057004612
14	0xbcaa8ad0	-0.020818144
15	0x3daef752	0.08543266
16	0x3d95cfcf	0.07315027
17	0x3d8f2021	0.0698855
18	0xbe0f4850	-0.13992429
19	0xbd839b88	-0.064261496
20	0xbcbacb7b	-0.022802105
21	0x3c68254c	0.0141690485
22	0x3d666abb	0.05625413
23	0x3d59be29	0.053159866
24	0x3cc918c1	0.024547936
25	0xbd93c8b3	-0.07216015
26	0xbc45fcc4	-0.01208419
27	0x3dd12fd7	0.10214203
28	0xbd71d7f6	-0.059043847
29	0xbcde5e3d	-0.027144546
30	0xbe3829a8	-0.1798464
31	0xbd865a69	-0.06560213

weight f4 [1, 32]
0	0x3eaac93b	0.33356652
1	0xbe8b01b9	-0.27149752
2	0x3ea54d42	0.32285506
3	0xbeb05f8d	-0.344479
4	0xbed42ea1	-0.41441825
5	0x3e983723	0.29729566
6	0xbe8b4374	-0.271999
7	0x3ea64b1f	0.32479188
8	0xbec4c335	-0.3843018
9	0x3ed015f8	0.4064176
10	0x3ea64be5	0.32479778
11	0x3e98f21a	0.2987221
12	0xbe8020bf	-0.25024983
13	0xbedb3f1b	-0.42821583
14	0xbedfab8d	-0.4368557
15	0x3edbbc29	0.42916992
16	0xbeb13d0a	-0.34616882
17	0xbe9e3980	-0.30903244
18	0x3e907591	0.28214696
19	0xbec423b9	-0.38308504
20	0x3eae9f21	0.3410578
21	0x3ed17bc7	0.40914747
22	0xbeb6f02d	-0.35730115
23	0xbea7d43d	-0.32779112
24	0xbee1bdab	-0.44090018
25	0xbeb8c2fe	-0.36086267
26	0xbeb1afe6	-0.34704512
27	0xbecf1f2d	-0.40453473
28	0xbe96f321	-0.29482368
29	0xbe8ba572	-0.27274662
30	0xbe9315ab	-0.2872747
31	0xbedb804f	-0.4287133
