Models/Office_model_10_100.pth (torch, 189728 bytes, 9 tensors)

weight f4 [256, 10]
000000 25 72 e1 3e f2 ad 02 bf 1a 8d 86 3b f9 73 8b 3e
       0.44032398 -0.5104667 0.004106176 0.27236918
000010 d3 0e 19 3e f3 80 86 3e c8 46 ba be 97 b2 88 be
       0.14947061 0.26270255 -0.36382127 -0.26698753
000020 f7 b7 0b bf 85 34 fd be 8e 99 98 3b 68 3c b5 3e
       -0.54577583 -0.49454132 0.004656977 0.3539765
000030 b2 24 a3 3c 2e 61 ae 3e 63 b4 82 be 68 34 50 3c
       0.019914959 0.34058517 -0.2552825 0.012707807
000040 38 ea ae 3e 9c af 17 3e eb 3b 1d 3e a2 77 ec be
       0.3416307 0.14813083 0.15354888 -0.46185023
000050 62 82 27 be fd 21 8e be 3f 45 a1 3e 80 40 78 3d
       -0.16358331 -0.27760306 0.31498143 0.060608387
000060 40 5c 58 bc 38 48 34 bd 80 cb 80 3b f2 33 9d be
       -0.013205588 -0.044014186 0.003930509 -0.30703694
000070 d1 0a 8c be 0a 3b 25 3e df 78 0a 3e 86 07 a1 3e
       -0.27352002 0.16135803 0.13522671 0.31451052
000080 ae fd 67 3e 39 a0 8c be 87 ff 37 be 2f 39 ef 3d
       0.22655365 -0.2746599 -0.1796857 0.11680829
000090 b3 21 22 bd 3f 4d 2f 3d 6d 1c a1 3e 11 b2 5f 3e
       -0.03958292 0.042798277 0.31467 0.2184527
0000a0 72 f4 55 be 85 e4 8c 3e 89 3e 99 3e 8a 32 72 3e
       -0.2089403 0.27518097 0.29930523 0.23652092
0000b0 11 60 97 be 70 93 8b 3c a2 76 3c be 25 60 04 be
       -0.2956548 0.017038077 -0.1840463 -0.12927301
0000c0 f0 58 93 3c 42 ce ba bd 10 5d 24 bd 13 70 61 3e
       0.017986745 -0.09121372 -0.040127814 0.22015409
0000d0 c5 29 e1 3c 03 84 bf 3c 33 64 2c be b5 2d 9d 3d
       0.027485738 0.023378378 -0.16835098 0.076747335
0000e0 23 fb 63 be e3 16 e9 bd 27 3e ab be 5f ba 07 bf
       -0.2226377 -0.113813184 -0.33445856 -0.53018755
0000f0 e5 34 ac bd 0a 60 b5 be f7 c9 2a 3b 46 7d 86 bf
       -0.08408526 -0.35424834 0.0026060322 -1.050698
000100 fd b4 35 3e 48 a4 91 3d 33 f2 80 3e 39 d2 56 be
       0.17744823 0.07111412 0.25184783 -0.20978631
000110 3e 3d ef bb 98 95 05 3d 8e d4 2e 3f 9d 6f 8e be
       -0.007301002 0.032613367 0.6829308 -0.2781953
000120 ca 1c 48 bc 98 90 4a 3f 98 ba 97 3e 3d 90 4c 3e
       -0.012213895 0.7912688 0.29634547 0.19976898
000130 cb 4c f3 be 0c 50 9f bd 73 f3 a8 be b7 e4 15 bf
       -0.47519526 -0.077789396 -0.32998237 -0.58552116
000140 19 37 b9 be ae 9f d1 bd 9d e4 09 bd 2d 1b 39 3d
       -0.3617485 -0.102355346 -0.03366529 0.045191932
000150 db 7b 32 3e a8 ab 90 3e ce 24 92 3d ac d6 cc bd
       0.1743006 0.28255963 0.07135926 -0.10001883
000160 82 dd d6 3e 97 fc fe 3e a5 de 92 be 4a 56 fb bd
       0.41965872 0.49802086 -0.2868549 -0.12272318
000170 71 78 93 be 78 8d a4 bd 45 2b 15 be 80 60 8b 3d
       -0.28802827 -0.080347955 -0.14567287 0.06805515
000180 2f f0 3e be 40 73 72 bc 0d 88 9e 3e e0 58 74 3c
       -0.1864631 -0.014797986 0.30963174 0.014913768
000190 0b 38 9d 3e fd 65 37 be 64 9d 5f 3e 29 f7 9a 3e
       0.3070682 -0.17909999 0.21837384 0.30266693
0001a0 6f ac b5 3d 53 56 b8 3c 6a 10 15 bd fe 6b e5 3d
       0.0887078 0.0225021 -0.036392607 0.112022385
0001b0 57 e1 82 3e e4 6e d1 3d 22 a6 3d be 9f 10 11 be
       0.25562546 0.10226229 -0.18520406 -0.14166497
0001c0 86 45 82 be f5 68 8c be fa ef 78 be 68 b3 47 bd
       -0.25443667 -0.27423826 -0.24310294 -0.04875508
0001d0 6c 59 bb 3d 56 92 8e be f0 84 9c 3d 5c 71 19 3e
       0.09147915 -0.2784602 0.07642543 0.1498465
0001e0 1e 54 23 3c 71 c9 6f 3e 5b 11 3f 3e 37 26 32 3e
       0.009968786 0.23416688 0.18658964 0.1739739
0001f0 f2 62 a0 3e 3d 3f ad bb 38 25 df 3c 9b 74 80 3e
       0.3132549 -0.0052870796 0.027239427 0.25088963
000200 a1 e2 dc 3e 8e 6f b7 3e 3d 0f 7b be 20 ab a4 bc
       0.43141654 0.35827297 -0.24517532 -0.02010113
000210 67 f1 96 be 3c 8e a5 3d ae 59 1e 3e 22 22 52 3e
       -0.2948105 0.0808377 0.15463898 0.20520833
000220 00 c0 ee b7 42 54 55 be 7d aa 8f 3e f2 9e 7e 3e
       -2.8461218e-05 -0.20832923 0.2805976 0.2486532
000230 0a 2b 23 be 5c e9 c2 3d 5d 48 92 3e 8c da a7 3d
       -0.15934387 0.09517166 0.28570834 0.081959814
000240 0c c6 17 be 10 50 3e 3d 50 61 9f 3c 50 58 b2 bc
       -0.14821643 0.046463072 0.019455582 -0.021770626
000250 6f 55 85 be d4 ad c8 bd e9 63 63 3c c2 d2 a4 3d
       -0.26041743 -0.0979878 0.013878801 0.08048011
000260 f0 36 27 be c4 5d f6 3d 7e ac 94 be a3 9f 36 3e
       -0.1632955 0.12029603 -0.2903785 0.17834334
000270 47 38 d5 3d a1 f2 cc bd c2 d2 82 be 54 be be be
       0.10411125 -0.10007215 -0.2555142 -0.37254584
000280 d3 67 3c 3d 24 a2 fb bc 36 94 33 bb 15 42 2c 3f
       0.045997452 -0.030716963 -0.0027401573 0.67288333
000290 07 04 1b be 5b 12 3a be 5c c2 5b 3f b8 f4 0f 3e
       -0.15138255 -0.18171065 0.85843444 0.14058197
0002a0 2e e9 cd 3d eb dd 64 be 17 4c 8e be 2e 32 f3 3d
       0.10054241 -0.2235028 -0.27792427 0.118748054
0002b0 db e4 a4 3c d2 e3 3d 3e 38 d3 21 3e 2c ab 5e 3e
       0.020128658 0.18543938 0.1580323 0.21744984
0002c0 8a e7 ac be 47 76 ef bd 06 17 e4 be ea ed f9 bc
       -0.337704 -0.116924815 -0.44548815 -0.030508954
0002d0 36 bf b4 bd e9 09 52 3e 4a ee 5f 3e cb 8f 34 be
       -0.08825533 0.20511593 0.21868244 -0.17632978
0002e0 90 73 dd 3d 77 14 6f 3e dd 25 ba bd c5 d7 2d be
       0.108130574 0.2334765 -0.09089253 -0.16976841
0002f0 4e 84 3c be f9 1b 93 3e 02 34 cc 3e f4 f5 ab 3e
       -0.18409845 0.2873228 0.3988343 0.33586085
000300 55 f9 95 3c 98 c4 d5 3d 5e 89 c7 be b2 a1 60 be
       0.018307367 0.10437888 -0.3897199 -0.21936682
000310 8d 30 e5 3e ba e9 89 3e 17 cf 0f be 47 3a 45 bc
       0.44763604 0.26936132 -0.14043842 -0.01203782
000320 4f b4 0b 3f 91 67 63 be 26 cd 27 bd 69 68 c6 be
       0.54572004 -0.22207476 -0.04096713 -0.38751534
000330 34 f6 7c 3d d4 9c 99 bd de 48 18 bc 0a 83 26 3e
       0.061758235 -0.07500616 -0.009294717 0.16260925
000340 2f bf 7e 3e 0b d0 a1 3e 46 b2 cf be 2a bd a7 bd
       0.24877618 0.31604037 -0.405657 -0.08190377
000350 96 de a5 bd d2 46 e6 3c 08 13 d4 be a1 88 c5 3e
       -0.080990955 0.028109942 -0.4142077 0.38580802
000360 58 64 08 3f 15 65 07 3f 5a 07 db 3e 35 9c b0 be
       0.5327811 0.52888614 0.42779046 -0.34494177
000370 23 09 80 3e 60 f8 40 3e 92 fe 3d 3e 47 20 a3 3e
       0.2500697 0.18844748 0.18554142 0.31860563
000380 1c 1f 0e 3e f0 78 e7 bd f8 4e 82 3d dc 04 6b 3d
       0.13879055 -0.11302364 0.06362718 0.05737768
000390 b8 a9 c2 3e 4d e8 2d 3e 03 e2 78 be 7e 24 54 3e
       0.3802011 0.16983147 -0.24304967 0.20717046
0003a0 b7 07 0c 3d be 9e 15 bf f5 fd d4 3d 40 34 e9 be
       0.034187045 -0.58445346 0.10400001 -0.45547676
0003b0 f7 1c 55 bf 40 51 08 be c2 55 2d bf 08 a7 80 3e
       -0.8324732 -0.13312244 -0.6770898 0.25127435
0003c0 15 c0 2e 3c fd 53 70 3d d0 db 43 3c 42 65 e0 3e
       0.010665913 0.058673847 0.011954263 0.43827254
0003d0 a0 8f 4f 3e 62 e7 74 3e 57 a0 fd be c0 0a 3e be
       0.20269632 0.2391639 -0.49536392 -0.18558788
0003e0 26 06 b3 be 22 ff 4b bf 85 75 f5 be 92 33 ba bd
       -0.34965628 -0.79686177 -0.47941223 -0.090918675
0003f0 6f 93 3a 3d cb a7 bd 3e d9 4c 81 3e 97 62 c5 be
       0.04555076 0.37042078 0.25253943 -0.3855178

bias f4 [256]
000000 b4 97 f6 be f3 e5 e6 be 0c 3a aa bd 02 a0 30 3d
       -0.48162615 -0.45097312 -0.08311853 0.043121345
000010 d6 81 40 be 88 3a b5 3b ce 05 0b be 72 9f e1 be
       -0.18799528 0.005530659 -0.13576433 -0.4406696
000020 c3 9b 17 3f e8 73 67 3d 20 b6 02 be 6e 5b d4 bd
       0.5922205 0.05650702 -0.12764788 -0.10369001
000030 df f4 cf 3e b0 f7 95 3d 4f 1c 90 be 83 ae 35 3e
       0.4061651 0.07322633 -0.28146598 0.17742352
000040 6d 05 f7 3e 45 de be be a0 c9 69 3e 29 c5 fc be
       0.48246327 -0.37278953 0.2283082 -0.4936917
000050 40 f1 23 3e bd ae 82 3e 80 b0 db 3d b7 b3 bc 3b
       0.16009998 0.2552394 0.10727024 0.0057587284
000060 79 5e fc be f4 8c 11 bf bd 9a 2b be c5 6e bc 3d
       -0.49290827 -0.568557 -0.16758247 0.09200815
000070 ce 7e 84 3d c8 d2 da 3e 2b 14 72 be ba 65 18 3d
       0.064694986 0.42738938 -0.23640506 0.03720639
000080 c0 16 5e bf a8 c8 66 3e c0 5c 0f 3c a3 05 2c 3e
       -0.86753464 0.22537482 0.008750141 0.16799025
000090 b1 f3 2f be e9 c1 af bd cc 37 57 be 90 37 60 bd
       -0.17182805 -0.08581907 -0.21017379 -0.05474049
0000a0 c9 e3 7d 3e 6b 66 95 be 7f 7e fa bd 98 d1 47 3e
       0.24793924 -0.291797 -0.122311585 0.19513547
0000b0 65 4a d5 bd c2 4e ba bc 10 e0 4b bd b0 5c 4f 3d
       -0.1041458 -0.022742633 -0.04977423 0.050625503
0000c0 64 11 e3 bd 09 d1 de 3d 5d a8 e9 be 99 67 6b 3e
       -0.110873014 0.10879714 -0.45636263 0.22988738
0000d0 58 2c 19 bc 42 02 60 3f dd b5 14 bf cb 47 db 3c
       -0.009348951 0.87503445 -0.5809 0.026767632
0000e0 7e e2 ab be cc 00 09 3e a6 d1 05 bf 05 45 ff 3c
       -0.33571237 0.1337921 -0.52273023 0.03116084
0000f0 b7 61 9e 3b 3a 40 3e 3e 96 f1 60 3d 31 ea 01 be
       0.004833426 0.18579188 0.054917894 -0.12686993
000100 32 d4 94 3d c5 6c 9c bd 7c ac c7 3e 12 b4 ae bd
       0.072670355 -0.07637934 0.38998783 -0.085304394
000110 30 1d 33 3f df 6a 58 bc f3 b5 48 3d e2 bb 1c bf
       0.6996641 -0.013209074 0.049001645 -0.61224186
000120 a9 bc db bc 76 e2 82 bf 66 48 62 bd d4 d2 30 3f
       -0.026823359 -1.022536 -0.055244826 0.690717
000130 34 e8 3c bd b7 28 7b be 5f 64 8c 3e 83 d3 26 3e
       -0.046119884 -0.2452725 0.27420327 0.16291623
000140 d2 3b 8c be f6 cc 41 3d c3 d9 df bd 81 1f 8d 3c
       -0.2738939 0.047314607 -0.109302066 0.017226936
000150 20 56 07 be 81 a8 85 3d 7e a2 d1 3d 96 51 97 bd
       -0.13216448 0.0652628 0.10236071 -0.07388608
000160 d1 26 44 3d 58 d2 b9 be 0c 40 1d 3e f9 0a b6 be
       0.04788858 -0.36293292 0.15356463 -0.35555246
000170 19 1b b7 be e4 ad 4c 3f 81 e3 12 be 39 8d 1f 3e
       -0.3576286 0.79952836 -0.14344598 0.15581216
000180 ab 1d 37 be 65 2c 10 be ef 35 66 be 9b 90 28 3f
       -0.17882411 -0.14079435 -0.22481512 0.6584565
000190 75 6e 09 bd f3 73 1a 3e f2 53 7f 3e 56 e6 41 3e
       -0.033552606 0.15083294 0.24934366 0.18935522
0001a0 ad 29 13 bf ac 1d 24 3c d7 54 1d 3f d6 84 87 be
       -0.5748547 0.01001684 0.6145758 -0.26468533
0001b0 65 cf 0a bf f3 35 8a be 9c 2b 18 be 63 7b de 3d
       -0.5422271 -0.26994285 -0.14860386 0.10863378
0001c0 2f e7 ba 3e 17 e9 01 be 6c a5 04 be ea 1e 2e 3e
       0.36504504 -0.12686573 -0.12953728 0.1700398
0001d0 79 42 e2 3d e9 bc 1b 3d db 36 b5 bd 49 6f c2 3e
       0.11047835 0.038021956 -0.088483535 0.3797553
0001e0 3d fc b9 be bc 9a 13 3e 65 e2 78 be 37 1a 1a bf
       -0.36325255 0.14414495 -0.24305113 -0.6019625
0001f0 a2 22 1b 3f 27 7c 7a be 18 4f 6d be d1 f7 13 3e
       0.6059972 -0.24461423 -0.23174703 0.14450003
000200 5c 7e 19 3e 2b da 93 3c 56 56 7a be 87 1f c9 3e
       0.14989609 0.018048367 -0.24446997 0.39281866
000210 07 db a7 be 9d 8c 9c be f8 b4 36 3e 4a ee b3 bd
       -0.32784292 -0.3057603 0.17842472 -0.087856844
000220 69 93 08 bd f5 45 37 be 0b 89 01 bd 13 0a 8f be
       -0.033343706 -0.1789778 -0.031624835 -0.27937374
000230 46 db f5 3e 19 0b 7d be 11 c8 3b bf e3 e0 b2 bd
       0.48018855 -0.24711265 -0.7335215 -0.087343
000240 52 ec d7 bd 2c 76 dc 3e 99 8a 94 3e 1a 0f 4b be
       -0.105431214 0.43058908 0.29011992 -0.1982998
000250 33 fa 77 be 17 9c 4a 3e 20 84 0e be b9 1b 50 be
       -0.24216537 0.19786106 -0.13917589 -0.20323075
000260 a8 71 a9 be 97 d0 09 3f 89 ae 7d 3d e2 61 94 3e
       -0.33094525 0.5383391 0.061934028 0.2898093
000270 66 f3 10 be 23 7d 00 be ff 1d ad 3e 6b 44 3e 3e
       -0.14155349 -0.12547736 0.33811948 0.18580787
000280 1e 70 8d 3e b6 e7 95 3e 18 6d 55 be 8e 76 a5 be
       0.276246 0.29278344 -0.20842397 -0.32317013
000290 1e 47 b5 bd f2 4b bf be 5d eb 1c 3d 18 1f 8c be
       -0.08851455 -0.3736263 0.038310397 -0.27367473
0002a0 c7 bb 8a be 83 b3 18 3f 02 03 b9 be dd b8 b4 3e
       -0.27096388 0.59648913 -0.36135107 0.3529729
0002b0 e4 37 f7 be 76 09 a7 bd 7b 7b 9d be ca 52 01 be
       -0.4828483 -0.081561014 -0.3075827 -0.12629238
0002c0 27 1f 87 bf fb 50 99 bd dd 9d 00 be b7 64 97 be
       -1.0556382 -0.07486149 -0.1256022 -0.29569027
0002d0 ca 62 29 3e 57 ed 84 be af 6a 22 3f 9c a9 0f bf
       0.16541591 -0.25962326 0.63444036 -0.5611818
0002e0 47 15 05 3f 67 e4 18 3e 3c 75 1a 3d 9d a3 a5 be
       0.5198559 0.14930879 0.03770946 -0.3235139
0002f0 77 93 04 bf dc 46 29 3e db b4 94 3e 9b dc 9e be
       -0.51787513 0.16530937 0.29044232 -0.31027684
000300 c2 23 06 3e c1 01 8e 3c 2f 72 b0 3e 48 79 21 3e
       0.13099578 0.01733482 0.34462115 0.15768921
000310 e8 60 5d bf 15 9c 88 3e 26 cd b1 be 0a 7e 0b 3f
       -0.8647599 0.2668158 -0.34726828 0.54489195
000320 9e 23 23 3e eb 10 fc be 78 26 c0 bd 2b d9 20 be
       0.15931556 -0.49231657 -0.09382337 -0.15707843
000330 dc d0 93 3e c9 3d 5b 3e 14 15 3b bf 48 43 09 bf
       0.28870285 0.21410288 -0.7307904 -0.5361829
000340 ca 17 06 3f f0 ec 5c bb d2 c4 d5 3d b6 ba c9 be
       0.5238005 -0.0033710562 0.10437931 -0.39400262
000350 b7 c7 79 be 21 03 8f 3e b4 a6 21 3e dc b6 08 bf
       -0.24392591 0.27932075 0.15786248 -0.5340402
000360 d6 7e c8 3e 3a 72 dd be da d0 85 3d b4 eb bd 3d
       0.39159268 -0.4325121 0.06533976 0.092734724
000370 3a 4f 13 be 82 3d aa 3d 6d 9a 66 3e 90 b8 08 3e
       -0.14385691 0.08312513 0.22519846 0.13351655
000380 8e 5d 31 3e 65 f4 c4 3d 19 0c 17 3e ea 9b 42 3c
       0.17320845 0.09616927 0.14750709 0.011877993
000390 29 42 02 bf 51 6f 91 3f f5 2a c4 be d3 cf 00 be
       -0.508822 1.1362096 -0.38314024 -0.12579279
0003a0 90 05 2f be c3 b4 c7 bd 32 31 80 be 92 ce 6d 3e
       -0.17091966 -0.097512744 -0.25037533 0.23223332
0003b0 0f 49 82 3e 0e 22 89 3e ee d7 8f be 0c af 92 3d
       0.25446364 0.26783794 -0.2809443 0.07162294
0003c0 f8 31 71 3e 3e 13 8a 3e 34 06 b4 3d d5 1c 13 be
       0.23554218 0.26967806 0.08790246 -0.14366467
0003d0 00 75 5b 3b 3b 98 69 bf d2 b3 af be cf 1a 39 be
       0.0033486485 -0.9124791 -0.3431688 -0.18076633
0003e0 f8 7b 1a 3d 15 5e 45 3b fb 3c a7 be cd 05 3c be
       0.037715882 0.0030115892 -0.32663712 -0.18361588
0003f0 73 20 75 be ee e3 d0 be 87 b6 f0 3d 9e 89 08 bf
       -0.2393816 -0.40798897 0.11753564 -0.5333499

weight f4 [128, 256]
000000 2f fa f0 3b 15 f8 5e 3d 1b 51 f6 3c 4b 94 3c 3d
       0.007354043 0.05443581 0.030067971 0.04603986
000010 11 a5 09 3d 5f f3 10 bd 71 ce d3 3c 17 5c 38 bb
       0.033604685 -0.035388347 0.025855275 -0.0028131062
000020 77 bf 42 3d a1 3e bb 3c 2c ac 92 3c 77 48 8f bd
       0.047545876 0.022857012 0.017904364 -0.069962434
000030 f0 ec 30 3c bd a2 71 bd 3c 38 ff 3b e9 9c f3 3c
       0.010798678 -0.05899309 0.007788686 0.029737907
000040 d7 73 31 bd c2 c0 21 bd 17 75 77 3c 4e d3 54 3d
       -0.043323364 -0.03949047 0.0151036 0.05195933
000050 43 eb 37 bb 3b 19 92 3b 16 93 e8 3c 6f f8 72 bd
       -0.002806381 0.004458574 0.028390449 -0.059318956
000060 53 86 05 3c 36 bf 6f 3b eb 6b f0 bc 0b 8b ce 3c
       0.008149701 0.0036582476 -0.029348334 0.025212785
000070 6c 73 56 3d 6c 45 fd 3c 01 22 02 3c ea 4d aa 3b
       0.05235617 0.030916892 0.0079426775 0.0051972764
000080 6e 08 a0 3d 3d 4a 2d bd ff 12 53 3d 5b 20 85 3d
       0.07814108 -0.042307127 0.051531788 0.06500312
000090 94 89 ce bb c2 d2 19 3c d6 31 6f bd b3 8e 13 3d
       -0.0063030217 0.0093886275 -0.058397137 0.03602476
0000a0 07 9d 19 bd 6f 50 97 bd 34 a3 8c 3c 2b 44 a2 3d
       -0.03750327 -0.07388388 0.017167665 0.07923158
0000b0 17 bf 61 3d 54 21 1e 3d 01 7b ca 3c 37 26 5d bd
       0.055113878 0.038606003 0.024716856 -0.053991523
0000c0 1a c8 29 bd af fa 91 3c cb 9e ed bb d7 2e af 39
       -0.041450597 0.01781973 -0.0072515956 0.000334135
0000d0 aa 92 4f 3d 38 11 10 bd 7b 83 b4 bc 72 12 48 3d
       0.05067698 -0.03517267 -0.022035351 0.048845716
0000e0 bd e6 06 3c 0c 84 3f 3c 45 60 47 3b e0 92 5c bc
       0.008233723 0.011689197 0.0030422371 -0.013462752
0000f0 25 fc 1f bd 04 8c 4b bc 95 0f 9e 3c b1 b3 d4 ba
       -0.039058823 -0.012423519 0.01929454 -0.0016227869
000100 cb 98 84 bc b0 03 9e 3d e0 9d 63 bd 03 d8 1a bd
       -0.016186139 0.07715547 -0.055570483 -0.03780366
000110 da 25 e5 bc d2 e7 23 3d 5e ca 73 3d 57 d1 17 3d
       -0.02797215 0.040016003 0.059519164 0.037064876
000120 3d d7 c4 bc ba a2 90 3c e3 ed d5 bc ca 95 95 3c
       -0.024028415 0.01765572 -0.02611441 0.018259902
000130 52 32 9f 3d be b0 e2 39 2e 50 d7 3b 27 35 8d 3d
       0.0777327 0.00043237762 0.0065708375 0.06894904
000140 27 04 8b 3d 63 63 99 bc 34 bb c9 bc 73 7e e2 bc
       0.06787901 -0.01872415 -0.024625398 -0.027648186
000150 74 14 d7 bc 2e 5d d4 bb 48 a3 43 bd bf 56 06 3d
       -0.02625487 -0.0064808344 -0.04776314 0.03279757
000160 9a b8 08 3d 20 e9 21 3d cf 9b 8c 3d 69 26 59 bd
       0.033379175 0.039528966 0.06865656 -0.053015146
000170 2b 61 04 3d 2d b7 b3 3c 66 dc 8c bd c6 e3 44 3d
       0.03231923 0.021937931 -0.06877975 0.048068784
000180 81 20 90 3c 96 ad 1b bb ab 1b 27 3d 87 68 1d 3d
       0.017593624 -0.0023754588 0.04079787 0.038429763
000190 f3 2f 6c 3d 3b a3 45 3d c3 1f 89 3d cf 1e 9c bc
       0.057662915 0.04825137 0.06695511 -0.01905766
0001a0 d4 67 0c bd 4c a5 b4 3c d3 25 c1 3b 61 00 4d bd
       -0.034278706 0.022051476 0.0058944016 -0.05004919
0001b0 80 2f 23 3c 06 dc 04 bd 00 8d 7e ba 77 7b 9d 3d
       0.009960055 -0.032436393 -0.00097103417 0.07689565
0001c0 6d ce 5b bd 87 e0 08 bd 0c 68 5d bc 4d 46 1a 3c
       -0.05366366 -0.03341725 -0.013513576 0.009416175
0001d0 bc 35 e7 bc 46 47 6b bd a9 d0 16 bd 24 43 d0 3c
       -0.028223865 -0.05744102 -0.036820088 0.02542264
0001e0 4a e9 02 3c 60 bd b3 3c 5f ed 04 bd c6 5a a9 3c
       0.007990191 0.021940887 -0.032452937 0.020673167
0001f0 8a 25 48 3d 55 4a 84 3d f5 42 6e 3d 72 bc d0 3a
       0.048863925 0.0645949 0.058169324 0.0015925302
000200 99 36 aa bc b3 67 9c 3d a3 f4 d0 bc 33 e8 40 bd
       -0.020777987 0.076369666 -0.025507277 -0.047096442
000210 7b 23 5a 3d 3b 47 30 bd 3c f5 e2 3c a3 fe 2f bd
       0.053256493 -0.04303668 0.027704827 -0.04296745
000220 52 9c 5d 3c 2b 0d ea ba 8a 8f f7 3c 25 1a 84 bd
       0.013526039 -0.0017856708 0.030219812 -0.06450299
000230 a8 59 14 3d 76 0e 89 3c 74 9e 93 3d e3 3a 37 bd
       0.036218315 0.016730528 0.07207957 -0.044733893
000240 f2 bc cc bb 6c 29 2e 3d 0f 67 df 3c ca 58 ca bb
       -0.00624811 0.04251997 0.027270822 -0.0061751353
000250 27 c3 1e bd cf 40 fc ba aa c3 61 bc 85 47 9a ba
       -0.03876033 -0.0019245389 -0.01377956 -0.0011770582
000260 b6 aa e7 3c 7e 92 95 3b 9a 90 6a 3c 52 68 97 bd
       0.028279644 0.0045645824 0.014316702 -0.073929444
000270 6e 7e cc bc e4 2e 4e bd 2c 98 7b bd fd c0 19 bd
       -0.02496263 -0.050337687 -0.06142442 -0.037537564
000280 2e 38 24 bd b9 24 20 3b 7c 6b fb bb c3 40 d9 3b
       -0.04009264 0.002443595 -0.0076727252 0.0066300347
000290 a7 fb bd 3c c4 d2 04 3c f3 7c 66 bb 43 81 02 bd
       0.023191286 0.008106891 -0.003516969 -0.031861555
0002a0 27 4a e6 bc 59 95 41 bd e2 ed c9 3c 83 f1 99 3d
       -0.02811153 -0.04726157 0.024649564 0.07516768
0002b0 0c d2 99 3c 5c 21 d0 bb d5 21 86 3d e5 65 7f ba
       0.018776916 -0.006351633 0.06549422 -0.00097426615
0002c0 75 86 02 3d 1d 32 4c 3d 61 92 6d 3c 02 5e 1f bd
       0.03186651 0.04985248 0.0145002315 -0.038908012
0002d0 cd 98 89 bd b7 3b bd bc 01 e3 0d 3c 33 fa e0 3a
       -0.067185976 -0.023099763 0.008660079 0.0017164409
0002e0 48 d8 84 bd 4b f8 e7 3c ae 0b 52 bc 55 8c 1b 3c
       -0.06486565 0.028316638 -0.0128201675 0.009493907
0002f0 10 8d 67 bc 3b 5c 5f 3c c5 e5 94 bd 87 bb 16 bd
       -0.014132753 0.013632829 -0.072703876 -0.036799934
000300 53 22 99 bd 32 e3 15 3c 55 d2 27 3d 09 84 b7 3c
       -0.0747725 0.009148406 0.040972073 0.022401826
000310 24 7a bb bc 63 48 9a bb b4 61 2b 3c 57 64 88 bc
       -0.02288539 -0.004708336 0.010460306 -0.016649408
000320 0d b7 72 3d 87 0a 36 3d 82 32 88 bc 81 76 3d 3d
       0.059256602 0.044443633 -0.016625647 0.046255592
000330 c8 07 96 3d 0b 9f 9e 3c 3c 79 1f 3c dd 20 56 3c
       0.07325703 0.019362947 0.009733494 0.013069359
000340 fd 29 b9 bc 50 84 c8 bc 01 00 ad bc a9 61 1a 3d
       -0.02260303 -0.024477154 -0.021118166 0.037690792
000350 89 89 9a 3d 19 a8 1c bd 03 44 f6 bc 11 92 0b bd
       0.07545764 -0.038246248 -0.030061727 -0.034074847
000360 b3 6d 99 bd c1 e1 cf bc 12 51 d5 3c 30 12 95 3c
       -0.074916266 -0.025376203 0.026039634 0.018197149
000370 9f 4b 95 3d 63 14 2f 3d 9c 47 53 3d d8 05 f7 bc
       0.07289814 0.04274405 0.051581964 -0.030154154
000380 85 31 7d bd e4 c2 8c bc dd f9 30 bd 14 56 81 3d
       -0.061814804 -0.017182775 -0.04320704 0.06315246
000390 eb d4 9f 39 89 a4 73 bc a3 b4 50 bc be 31 71 3d
       0.0003048548 -0.014870771 -0.01273838 0.05888533
0003a0 28 52 60 3c 53 4d 60 3b fd 94 1f 3d 79 19 3c 38
       0.013691463 0.0034225776 0.038960446 4.4846416e-05
0003b0 db 83 ac 3c d1 28 1a 3d d3 5e 73 bd 29 be 8b bd
       0.021058967 0.03763658 -0.059416603 -0.068233795
0003c0 6d 87 62 bd 14 eb 36 bd c2 d2 1e bc f6 42 de bc
       -0.055304933 -0.04465778 -0.009693803 -0.027131539
0003d0 1a f5 44 bc 56 7a 15 3c e3 17 88 bd ce 70 aa 3b
       -0.012021327 0.009123405 -0.06645181 0.0052014356
0003e0 46 15 17 3d b0 e5 48 3d 94 d0 9b 3b 03 2f 75 3d
       0.036885522 0.049047172 0.004755089 0.059859287
0003f0 37 8c cc 3c b0 98 a1 bc 08 73 b1 bb 15 16 79 bc
       0.024969203 -0.019726127 -0.005415324 -0.015203019

bias f4 [128]
000000 d1 87 60 3b 15 8c af 3c a4 80 20 bb 46 fb bb bc
       0.003426064 0.021429101 -0.0024490738 -0.022946965
000010 13 31 49 bd ba a1 a0 bd b4 3b 04 bc 2a 0a ec bc
       -0.049119066 -0.07843347 -0.008070875 -0.02881344
000020 bb f0 27 3d 8a d7 bc 3c b4 83 ab 39 dc 1c a1 3d
       0.041001063 0.023051996 0.00032713788 0.078668326
000030 41 92 c1 bc 31 cb 62 3d b4 66 3e bd e3 95 62 bc
       -0.02362931 0.05536956 -0.046484664 -0.013829681
000040 9c 90 ef bb 80 02 90 bb ae 41 f2 3c c1 96 68 3c
       -0.00731094 -0.0043948293 0.029572334 0.014196099
000050 d6 7e 77 bc a2 92 57 3d bf 66 6e 3d b0 6b 38 bd
       -0.015105924 0.052630074 0.058203455 -0.045024574
000060 51 9e 03 3c 7d fd 17 3d fd ae 20 bc 6a 41 17 3c
       0.008033351 0.03710698 -0.009807345 0.0092319045
000070 ff 5f 7e 3d 95 3d 46 bd a3 55 d9 ba a0 d0 fb 3c
       0.062103268 -0.048398573 -0.0016581308 0.030739129
000080 3d ac 80 3c cc f9 7a 3d 0f 03 cf bc 2a 9f 78 bd
       0.01570713 0.06127338 -0.025270013 -0.060698666
000090 15 97 8f bd 67 bf 04 bd b2 6e 73 3d 95 5d 18 bc
       -0.070112385 -0.032409098 0.05943174 -0.009299655
0000a0 8b 4a 66 bd 35 42 02 3d 1a f4 1b bd 70 4e 9c bd
       -0.056223433 0.03180142 -0.03807459 -0.07632148
0000b0 97 20 52 3c 8b ba a1 3d 78 4c 5b bd 8e 5b 90 bc
       0.012825153 0.078969084 -0.053539723 -0.017621782
0000c0 26 89 51 bc 4e cf 93 3c 43 f0 be 3c fe 8c 26 3d
       -0.012789046 0.018043187 0.023307925 0.040661804
0000d0 ba 59 3c 3c 02 36 53 bd 3e 09 75 3d ba 2a 94 bc
       0.011496002 -0.051565178 0.059823267 -0.01808678
0000e0 4b 1a b0 3c e8 a0 14 3d bb 80 69 3d 70 9d 66 3b
       0.021496912 0.036286265 0.057007533 0.0035189055
0000f0 bd 0f 91 bd 2e 24 85 bd b9 41 1f bd af 44 79 3d
       -0.0708308 -0.06501041 -0.038881037 0.060856517
000100 b7 56 0c 3d 55 c8 39 bc 37 34 ea 3c bb 06 5d 3d
       0.034262385 -0.011339267 0.028589351 0.053961497
000110 e4 d2 ab 3d 1e 72 7c 3d 16 c2 3e bd 1d b8 8b bc
       0.083898336 0.061632268 -0.046571814 -0.017055565
000120 22 0f 17 bd 75 24 19 3d 02 99 aa b9 9f 6a 92 bd
       -0.036879666 0.037388284 -0.00032538926 -0.071492426
000130 98 7f 8f 3d 90 fe 0b bd 5c b9 fd bc 4d f0 26 3d
       0.070067585 -0.034178317 -0.030972175 0.040756512
000140 fe 8a 0f 3a 26 ac 7a bc 17 b5 00 3d 6f fd 89 bd
       0.00054757285 -0.015299832 0.0314227 -0.06737792
000150 22 b6 6d 3d 97 01 8e 3d 1b 8f 94 3d 9e ac 43 3c
       0.058035024 0.06933897 0.07253858 0.011943011
000160 d9 3b 8b 3c 07 4a 44 bd 24 4a 33 3d 68 37 c8 3b
       0.016996311 -0.04792216 0.043771878 0.0061101206
000170 06 ad 71 bd 85 48 92 3d 5c 42 3b bc 84 60 03 3d
       -0.0590029 0.07142738 -0.0114293955 0.032074466
000180 3c 67 25 bd 09 4b 8d 3b 8f a9 6a 3d 18 a0 d1 bc
       -0.040381655 0.0043119234 0.05729061 -0.025589034
000190 59 0e 7a bd 7c c0 a0 3c 61 3c 17 3d d3 05 41 bd
       -0.06104884 0.019623034 0.036922816 -0.047124695
0001a0 d1 d4 a3 3c 85 db 3f 3c 08 88 56 3d 98 be 95 3d
       0.01999894 0.011710052 0.052375823 0.073117435
0001b0 2b 27 8e 3d df 0c 86 3d 71 b1 77 bd 67 0c d1 3c
       0.069410644 0.06545424 -0.060471956 0.02551861
0001c0 7a a5 1e bd 10 ed 83 3d cf 36 a8 bc 63 85 17 bd
       -0.03873203 0.064417005 -0.020533947 -0.036992442
0001d0 ab c4 00 3d 75 55 01 bc e0 08 3c bd 66 63 58 bd
       0.031437557 -0.00789391 -0.0459069 -0.05282917
0001e0 34 f0 91 3d 24 92 78 bb de 37 2c 3d a6 81 6b 3c
       0.07125893 -0.0037928903 0.042045467 0.014374172
0001f0 48 d9 06 3c 50 c2 17 3d 00 27 7f 3d 8f de c7 ba
       0.008230515 0.037050545 0.062293053 -0.0015248823

weight f4 [64, 128]
000000 91 a4 f5 3d 7d 6b 75 3d 35 b9 b6 bc 00 39 a4 bd
       0.11994279 0.059916962 -0.02230511 -0.080186844
000010 4f b6 7c 3d 78 ec b8 3c 6c 0b 83 bd d8 20 c9 3b
       0.0616973 0.022573695 -0.06398663 0.0061379485
000020 4f b6 06 bd 8a bb 82 3d 9a af ea 3c d5 20 39 3d
       -0.032888707 0.063834265 0.028648186 0.045197327
000030 fa 06 a1 3d 47 e1 c9 3d 70 51 14 3c 62 a7 2f 3d
       0.07862659 0.09857421 0.009052619 0.042884238
000040 76 b4 6a bd c9 cf b5 bc 04 3e ea 3d 68 6e 61 3d
       -0.057301007 -0.022193806 0.1143761 0.055036932
000050 d4 e0 90 3d 52 64 33 bd 2e 9c 57 3d 6f e8 9e 3d
       0.070741326 -0.043796845 0.05263918 0.07759177
000060 01 07 1e 3c e9 8f 0e bd da 1b 79 bd da d2 b4 bd
       0.009645225 -0.034805212 -0.060817577 -0.08829279
000070 3b b4 eb bd 8f bd 95 bd b5 59 ab 3d 19 75 8d 3d
       -0.115089856 -0.07311546 0.0836672 0.069071
000080 60 d7 c3 3c bc da 1d bd 6b 58 b9 bd b8 64 97 bc
       0.02390641 -0.03853868 -0.090500675 -0.018480644
000090 a8 db 6b bd c5 af 7c 3d 4e 25 95 3c 0f 23 d8 bd
       -0.057582527 0.061691064 0.018206265 -0.10553562
0000a0 00 be 7c bb 56 be fb 3d b4 3f 60 bc b9 c7 b7 bc
       -0.0038565397 0.12292163 -0.013687063 -0.022434102
0000b0 5a 82 bb 3d 6e 02 5d 3b 97 88 93 bc ab 5f 46 bd
       0.09155722 0.0033723372 -0.018009467 -0.04843108
0000c0 d5 6c e0 bd 27 8c cb bd a8 f1 74 bd 06 98 cb 3d
       -0.10958258 -0.09938841 -0.059800774 0.099411055
0000d0 a8 80 b2 bd ad d3 95 bd cb 39 87 bc b4 b3 97 3c
       -0.087159455 -0.073157646 -0.01650705 0.018518306
0000e0 c9 c8 08 3d 67 8e cc 3c 1c 4d 16 3d 61 8a 15 bc
       0.03339461 0.024970246 0.03669463 -0.00912723
0000f0 82 b9 cd bc 09 7b e9 bd df e4 b0 bc 50 09 d1 3d
       -0.025112871 -0.1140042 -0.02159351 0.10206854
000100 93 e6 d8 bd 31 a3 8e bd a3 b1 6d bd da 48 5c 3c
       -0.105908535 -0.0696472 -0.058030736 0.013445104
000110 36 9c 4f 3d 65 51 91 bb 1f 63 72 bc df a0 d4 bd
       0.050686084 -0.004434752 -0.01479414 -0.10382246
000120 fc 91 56 bd 4b cc d6 ba 3a 32 69 bd 71 b8 a8 bd
       -0.052385315 -0.0016387788 -0.056932665 -0.082383044
000130 7d fa 9c 3d 82 98 90 3c bc 70 aa bd 0b c6 99 bc
       0.07664964 0.017650846 -0.083222836 -0.018771192
000140 49 37 db bc b1 15 5c 3c 34 c2 0f bd e7 0a b2 bd
       -0.02675976 0.013432906 -0.035097316 -0.08693486
000150 a0 e7 99 3c c6 9e ce 3d 93 51 46 bd f0 8a a0 3d
       0.018787205 0.100888774 -0.04841764 0.07839
000160 aa da 4c 3d 8c cc b7 bd 82 32 cf bc 6b 37 1a bd
       0.05001322 -0.08974561 -0.025292639 -0.037650507
000170 5a e5 4f bd d8 f9 5d 3d f9 df d1 3d 37 ed b4 bd
       -0.050755836 0.054193348 0.102477975 -0.08834308
000180 24 c0 a1 bd d4 6e f8 bd 85 48 f6 bc 1c aa 8b 3d
       -0.07897976 -0.12130514 -0.030063877 0.06819555
000190 3e c9 ba bc cc 92 a1 bd cc 40 bc bd d4 e3 06 bd
       -0.022801038 -0.078893274 -0.091920465 -0.032932118
0001a0 0e 20 8d 3c 12 89 75 bd 42 f6 87 bd b8 52 22 3d
       0.017227199 -0.059945174 -0.06638767 0.039629668
0001b0 74 1c 84 3d 70 5d 11 3c 1a 49 a1 bd 19 1d 38 bd
       0.064507395 0.008872375 -0.07875271 -0.044949625
0001c0 d1 77 ae bd b2 b5 2a bd 08 53 a7 bd f4 69 a9 bc
       -0.08518947 -0.041677184 -0.08170134 -0.020680405
0001d0 55 ec 3d 3d c7 9d 7b bd 2a 59 6a bd 10 3c c0 3c
       0.046367962 -0.061429765 -0.05721394 0.02346614
0001e0 bc 3f 18 ba 1f 5b 31 3d 84 a0 cb bc 79 3f 27 bd
       -0.0005807837 0.04329979 -0.024856813 -0.040832017
0001f0 2e 80 0d 3a 64 c5 21 bd 1f 04 96 bd 65 63 c8 bd
       0.00053978234 -0.039494887 -0.07325005 -0.09784583
000200 57 3f bf bd 0a 65 2c 3d 6b a9 1f bd 3a 5c 1b 3c
       -0.09338253 0.042088546 -0.03897993 0.009482438
000210 81 69 c8 3b 96 0a 86 3d e7 ec d9 3d dc 13 45 bd
       0.0061160927 0.06544988 0.10640889 -0.048114643
000220 b1 84 1e bb 5a 4b 6a 3d 2b 57 7f bd ac de ab 3c
       -0.0024187977 0.057200767 -0.06233899 0.020980202
000230 c7 e8 f6 bb fb fb 9d bd c2 ac 1b 3c 5c 69 0e 3d
       -0.0075350734 -0.07714077 0.009501638 0.034768447
000240 9f c6 a0 3d 59 7c c0 bd 70 1a 35 3d a3 8a 05 bc
       0.07850384 -0.093987174 0.044214666 -0.008150729
000250 ee 15 09 3b 12 44 c7 bd 11 60 b8 bc 82 30 c4 bd
       0.0020917612 -0.0972978 -0.022506746 -0.09579565
000260 09 62 2c 3d 91 7a 9f 3d 46 eb 95 3c b6 74 04 3e
       0.04208568 0.077870496 0.018300664 0.12935147
000270 1d 8a 90 3d f6 02 07 bd 3b a2 55 3d 65 e9 ab bd
       0.07057593 -0.03296181 0.05215667 -0.08394126
000280 1a 61 60 3c ef 05 1a 3d 7a f3 da 3d 9f 57 f5 bc
       0.013695026 0.037603315 0.10690971 -0.029949008
000290 77 05 0f bc 60 2f 83 3c e3 8b fa bc ee 13 04 3e
       -0.00872933 0.016013801 -0.030584281 0.12898228
0002a0 12 25 0e 3b 69 20 ca 3c d9 fb 4b bd ec f1 a9 bd
       0.0021689576 0.024673657 -0.049800728 -0.08298096
0002b0 dd d7 28 bc a3 36 de bc b1 96 9e 3d bb 89 94 3c
       -0.010305372 -0.027125662 0.07743586 0.018132081
0002c0 02 f6 c6 3d 70 21 8e 3d 5c dc ed bb 28 1f 00 3c
       0.09714891 0.069399714 -0.007258935 0.007819928
0002d0 e9 d6 62 bc 2e 29 08 bd 8b 66 8c bd d9 5e f6 bd
       -0.013845184 -0.033242397 -0.06855496 -0.120298095
0002e0 85 c4 e5 3d 07 5c bb bc e9 85 c4 bd 1d 28 df bd
       0.11219124 -0.02287103 -0.09595854 -0.10896323
0002f0 59 2f 31 3c 20 35 d8 3d fe c5 03 bc 9c 17 c7 bd
       0.010814511 0.10557008 -0.0080428105 -0.097213
000300 72 c2 85 3b 93 41 ad 3d 3e 0f a4 3d 09 72 40 3d
       0.0040820176 0.08459773 0.0801072 0.046983752
000310 c5 43 ac bd ad a0 7c bd 2c 75 d8 3d 30 27 fc 3d
       -0.084113635 -0.06167667 0.10569224 0.12312162
000320 8d 7e 34 3d b2 99 ad 3c 72 0c 02 3e a1 38 b4 3d
       0.044066 0.021191452 0.1270006 0.087998636
000330 20 63 ef bd c5 7d 18 3d bb ed fd 3d 08 bf 9a bd
       -0.116888285 0.03722932 0.12398859 -0.075559676
000340 30 6f 63 3a 6a 2a fd bd a0 d5 34 bc 24 b1 ab 3d
       0.0008675931 -0.123616055 -0.01103726 0.08383396
000350 2f 19 c9 bd f3 31 64 bd 9e ff f3 bc 77 e7 3f 3d
       -0.098192565 -0.055711698 -0.029784974 0.0468516
000360 5c 3c 65 bc 93 1c 28 3d 1e dc dd 3d e8 6a bd 3b
       -0.013991442 0.041042875 0.10833 0.0057805665
000370 19 5b 63 3b 61 af df bd 35 d0 29 3b 2d f4 90 3d
       0.003469175 -0.10922123 0.0025911455 0.07077823
000380 66 82 56 3d a7 86 3a 3d 2a ec 4d 3d 59 19 68 bd
       0.05237045 0.04553857 0.05027405 -0.0566648
000390 b0 6b 35 3d 5e 8b 85 3d e5 51 ee 3d 20 8c 9e bb
       0.044292152 0.06520723 0.11636714 -0.0048384815
0003a0 4d 0c 1b 3c a7 c6 21 3d 01 63 3b 3d 0b 79 c9 bc
       0.009463382 0.03949609 0.045748714 -0.02459385
0003b0 5b 99 af bc 3a 0a 8d bd 88 64 ab bd 7f 2c 86 bd
       -0.02143543 -0.06886716 -0.08368784 -0.06551456
0003c0 ac fe 9f 3d 92 93 85 bd 1d 70 92 3d b7 ee 8d bd
       0.07812247 -0.065222874 0.0715029 -0.06930297
0003d0 95 ab dd bd dd 9b 8f 3d 09 b1 9a bd 2d 52 6d 3c
       -0.10823742 0.070121504 -0.07553298 0.014484924
0003e0 f2 63 48 ba dc 4f ff 3d f9 f4 04 3e c3 1d cd 3a
       -0.00076442875 0.12466404 0.12984075 0.0015649128
0003f0 c4 3d c8 bd 35 b6 bf 3b c3 69 0e 3b b6 c9 9d 3d
       -0.09777406 0.005850578 0.002173052 0.07704489

bias f4 [64]
000000 7e e1 8b 3d 17 47 20 3c d2 78 8b 3d 44 5c d8 bc
       0.068301186 0.009782574 0.06810154 -0.026411183
000010 3e 38 ac 3c b8 6f 31 3c dd 06 aa bd 1e a3 6a 3d
       0.021022912 0.0108298585 -0.0830209 0.057284467
000020 71 b2 62 bd 5b e8 7a bd e4 54 87 3d 85 26 38 bd
       -0.055345956 -0.061256748 0.066079885 -0.04495861
000030 86 16 01 bd a9 90 cb 3d 80 11 a1 bc cc 97 68 bd
       -0.03151562 0.09939701 -0.019661665 -0.05678539
000040 2c 28 c0 bd 5f f3 b2 bc 59 86 b2 3d 1f a4 06 bd
       -0.09382662 -0.021844564 0.08717031 -0.03287136
000050 a1 1c 48 3d 2d c9 e7 3d fd b8 9a 3d bf e9 bc 3a
       0.048855428 0.11317668 0.07554815 0.0014412923
000060 9f 6e 76 3d c3 da e3 bc 00 53 7f bd 22 47 38 bc
       0.06016409 -0.027814275 -0.062335014 -0.011247428
000070 03 80 90 3d 17 c7 b1 bd 24 6b f2 3d 46 16 b3 3d
       0.07055666 -0.086805515 0.11836842 0.08744483
000080 c7 65 15 bd a0 28 96 3d 00 9f e7 bd d9 c9 6f bd
       -0.036474016 0.07331967 -0.11309624 -0.058542106
000090 5b 80 43 3d 15 92 f9 3c 92 af d0 3b 9d 2c d8 bd
       0.04772983 0.030465165 0.006368586 -0.10555384
0000a0 ee 7b b7 bd d2 8b 81 3d e1 b4 c4 bc 47 12 0d 3d
       -0.089591846 0.06325497 -0.024012031 0.03444126
0000b0 34 20 0d bc cf a7 6a bc 08 67 db bd 51 3f 5b bd
       -0.008613635 -0.014322235 -0.10713011 -0.05352718
0000c0 a0 82 61 bd 21 71 1f 3d be a9 90 3b 2b 9d 01 bc
       -0.055056214 0.038926248 0.004414766 -0.007911007
0000d0 4c 6a d0 bd 96 ca 92 bc 64 4f 7e 3d df fd 8d bd
       -0.101765245 -0.017918866 0.06208743 -0.06933188
0000e0 b8 fc b0 3d 00 0f f6 bc 25 80 a0 3c 4f 8a 21 3d
       0.08641952 -0.03003645 0.019592354 0.039438542
0000f0 ca 2b 16 3c 41 13 0c 3d 88 d9 c6 3c 09 91 73 3d
       0.009165714 0.03419805 0.024273649 0.05946449

weight f4 [32, 64]
000000 50 2a 13 be 57 25 5e 3d 52 7b 39 be e7 93 e6 3d
       -0.1437161 0.05423483 -0.18113449 0.11258679
000010 6f f9 cf 3b b7 8a cd 3d bc dd 5c 3e 65 b3 8e bc
       0.0063468735 0.100362234 0.2156896 -0.017419526
000020 c2 52 f1 3d 05 06 29 3e 3e 7c 6e 3d f0 3c 9e 3d
       0.11783363 0.16506203 0.058223955 0.07726467
000030 d9 27 b2 3b d0 c4 96 bc 5d 8e 0b be 4c 50 35 3c
       0.005436879 -0.018404394 -0.13628526 0.011066508
000040 34 86 4c 3e 0b f1 84 3d 03 a4 26 be 0f 70 c9 3d
       0.1997307 0.06491288 -0.16273503 0.098358266
000050 eb dd 4f 3d b4 38 04 3d 60 a0 62 3c ce 84 c4 bd
       0.050748747 0.03228064 0.013832182 -0.09595643
000060 91 e8 6a bc 5e dd 97 bc a7 1e 3f 3e 96 df 8e 3d
       -0.014337675 -0.018538173 0.18664037 0.069762394
000070 f0 9d 7a 3d d6 c6 02 3d 57 86 78 bd 27 9a ae 3b
       0.061185777 0.031927906 -0.06067499 0.005328435
000080 a4 c0 9b 3c 49 5d 0b bd 64 46 56 3e ac 04 f0 3d
       0.019012757 -0.03402451 0.2092529 0.11719641
000090 a2 fc 76 bd 11 a6 11 be a4 59 13 bd 71 ff 68 3c
       -0.060299523 -0.14223506 -0.03597416 0.014221058
0000a0 74 18 17 bd 98 7a bf 3b 24 d6 0c be 26 e7 37 be
       -0.036888555 0.0058434717 -0.13753563 -0.1795927
0000b0 30 f5 6a bd ed ae 13 bc 33 13 18 3e aa eb 38 bc
       -0.057362735 -0.0090138735 0.14851074 -0.011286655
0000c0 12 ce ae bd 5e 99 46 be 10 c8 37 bd b2 80 8b 3b
       -0.085353985 -0.19394442 -0.04486853 0.004257285
0000d0 0a 0c 68 3d 99 fa e3 3c 0c df bd bd ec 4b e8 3d
       0.056652106 0.027829455 -0.092710584 0.11342606
0000e0 78 b2 cd bd 20 c2 48 3d f0 31 db bd 10 3e e1 bd
       -0.10043806 0.049013257 -0.10702884 -0.109981656
0000f0 64 e3 db bd 51 1a 2c 3e 79 95 bd 3d 12 89 de bc
       -0.10736731 0.16806914 0.09257025 -0.02716497
000100 3c ee 04 3e ff 5a a7 bd c7 dc a9 bb 10 b0 22 3d
       0.12981504 -0.08171653 -0.0051837894 0.039718688
000110 e9 50 e0 3d b1 dc 11 bc 20 bd 0e be 0a c5 b4 3d
       0.109529324 -0.008902715 -0.13939333 0.08826645
000120 13 21 9a 3d 0d c7 58 bd 3c 07 4c be 77 35 fe 3c
       0.0752584 -0.052924205 -0.19924635 0.031031353
000130 33 39 b6 3d 5f 3c 23 3d ec b5 9e 3e 7b 98 e7 3d
       0.08897629 0.039852496 0.3099817 0.1130838
000140 21 2d 99 3d 7d 5a cc 3d 65 1a 1a 3d 44 a6 35 bd
       0.07479311 0.09978197 0.037622828 -0.044348016
000150 fb 5d a6 3d 65 1c 46 bd 08 f0 90 3e 37 56 95 3d
       0.08123394 -0.048366923 0.2830813 0.07291835
000160 b6 79 dc bc 49 07 78 3d c1 fb a3 3d 67 53 c1 bd
       -0.026913505 0.060553823 0.080070026 -0.09439736
000170 56 b0 10 be cc 1d 3f bd 6b e3 c2 3c ac 6a b7 3d
       -0.14129767 -0.046659276 0.023790082 0.08955893
000180 3e 4c f3 bd 88 77 de 3d 05 c4 66 3d 94 9b 37 bd
       -0.118797764 0.108626425 0.056339283 -0.044826105
000190 a1 97 35 3e bd 26 83 bd b7 56 e1 bd 7f f9 ec 3d
       0.17733623 -0.06403873 -0.11002868 0.11571025
0001a0 64 4d 8c bc 82 83 00 3e b1 3a a2 bd bc 27 a5 3d
       -0.017126746 0.12550166 -0.07921351 0.08064219
0001b0 6d aa ea 3c 52 20 e1 be f4 ec a4 bd 12 55 6b bd
       0.028645718 -0.4396997 -0.08053008 -0.057454176
0001c0 d7 4a 2d bd a0 ce c4 bd e8 b5 74 bd e3 7b a1 3d
       -0.0423077 -0.09609723 -0.05974379 0.07884958
0001d0 e4 3a 72 3d 27 cf ad bc 26 5b b6 bd 36 6b ff be
       0.059138194 -0.021216942 -0.08904104 -0.49886483
0001e0 82 38 fb 39 0f 8d e0 bd bc c7 65 bd bd 56 13 3f
       0.00047916552 -0.10964405 -0.056098685 0.5755423
0001f0 d6 8f 5b bd 13 ee 0f bd a8 c4 5f be 15 82 3d bc
       -0.05360397 -0.035139155 -0.21852362 -0.0115666585
000200 31 d9 05 3e c7 5f 8f 3d 0c bd 04 3e ef 96 10 be
       0.13071133 0.0700069 0.1296274 -0.14120077
000210 d3 a0 8b 3c 4c d3 b6 bd 81 ec 7e bd 96 19 c4 3d
       0.01704446 -0.089270204 -0.062237266 0.09575193
000220 69 98 9f bc 63 58 5b 3d ad 49 44 3e d8 e0 bc 3c
       -0.019481855 0.05355109 0.1916873 0.023056433
000230 6f 47 ca bd 56 d4 a9 bd 4b b6 2c be 43 40 62 3c
       -0.09876906 -0.08292453 -0.16866414 0.0138092665
000240 cf b5 60 bd 76 4b cb 3e 0a cb 31 bd 8d 31 44 3e
       -0.054860886 0.3970601 -0.043406524 0.19159527
000250 dc 96 4e 3c 2f 66 66 bd 9a e9 91 bf 5d 2d 1f 3d
       0.01260921 -0.056249794 -1.1399415 0.03886162
000260 b8 3a 34 3d 15 cd be 3d 28 53 11 be 30 16 d4 bd
       0.04400131 0.0931646 -0.14191878 -0.103557944
000270 d5 0d 7f 3c b4 1f 3d 3c 33 59 c2 bd 32 31 89 bd
       0.015567263 0.011543203 -0.0948967 -0.066988364
000280 60 c2 03 be 19 10 98 3d bf 53 b4 3d 4f a6 fc 3b
       -0.12867117 0.074249454 0.08805036 0.007710255
000290 89 52 1e bf 82 8d a4 bd 62 1c 80 bd a5 66 f1 bd
       -0.6184469 -0.08034803 -0.062554136 -0.11787156
0002a0 98 2d ed 3c 86 93 cc 3d 27 b3 67 3b d4 21 99 3b
       0.028952405 0.09989075 0.0035354586 0.004673222
0002b0 f4 e9 43 bd 2f d1 01 3e 69 da 48 3d 11 95 8a 3d
       -0.047830537 0.12677453 0.049036417 0.067667134
0002c0 cc ca 06 3e 1a db 39 bd b0 5f fa 3d cc 50 9a 3d
       0.13163298 -0.045374967 0.12225282 0.07534942
0002d0 ef 50 e8 bd ac a2 6a bd fb 1e 07 bd 70 f1 99 3e
       -0.11343562 -0.057284042 -0.03298853 0.30067015
0002e0 e1 a1 69 3e 2b 57 7e bd b1 52 fa 3d 3d 89 22 be
       0.22815658 -0.06209485 0.122228034 -0.15872665
0002f0 50 26 fb 3d 8a f3 c1 3d 64 07 58 3f 77 f0 2c bd
       0.12263167 0.094702795 0.8438628 -0.042221513
000300 57 08 cf 3c 20 dc ff bc b9 45 7d bd 04 58 37 3c
       0.025272531 -0.031232893 -0.06183407 0.011190418
000310 d3 5d c2 3c dd 42 90 bd 9d 03 17 be e9 fc 09 3c
       0.02372638 -0.07044003 -0.14747472 0.008422115
000320 43 24 f1 3e f8 cc d6 bd 3c c4 22 3f 27 a4 0d be
       0.47097978 -0.104883134 0.6358068 -0.1383215
000330 53 fb 96 bd 78 b3 1d 3e ef c0 03 bd 44 2b 08 be
       -0.07372155 0.15400493 -0.032166418 -0.13297755
000340 e6 fb f6 bc b3 91 7b bd 39 e9 50 bb 35 c6 9b be
       -0.030149411 -0.061418246 -0.0031877293 -0.30424657
000350 0e 8f 7d ba 46 45 b0 3c 95 86 b4 be 13 1e 97 ba
       -0.0009672501 0.021517407 -0.35258928 -0.0011529349
000360 fa 71 45 3e c6 e9 6c bc 43 67 3a be cf 42 b3 bd
       0.1928176 -0.014460033 -0.18203454 -0.08752977
000370 de 17 cd 3d 59 ae 0f 3d 18 1e d7 3c 87 00 d8 bc
       0.10014318 0.03507838 0.026259467 -0.026367439
000380 40 20 5a 3c 70 05 84 3d 7f 96 da ba a5 28 8b be
       0.013313353 0.064463496 -0.0016676931 -0.27179447
000390 26 91 92 be 01 15 29 bd ab 5a c4 3d 90 bc b5 be
       -0.28626364 -0.041279797 0.09587606 -0.35495424
0003a0 36 3a 96 3c 0b fe 5a 3e 1f c5 1a 3e 2f 34 ed 3d
       0.018338304 0.21385972 0.15114258 0.11582219
0003b0 d9 53 9b 3d 37 03 89 3e bb a7 a6 bb 1f f5 9a bd
       0.07584352 0.26760265 -0.005085913 -0.075662844
0003c0 ff f8 b2 3d 83 46 dd 3c b5 88 be bd d5 6c a9 bc
       0.087388985 0.027011162 -0.093034185 -0.020681778
0003d0 94 15 82 bd ff 4c 82 bd 08 fd 11 3c fd 16 40 3e
       -0.06351772 -0.06362342 0.008910425 0.1875877
0003e0 41 c2 56 3e 6b 69 33 3e b2 db 11 3c 7a 7f a9 be
       0.2097254 0.17520683 0.008902477 -0.3310507
0003f0 9b 98 99 3e c8 b8 49 3d 07 f8 d3 3e c1 e4 9d bd
       0.2999924 0.049248487 0.41400167 -0.07709647

bias f4 [32]
000000 7c b9 b3 bd 49 a9 0b 3a ff 6b 9f 3d 74 cf 0e 3e
       -0.08775613 0.00053276547 0.077842705 0.13946325
000010 9f 0a 0d bc bb 81 3c bc 65 f8 c6 bc 7f 7a 99 3d
       -0.008608489 -0.0115055395 -0.024288366 0.074940674
000020 20 53 cd bd 63 63 13 3d 1c d7 24 3e 3f 4b 10 3d
       -0.100256205 0.035983454 0.16097683 0.03522801
000030 b1 97 97 bd 58 2b a7 3d 9b 04 ca bd f8 ce b4 3d
       -0.0740198 0.08162564 -0.0986416 0.08828539
000040 f1 bc cd bd 88 7c c4 bc 3a fb 5e bc af 12 b1 3d
       -0.10045803 -0.023985162 -0.013609702 0.08646142
000050 21 b3 0d be 14 b7 15 be d4 04 0b bb be 6e d5 3d
       -0.13837864 -0.1462062 -0.0021212595 0.10421513
000060 58 bc 04 be 0d 55 2e be 4d 63 a7 bc 34 99 0f bc
       -0.12962472 -0.17024632 -0.020433092 -0.008764554
000070 cb e8 08 3e 04 f1 16 3e 2c 79 8f 3c 8b 6d 01 3e
       0.13370053 0.14740378 0.017513834 0.12639444

weight f4 [1, 32]
000000 a2 8a b6 be e4 36 a4 3e 07 da c0 be 12 f2 7d be
       -0.35652643 0.32073128 -0.37666342 -0.24799374
000010 b2 0a b2 3e c9 4a b2 3e ca aa 8a be 91 81 c5 3e
       0.34773785 0.34822682 -0.27083427 0.38575414
000020 df ab c4 be e3 8b d0 be 1f 75 94 3e 8f 05 a9 be
       -0.38412377 -0.40731725 0.28995606 -0.33012053
000030 e5 86 9a be 81 83 a1 3e c8 da 9d be f8 fe 94 be
       -0.3018104 0.31545642 -0.3083098 -0.29100776
000040 19 0d 93 be 0d 49 d6 3e 72 30 bd 3e 23 62 ba 3e
       -0.2872093 0.41852608 0.36951023 0.36402997
000050 eb bc a6 be 2f 09 d2 be d7 2e e6 be 08 34 c5 be
       -0.32566008 -0.41022632 -0.4495761 -0.3851626
000060 6b 19 c8 be e4 39 cc be 1d 67 87 3e c4 8b be be
       -0.39081892 -0.39887917 0.26445857 -0.37216008
000070 57 d5 c7 3e 81 a9 9f 3e af a9 b3 3e a6 b2 ca 3e
       0.39029953 0.3118401 0.35090396 0.39589423
