Models/Office_model_2.pth (torch, 181466 bytes, 9 tensors)

weight f4 [256, 2]
000000 e1 1f aa 3e 37 7c 60 bd d1 cd d7 be 81 a0 1e 3f
       0.33227447 -0.05480596 -0.42149213 0.6196366
000010 25 06 78 3e 96 32 c7 3e ed 02 45 be 8e 22 60 3d
       0.24221094 0.38905782 -0.19239397 0.054720454
000020 c7 7e 81 be 9a fc 97 be 15 b1 1c 3f 66 cf 0a bf
       -0.25292036 -0.29684907 0.61207706 -0.54222715
000030 b6 83 65 be 62 ee 0a 3f 12 07 00 3f fe 99 b0 be
       -0.22413525 0.54269993 0.5001079 -0.34492487
000040 86 80 69 3d 2f e5 f4 be 24 6f 2e be c8 a9 0e 3f
       0.057007335 -0.47831103 -0.17034584 0.55727816
000050 76 86 78 3e d2 77 0e 3f 86 80 63 3e f7 54 50 be
       0.24270043 0.5565158 0.22216997 -0.20344912
000060 9e 3d 2b bf e3 d5 6f be ea 29 96 3e ec d6 59 3e
       -0.66890895 -0.23421435 0.29328853 0.21273392
000070 b8 eb 9d bd cc de 22 3f 54 6e 77 be d0 4c a5 3e
       -0.077109754 0.6362121 -0.2416318 0.32285166
000080 97 c2 94 bd e7 61 2a 3b 4c 4e 24 3d d5 33 03 bf
       -0.072636776 0.0025998296 0.040113732 -0.51250964
000090 ae 65 0f 3f a4 b1 03 bf fa 5a c1 3e 3c aa 2e bf
       0.56014526 -0.51442933 0.37764722 -0.6822851
0000a0 89 ce de 3e fb 3b 39 be c6 f1 b9 3e 2e d0 ff be
       0.4351695 -0.18089287 0.3631727 -0.49963516
0000b0 90 7d 3e 3f 24 a6 04 bd e1 52 f3 be 47 66 13 3f
       0.74410343 -0.032385007 -0.4752417 0.5757794
0000c0 6a 0a c4 3e f2 82 87 be 9b 7e 0f 3f c1 4f 34 bf
       0.38289195 -0.2646709 0.5605256 -0.70434195
0000d0 1a 67 17 bf 9c 5f f5 3e bd de 33 3f e6 2d 07 3f
       -0.59141695 0.47924507 0.70261747 0.5280441
0000e0 27 2a 6e be 93 6d d4 3e ad 8a 84 be 9d c7 a0 3e
       -0.23258267 0.41489848 -0.2588705 0.31402293
0000f0 6e 7e 52 bd 5a 8e fa 3c 9f df 54 be 88 e9 be bd
       -0.051390104 0.030585457 -0.2078843 -0.09321886
000100 94 dd 10 3f 31 09 0d 3f bc f3 52 3e 5f 52 db be
       0.565881 0.5509215 0.2060079 -0.42836282
000110 b7 a5 bb 3d 7b 62 d0 3e 7b 40 13 3e 77 61 02 bf
       0.09162467 0.40700135 0.14380066 -0.5092997
000120 da 31 3f be 0d 6e 82 be d6 41 4c bf 93 83 8c be
       -0.1867136 -0.25474587 -0.7978796 -0.27444133
000130 1f 7b e3 be 6b 52 8a 3d 93 6a 45 bd ef e6 6f bd
       -0.4442987 0.06754001 -0.04819734 -0.058569845
000140 8b 13 b2 3d fb 18 0c bf 60 cb 07 3f 4d 3c 93 be
       0.08695134 -0.5472562 0.530447 -0.28756943
000150 3e 4d a8 3e 64 1c 89 be d5 11 fc 3d c2 22 52 bf
       0.3287143 -0.26779473 0.12308089 -0.82084286
000160 68 e7 b8 3e 9b 4a e3 be 28 1b 31 bf 4c 5c 1c bf
       0.3611405 -0.44392857 -0.6918206 -0.61078334
000170 39 da 02 be 86 4c 5e be 27 4f 25 be b0 c4 97 be
       -0.12778558 -0.21708879 -0.16143475 -0.29642248
000180 2b f9 0b be 01 88 55 3e 71 af 83 3e b2 55 ea 3e
       -0.13669269 0.20852663 0.2571979 0.45768505
000190 51 a5 4f be 0b 65 83 3e e9 bc 2b 3a 29 1c e0 3e
       -0.20277907 0.25663027 0.0006551282 0.43771484
0001a0 e6 1b 93 be 97 d1 15 3f 42 da 77 3e 1b 9b 06 bf
       -0.28732222 0.58522934 0.24204352 -0.5258042
0001b0 4e e5 82 3e 30 1a e9 be 33 63 2e bc 0d bc 35 3f
       0.2556557 -0.45527792 -0.010643768 0.7099007
0001c0 36 c0 5e bd 11 f1 a1 3e e9 a2 3a be 25 d5 f4 be
       -0.054382525 0.31629232 -0.18226208 -0.47818866
0001d0 74 bf 5a 3e 57 38 b3 3d d3 f4 91 3e c8 b3 9e 3e
       0.21362096 0.0875098 0.285071 0.30996537
0001e0 d7 98 96 be a0 81 35 3f 74 77 47 be f4 6f bb 3e
       -0.29413483 0.7090092 -0.19479162 0.3660885
0001f0 1a 5e be bc 8d cd 30 be 3e af d7 3e d3 b7 2f bf
       -0.02323823 -0.17265911 0.42125887 -0.6863987
000200 c7 67 cc be d4 4e 42 3e 27 22 36 3e e7 a0 02 bf
       -0.39922926 0.18975383 0.17786466 -0.5102677
000210 76 fe d6 bd 3d 21 48 be 95 bb 03 3f 72 c3 c0 be
       -0.10497753 -0.1954393 0.514581 -0.37649113
000220 46 52 13 3f 4a be 2d 3f f5 da 56 bf 00 26 c7 be
       0.57547414 0.67868483 -0.8392785 -0.3889618
000230 7a f2 00 bf ac 64 ab 3e 25 44 a8 bd 04 94 c2 3e
       -0.5036999 0.33475244 -0.082161225 0.38003552
000240 46 be dd 3e b2 a6 da be e6 88 6b 3d 58 c5 53 3e
       0.4330923 -0.42705303 0.057503603 0.2068075
000250 ee 14 01 bf 87 36 26 3f 80 b9 ba bd 8b 67 44 3d
       -0.5042256 0.6492695 -0.091174126 0.04795031
000260 c2 b1 a4 3d 69 c0 b2 3e 10 b3 07 3f 8d 23 0b bf
       0.08041717 0.34912422 0.530076 -0.5435112
000270 38 79 81 be 48 0b 80 3e a9 91 ae be d7 99 8f be
       -0.25287795 0.25008607 -0.34095505 -0.28047058
000280 5a 8a da 3e 0a 63 07 be df 40 62 3e 1b 93 bc bd
       0.4268368 -0.13221374 0.22095059 -0.09207746
000290 04 77 57 3e c7 22 9e be b7 10 71 3e 1b 43 79 bf
       0.21041495 -0.30885908 0.23541532 -0.9736802
0002a0 f5 b3 30 bf 17 a7 1f bf bb fa 86 3e a5 6e a8 be
       -0.6902459 -0.62364334 0.26363167 -0.32896915
0002b0 36 77 a1 3c 08 38 03 3f d3 6a 14 3f 78 2c e5 be
       0.019710165 0.5125737 0.579755 -0.4476049
0002c0 62 19 94 be 7b 2a 01 3f f6 f2 1b be 7f 56 c3 bd
       -0.28925616 0.50455445 -0.15229401 -0.09537982
0002d0 c8 6a 0d 3e 79 9c 16 bf 11 51 18 bf 60 23 13 bf
       0.13810265 -0.5883251 -0.594987 -0.5747585
0002e0 7f 6c 6d be 9d bd d9 3e ad fd cb be 0e a9 cb bd
       -0.23185919 0.42527476 -0.39841977 -0.09944354
0002f0 ad 5c a9 3c 3c e4 d9 be 66 74 e9 3d 11 07 8b be
       0.020674074 -0.42556942 0.11399154 -0.2715383
000300 00 69 76 3e 00 51 05 bf df 3d 15 3d b7 d6 3d bc
       0.24063492 -0.5207672 0.036435958 -0.011586837
000310 4a a1 1d bf 44 39 cc 3e 74 fa 2a be eb 4b 05 3f
       -0.6157423 0.3988744 -0.16697103 0.52068967
000320 00 37 cc be 07 92 de bd 41 f7 71 be 03 80 a9 3e
       -0.39885712 -0.10867696 -0.23629476 0.33105478
000330 f0 94 a0 be eb 22 ec 3e 53 cd 8c bd 65 92 83 3e
       -0.3136363 0.4612039 -0.068751 0.25697628
000340 19 45 fd be 8e 60 e3 be d4 3e 7f 3d 7f fc b2 be
       -0.4946678 -0.44409603 0.062315777 -0.34958264
000350 81 d2 c0 be e8 ef b5 bd d1 27 41 be 33 dd 9b bc
       -0.37660602 -0.08883649 -0.18862845 -0.019026374
000360 1d a5 01 bf 72 a5 58 3c d6 6d bd 3e 3e db 05 be
       -0.5064257 0.013223039 0.3699786 -0.13071916
000370 30 3b 91 ba 3c 8c d7 be 4a f2 8b bc 14 f5 31 be
       -0.0011080261 -0.42099178 -0.017083306 -0.17378646
000380 55 f7 bf 3e ad d7 47 bf 41 18 d2 be 5a b1 35 3f
       0.37493387 -0.7806347 -0.4103413 0.7097374
000390 68 4e 4a bd fc 74 7a be ab b9 bc 3e b3 08 23 bf
       -0.04939118 -0.24458688 0.36860403 -0.6368515
0003a0 d9 0d 5b 3f 86 fc fe 3e 5d dc df 3e 8f 56 28 3d
       0.85568005 0.49802035 0.4372281 0.041098174
0003b0 67 ef 23 3e 59 bb be be 0f d2 1b bf 72 14 84 3e
       0.16009293 -0.3725231 -0.608674 0.2579685
0003c0 c7 a0 e1 3c 2f ba 2e be e9 37 97 3e c7 02 4c bf
       0.027542485 -0.17063211 0.29534844 -0.7969174
0003d0 51 31 9e be 46 92 d3 be 5a 96 69 be 4a 5a b9 be
       -0.30897 -0.41322535 -0.22811261 -0.36201698
0003e0 a0 b2 9e bd f1 db 39 be 35 72 05 3f 31 f3 09 bf
       -0.07748914 -0.18150307 0.5212739 -0.53886706
0003f0 d3 b4 39 be 10 96 8a be a4 2b 2b be f4 dc e5 3e
       -0.18135385 -0.27067614 -0.16715866 0.44895136

bias f4 [256]
000000 60 98 0f bf 7f da 0a be be fe 3f bf ba 9f 71 3e
       -0.5609188 -0.13559912 -0.7499808 0.23596087
000010 36 2e 15 3f d0 cc 3a bf 4a 9b 40 3e ea 58 a2 be
       0.5827364 -0.7296877 0.18809238 -0.3170846
000020 16 ad 75 3e 2a 62 d1 3d d8 2b 55 bf 6c a5 57 be
       0.23991808 0.102238014 -0.83270025 -0.21059197
000030 55 03 3f 3e 99 23 3d bf 71 dd 9a be 46 47 48 3e
       0.18653615 -0.7388244 -0.3024707 0.19558439
000040 70 32 41 3e be d3 9d 3e 11 4d 0c bf 16 00 02 be
       0.18866897 0.3082561 -0.54805094 -0.12695345
000050 06 41 33 be 06 c1 6a be ca 6c e6 3e 36 9f 76 3e
       -0.17505273 -0.22925195 0.45004874 0.24084172
000060 42 4c 06 bf ca 3e 49 bf c9 fa 3c 3f 49 03 12 be
       -0.5246011 -0.78611434 0.7382017 -0.14259066
000070 e8 f1 b4 3e 48 de 0c 3f ba 88 e5 3d 86 6d 2d 3f
       0.3534081 0.55026674 0.11207719 0.67745245
000080 59 8b 2a 3f fe ec 77 be 85 96 e3 be 4f 8f f1 be
       0.6661888 -0.24211499 -0.44450775 -0.47179648
000090 00 9b f4 3e e2 70 41 bf 52 84 52 3f 8e 29 d5 be
       0.47774506 -0.7556287 0.82233155 -0.41633266
0000a0 df ef 5e 3e 5d 38 38 bf eb 55 b6 be 6b 06 00 3f
       0.21771191 -0.71961004 -0.35612425 0.50009793
0000b0 78 dd a4 be 6b 85 8f bc 93 0f fb 3e 6a 03 2f 3f
       -0.32200217 -0.017519673 0.4903532 0.68364584
0000c0 f5 9e 14 3e 7a dd 00 3f 46 3c 14 3f f6 90 9c be
       0.14513762 0.50337946 0.5790447 -0.30579346
0000d0 bd d3 ab bd db d2 e1 bd ea 89 ab be 84 11 f9 be
       -0.08389995 -0.110265456 -0.33503658 -0.48646176
0000e0 bc 0f 89 be 29 4e 21 bf 6f 4d f3 be e6 4b 2d bf
       -0.26769817 -0.6300989 -0.47520015 -0.67693937
0000f0 cb 5d d6 bd 40 f4 be 3e f0 76 34 3e 97 cc da be
       -0.10467108 0.37295723 0.17623496 -0.42734215
000100 a0 7e 3b 3f df fe 02 3e 7a ee a2 3e e9 6f 0b 3e
       0.7324009 0.12792538 0.31822568 0.13616909
000110 48 2d 09 3f 63 a3 2c bf 7e 44 1a bf f5 ed b3 bd
       0.5358472 -0.6743681 -0.6026076 -0.08785621
000120 12 20 ad be 36 a4 76 be af 97 ac 3e 97 32 58 3e
       -0.3381353 -0.24086079 0.33709475 0.21113048
000130 73 96 e4 be 0f 27 20 bf b5 72 15 3f ac d9 1d bf
       -0.44646034 -0.625596 0.58378154 -0.61660266
000140 27 ae cd be 35 d8 97 be 6f ee f0 3e 2f 23 47 3e
       -0.4017193 -0.2965714 0.4705691 0.19447015
000150 b2 95 a6 3d b9 31 c8 be 8b fe a0 3e 57 ed 13 bf
       0.08134021 -0.39100435 0.314442 -0.57784027
000160 99 ae ef 3d 26 27 b7 3e 21 d6 68 bd f6 1d 9b bd
       0.11703224 0.35772055 -0.056844834 -0.07574074
000170 62 d0 35 3e 3b 28 51 3f f2 57 74 3e dd cd dd 3d
       0.17755273 0.8170201 0.23861673 0.10830281
000180 15 25 56 bd 03 21 dd bd c0 cd 4d 3f e4 47 3f bd
       -0.052281458 -0.10797312 0.80392075 -0.04669942
000190 e2 a9 22 3f fe 17 fb 3e eb c2 54 3e 82 35 56 3b
       0.6354047 0.49041742 0.2077748 0.0032685702
0001a0 eb ac 7a be bf 00 0a 3e f8 df 34 3f 0a 10 e2 3c
       -0.24480025 0.13476847 0.7065425 0.027595539
0001b0 01 fc 4d 3f c2 ec 29 bf d2 2a 9c 3e 6e 7c 23 3e
       0.8046265 -0.6637689 0.3050142 0.15965435
0001c0 95 70 8e bd 19 83 38 3e 08 b4 9d 3e bc db 99 be
       -0.06955067 0.1801876 0.30801415 -0.30050457
0001d0 1c b9 5a 3f 6f 8e a3 3e 08 88 da be a4 09 0a bc
       0.85438704 0.31944606 -0.4268191 -0.00842515
0001e0 86 96 4f 3d 71 07 62 3d 7a 4c 48 3f 8d 5c 23 3f
       0.05068066 0.055182878 0.78241694 0.63813096
0001f0 b3 6f d4 3e 4a f5 2f bf b1 1e 18 3f 81 37 ac be
       0.4149147 -0.68733656 0.5942183 -0.33636096
000200 0b ae e7 be 25 ec 3c 3f 2a eb 4e bd 63 82 4f bf
       -0.45249972 0.7379783 -0.05051724 -0.8105833
000210 ac 48 27 3f 50 92 34 bf ee 86 cd 3e 5f d9 f8 be
       0.65345263 -0.70535755 0.40142006 -0.4860334
000220 33 b8 ff be 1a 91 c5 be 00 c2 3a 3e 4b 74 d5 3e
       -0.4994522 -0.38587266 0.18238068 0.41690287
000230 67 e2 ab 3d e4 ea 90 3d e3 b1 37 3f c6 0f b4 3e
       0.08392792 0.07076052 0.7175581 0.35168284
000240 ad 96 6f be fe ed 1c bf 9b 19 3f 3f 72 c0 3a 3f
       -0.23397322 -0.6130065 0.74648446 0.729499
000250 a7 c7 08 bf e6 78 a7 be 7e e8 33 3e e1 17 45 3f
       -0.53429645 -0.32709426 0.17569157 0.7698956
000260 fd 9f b9 3e 4c 41 3f bf 3a 77 2b 3f 86 a6 71 be
       0.36254874 -0.7470901 0.669788 -0.2359868
000270 70 8b 3a bf f7 04 98 3d 65 be 2b 3f 6a 25 40 3e
       -0.72869015 0.07422822 0.67087394 0.18764272
000280 a9 02 42 be 2f 51 13 be e0 46 8b be ff fc a0 3e
       -0.18946327 -0.14386438 -0.2720251 0.3144302
000290 22 3d 83 3e 67 c9 da 3e 5e 43 c3 be dd d7 0a bf
       0.25632578 0.42731783 -0.38137335 -0.5423563
0002a0 87 9b d3 3c 34 86 0b bd 3d 88 d4 3e 90 e0 2c bf
       0.025830997 -0.034063533 0.41510192 -0.67530155
0002b0 f5 f3 a9 be dd 52 b5 3e ab 7a 7c 3f 7a 4a d6 3e
       -0.33193937 0.35414782 0.98624676 0.41853696
0002c0 04 f4 59 be 01 a8 93 3c 39 d7 85 3e b2 75 a1 3e
       -0.21284491 0.018024446 0.26140764 0.31535107
0002d0 f7 26 3c bf 8f 45 e2 3e 8e 19 37 bf b5 63 07 3f
       -0.73496956 0.44193694 -0.7152337 0.52886516
0002e0 08 3f 53 3f 51 45 03 bf f8 69 c0 3e b3 fd 2c 3f
       0.82518053 -0.51277643 0.37580848 0.67574614
0002f0 4d 7e dd 3e 6c f0 a8 be a3 e5 34 3f 64 9e c7 be
       0.43260422 -0.32995927 0.706629 -0.3898803
000300 b7 0d ff 3d 29 f6 b7 3d 18 66 f4 3e 85 cd 02 3f
       0.12453788 0.08982498 0.4773414 0.5109485
000310 6a 44 7c be 7d ac 42 3e 40 0f 26 3f 69 f6 e1 be
       -0.24635473 0.19011112 0.6486702 -0.4413331
000320 de 5b 6c be 75 4d de be e0 e8 3b bf 28 2c c9 3e
       -0.2308192 -0.4341847 -0.73402214 0.392915
000330 89 7d 60 bd eb e6 8a 3e 93 8c 0c 3f a2 85 19 bf
       -0.05480722 0.271293 0.54902 -0.5996953
000340 97 3a aa bb 3d fe 01 3f 14 d1 d3 3e 1e 11 fc be
       -0.0051949727 0.5077856 0.4137045 -0.4923181
000350 fe 0f ff 3e 0b ae ac be 1f 5d 2b bd dd 92 97 be
       0.4981689 -0.33726534 -0.041836854 -0.29604235
000360 f3 62 04 3f 1e 15 21 bf e8 0b 48 3e 09 7b 26 bf
       0.51713485 -0.6292285 0.19535792 -0.65031487
000370 8d 87 90 3c 62 71 64 3f 2c 3e 5d 3e ab 19 da be
       0.01764276 0.8923551 0.21605748 -0.42597708
000380 cc 04 eb be 01 f3 13 bf e9 0a c2 be bd 6e 2e bf
       -0.45902097 -0.5779267 -0.3789895 -0.68137723
000390 98 a5 b2 bd 57 c5 22 3f c1 8b 2e 3e fe 00 3e 3f
       -0.08722991 0.63582367 0.170455 0.74220264
0003a0 c9 f1 dd 3e 0a 58 34 be 4b 1b 97 3e 05 b9 ea 3e
       0.4334853 -0.17611709 0.2951301 0.45844284
0003b0 9f c4 35 3f ef eb 44 bf f5 01 42 3e 58 9d a1 be
       0.71003145 -0.76922506 0.18946059 -0.31565356
0003c0 43 3f b7 be 3b 70 eb 3d a2 ae 97 3e 6f 4f 21 3f
       -0.35790452 0.11496016 0.29625422 0.6301183
0003d0 dc 76 84 be 89 04 52 bf 6b 0c ca be 79 ac 36 be
       -0.25871933 -0.8203817 -0.394626 -0.1783923
0003e0 a5 7a da be 01 ba 07 bf 88 bf 54 3e a1 e3 d2 be
       -0.42671695 -0.53018194 0.20776188 -0.41189292
0003f0 0c 92 93 3e bf 1d 56 3e 6e 12 51 be 24 aa 9c 3e
       0.28822362 0.20909785 -0.20417187 0.30598557

weight f4 [128, 256]
000000 a7 4b f9 3d 12 83 4a bd 46 26 f0 bc 7e be fc bb
       0.12172633 -0.049441405 -0.029315125 -0.007713138
000010 ca 97 5a b9 a5 4b 9c 3c fd 54 72 be b4 03 56 bd
       -0.00020846646 0.019079039 -0.23665233 -0.052249625
000020 65 70 96 3e 17 f2 5d be 25 e8 6f bd f5 5a b2 bc
       0.29382625 -0.21674381 -0.058571 -0.021771887
000030 07 7e 85 3c 18 aa e0 3d 70 d6 9e be 12 4d 00 39
       0.016295446 0.10969943 -0.31022978 0.00012235742
000040 9a 1d e4 bd c7 f2 41 3e b3 05 3f bc f9 4a da 3d
       -0.111384585 0.18940268 -0.011659074 0.10658831
000050 cf 72 1f 3c 6e 2b be 3d 73 a6 a3 bd 44 23 88 bd
       0.009731962 0.09285627 -0.07990732 -0.066473514
000060 de b1 e1 3d 49 d6 da 3d ab 78 a7 bd da 7a 96 bc
       0.110202536 0.10685403 -0.081773125 -0.018369127
000070 67 6d 71 be ed 1a be be df 27 ba bd 6b ae 8a be
       -0.2357689 -0.37129918 -0.09089636 -0.27086195
000080 88 f3 9d bd 33 b2 06 3e 0a 45 f7 bd 02 e4 0c 3e
       -0.077124655 0.13153915 -0.12073715 0.13758853
000090 6e ed 15 3d 7f 81 db 3d e4 bd eb bd 97 00 33 3d
       0.036603384 0.10718059 -0.11510828 0.043701734
0000a0 cf 20 29 3e db f2 14 3d 54 fe c6 3c ee 0b cd 3c
       0.16516422 0.036364418 0.024291195 0.025030103
0000b0 c9 38 65 3d 9f db c8 3d f8 2e 02 bd c6 b4 da bd
       0.055962358 0.098075144 -0.031783074 -0.10679011
0000c0 88 5f c5 bc b8 2f 6d bd 07 46 04 be e7 49 13 be
       -0.024093404 -0.057906836 -0.12917338 -0.1438366
0000d0 90 68 77 bd 95 b0 67 bc c4 70 8e 3e c9 20 ba be
       -0.060402453 -0.0141412215 0.27820408 -0.36353138
0000e0 bf 0e 38 bd 89 33 04 3d 40 3f a5 3c 42 c0 3b 3d
       -0.044935938 0.03227571 0.020171762 0.04583765
0000f0 55 0c 86 bd 56 19 5b be cb c8 b6 3c a1 bd dd 3d
       -0.06545321 -0.21396384 0.022312542 0.108271845
000100 2d 71 f6 bd 67 68 8a 3d 5c 9b ec bb 5f 8e dc bc
       -0.12033305 0.067581944 -0.0072206687 -0.026923357
000110 45 01 9f bc 53 bf 9b 3d 8a d1 99 3d 4f 54 5c be
       -0.019409785 0.076048516 0.075106695 -0.21516536
000120 cd c1 a4 3d ec 17 a8 bd c2 2f 80 bd 25 e0 2a bd
       0.08044777 -0.08207688 -0.06259109 -0.041717667
000130 e1 94 19 be ae 92 64 3d 3c b7 be be 19 f0 83 3d
       -0.14998199 0.055803947 -0.37249172 0.06442279
000140 df c9 5c bd 92 dd 28 3d 64 1b e4 3c d5 5f f2 3d
       -0.053903457 0.04122693 0.027845092 0.11834685
000150 58 43 16 3d 27 30 43 3e 29 4f f5 bd a3 f4 d5 bc
       0.036685318 0.19061337 -0.11977989 -0.026117628
000160 13 ee 78 bd dc 0d 62 3c ee 96 66 3e c4 73 ba 3d
       -0.06077392 0.01379725 0.22518513 0.09104112
000170 71 40 ac bd 7e 45 c3 bd 0b 4c 88 3d e2 d1 8c bc
       -0.08410729 -0.09534739 0.06655129 -0.017189924
000180 80 15 cb 3d 49 53 4f 3d 26 b8 1f bd 01 48 16 be
       0.0991621 0.050616536 -0.038993977 -0.14675905
000190 32 13 37 3d 71 b1 9f be dc 2e 0e bd 6e 11 10 be
       0.04469604 -0.31190065 -0.034712657 -0.14069149
0001a0 23 29 8f 3d a3 de 60 3d fb e4 f6 bc 5e 48 63 3b
       0.06990268 0.054899823 -0.030138483 0.0034680585
0001b0 32 9a 22 bd 06 5c 19 3e 16 3a 9d 3e 87 27 98 3e
       -0.039697833 0.1497651 0.3070838 0.29717657
0001c0 65 e0 5c 3d 36 e2 b6 bd f1 37 53 3d 77 dc d6 3d
       0.053924937 -0.08929865 0.05156702 0.10491269
0001d0 9f a9 2b bc 60 51 b5 bb 63 29 38 3e 7a 25 bd 3d
       -0.010477453 -0.0055333823 0.17984538 0.09235664
0001e0 35 c9 26 3d ec d4 b2 3c f5 90 7f 3d 36 79 2f 3c
       0.04071923 0.021830045 0.0623941 0.010710051
0001f0 a4 9b ab 3a 62 80 9a 3d b6 50 1c bd d8 bf d2 bc
       0.0013092649 0.07544018 -0.03816291 -0.025726244
000200 91 a8 0f bc 0e ce 9e be b8 ad 92 3d ec f8 a6 bc
       -0.008768217 -0.31016582 0.071620405 -0.020382367
000210 69 0e 24 3e 73 f8 ab 3d 65 9a b2 bc 0e 14 27 bc
       0.16021122 0.08396997 -0.021802137 -0.0101976525
000220 b7 01 d8 3e f3 dd 08 3d 64 ce 41 3b ba dc b4 bc
       0.42188808 0.033414792 0.0029572481 -0.022077907
000230 32 b6 7e 3d 01 4b 2e 3d c9 c9 7e bc 80 53 e9 bb
       0.062185474 0.042551998 -0.015551039 -0.0071205497
000240 b4 db 27 3e 3c b7 79 3d cc 06 82 be 85 05 a4 be
       0.16392404 0.06096576 -0.2539581 -0.3203546
000250 2d 57 81 3e 7e db 8d bc 85 92 99 bd b0 22 a3 bd
       0.25261822 -0.017316576 -0.074986495 -0.079656005
000260 dc 8b 2b be 8c 29 91 3e d4 63 58 3c 94 6f 9f bd
       -0.16752571 0.2835201 0.013207395 -0.07784954
000270 02 e3 b9 3b b0 b2 4d ba 0d f5 65 bd 85 39 ff 3d
       0.0056728134 -0.0007846756 -0.0561419 0.12462143
000280 45 84 fb 3c 6c 4e 8a bb 0a 22 84 bd d8 37 66 bd
       0.03070272 -0.0042207744 -0.06451805 -0.0562056
000290 22 80 76 be d2 7c 1d 3c 47 fe 09 bd 39 e8 9b 3c
       -0.24072316 0.009612279 -0.033689763 0.01903163
0002a0 dd 40 2f 3d ce 35 17 bd 19 e9 ae bd c2 46 6a 3c
       0.042786468 -0.036916547 -0.085405536 0.014299097
0002b0 11 51 b2 bd 6d 0b 99 bd 0b a5 5d bd 54 d5 07 bd
       -0.087068684 -0.074728824 -0.054112475 -0.03316243
0002c0 4d a1 84 bd 61 79 b4 3d df ff 80 be 32 ad ac bc
       -0.06476078 0.08812214 -0.25195214 -0.02107868
0002d0 28 80 65 3e a9 7f 22 bb 95 cb 2c bd ce bd d6 bc
       0.22412169 -0.002479533 -0.04218634 -0.026213553
0002e0 1c f4 75 bd ed c8 8d bd c3 ca 6c bd 11 e8 cd be
       -0.060047254 -0.06923089 -0.057810556 -0.40216115
0002f0 74 84 94 3c 70 26 99 3d 4a 10 9d be 1d 33 5a 3b
       0.018129565 0.074780345 -0.3067649 0.0033294626
000300 b1 74 14 bb b1 90 9d 3d 44 7b db bd 24 b0 1b bd
       -0.0022652561 0.07693613 -0.107168704 -0.038009778
000310 55 40 f5 3d 67 d3 71 bd 1c b8 af bd 34 43 24 3e
       0.11975161 -0.0590395 -0.08580038 0.16041261
000320 af dc 83 3e 74 0c 91 be 10 de 9c 3c 9a ff 1d bd
       0.25754306 -0.28329813 0.019148856 -0.03857384
000330 a9 a8 aa bd cb 1d 57 bd d8 d5 72 3d 8f 39 7b 3d
       -0.083329506 -0.052518647 0.05928597 0.06133419
000340 51 2d 3b 3c d9 51 97 bd d1 09 90 be d0 7b c3 3d
       0.0114243785 -0.07388658 -0.2813249 0.095451
000350 35 26 70 bd b0 f3 37 bd 33 99 7c 3c 47 a9 c5 bd
       -0.058630187 -0.044910133 0.015417385 -0.09651428
000360 5a 25 38 3d ca f6 7e 3d 29 d0 18 3d e6 4a a6 3e
       0.044957496 0.062247075 0.037307892 0.32479018
000370 60 3b 15 bc 39 80 c3 3c e4 3f 17 3d 36 7a ee bd
       -0.009108394 0.023864852 0.036926165 -0.11644404
000380 c1 97 66 3c 15 24 b7 3b db ce 84 3d 7d b1 4d bd
       0.014074267 0.005589018 0.06484767 -0.050218094
000390 24 49 d1 3c 42 77 bb be 96 79 76 3d 52 88 5b bd
       0.025547571 -0.36614424 0.060174547 -0.053596802
0003a0 96 de 96 bc 86 9c 17 be 27 9e 52 3d 72 ac e8 3c
       -0.018416684 -0.14805803 0.051420357 0.02840254
0003b0 df 33 05 be a8 be ad 3d 36 e4 03 be 10 87 2a 3d
       -0.13008069 0.084836304 -0.12880024 0.041632712
0003c0 7a 0d 4a 3c b5 d3 5c bd 65 b3 b2 bd b6 d1 40 3d
       0.012332315 -0.053912837 -0.08725623 0.047074996
0003d0 5f 5e ef 3c 35 05 6f bc 55 7a 92 3d ee b8 38 bd
       0.029219804 -0.014588644 0.07152239 -0.045098238
0003e0 6c 89 87 3e f2 37 f1 bc e1 27 92 3d a9 29 fd 3c
       0.26472032 -0.029445622 0.071365125 0.030903654
0003f0 9e 3d 14 be d6 3a f8 3c fb 0d 18 be e5 94 c3 bd
       -0.1447663 0.030301493 -0.14849083 -0.09549884

bias f4 [128]
000000 18 44 2e 3a f0 70 4b 3d 5b dd b4 3d 6c b1 b3 bd
       0.000664772 0.049668252 0.08831283 -0.08774075
000010 ea 9e 07 3e 1a d6 ac bd 0a 52 8d 3c b3 c1 ea 3c
       0.13244215 -0.08439274 0.017251033 0.028656816
000020 e8 73 7c bc 4b 79 20 bd 1f 76 2b bc 0e 80 23 bc
       -0.015408494 -0.039178174 -0.010465174 -0.009979261
000030 ae 09 bd bd 10 dd 35 3c 5b 0e 53 3c 70 a0 8e 3c
       -0.09230362 0.011100069 0.012881841 0.017410487
000040 32 3a f6 bc 95 a8 3e 3c fe 5b 80 bd 14 8a 35 3d
       -0.030057047 0.011636873 -0.06267546 0.044321135
000050 0b 59 19 be bb 8f 8c 3d 3c 3e 43 bd 4b 84 a2 3d
       -0.14975373 0.06863352 -0.047666773 0.07935389
000060 d8 8a df bd 8c fa a4 3c f6 28 29 3d 02 d4 7f 3c
       -0.10915154 0.020139001 0.04129883 0.015614511
000070 cc 2d a2 bd 22 d5 29 bb f1 e3 3b 3d cd 53 a4 ba
       -0.07918891 -0.002591439 0.04587168 -0.0012537182
000080 8e d7 92 bd 21 c4 22 3b 1d 64 85 bd bd c8 13 3c
       -0.0717002 0.002483614 -0.06513236 0.009020028
000090 42 66 9f bc 14 85 c3 bd d9 2d 55 bd 6a 55 23 ba
       -0.01945794 -0.09546867 -0.052045677 -0.0006230684
0000a0 ee f9 d6 bc ac 8b f1 3a 1b 48 f9 bb d7 57 92 bd
       -0.026242223 0.0018428466 -0.0076074726 -0.0714566
0000b0 c4 45 5d 3d 60 3a a6 3d 60 ce 0c 3d f4 3e 3a bd
       0.05402161 0.08116603 0.034376502 -0.045470193
0000c0 ef 19 56 bd d7 46 8d bd f1 85 3b 3d 33 ab a7 bd
       -0.052270826 -0.06898277 0.045782033 -0.081869505
0000d0 52 cc 6c 3c c3 2e c3 3d 0d d1 a4 bd 76 93 c1 bc
       0.014453011 0.095304035 -0.08047686 -0.023629885
0000e0 f9 e6 3e bd df f6 38 3c 76 10 1c 3c 6f b7 67 3d
       -0.04660699 0.011289327 0.009525409 0.05657142
0000f0 e5 a5 bb bc ea a1 71 bc 4c 7f 18 3d 16 bb be 3c
       -0.022906253 -0.014748076 0.037230775 0.023282569
000100 0e 40 dc bd 6a a4 2d 3d 6c ba 09 bd 3f 1c 5e bd
       -0.10754405 0.042393126 -0.03362505 -0.054226156
000110 a7 86 52 bd 8b 2e 35 bc c1 6f 72 3d 39 3f a8 3d
       -0.051397946 -0.01105846 0.059188608 0.08215184
000120 60 46 0b 3d 52 b8 4c 3d a9 23 24 bd 54 07 17 bc
       0.03400266 0.04998047 -0.04007307 -0.009218056
000130 f0 aa c9 bc b9 dc d3 bd a1 42 a3 bc dd 3c e5 3d
       -0.024617642 -0.10344834 -0.019929232 0.111932494
000140 2b 4d 36 bd c5 0f 51 bc e5 49 1d 3d 12 28 8f bd
       -0.044507187 -0.012760107 0.03840055 -0.06990065
000150 f4 0c 6e 3c 92 50 54 bd 66 22 88 3d 97 6a 70 3c
       0.014529455 -0.05183465 0.06647186 0.0146738505
000160 7b 48 37 3c 7b 4e a1 3d f5 56 92 3b 2f 61 98 3d
       0.011186714 0.07876297 0.0044659325 0.07440411
000170 58 92 7e 3d a7 aa 41 bc be 7a 9e 3a 0e fd 44 bd
       0.062151283 -0.011820472 0.0012091023 -0.048092894
000180 b7 44 b9 bd 55 55 bd bd 2d 6b ed 3b b0 87 b0 bc
       -0.090463094 -0.092447914 0.0072454424 -0.021549076
000190 fc bd 25 bd 5f 52 63 bd fa 67 f3 bd 64 d3 ff bd
       -0.040464386 -0.055498477 -0.11885066 -0.124914914
0001a0 9c 1e a1 3d 61 21 1c bd a6 55 f9 3d 9c b5 82 3c
       0.078671664 -0.03811777 0.12174539 0.015955739
0001b0 9a 47 d7 bd f3 77 5e bd 1b 7d 1b 3d c4 1b bd 3d
       -0.10511704 -0.05431361 0.037961107 0.092338115
0001c0 37 ac e9 3c 53 7b 6d 3d d0 ea ed 3c 4f d9 da 3c
       0.028524501 0.05797894 0.029042631 0.026714949
0001d0 ed 3c 9d bd 89 17 4b 3d 49 32 39 3d ff 5f c6 3c
       -0.07677636 0.04958299 0.04521397 0.024215696
0001e0 5f 5d cc 3d da 43 9e 3d 45 d6 20 3c 2a b2 79 3d
       0.099787466 0.077277854 0.009816711 0.060960926
0001f0 4f 61 6e bd 4f 45 6d bc 82 dd 97 3d 9f 43 f3 3c
       -0.05819827 -0.0144818565 0.07415296 0.02969533

weight f4 [64, 128]
000000 17 16 72 3d 59 78 63 bd c2 36 f3 bd 89 eb 3d 3c
       0.059103098 -0.055534694 -0.118756786 0.0115918005
000010 0b 32 f1 bd 6d b2 65 3d 8e a4 f0 bc eb bd d7 bd
       -0.11777123 0.056078363 -0.02937534 -0.10534271
000020 8a 04 99 3d 38 77 1a 3e 48 3e 92 3c f4 61 1f 3b
       0.07471569 0.15084541 0.017851964 0.002431986
000030 8b 2a a7 3a d9 99 69 bd 74 b5 a5 bc 3d 1b 64 bd
       0.0012753768 -0.057031486 -0.020228125 -0.05569004
000040 7b ad 10 3d 27 32 41 3d fd 1d 8e 3d f8 1e ad 3a
       0.035321694 0.04716697 0.069393136 0.0013208082
000050 10 d1 ae 3d 11 7d 49 bd c2 ec 10 bd 32 c8 8f bd
       0.08535969 -0.04919154 -0.03538204 -0.07020606
000060 50 4d 38 3d b1 0a 30 bc 89 b7 85 bb c9 a2 86 3d
       0.044995606 -0.0107447365 -0.004080717 0.065740176
000070 f5 64 8e 3c 9f ae 76 be 23 12 17 3d 7c ec 71 bc
       0.017382124 -0.2409005 0.03688253 -0.014765855
000080 51 ca 03 bd 64 0b 05 3d c6 c5 38 3d 3f c6 61 3c
       -0.032175366 0.032481566 0.045110486 0.013780176
000090 aa 27 6e 3e 36 62 0c 3e c9 4b 96 bd 8e 62 6e 3d
       0.23257318 0.1370934 -0.073386736 0.058199458
0000a0 e0 e8 ec 3e 5e 56 27 bd bc 99 f6 bd 2c 3a 15 3e
       0.4627142 -0.04085385 -0.12041041 0.14572972
0000b0 c5 4e 88 be c8 53 12 be f6 86 6b be 52 bf 1f 3b
       -0.26622596 -0.14289773 -0.23000702 0.002437551
0000c0 ef a0 64 3d 3a 42 25 bc 68 6c 7a 3d ca 16 9d 3e
       0.05581754 -0.01008659 0.06113854 0.3068145
0000d0 4b 4a 45 3b 51 c5 d1 be 21 d6 c7 3d ac a9 90 bb
       0.0030104097 -0.40970853 0.09757639 -0.0044147577
0000e0 37 24 37 3e 87 f8 c8 bc da dd 74 3c 42 18 51 bd
       0.17884909 -0.02453257 0.014945472 -0.051048525
0000f0 06 d0 df bd e1 69 aa be 7b b6 1d b9 c0 18 f4 3b
       -0.10928349 -0.33283904 -0.00015040666 0.0074492395
000100 f9 31 27 bd c4 33 bf 3d 38 02 80 3b 74 51 20 3d
       -0.040819142 0.093360454 0.0039065145 0.03914018
000110 a2 1e 77 be 52 92 0b bc 93 29 4d 3d cd a4 1f 3d
       -0.24132779 -0.008518772 0.050088476 0.038975526
000120 a3 8e 98 3d 79 75 05 be f8 b8 a6 3b 02 08 63 bc
       0.07449081 -0.13033094 0.005087968 -0.01385689
000130 1c e9 49 3d b5 1b 8e 3d dc 7c a6 3a fe 5d 70 3c
       0.049294576 0.069388784 0.0012702006 0.014670847
000140 46 ff cc 3b 7b 0a 28 3c 31 dc 10 be fa 3f 05 3d
       0.006256017 0.010256405 -0.14146496 0.032531716
000150 66 e5 c5 bd ec b1 c7 3e 39 5b f8 3a 2c 42 6e be
       -0.09662895 0.3900293 0.0018948085 -0.2326743
000160 ae 38 78 3c ef 6d 5f bc 83 c2 d5 3d a8 de 26 3d
       0.015150232 -0.01363705 0.10437491 0.040739685
000170 23 f0 3c 3d 73 b5 e7 bc 9c cc 84 3b 4f c4 5f 3d
       0.04612745 -0.028284764 0.0040527117 0.054630574
000180 e8 e5 0e 3e e9 4f cc 3c d0 fa 05 be a4 42 98 be
       0.1395489 0.024940448 -0.13083959 -0.29738343
000190 13 d0 b2 3c f8 9e 66 3b 89 a5 79 3d d5 bc 38 3e
       0.021827733 0.0035189968 0.060948882 0.18040784
0001a0 8b 7f dc be 5e 98 e8 3e 4b 5f 0a 3d bc 9a 1b 3d
       -0.43066058 0.45428747 0.033782285 0.037989363
0001b0 1e 00 27 3e 68 ed 2b bc 90 3f fe 3c 55 28 55 3d
       0.16308638 -0.010493614 0.031036168 0.052040417
0001c0 be 53 76 bd a3 b7 1e be 40 45 f0 3c 7f 3e b3 3c
       -0.060138457 -0.1549974 0.029329896 0.021880386
0001d0 87 f1 c5 3d ce 7f 31 bd 06 2f 86 bd 78 1d ae 3e
       0.09665208 -0.043334775 -0.06551938 0.34006858
0001e0 02 a8 aa bd ad 57 d9 be bf e3 c2 bd e6 51 ad bd
       -0.08332826 -0.42449704 -0.09516095 -0.084628865
0001f0 27 bb 54 3d a7 80 37 bb 68 82 eb bc 8e f1 84 bd
       0.051936295 -0.0028000267 -0.028748706 -0.064913854
000200 9d 15 c8 bd 08 03 d0 bc 26 e1 ee bc ce d9 91 bd
       -0.097697474 -0.02539207 -0.029160094 -0.07121621
000210 db b7 b2 bc 0d ee cb 3c 2a 8e 0a be fa ea d9 bd
       -0.021816185 0.024893785 -0.13530794 -0.10640521
000220 15 ea 5e 3e e4 9d 9e 3d c2 ff 19 bd 0e 01 62 be
       0.21768983 0.07744959 -0.037597425 -0.22070715
000230 bb 45 6f bd a6 9e 2f 3c 3b be 39 3d a5 0a 47 3d
       -0.05841611 0.010718977 0.045347434 0.048594136
000240 be bb 75 be 4a 3d 2b 3c d0 f1 04 3e c2 5e c4 3d
       -0.23997399 0.010451624 0.12982869 0.09588386
000250 8a d6 61 3d 17 60 a9 3d 21 4e bf 3d 43 6c 00 3e
       0.05513624 0.08270281 0.09341074 0.12541299
000260 57 9e f9 bd 3b a8 af be dd b1 a4 3d 3a 8d 17 bd
       -0.12188404 -0.34308037 0.08041737 -0.03699992
000270 70 f6 e1 bd e6 d5 cc bc ca 6e 20 3d 32 6a 87 bc
       -0.11033332 -0.025004338 0.039168157 -0.01653013
000280 9c ff 00 be 29 b4 b8 bd e3 ce 08 bd 50 cc 99 bd
       -0.12597507 -0.09018738 -0.033400428 -0.07509673
000290 8d 7f 9a bd d4 3b 7b 3d 9c 30 0a be de 64 9b 3e
       -0.0754386 0.061336353 -0.13495106 0.30350393
0002a0 15 50 85 bd 53 d4 2f 3e 9b cd 24 bd 81 96 6e 3d
       -0.06509415 0.17170839 -0.040235143 0.058249
0002b0 7b 06 2e bd d4 0f a8 3b 4a ff b3 bc b0 33 91 3d
       -0.04248665 0.00512884 -0.021972317 0.07089937
0002c0 01 6f 6b be dd 57 b2 3d be 37 2e 3e 99 d5 51 3d
       -0.22991563 0.08708165 0.17013451 0.051229093
0002d0 53 d9 3a bd 47 70 8c 3d f5 54 0b be d6 6c 95 bd
       -0.045617413 0.06857353 -0.13606627 -0.072961494
0002e0 00 b5 2a 3d 0c 94 08 3e d4 15 47 be 5f 43 87 bd
       0.04167652 0.13337725 -0.1944192 -0.06604647
0002f0 00 92 03 3d 46 cf 34 3d fb 1e 82 3e 87 26 4d bd
       0.03212166 0.044142984 0.2541426 -0.05008557
000300 32 ca ac bd fb 92 c3 3d 5a d4 b9 bd a3 a7 c8 3c
       -0.08437003 0.09549519 -0.09073706 0.024493998
000310 db af 84 3d a7 86 1a be f6 3b c2 3e 84 dc 17 bb
       0.06478854 -0.15090428 0.37936372 -0.002317221
000320 b3 05 23 3e 56 20 42 bd 08 1c 0a bd 81 ca d9 bd
       0.15920143 -0.04739412 -0.03371814 -0.10634328
000330 64 6a af bd 16 b4 40 bb 1c aa 55 bd 08 cc 92 3d
       -0.08565214 -0.0029404215 -0.052164182 0.07167822
000340 d5 c8 41 be f0 ed 1f 3d 71 25 25 bd 44 ca 5e 3d
       -0.18924268 0.039045274 -0.04031891 0.054392114
000350 5b 8e 9a 3d 3b 49 f4 bc 1c e3 52 3c 36 7e d2 3a
       0.075466834 -0.029820075 0.01287153 0.0016059342
000360 9d 6f 10 be 55 2a 23 bc e3 c0 2c bd 7d ee cd 3c
       -0.14105077 -0.009958823 -0.04217614 0.025138134
000370 e2 44 1c 3d 7e 1d 55 bd d0 62 c4 bd 73 64 ab 3b
       0.03815163 -0.05203008 -0.095891595 0.0052304803
000380 84 df 34 bd 0b 70 9d bd 44 3f af 3d aa f5 1b bd
       -0.044158474 -0.07687386 0.08556989 -0.03807608
000390 d4 74 21 bd a6 c2 ae bd dd 95 0d be 0e 0e f5 bc
       -0.039418057 -0.0853322 -0.138267 -0.029913928
0003a0 28 61 56 3c 87 09 39 bd b6 21 6a 3c 0e 21 ca 3d
       0.013084687 -0.0451751 0.014290264 0.09869586
0003b0 1d 56 d5 3c b8 71 17 be e1 a5 44 be 59 23 10 bc
       0.026042039 -0.14789474 -0.19203903 -0.00879749
0003c0 c5 73 11 3e e1 77 83 bd a5 df ab 3d 08 8a c6 3d
       0.14204319 -0.064193495 0.08392266 0.09694296
0003d0 a7 9e 70 3d 65 ae 44 be 9c ec 0c 3e ef d4 1f 3d
       0.058745053 -0.19207151 0.13762134 0.03902143
0003e0 d4 c9 ee 3b d0 9f d7 b7 08 98 38 be 28 71 9e 3d
       0.0072872434 -2.5704416e-05 -0.18026745 0.077364266
0003f0 fc b3 5d be 72 37 90 bd 1d de 6c 3d 45 b1 27 be
       -0.2165069 -0.07041825 0.05782901 -0.16376217

bias f4 [64]
000000 9b ad 87 3d 6e 88 d4 3c 37 4e e4 3d 4c 14 bb bd
       0.066249095 0.025943961 0.11147731 -0.09134731
000010 98 b0 e2 bc 3b 4b ec bc 9f 61 88 bd f8 b7 83 3d
       -0.027672097 -0.028844466 -0.06659245 0.06431574
000020 de 0b 81 ba 87 99 d3 bd 96 a9 ae 3c 0d b9 67 3d
       -0.0009845456 -0.103320174 0.0213211 0.056572963
000030 8d 8c da bd fd c4 3d bd 87 1b 82 bd dc dd 6e 3d
       -0.10671339 -0.04633044 -0.06352907 0.05831705
000040 cf 84 1a 3d 74 ab a9 3d f1 25 71 bc 1d eb fb bd
       0.037724312 0.08284655 -0.014718519 -0.12300704
000050 35 42 63 3c b6 0d 02 bd cd 62 04 3d 73 b2 a5 bb
       0.013870765 -0.031751357 0.032320786 -0.005056673
000060 02 76 e8 3d d9 e3 4a 3c b9 5a f9 bd 5b 3a c5 ba
       0.11350633 0.012383425 -0.12175507 -0.0015047299
000070 71 7c b3 bd e3 f9 13 3c f0 d8 a7 3c f4 66 4d 3c
       -0.0876397 0.009031746 0.020489186 0.012536753
000080 e5 90 a6 3b d3 61 33 bd b3 5f a6 bd 3c 16 06 3d
       0.0050831907 -0.043794464 -0.08123722 0.032736048
000090 c8 57 5d 3d 9c 95 77 bd 20 c1 07 ba e3 67 83 3c
       0.054038793 -0.060445413 -0.0005178619 0.016040748
0000a0 d3 5c 1e bc 16 5d 2e bd 5d 3b c8 3d 89 05 61 bd
       -0.009665686 -0.042569242 0.09776948 -0.05493692
0000b0 0d e1 cb bd c8 98 72 3d 0c 96 be 3d af 4f 7c 3d
       -0.099550344 0.059227735 0.09305963 0.06159943
0000c0 9a fa d2 bd 1c 2a e3 bb e6 1a d2 3d 19 03 12 bd
       -0.10301705 -0.00693251 0.10259037 -0.035647485
0000d0 b8 fb 5d 3c b1 35 73 bd c1 b9 55 bc 52 4e 82 3d
       0.013548784 -0.059377376 -0.013044775 0.06362595
0000e0 f5 5e 9c 3d 23 88 85 3c ed 9f 8d 3d 31 67 bf 3d
       0.07635299 0.016300267 0.06915269 0.09345854
0000f0 91 44 c9 bd 8c c1 18 3e 11 b5 1e bb 97 5f da 3d
       -0.09827531 0.14917582 -0.002421681 0.106627636

weight f4 [32, 64]
000000 84 8c 46 3c 8d 7c 8f be 52 00 94 bd 4b 8b 43 3e
       0.0121184625 -0.28024712 -0.072266236 0.19096105
000010 8c 52 c1 3d 4a 73 87 3d b7 ed dc bd 40 33 f8 3d
       0.09439573 0.066137865 -0.10787528 0.1211915
000020 81 5a d6 3c ab ad 44 3c 82 43 6e bc 02 eb ab 3d
       0.026166203 0.012004296 -0.014542462 0.083944336
000030 a8 73 40 bd bd 9a f0 3c e9 a6 13 3e 05 fc 82 bd
       -0.0469853 0.02937066 0.1441914 -0.06395725
000040 71 c5 a9 3c 40 49 71 bc be 8e 62 3c ce d8 09 bd
       0.02072403 -0.014726937 0.013827978 -0.033654027
000050 e1 2c 83 3d 81 7e c2 3d 88 58 69 bd 81 60 38 bd
       0.06405044 0.09496785 -0.056969196 -0.04501391
000060 31 ed a2 3d 96 ef c6 ba e1 ff 03 3e 8c ff 1a 3e
       0.07955397 -0.0015177603 0.12890579 0.15136546
000070 83 f5 16 bc 51 2d 32 bd 06 34 0b be 48 21 33 be
       -0.009213808 -0.04350025 -0.13594064 -0.17493165
000080 96 1e 6e 3d 15 9d 01 be 38 b6 40 bd ef 08 8b bd
       0.058134638 -0.12657578 -0.047048777 -0.06788813
000090 c1 2a 85 3d dd 60 4b 3e b2 59 04 3c 1d 80 57 3d
       0.06502295 0.19861169 0.008078026 0.052612413
0000a0 c2 78 41 be 1c 4e d1 bd 9a 41 43 be 55 6e 28 be
       -0.18893722 -0.10219976 -0.19067994 -0.16448338
0000b0 a7 bc ca 3d 28 02 74 3e 91 92 78 3d 9d 9b fd bd
       0.09899264 0.23828948 0.06068665 -0.123831965
0000c0 bc 4f 29 bc f3 b4 f0 3d 4d bc 59 bb fa b8 3e 3d
       -0.010333952 0.11753263 -0.0033223808 0.046563126
0000d0 6e f4 e2 bd 00 b8 41 3d 67 5b fd 3d c2 a4 7f 3d
       -0.110817775 0.047294617 0.12370949 0.062412985
0000e0 6a 79 7e 3d 7b 2b 16 3e 89 14 46 be 16 99 4c 3e
       0.06212751 0.14665024 -0.19343771 0.19980273
0000f0 78 2d bf be 09 03 5e 3e c1 1c 81 3d ab 51 63 be
       -0.37339377 0.21680845 0.063043125 -0.22199123
000100 fe 9e 29 3e de be 9c 3d 11 da 00 3e d4 69 93 3d
       0.16564557 0.076535925 0.12583186 0.071979195
000110 30 ea a6 3d 6d 3c b0 3c 86 9e 02 3d a1 a8 2e bd
       0.081501365 0.021513188 0.03188946 -0.042641286
000120 bf 31 86 3d 54 2b 4a bd 23 02 02 3e 3d e7 12 3e
       0.06552457 -0.049357727 0.12696128 0.14346023
000130 09 42 92 be b2 d4 d8 bd 8e 0e a4 bd 8b 79 2e 3e
       -0.28566006 -0.105874434 -0.080105886 0.17038552
000140 c7 7f 4a bd 01 49 0c be fe 92 cf bd 94 15 d6 bd
       -0.049438264 -0.13699724 -0.101354584 -0.104533345
000150 49 c3 05 be b6 dd d7 bd 25 b9 33 3c f0 93 2f bd
       -0.13062777 -0.10540335 0.010969435 -0.042865694
000160 a8 59 00 bd 07 7c f4 3c cc 3a 91 3a 10 cf 42 be
       -0.031335503 0.029844297 0.0011080145 -0.190243
000170 c2 61 b5 bd 10 a7 e5 3c 16 97 c9 3e a8 bb 0b 3c
       -0.088565364 0.028033763 0.39373082 0.008528627
000180 dd 34 91 bd ac c9 cb 3d 67 5d 86 bd cf 91 70 bd
       -0.07090161 0.09950575 -0.06560784 -0.058732804
000190 78 d1 16 3d db a3 5c bd 97 5f 82 3c e2 cf 15 bc
       0.03682086 -0.053867202 0.015914721 -0.009143801
0001a0 e4 ac ff bd d7 84 95 3d 84 37 10 3e e1 7c d9 3e
       -0.12484148 0.07300728 0.14083678 0.42478088
0001b0 d3 d2 13 3d 66 3f e9 bd 6d 37 bf 3c f3 87 5a bd
       0.03608973 -0.113890454 0.023341859 -0.053352308
0001c0 db 56 ec bd 69 9a c9 bd 3d 6d 3d be a7 23 ad bd
       -0.11540004 -0.098439045 -0.18498702 -0.08454066
0001d0 29 f6 4b 3d b5 b7 17 be e6 56 2f be 72 c2 a9 bc
       0.049795303 -0.14816172 -0.17122993 -0.020722602
0001e0 89 da 34 3e 5a 54 1b bd f3 22 03 3e d8 d7 18 bc
       0.1766149 -0.03792224 0.12806301 -0.009328805
0001f0 ca 27 0d 3f 24 4e ea 3c 02 7d 94 bd 45 b8 62 bd
       0.5513884 0.028601713 -0.07250406 -0.055351514
000200 02 d8 ac be 17 ce 20 bd c7 aa 2e 3c ed fc 87 3b
       -0.3375855 -0.039259043 0.010660834 0.004150024
000210 a4 e6 3a 3e 7a cf 1e 3e 8e 41 53 3d 74 8b 74 3e
       0.18252045 0.15508834 0.05157619 0.23881322
000220 40 83 82 be fa 42 c3 3d 84 d8 70 bd 5a 30 ff 3d
       -0.2549076 0.09534259 -0.058800235 0.12460394
000230 b9 0a c4 3d ef 34 43 bd 0a 5a 27 3d 6a aa 6c bd
       0.09572358 -0.047657903 0.040857352 -0.057779707
000240 fe b8 c5 3d 75 a6 ca 3e a6 a1 bb bd 7d 55 9a 3c
       0.09654425 0.39580122 -0.09161691 0.018839592
000250 c4 00 cd bd 4d c7 6c 3d 59 9b 26 bb ee 7e aa bd
       -0.10009912 0.057807256 -0.0025422184 -0.08324991
000260 d6 14 2c bd b1 6e 97 bd bb 62 99 3d 57 a4 7f 3c
       -0.04201206 -0.073941596 0.074895345 0.0156031465
000270 33 17 f1 bd 01 4e 93 3d 34 b5 91 3d 5d bb ff 3b
       -0.11772003 0.071926124 0.0711464 0.007804318
000280 5d c4 4e 3e 97 7c 14 bd e5 43 5f 3e ad 0b 42 3e
       0.20192094 -0.03625163 0.21803243 0.18949766
000290 fd 05 f1 3d 6f b9 09 3d 02 64 c0 3d 05 a1 74 bc
       0.1176872 0.03362411 0.09394075 -0.014930968
0002a0 bf 72 8e bd f1 8b 4f 3c 96 7d 5d bb aa c7 c0 bd
       -0.0695548 0.012667642 -0.003379678 -0.09413083
0002b0 5b 15 89 bd 7e 77 a9 bc e3 29 4f 3e 6e c7 80 be
       -0.06693526 -0.020686861 0.20230822 -0.25152153
0002c0 a0 0d f9 bb 6c 34 a8 bd 74 ca c3 3b d7 30 64 3e
       -0.007600501 -0.08213124 0.005975062 0.22284256
0002d0 c1 c4 3b be 72 63 e0 bd 33 c4 8b bc 48 bd 7e bd
       -0.18336774 -0.10956468 -0.017061329 -0.06219223
0002e0 53 f1 66 3d 23 9b f8 3d 42 43 58 3c 06 22 b7 3e
       0.05638249 0.12138965 0.013199629 0.35768145
0002f0 1a 5a bb bc 6d 94 ec bc b7 0f 48 3d b4 25 c3 bd
       -0.022870112 -0.028879369 0.04884311 -0.09528676
000300 58 61 5e be ca 96 e3 bd a8 8c ff bc 19 03 15 3e
       -0.21716821 -0.11112745 -0.031195 0.14551963
000310 5e f9 21 3e 2d 62 25 3d 09 b5 70 bd 48 17 84 bd
       0.15817782 0.04037683 -0.0587664 -0.06449753
000320 e0 21 9d bd bc d7 d6 3d 9a 8a ca bd 1c 11 8d bd
       -0.07672477 0.10490367 -0.098897174 -0.06888029
000330 b2 70 b8 bd 4c 9a ff 3d ff 18 21 3e 9a e4 a2 3d
       -0.0900587 0.12480602 0.15732192 0.079537585
000340 65 20 d8 3c fc ad 89 3b a9 4d af bd bc 66 71 3d
       0.026382634 0.0042016488 -0.085597344 0.058935866
000350 3c d8 38 3d 32 75 49 3d 75 7d de bd 32 1d 1c bd
       0.045128092 0.04918403 -0.10863773 -0.03811378
000360 16 f7 be 3d 18 fa 07 be c9 6b c7 bd 06 50 1c bd
       0.09324472 -0.13278997 -0.09737355 -0.038162254
000370 20 89 e4 3c e5 68 14 3e 0f 04 7c bc e1 71 bd bd
       0.027897418 0.14493139 -0.015381827 -0.09250236
000380 bd a0 25 3d 3a 24 44 3d 34 95 3d 3e d8 bd 51 3d
       0.040436495 0.04788611 0.18513948 0.05120644
000390 8d ae 33 3e 15 03 3b 3e 99 e8 cc 3d dd 91 ec 3d
       0.17547055 0.18262894 0.10005302 0.11551259
0003a0 4b fd bd be 8b 89 bd 3d c6 e9 21 be c2 72 1d be
       -0.3710731 0.0925475 -0.15811834 -0.15375808
0003b0 5c 19 93 bd 6c 9b 23 3d 06 7f 47 3e 76 cb bb bd
       -0.07182571 0.039943144 0.1948205 -0.091696665
0003c0 c4 85 7d bc c1 96 95 3b e9 a3 a7 3e 83 0d 12 3e
       -0.015473787 0.0045650904 0.3274224 0.14262967
0003d0 6b 09 bd bd 9b 22 2a 3c c7 57 06 be ef 6d 17 3d
       -0.09230312 0.010384227 -0.13119422 0.036970075
0003e0 43 d1 ba bd 12 71 28 bd 83 be 93 bd 14 30 6f 3e
       -0.09121945 -0.041123457 -0.072140716 0.23358184
0003f0 4f 06 cc be 6e 8d 13 3e 7e bc c8 bd 51 17 4a bd
       -0.39848563 0.1440942 -0.09801577 -0.049338643

bias f4 [32]
000000 e1 04 97 bc d9 eb 12 3c 35 98 d9 bd 27 a3 55 bd
       -0.018434944 0.008967363 -0.10624734 -0.052157547
000010 1f 32 1b bb 81 36 1e 3d 2a 56 48 bd 4d f8 0f bd
       -0.0023680998 0.038626198 -0.048910297 -0.035148907
000020 b4 34 4c 3d e0 7a 68 bd 51 9e ec bc d8 1f 01 3e
       0.04985495 -0.056757808 -0.028884085 0.12609804
000030 9f 7b b0 bd fd be 8c be f1 83 39 bd 4d 7f 72 3d
       -0.08617329 -0.27489462 -0.045291845 0.059203435
000040 18 c8 f9 bd 6d 0f 15 3e 90 06 10 3e 72 07 76 bd
       -0.12196368 0.14556666 0.14065003 -0.060065694
000050 df cc 62 3c cf af 06 be 59 03 f7 3c 17 88 63 bd
       0.01384279 -0.13153003 0.030152963 -0.055549707
000060 80 5a 3f 3d 13 87 96 3c 44 51 95 3d 5e c3 06 3e
       0.046717167 0.018374955 0.07290891 0.13160464
000070 c0 53 7b 3c 91 d8 c6 bc 24 af 49 3d cd 19 86 3d
       0.015339792 -0.024273189 0.049239293 0.0654789

weight f4 [1, 32]
000000 07 68 85 be 1f fd 97 3e c5 c1 a1 be 32 40 c0 be
       -0.2605593 0.29685304 -0.31593147 -0.37548977
000010 55 90 c9 3e 5c 96 af be 89 f4 b3 3e 05 d4 bc 3e
       0.3936793 -0.34294403 0.35147503 0.36880508
000020 ea e6 a7 3e e1 da d9 3e 10 f3 93 3e e8 f4 c2 3e
       0.3279336 0.42549804 0.2889638 0.38077474
000030 c7 2a bf 3e b6 b2 92 be fb 08 99 3e 42 7f 8b be
       0.37337324 -0.2865197 0.29889664 -0.27245528
000040 2a c6 bc be 4d d3 bf 3e a6 93 c1 3e 5f f6 95 3e
       -0.36869937 0.37465897 0.3780796 0.2928953
000050 af 77 cc 3e a5 d5 a7 be 2f 08 d4 be a1 48 a9 3e
       0.3993506 -0.32780185 -0.41412494 0.33063224
000060 42 af c8 3e f9 a2 b1 be e2 31 d1 3e 2d 47 8b 3e
       0.3919621 -0.3469465 0.4085837 0.2720274
000070 f3 b3 8b be bc 6d ae 3e 62 8e d3 3e 34 14 b3 be
       -0.27285728 0.34068096 0.41319567 -0.3497635
