Models/Office_model_10.pth (torch, 189672 bytes, 9 tensors)

weight f4 [256, 10]
0.042597767 0.14121658 -0.0384902 0.20333704 0.11992387 -0.15049566 -0.055594362 0.12123222
0.50827163 0.0117491875 -0.12907875 -0.19647178 -0.25844464 0.19514444 0.049337953 -0.26042506
-0.21297166 0.10309875 -0.21925277 -0.075677186 -0.15363757 -0.0036792695 -0.25451797 0.08353801
-0.0004977572 0.09179152 -0.26402026 0.2822979 0.2939114 0.09630077 -0.040883273 0.2057508
0.29356292 0.15998027 0.28780946 0.19739416 -0.28109354 -0.25767556 -0.30034134 -0.018506914
-0.2766927 0.20057812 -0.27793002 -0.23936394 -0.20017475 -0.24221118 -0.06262365 -0.29119372
-0.04225096 0.054504216 -0.11359151 -0.20231079 0.29490754 0.20087162 0.2649512 0.17593142
-0.0069200993 -0.10795289 -0.20377675 0.25405362 0.0904524 0.35845098 0.19477986 0.077823766
0.03970157 -0.22506933 0.33577213 -0.18221349 -0.21066405 0.44731405 0.12701616 -0.30103022
0.03497852 0.20664091 0.1352161 -0.23170792 0.3539524 -0.019069415 -0.45974505 -0.50012517
-0.35957715 -0.0018205759 0.032380436 -0.06528045 0.06807834 0.1896226 0.37510026 0.08712108
-0.5874528 -0.39478856 -0.047832537 0.103685096 -0.24705566 -0.28721777 -0.0778416 -0.08017185
-0.30335426 -0.09479117 -0.12233657 0.3003157 -0.32602632 -0.23530015 0.054533932 0.065238245
-0.099243134 -0.02706148 0.39275718 -0.055929333 -0.19808891 -0.13606046 -0.090835996 0.20738056
0.022619916 0.24519992 0.15723282 -0.09342951 0.045995455 0.024070038 -0.14110237 -0.43388557
-0.10693917 -0.16374087 0.31016698 0.3156735 0.2499958 -0.10600296 -0.19565932 0.00965029
-0.12382379 -0.07662675 0.052671544 0.07598312 0.038769905 -0.25145158 -0.2617419 0.060015965
-0.08293826 -0.10159326 -0.29345635 0.007891707 0.24657486 0.057860773 0.24999642 -0.15603085
-0.08519816 -0.15655167 0.14488535 0.28008533 0.10063798 0.23798458 0.18562491 -0.036725663
-0.039636858 0.0632793 0.022357488 -0.06382603 0.21811076 0.028440008 0.08360836 0.10817643
-0.42320603 -0.06941058 0.044576302 -0.25975108 0.006785393 0.015534538 -0.17434219 -0.03166268
-0.033843413 0.09831609 0.07307111 0.23027155 -0.1355254 -0.14414267 -0.28685716 -0.13624328
-0.2088012 -0.010249589 0.0011665096 -0.39054906 -0.30306354 -0.29710513 -0.24098434 -0.03701944
-0.08769298 -0.12551329 0.23599082 0.02241677 0.3048116 -0.26955602 -0.59143734 0.15913527
-0.00068073964 0.024890967 0.115189575 -0.2771405 -0.13269998 0.043689214 0.33060926 0.8062818
0.11953214 0.11214 0.2743872 -0.24413566 -0.14089903 0.102329314 -0.025757879 0.12310171
0.24693188 -0.30332926 0.010568857 -0.3145374 0.29218444 0.088740855 0.14721632 -0.0937092
0.16610104 -0.09383719 -0.1991989 0.1445638 0.3883189 -0.016711252 0.17144993 0.2688635
-0.022629654 -0.15313955 0.29668903 -0.026750607 -0.051741697 -0.13002615 0.2003561 -0.19389886
-0.2690777 0.21756318 -0.0005453527 -0.18080023 0.048509777 -0.15269987 -0.042852312 0.06208086
0.39545473 -0.46199033 -0.019675132 -0.124045745 0.21667486 0.06660462 0.077347994 0.08378927
-0.16241756 -0.05821603 -0.2262981 0.31551123 0.25760248 -0.24334294 -0.17016692 0.0015163796
00000000: ff7a 2e3d 149b 103e e6a7 1dbd 9637 503e
00000010: a59a f53d 891b 1abe eab6 63bd 9948 f83d
00000020: 171e 023f aa7f 403c 382d 04be e62f 49be
00000030: db52 84be f2d3 473e 9816 4a3d 6f56 85be
00000040: 3e15 5abe 7025 d33d cc83 60be a4fc 9abd
00000050: 2b53 1dbe e61f 71bb 2e50 82be fa15 ab3d
00000060: ec7b 02ba 31fd bb3d aa2d 87be 5a89 903e
00000070: 8e7b 963e 5739 c53d 3875 27bd 56b0 523e
00000080: e14d 963e ded1 233e c35b 933e b221 4a3e
00000090: 7eeb 8fbe 0dee 83be 57c6 99be d09b 97bc
000000a0: aaaa 8dbe 5a64 4d3e d84c 8ebe d21b 75be
000000b0: 9cfa 4cbe 3506 78be d440 80bd 5817 95be
000000c0: 580f 2dbd d03f 5f3d aaa2 e8bd 8f2a 4fbe
000000d0: 1ffe 963e 4ab1 4d3e afa7 873e 5e27 343e
000000e0: 00c2 e2bb 6816 ddbd daaa 50be 5113 823e
000000f0: 1c3f b93d e386 b73e 5f74 473e 1162 9f3d
00000100: 1d9e 223d 9378 66be 53ea ab3e 2c96 3abe
00000110: 51b8 57be 5906 e53e 8610 023e a220 9abe
00000120: a345 0f3d ad99 533e 1776 0a3e d744 6dbe
00000130: 4039 b53e 7637 9cbc b463 ebbe 3408 00bf
00000140: 7f1a b8be 64a0 eeba 59a1 043d c2b1 85bd
00000150: a86c 8b3d 6d2c 423e 240d c03e 896c b23d
00000160: 4f63 16bf ba21 cabe 0dec 43bd da58 d43d
00000170: 29fc 7cbe 350e 93be 6b6b 9fbd 2431 a4bd
00000180: 4051 9bbe df21 c2bd 988b fabd fbc2 993e
00000190: ecec a6be 86f2 70be f95e 5f3d a19b 853d
000001a0: fc3f cbbd 09b0 ddbc 7817 c93e 2816 65bd
000001b0: d2d7 4abe 6f53 0bbe 3908 babd 925b 543e
000001c0: 674d b93c b015 7b3e a401 213e f957 bfbd
000001d0: bb65 3c3d 872e c53c 247d 10be 4026 debe
000001e0: ec02 dbbd b0ab 27be 35ce 9e3e f59f a13e
000001f0: e6fe 7f3e 1418 d9bd eb5a 48be 401c 1e3c
00000200: 5497 fdbd 7cee 9cbd 1ebe 573d 0a9d 9b3d
00000210: 31cd 1e3d 43be 80be 0903 86be 4dd3 753d
00000220: 89db a9bd 2110 d0bd e93f 96be 384c 013c
00000230: 1f7e 7c3e 6bff 6c3d 10ff 7f3e 8dc6 1fbe
00000240: 5f7c aebd 154f 20be d35c 143e 5867 8f3e
00000250: 491b ce3d 3bb2 733e 7514 3e3e a66d 16bd
00000260: 425a 22bd 9498 813d 0d27 b73c 39b7 82bd
00000270: 6d58 5f3e 05fb e83c dc3a ab3d 9b8b dd3d
00000280: 76ae d8be 2227 8ebd a495 363d 18fe 84be
00000290: 0158 de3b 9384 7e3c c286 32be bab0 01bd
000002a0: 649f 0abd f259 c93d 4ea6 953d 4ecc 6b3e
000002b0: 2cc7 0abe 239a 13be f1de 92be 5c83 0bbe
000002c0: fbcf 55be e4ed 27bc 91e5 983a 0cf6 c7be
000002d0: 252b 9bbe 2a1e 98be 99c4 76be b2a1 17bd
000002e0: 6198 b3bd 8e86 00be 94a7 713e 60a3 b73c
000002f0: 4410 9c3e 3f03 8abe 7068 17bf 5bf4 223e
00000300: aa73 32ba 24e8 cb3c 83e8 eb3d 5ce5 8dbe
00000310: 81e2 07be 76f3 323d 9e45 a93e 7c68 4e3f
00000320: 44cd f43d a8a9 e53d 7b7c 8c3e b3fe 79be
00000330: d647 10be 0892 d13d 3002 d3bc c01c fc3d
00000340: b6db 7c3e f94d 9bbe 0029 2d3c 0c0b a1be
00000350: 3399 953e c4bd b53d e0bf 163e 9cea bfbd
00000360: 6416 2a3e b62d c0bd ccfa 4bbe 8808 143e
00000370: bcd1 c63e 09e6 88bc 9290 2f3e 7aa8 893e
00000380: d361 b9bc 9dd0 1cbe a0e7 973e 1724 dbbc
00000390: 1aef 53bd 9325 05be 262a 4d3e 6c8d 46be
000003a0: 8dc4 89be e2c8 5e3e 00f6 0eba b223 39be
000003b0: 30b2 463d 5b5d 1cbe e885 2fbd 8048 7e3d
000003c0: 0b79 ca3e ff89 ecbe be2d a1bc b20b febd
000003d0: 04e0 5d3e 0168 883d a068 9e3d b599 ab3d
000003e0: ca50 26be ef73 6ebd b0ba 67be b08a a13e
000003f0: 79e4 833e e42e 79be 3d40 2ebe 42c1 c63a

bias f4 [256]
0.6193752 -0.12224303 -0.12645614 0.27987966 -0.31071585 0.28732482 0.0035472568 -0.2867197
-0.5172573 0.22962275 -0.45648944 -0.2773608 -0.24536946 -0.4085182 -0.018547572 0.69157165
-0.15328021 0.19072019 0.2936776 0.72501564 -0.17363457 0.019274235 -0.1883245 -0.17957672
-0.18548395 0.2964733 0.08680835 0.57314235 0.034099 0.72163373 0.31580275 -0.17988408
0.17684357 0.5871818 0.15518603 -0.050282847 0.47325513 -0.12783565 0.27872562 -0.05804774
-0.21070024 -0.0015752912 0.30771127 0.13563266 0.29455847 0.5294601 -0.017567694 0.35828313
0.2034585 0.25918612 0.3568771 -0.16292925 0.21430013 -0.27002096 -0.32028204 -0.32358786
0.14139225 0.24497801 -0.004130761 -0.00958241 -0.098922655 0.03723946 -0.3028696 0.42616308
-0.26008832 0.5824095 -0.1974982 -0.07820889 0.28861588 0.5308941 0.54307324 0.17577587
-0.17282352 0.11172333 -0.2934483 -0.14600661 -0.29876265 -0.5286998 -0.13136868 -1.0897871
0.31763405 0.0584965 -0.22617309 0.20266321 -0.5318679 0.106239885 0.04372338 0.29463765
0.1619491 0.09651328 0.38226756 0.30599257 0.43198165 -0.37825367 0.11020488 0.30876067
-0.24303906 0.76064306 -0.109618 -0.74019706 0.13007103 0.22074468 -0.39178586 0.50434935
-0.23828189 -0.5529157 -0.09617777 0.068674594 0.21830511 -0.054468878 0.18799631 0.12112453
0.47244713 0.012737214 0.24565277 0.42918065 -0.19836542 -0.018247826 0.111924574 0.11163753
0.22571802 0.1355706 -0.30115002 -0.193391 -0.10731654 0.6991084 -0.1222301 -0.20949274
-0.0119338725 0.214884 -0.12161671 0.19792028 -0.2655235 -0.2059096 0.122703135 0.04341725
0.2000052 0.07028711 0.9455609 -0.4781271 -0.050022423 0.064978324 0.0076838094 -0.21500908
0.34054962 -0.20592698 -0.24759066 -0.053238396 -0.059610575 -0.032040983 0.5439664 -0.11247859
0.13457622 -0.1124184 -0.13096328 -0.32833254 -0.2673484 0.4426273 0.09870303 -0.27435088
-0.04713317 -0.2736218 -0.12439254 0.2883504 0.08156888 -0.290223 -0.13483347 0.2941937
-0.24238363 0.045752022 -0.1310207 -0.16223411 0.502254 -0.1415508 0.18557636 0.05316016
0.18524627 -0.13468239 0.19173262 -0.37810892 0.15527655 -0.16888908 0.2904108 -0.030711502
-0.10693609 0.41862136 -0.24844928 -0.03801175 -0.101914644 0.3591839 -0.24475788 -0.2457002
-0.21687385 -0.40307522 -0.029794753 -0.6273384 0.3888478 0.1552019 -0.52076477 -0.5160284
-0.5906551 0.053582784 0.29041687 0.14122225 0.07018742 0.16814241 -0.11716649 0.06482163
-0.15491919 0.17678571 0.07661897 0.22552948 0.47158325 0.41486368 0.08965257 0.016473532
0.08101936 0.1565368 -0.19455928 -0.25728273 -0.026834322 -0.2068831 0.73763335 0.598935
-0.16449712 -0.17090857 -0.39505953 0.26066056 0.35562176 0.16997433 -0.32666472 -0.20042323
-0.18158595 -0.53251576 0.4501734 -0.06803262 -0.6884472 -0.23325709 -0.26006642 -0.023279881
0.4662936 -0.03761393 0.037912916 0.1666508 -0.30668446 -0.3366461 -0.017490977 -0.06744972
0.27403054 -0.22719398 0.22647586 -0.16564578 -0.5926597 -0.3119865 0.028031183 0.36859578
00000000: 608f 1e3f 8e5a fabd b87d 01be 634c 8f3e
00000010: 2616 9fbe 3d1c 933e 1879 683b edcc 92be
00000020: f96a 04bf 3a22 6b3e fcb8 e9be 3c02 8ebe
00000030: 2242 7bbe 4c29 d1be 14f1 97bc d70a 313f
00000040: 7df5 1cbe 274c 433e e95c 963e a09a 393f
00000050: 43cd 31be 00e5 9d3c 23d8 40be f6e2 37be
00000060: 81ef 3dbe 59cb 973e 94c8 b13d 75b9 123f
00000070: 65ab 0b3d fdbc 383f e6b0 a13e 8833 38be
00000080: 7b16 353e 8c51 163f 16e9 1e3e 63f5 4dbd
00000090: 7f4e f23e 59e7 02be 20b5 8e3e 78c3 6dbd
000000a0: cec1 57be 007a ceba 558c 9d3e 4ae3 0a3e
000000b0: 5ed0 963e b28a 073f 20ea 8fbc e370 b73e
000000c0: 6d57 503e 0bb4 843e 98b8 b63e edd6 26be
000000d0: 7e71 5b3e 3040 8abe 02fc a3be 4fad a5be
000000e0: 21c9 103e 84db 7a3e 565b 87bb 8aff 1cbc
000000f0: f697 cabd 6788 183d b911 9bbe 0c32 da3e
00000100: 4c2a 85be ca18 153f f83c 4abe fc2b a0bd
00000110: 76c5 933e ade8 073f d906 0b3f 97fe 333e
00000120: a6f8 30be 34cf e43d db3e 96be c282 15be
00000130: 6bf7 98be df58 07bf 8385 06be 257e 8bbf
00000140: eea0 a23e 079a 6f3d eb99 67be f286 4f3e
00000150: 7f28 08bf 4c94 d93d 4917 333d bfda 963e
00000160: fcd5 253e c1a8 c53d 93b8 c33e 0fab 9c3e
00000170: b32c dd3e 77aa c1be 19b3 e13d e115 9e3e
00000180: 3bdf 78be 81b9 423f 677f e0bd 8e7d 3dbf
00000190: 5731 053e e50a 623e 2898 c8be 0a1d 013f
000001a0: 2b00 74be e28b 0dbf daf8 c4bd 44a5 8c3d
000001b0: 608b 5f3e c21a 5fbd 1b82 403e 2310 f83d
000001c0: 97e4 f13e bfaf 503c 668c 7b3e 91bd db3e
000001d0: 4e20 4bbe 777c 95bc b638 e53d 38a2 e43d
000001e0: a022 673e 05d3 0a3e 5630 9abe 4a08 46be
000001f0: c6c8 dbbd c5f8 323f c653 fabd 4485 56be
00000200: 4a86 43bc 8d0a 5c3e 2f12 f9bd 9dab 4a3e
00000210: b2f2 87be f7d9 52be c84b fb3d 49d6 313d
00000220: 2ace 4c3e b0f2 8f3d 4710 723f 13cd f4be
00000230: 50e4 4cbd 5b13 853d 77c8 fb3b 572b 5cbe
00000240: 855c ae3e 86de 52be 6888 7dbe 8110 5abd
00000250: 382a 74bd 683d 03bd 6241 0b3f 2d5b e6bd
00000260: 59ce 093e 9e3b e6bd 3d1b 06be 341b a8be
00000270: e4e1 88be 0ca0 e23e d024 ca3d b877 8cbe
00000280: b60e 41bd 2818 8cbe 84c1 febd aaa2 933e
00000290: 960d a73d 1c98 94be c911 0abe 8fa0 963e
000002a0: 6a33 78be 7966 3b3d 4a2a 06be b320 26be
000002b0: b893 003f b1f2 10be bb07 3e3e 78be 593d
000002c0: 33b1 3d3e 2eea 09be 8e55 443e 7e97 c1be
000002d0: d100 1f3e 42f1 2cbe b9b0 943e b096 fbbc
000002e0: 4f01 dbbd 8a55 d63e 7d69 7ebe 35b2 1bbd
000002f0: a0b8 d0bd f4e6 b73e cfa1 7abe d598 7bbe
00000300: 2e14 5ebe e05f cebe 2014 f4bc 4099 20bf
00000310: 0f17 c73e 3fed 1e3e d750 05bf 701a 04bf
00000320: 2c35 17bf 9f79 5b3d 85b1 943e 919c 103e
00000330: 6cbe 8f3d 862d 2c3e fcf4 efbd 34c1 843d
00000340: 23a3 1ebe 5007 353e 68ea 9c3d 33f1 663e
00000350: 5c73 f13e 0369 d43e c49b b73d 80f3 863c
00000360: 7aed a53d 2f4b 203e 8c3a 47be 90ba 83be
00000370: a7d3 dbbc 2ad9 53be 8ad5 3c3f ce53 193f
00000380: ef71 28be a802 2fbe 3e45 cabe 4d75 853e
00000390: 0e14 b63e c00d 2e3e 9940 a7be bf3b 4dbe
000003a0: abf1 39be f452 08bf 217d e63e b054 8bbd
000003b0: 133e 30bf f2da 6ebe 6d27 85be 73b5 bebc
000003c0: 09be ee3e 1011 1abd 934a 1b3d 82a6 2a3e
000003d0: bf05 9dbe e15c acbe 3d49 8fbc 1423 8abd
000003e0: bb4d 8c3e 8aa5 68be 4ae9 673e 0c9f 29be
000003f0: 8cb8 17bf b2bc 9fbe a7a1 e53c 96b8 bc3e

weight f4 [128, 256]
0.19016135 -0.027633717 -0.081677236 0.08620409 -0.0393841 0.05023091 0.06868201 -0.05851144
-0.8053107 -0.068864025 -0.44006592 -0.16924867 0.001326021 -0.07750488 0.07845803 0.20578252
-0.2559994 -0.0541615 -0.0061747064 0.028698536 -0.001977096 -0.023777733 0.04648642 -0.074390925
0.03184338 0.022317497 0.06674912 0.01769731 -0.084685005 0.320098 0.09812726 0.011332634
0.07162089 0.11451577 0.065374225 0.025632313 0.6782968 -0.047926087 -0.0028258003 -0.00026016516
-0.15897314 0.02562265 0.068138696 0.07289083 0.0036230595 0.6808819 -0.06579264 0.06858502
0.21124245 0.064326376 -0.010369203 0.06506676 0.0071974522 0.00016982545 -0.05537578 -0.01082109
0.053376693 0.029866708 0.009696622 0.02362563 0.0067228493 -0.023929296 -0.003880801 0.13396616
-0.008077861 0.4076388 0.024406089 0.06309125 0.24185178 0.07075479 0.1605862 -0.053750966
0.0047244667 -0.061126817 -0.13676883 -0.07554359 -0.060247045 -0.28447932 -0.009302453 -0.10396343
-0.012985681 0.018082818 0.0026126844 0.14986554 -0.10413216 0.06535459 0.09506666 0.02029937
0.007388542 -0.023310183 0.117065124 -0.017787509 0.032727543 -0.10077576 0.29438254 0.08748991
0.0006540555 0.22805813 -0.075072326 -0.04944412 -0.012223591 -0.0149559835 -0.10292129 0.07828078
-0.0134936515 -0.11242261 0.07743508 -0.08068826 0.15519977 0.01286265 -0.041429307 0.17717935
0.028624939 -0.03561647 0.08520465 0.40322763 -0.008637595 0.01249298 0.09021014 0.08594543
0.08727878 -0.08405041 -0.0046876795 0.08269519 0.020541655 0.071301 -0.021199876 -0.061343856
-0.033981156 0.07584322 -0.055385295 0.016775308 0.016873369 0.0140444795 -0.006034924 0.021173596
-0.019059839 -0.04709359 0.101699285 -0.0432435 0.0224971 -0.013905813 0.022382235 -0.08120393
0.04942387 0.015716694 -0.025866916 0.05497278 -0.0021310905 0.07472529 0.13915473 -0.09001014
0.037067786 -0.012205339 -0.083692 -0.0029165968 -0.044682283 0.053380072 0.011421335 -0.16111474
0.0034600464 0.07914356 0.015408627 0.02149549 -0.0840298 0.026229633 0.0025925883 0.0051005688
0.019819243 -0.021425104 0.025715146 0.08180403 0.40421668 0.05209296 0.046114612 -0.0014182071
0.0059498833 0.08074668 0.027177602 -0.10301549 0.009367135 -0.052679814 0.12781045 -0.13829316
0.087033615 0.4374232 -0.06543947 0.038017314 -0.014493396 0.23262233 -0.04848661 0.011961804
-0.019334937 -0.022788242 0.016682932 -0.23576766 -0.012997023 0.07421825 -0.10844157 -0.05104508
-0.4492522 0.044305142 0.0091841435 -0.011000342 0.0018315976 -0.032094028 -0.033956308 0.005994729
0.0022938563 -0.043606933 -0.06349671 -0.071122326 0.16478637 0.58355564 -0.07976171 -0.005514069
-0.00016637778 0.0209655 -0.017511351 0.09706097 0.0034457715 -0.114106216 0.046512567 0.080385275
-0.050453115 -0.045851022 -0.0109696435 -0.017707037 0.06337513 0.016370842 -0.035507407 0.031939324
0.06638206 -0.017480183 0.031638592 -0.018054362 -0.033200018 0.07809075 -0.10338063 -0.028591627
0.040998433 0.07155136 -0.033954855 -0.06643071 -0.065604426 -0.07013958 0.064657465 0.026786262
-0.06430035 -0.089137174 -0.007800166 -0.002036626 -0.024782939 -0.0093127545 -0.073709495 0.22175254
00000000: a8b9 423e 1b60 e2bc 6546 a7bd c58b b03d
00000010: 3951 21bd edbe 4d3d 27a9 8c3d b1a9 6fbd
00000020: d828 4ebf 9508 8dbd 5250 e1be 864f 2dbe
00000030: e2cd ad3a e1ba 9ebd 9bae a03d a7b8 523e
00000040: 5a12 83be 73d8 5dbd 3155 cabb 3119 eb3c
00000050: 2b92 01bb 85c9 c2bc 8b68 3e3d 455a 98bd
00000060: 346e 023d 2fd3 b63c c3b3 883d f3f9 903c
00000070: 556f adbd e3e3 a33e f2f6 c83d 83ac 393c
00000080: f9ad 923d 3e87 ea3d ece2 853d dbfa d13c
00000090: dca4 2d3f 254e 44bd 1031 39bb c766 88b9
000000a0: dbc9 22be 97e6 d13c 4d8c 8b3d ca47 953d
000000b0: da70 6d3b 474e 2e3f 4bbe 86bd 4e76 8c3d
000000c0: f14f 583e 8cbd 833d 97e3 29bc b941 853d
000000d0: 9bd8 eb3b 2c13 3239 b7d1 62bd f14a 31bc
000000e0: 85a1 5a3d 07ab f43c 95de 1e3c 8a8a c13c
000000f0: 594b dc3b 5f07 c4bc 0955 7ebb 6d2e 093e
00000100: 0159 04bc 08b6 d03e 47ef c73c fc35 813d
00000110: fea7 773e e3e7 903d b570 243e f929 5cbd
00000120: b3cf 9a3b 1d60 7abd 210d 0cbe 99b6 9abd
00000130: 9bc5 76bd 46a7 91be 5169 18bc c7ea d4bd
00000140: e5c1 54bc 6b22 943c 9239 2b3b 5a76 193e
00000150: 3e43 d5bd a1d8 853d 4fb2 c23d dd4a a63c
00000160: 951b f23b fff4 bebc d7bf ef3d 1cb7 91bc
00000170: 510d 063d 8663 cebd 4fb9 963e e92d b33d
00000180: ec74 2b3a 1288 693e 85bf 99bd eb85 4abd
00000190: 7545 48bc f109 75bc 66c8 d2bd ac51 a03d
000001a0: 7a14 5dbc d33d e6bd 4996 9e3d e33f a5bd
000001b0: b0ec 1e3e ddbd 523c c7b1 29bd 816e 353e
000001c0: d97e ea3c 93e2 11bd c77f ae3d da73 ce3e
000001d0: b384 0dbc 5baf 4c3c 18c0 b83d 2804 b03d
000001e0: 38bf b23d 9f22 acbd 1b9b 99bb 195c a93d
000001f0: f946 a83c 4206 923d 5dab adbc b243 7bbd
00000200: d32f 0bbd b153 9b3d b1db 62bd 5f6c 893c
00000210: 053a 8a3c d11a 663c 9dc0 c5bb 4074 ad3c
00000220: 6123 9cbc 35e5 40bd b747 d03d 1920 31bd
00000230: d74b b83c 35d5 63bc f35a b73c 3f4e a6bd
00000240: af70 4a3d 4cc0 803c dbe6 d3bc 232b 613d
00000250: c4a9 0bbb 9309 993d 947e 0e3e 3c57 b8bd
00000260: 64d4 173d e7f8 47bc b666 abbd 6024 3fbb
00000270: c504 37bd 10a5 5a3d 8d20 3b3c 43fb 24be
00000280: f2c1 623b 0516 a23d 7774 7c3c 4f17 b03c
00000290: d117 acbd 87df d63c 6ae8 293b ac22 a73b
000002a0: f75b a23c b383 afbc 92a8 d23c df88 a73d
000002b0: 7df5 ce3e 6d5f 553d ade2 3c3d 22e3 b9ba
000002c0: 3df7 c23b 845e a53d 90a3 de3c c9f9 d2bd
000002d0: 9d78 193c cac6 57bd bee0 023e b99c 0dbe
000002e0: ae3e b23d eff5 df3e 2105 86bd 0bb8 1b3d
000002f0: b575 6dbc 8c34 6e3e e599 46bd 71fb 433c
00000300: 4d64 9ebc 68ae babc a5aa 883c 146d 71be
00000310: 77f1 54bc bdff 973d 9d16 debd a514 51bd
00000320: 6204 e6be 4f79 353d 1779 163c c73a 34bc
00000330: 3812 f03a 0775 03bd c515 0bbd 6f6f c43b
00000340: 8654 163b 2f9d 32bd 900a 82bd 95a8 91bd
00000350: c2bd 283e e763 153f 1b5a a3bd 5daf b4bb
00000360: b275 2eb9 d7bf ab3c f773 8fbc e7c7 c63d
00000370: 74d2 613b 85b0 e9bd f683 3e3d 09a1 a43d
00000380: eda7 4ebd 48ce 3bbd 05ba 33bc 590e 91bc
00000390: d2ca 813d 251c 863c 3770 11bd cfd2 023d
000003a0: 51f3 873d 9a32 8fbc 7897 013d bee6 93bc
000003b0: befc 07bd 0bee 9f3d 39b9 d3bd fd38 eabc
000003c0: f9ed 273d 8589 923d 3f14 0bbd d30c 88bd
000003d0: 9d5b 86bd 57a5 8fbd 226b 843d dd6e db3c
000003e0: e7af 83bd 8d8d b6bd 8998 ffbb ea78 05bb
000003f0: 9705 cbbc 8694 18bc 01f5 96bd 1913 633e

bias f4 [128]
0.085812576 0.007460248 -0.03077609 0.0064407955 0.004035727 -0.021071872 0.033317845 0.07227535
0.076929286 0.03141116 0.004899664 -0.07044461 -0.013759764 -0.06625124 0.025485018 0.060950156
0.07267532 0.024444686 -0.059948742 0.028727455 -0.020100418 -0.04801208 -0.03526008 0.036189236
0.012248737 0.07841986 0.067244045 -0.009435174 0.028165527 0.02291207 -0.047799192 0.061495107
0.03402393 -0.06697575 -0.01405778 0.00275912 -0.064886965 -0.017159732 -0.08295545 -0.077258594
-0.0019834994 0.010050272 0.008692255 0.023459855 -0.007839192 0.011078521 -0.03863284 -0.07545119
-0.039791845 -0.07110094 -0.07620107 -0.010077492 0.08277974 0.045814022 -0.035167567 0.01773034
0.055137344 -0.021346103 0.012135265 -0.010002061 -0.021289298 0.006976735 0.022495443 0.012865034
0.01513735 0.05383097 -0.0133977905 -0.02911057 0.0030164132 -0.05012543 0.03146637 0.014685837
-0.034826707 -0.050673798 0.026138231 -0.0686044 -0.010216115 0.02843222 0.017287914 0.08097427
0.019881766 0.039339 -0.07614803 0.027414199 -0.05091767 -0.07494273 -0.007979934 0.015718203
-0.049669005 -0.061795995 -0.035964783 -0.012360922 0.003869813 -0.074488245 0.07333512 0.047291454
-0.08578858 0.06654936 -0.038229894 -0.033470493 -0.026608784 0.0020212063 0.044887446 -0.040026866
-0.048859812 -0.042926542 0.0051199873 0.004633556 -0.04264006 0.027066842 -0.047135502 -0.016397154
-0.036585655 0.008341695 -0.026404744 0.006006766 -0.038980257 0.0054064104 -0.00492579 -0.002456953
0.020973742 -0.055632185 0.071746476 0.062573984 -0.0072257128 0.059713595 0.07291207 -0.041008018
00000000: 81be af3d 1975 f43b 241e fcbc 4f0d d33b
00000010: 223e 843b eb9e acbc 4b78 083d 1905 943d
00000020: 1a8d 9d3d fda8 003d 5c8d a03b 4445 90bd
00000030: a270 61bc bbae 87bd f5c5 d03c dfa6 793d
00000040: ccd6 943d 3940 c83c d08c 75bd d755 eb3c
00000050: a2a9 a4bc 51a8 44bd e06c 10bd 2a3b 143d
00000060: edae 483c 979a a03d 3fb7 893d fd95 1abc
00000070: 64bb e63c 18b2 bb3c 16c9 43bd 4be2 7b3d
00000080: ad5c 0b3d 952a 89bd 9a52 66bc 5ad2 343b
00000090: 75e3 84bd 9192 8cbc 8ce4 a9bd c139 9ebd
000000a0: 99fd 01bb e5a9 243c f669 0e3c e22e c03c
000000b0: f46f 00bc af82 353c 783d 1ebd 2786 9abd
000000c0: c6fc 22bd 5f9d 91bd 4e0f 9cbd 111c 25bc
000000d0: 6d88 a93d 7ca7 3b3d de0b 10bd 383f 913c
000000e0: b2d7 613d 06de aebc fed2 463c afdf 23bc
000000f0: e566 aebc 189d e43b 5d48 b83c ddc7 523c
00000100: a602 783c dd7d 5c3d 6882 5bbc 4a79 eebc
00000110: 04af 453b 5350 4dbd e1e2 003d dd9c 703c
00000120: 73a6 0ebd 548f 4fbd d81f d63c 7780 8cbd
00000130: 7e61 27bc b0ea e83c 629f 8d3c d7d5 a53d
00000140: 16df a23c ee21 213d 80f3 9bbd be93 e03c
00000150: 0c8f 50bd 937b 99bd 45be 02bc 76c3 803c
00000160: ba71 4bbd cc1d 7dbd cf4f 13bd 7785 4abc
00000170: b09c 7d3b 4b8d 98bd b930 963d afb4 413d
00000180: ecb1 afbd 084b 883d f396 1cbd 5b18 09bd
00000190: aafa d9bc 3776 043b e6db 373d 36f3 23bd
000001a0: 3a21 48bd bed3 2fbd 91c5 a73b 16d5 973b
000001b0: 58a7 2ebd 48bb dd3c 2811 41bd 5353 86bc
000001c0: d7da 15bd 9bab 083c c34e d8bc 68d4 c43b
000001d0: c3a9 1fbd 4228 b13b 8568 a1bb d504 21bb
000001e0: 20d1 ab3c 93de 63bd d1ef 923d ca26 803d
000001f0: acc5 ecbb 3e96 743d ec52 953d 06f8 27bd

weight f4 [64, 128]
-0.015564621 0.05067537 -0.010170943 -0.060283605 -0.021705825 0.046532627 0.010225318 0.11445512
0.08145275 0.04936885 -0.067795545 0.049697742 -0.018354831 -0.05820505 0.03756234 0.017979773
0.06577727 -0.055442125 -0.04742802 -0.058918785 0.08557808 0.049689632 -0.023886189 -0.038086828
-0.111972764 0.04132107 0.03206397 0.06859362 0.028212728 -0.038807463 -0.025551734 -0.15507394
-0.08612566 -0.10720287 0.05388293 0.07647932 0.004303154 -0.019488 0.026390595 -0.068228096
-0.107659504 0.11241733 -0.0010528291 -0.06453582 -0.05901637 -0.094543375 0.045168526 0.062144667
0.092926 0.012247637 -0.04409186 -0.019111404 -0.017106507 -0.052780956 -0.0075842803 -0.08988233
0.065242894 -0.035629865 0.0791264 -0.09162391 -0.038163673 0.037079215 0.03537342 -0.059066143
-0.07921154 -0.0041413703 -0.054041244 0.07657147 -0.09552237 -0.076086804 0.026881473 0.07332445
-0.018769547 -0.04146038 -0.06346774 -0.010083457 0.073894985 -0.07095856 0.00218399 -0.07579711
0.0022156604 0.0696622 0.018000448 -0.056578886 -0.11012563 -0.03539432 -0.096355565 -0.043428145
0.053015705 -0.013765187 -0.04795829 0.024268905 0.05783101 -0.023193259 0.02548512 -0.04518392
-0.06831287 0.028551888 0.08474521 -0.029397726 -0.09395547 0.044913355 -0.08865366 -0.024011826
-0.030530231 0.024853464 -0.10076851 -0.11748491 0.044420224 -0.02796416 -0.03913852 0.019716065
0.09520895 -0.10095892 -0.015846975 -0.09916049 -0.06415751 -0.054575942 0.0075276727 0.010750699
-0.074026965 -0.09099535 0.09853911 -0.051786076 0.04065009 0.033887237 -0.03867075 -0.009720556
-0.062631354 -0.024721554 0.058459125 -0.026580928 0.046189163 0.04737096 -0.029371638 -0.094159134
-0.024245415 0.123512276 0.062108867 0.071853615 0.003897828 0.113675356 -0.0805267 -0.038955957
-0.092820756 -0.021152359 0.023469167 -0.010843506 -0.0024197416 0.101502776 0.027212124 -0.07061066
0.077349104 -0.076611154 0.10021671 0.030314421 -0.052392058 0.06731494 -0.020147717 0.07169116
0.07525227 0.06713906 -0.0017207451 -0.047285978 0.06894162 0.011125975 0.07977298 0.13630609
-0.039387863 -0.033982437 0.059949957 -0.09198867 0.08484935 0.09900354 0.113469854 0.024862386
0.018084932 0.08139661 0.015218983 0.0845181 -0.030146219 -0.0328158 -0.0326102 0.014007484
-0.087289736 0.04228791 -0.11225883 -0.02055373 0.07909186 0.061464455 -0.029528826 0.11533705
0.033068538 -0.05304438 0.049778156 -0.011769787 0.1351566 0.040198088 0.10713979 -0.12274564
0.028129864 0.0068772654 -0.005206177 -0.008097328 -0.013667 0.058549594 0.011720102 0.032773886
0.025782628 -0.11522471 0.043209497 -0.00069311744 0.008729146 0.065742314 -0.02206531 -0.036119543
0.06901142 0.011832142 0.031065078 -0.040525604 -0.06437555 0.011329388 -0.05571288 0.033729296
-0.007095578 -0.13358264 0.005623623 0.05197621 0.04100084 0.11858133 0.030515514 -0.06594428
0.002118503 -0.0083817765 -0.026786426 0.03651904 -0.041944135 -0.043373894 -0.045372922 0.06578265
-0.0071557425 0.018292345 -0.04730659 -0.012095278 0.05498809 0.02992487 0.048092943 0.12860225
0.06382921 0.11830437 -0.017562844 0.07015727 -0.029921876 -0.042506807 -0.0061404943 -0.02060295
00000000: c102 7fbc fa90 4f3d 07a4 26bc f1eb 76bd
00000010: 6ad0 b1bc ff98 3e3d 1888 273c 7267 ea3d
00000020: b3d0 a63d fe36 4a3d 64d8 8abd dc8f 4b3d
00000030: df5c 96bc 6b68 6ebd f8da 193d 514a 933c
00000040: 3cb6 863d 4817 63bd e243 42bd d354 71bd
00000050: 8f43 af3d 5b87 4b3d f8ac c3bc ef00 1cbd
00000060: fa51 e5bd 4840 293d 8255 033d d07a 8c3d
00000070: 611e e73c 93f4 1ebd df51 d1bc b4cb 1ebe
00000080: a662 b0bd 2e8d dbbd 59b4 5c3d 31a1 9c3d
00000090: 7901 8d3b 4ca5 9fbc 1731 d83c 2cbb 8bbd
000000a0: 967c dcbd 0f3b e63d 15ff 89ba 5b2b 84bd
000000b0: 26bb 71bd f59f c1bd a202 393d 688b 7e3d
000000c0: fd4f be3d 50aa 483c ab99 34bd 858f 9cbc
000000d0: f222 8cbc d830 58bd 8e85 f8bb 3a14 b8bd
000000e0: 119e 853d 9ff0 11bd 060d a23d 51a5 bbbd
000000f0: 8351 1cbd 60e0 173d b8e3 103d 57ef 71bd
00000100: a939 a2bd 55b4 87bb 5a5a 5dbd 81d1 9c3d
00000110: 3ba1 c3bd 66d3 9bbd 8936 dc3c 212b 963d
00000120: 98c2 99bc 5cd2 29bd 60fb 81bd 1635 25bc
00000130: 4156 973d b952 91bd 4621 0f3b 843b 9bbd
00000140: 9d34 113b 0eab 8e3d ad75 933c 43bf 67bd
00000150: 8c89 e1bd a2f9 10bd 1156 c5bd b6e1 31bd
00000160: ff26 593d 6187 61bc e96f 44bd 95cf c63c
00000170: 36e0 6c3d caff bdbc 2cc6 d03c c612 39bd
00000180: 9ee7 8bbd a6e5 e93c e68e ad3d 80d3 f0bc
00000190: ba6b c0bd 11f7 373d 0d90 b5bd 73b4 c4bc
000001a0: 891a fabc 7e99 cb3c b85f cebd ee9b f0bd
000001b0: fbf1 353d 1815 e5bc b64f 20bd 9683 a13c
000001c0: e9fc c23d 8dc3 cebd 84d1 81bc a814 cbbd
000001d0: 0365 83bd 068b 5fbd b2aa f63b b323 303c
000001e0: 739b 97bd c55b babd dfce c93d a31d 54bd
000001f0: b580 263d 58cd 0a3d 3865 1ebd f842 1fbc
00000200: de44 80bd db84 cabc d672 6f3d 3fc0 d9bc
00000210: d930 3d3d 0d08 423d ca9c f0bc 81d6 c0bd
00000220: 529e c6bc 01f4 fc3d de65 7e3d fd27 933d
00000230: b472 7f3b a0ce e83d 2feb a4bd 4890 1fbd
00000240: cf18 bebd b647 adbc 6942 c03c f6a8 31bc
00000250: 8794 1ebb b0e0 cf3d f6eb de3c 529c 90bd
00000260: 3569 9e3d 4fe6 9cbd 6b3e cd3d f355 f83c
00000270: 0e99 56bd 6adc 893d d30c a5bc d1d2 923d
00000280: dd1d 9a3d 3480 893d a08a e1ba f1ae 41bd
00000290: 4431 8d3d b949 363c 0460 a33d d393 0b3e
000002a0: 2b55 21bd 2b31 0bbd 168e 753d 8e64 bcbd
000002b0: 7fc5 ad3d 5ec2 ca3d e262 e83d 34ac cb3c
000002c0: da26 943c 44b3 a63d 0b59 793c d317 ad3d
000002d0: 34f5 f6bc dc69 06bd 4692 05bd a57f 653c
000002e0: f6c4 b2bd 1636 2d3d f5e7 e5bd 4c60 a8bc
000002f0: eafa a13d 27c2 7b3d 70e6 f1bc d535 ec3d
00000300: e072 073d 1045 59bd 2ee4 4b3d 11d6 40bc
00000310: 7e66 0a3e c0a6 243d 1b6c db3d 1162 fbbd
00000320: 9a70 e63c af5a e13b 9498 aabb a8aa 04bc
00000330: 8eeb 5fbc b3d1 6f3d ac05 403c e93d 063d
00000340: 1736 d33c effa ebbd 71fc 303d 53b2 35ba
00000350: b104 0f3c e8a3 863d 4fc2 b4bc 16f2 13bd
00000360: dc55 8d3d 9adb 413c 317c fe3c 2dfe 25bd
00000370: 54d7 83bd e69e 393c 3033 64bd bb27 0a3d
00000380: 0682 e8bb e3c9 08be 5e46 b83b 02e5 543d
00000390: 7ff0 273d c5da f23d acfb f93c cb0d 87bd
000003a0: 95d6 0a3b b853 09bc 356f dbbc fd94 153d
000003b0: 9dcd 2bbd d3a8 31bd f5d8 39bd 0eb9 863d
000003c0: b87a eabb d4d9 953c 8ec4 41bd 462b 46bc
000003d0: 313b 613d 0025 f53c 1bfd 443d 4fb0 033e
000003e0: e4b8 823d 9049 f23d f4df 8fbc 9dae 8f3d
000003f0: b91e f5bc 9e1b 2ebd 3336 c9bb 85c7 a8bc

bias f4 [64]
0.103550605 -0.08380488 0.07115429 -0.016376391 -0.10419524 0.018283857 0.07842384 -0.060373105
0.07252181 -0.052918732 -0.088457435 0.017067617 0.036204927 0.06821875 0.103119306 0.018792635
-0.12207734 0.0008108111 -0.026699299 -0.02101739 -0.06859503 -0.04322916 -0.059357304 0.03128061
-0.049120557 0.0058721155 0.062935665 -0.018371671 -0.10571099 -0.0537326 -0.114066206 0.057733126
0.07048212 -0.040156372 -0.079267636 -0.051415347 0.056087792 -0.049526054 -0.07601597 0.033272564
0.05873229 0.05484281 -0.033620927 -0.06348732 0.037045397 -0.0062074615 -0.05026866 0.11407368
0.015341308 -0.08246406 -0.09859201 -0.02630783 0.1100049 0.057212073 0.056383673 -0.06178307
0.009761259 0.07995499 -0.0007693099 0.0774642 -0.008708692 -0.12996523 -0.07207099 0.012745502
00000000: 5712 d43d e5a1 abbd 57b9 913d c827 86bc
00000010: 5064 d5bd 07c8 953c ae9c a03d ca49 77bd
00000020: 5186 943d 50c1 58bd 2c29 b5bd 63d1 8b3c
00000030: 9e4b 143d 46b6 8b3d 3730 d33d 03f3 993c
00000040: af03 fabd 9d8c 543a 7db8 dabc a92c acbc
00000050: 8d7b 8cbd 0f11 31bd a520 73bd 1920 003d
00000060: a332 49bd e06a c03b 6ae4 803d 3080 96bc
00000070: 017f d8bd b716 5cbd 8b9b e9bd 9279 6c3d
00000080: ee58 903d 027b 24bd 1257 a2bd e698 52bd
00000090: 50bc 653d d5db 4abd 43ae 9bbd d048 083d
000000a0: 4591 703d dba2 603d 19b6 09bd a405 82bd
000000b0: eabc 173d f667 cbbb 83e6 4dbd 769f e93d
000000c0: 1c5a 7b3c ebe2 a8bd 9cea c9bd 8583 d7bc
000000d0: 404a e13d 3557 6a3d 91f2 663d 3f10 7dbd
000000e0: b0ed 1f3c 71bf a33d 83ab 49ba 8da5 9e3d
000000f0: e7ae 0ebc 9b15 05be f599 93bd 83d2 503c

weight f4 [32, 64]
-0.10043163 0.15860419 -0.0359047 0.021547629 0.0038474642 0.051582336 -0.04225772 0.089698516
-0.12767829 -0.024213448 0.15244834 0.15570916 0.09811151 -0.014281944 -0.13456744 -0.037052304
-0.03213689 0.009596176 0.02943386 -0.10110727 0.02489216 -0.072054595 0.15546 0.024317192
0.089581884 -0.077535056 0.06591315 -0.12795247 0.11519442 -0.032317974 0.0022306642 0.052215148
-0.047286306 0.08177699 -0.051234007 -0.14763121 0.16036735 0.08303291 0.12362321 0.12833329
-0.098233484 0.098524936 -0.028791472 -0.11159229 -0.13030413 0.085517436 0.028981365 -0.15573277
0.12512006 0.13772629 0.11406469 -0.11737093 -0.09485139 -0.038438883 -0.017805928 0.20507711
-0.02613361 0.13556993 -0.16563407 0.03951484 0.09836239 0.019358404 -0.050448168 -0.15626043
0.123926304 0.06380295 -0.091577955 -0.027543992 -0.0668159 -0.1587493 0.86336863 0.0003737207
0.030522577 0.11578292 -0.06272761 -0.14634635 0.1221877 -0.16339509 -0.0044997013 -0.018372659
-0.03749274 0.013175132 0.21432899 -0.12312993 -0.08885023 0.21594754 0.07462543 -0.014799465
0.07297753 -0.018215492 -0.22459312 0.014234009 -0.11110097 -0.08044922 0.1030051 0.048587997
0.3183753 -0.14117286 0.3470501 0.106932655 -0.03766323 -0.03851803 -0.06278359 0.11200362
0.006784904 -0.034570713 -0.07711135 0.5713526 -0.0822559 -0.006995619 -0.045638323 -0.032396346
0.10568044 -0.08304047 -0.05694072 -0.023345804 0.087193035 -0.97271484 -0.05533748 -0.099966675
0.11326173 0.09643486 -0.029600903 0.037506483 -0.13662475 0.1041781 -0.104308076 0.025569767
0.2088995 -0.18943165 0.1280679 0.028626433 0.051560286 -0.107997015 -0.063914806 -0.12018951
0.21243152 -0.29849708 -0.042707827 -0.07600507 -0.11473575 0.056128338 0.09486299 0.061453715
-0.17164971 0.1396208 -0.14272293 -0.008032382 -0.12295086 0.14797173 -0.098037235 -0.01501716
0.031555228 0.041300084 0.006236344 0.16287237 -0.026575541 -0.030417565 -0.18298951 -0.17029245
0.07806396 -0.11164813 -0.07273695 0.1612603 -0.12660334 -0.00016213134 0.0058176424 -0.049359392
0.08703066 0.042305246 -0.059416097 0.09111558 0.12111608 -0.15611316 -0.078609355 0.056033384
-0.066884786 -0.17264895 -0.18692102 0.112800635 0.21546876 0.14733163 0.15573125 0.01819339
0.026254319 -0.08130824 0.0025827289 -0.11277305 0.08215189 -0.12751232 0.09163162 0.101885825
-0.211846 0.04059512 -0.026868718 0.07893186 0.018147638 0.019146554 0.09470268 0.12874874
-0.15492874 0.05905791 0.15737939 0.15482777 -0.005932956 -0.062235482 0.035116144 -0.16861479
0.11643897 -0.18673427 -0.024418617 0.039011475 0.06552318 -0.11883657 0.054894276 -0.07780756
0.049708538 -0.092199266 -0.045903664 -0.17356086 0.073551156 0.20030157 0.08873081 0.020345984
0.00991122 -0.05588345 -0.033223752 -0.10219255 0.16462648 0.053579543 0.1773843 0.14538899
-0.18495242 -0.0022646096 0.18688737 0.09134597 0.001062892 0.011010188 -5.1961997e-05 -0.1544983
-0.043528076 -0.036032755 0.079958394 -0.14292526 -0.0542735 -0.011657271 -0.08781229 0.10407634
0.13787165 0.104385875 -0.14870408 -0.08855458 0.032719787 0.1602531 -0.09499088 -0.10230479
00000000: 19af cdbd 2369 223e cf10 13bd a784 b03c
00000010: bd25 7c3b 0048 533d 6e16 2dbd dbb3 b73d
00000020: 19be 02be 485b c6bc 6b1b 1c3e 3972 1f3e
00000030: b0ee c83d d1fe 69bc 0ccc 09be 28c4 17bd
00000040: f9a1 03bd 4839 1d3c 471f f13c 5411 cfbd
00000050: a5ea cb3c 5c91 93bd e830 1f3e d934 c73c
00000060: b576 b73d b3ca 9ebd 79fd 863d f905 03be
00000070: 0deb eb3d da5f 04bd 5630 123b 8ddf 553d
00000080: 49af 41bd b27a a73d c0da 51bd a32c 17be
00000090: 5737 243e 290d aa3d 2a2e fd3d cd69 033e
000000a0: a32e c9bd 71c7 c93d 18dc ebbc 808a e4bd
000000b0: 726e 05be c423 af3d 546a ed3c 6978 1fbe
000000c0: 791f 003e 1f08 0d3e c09a e93d 2c60 f0bd
000000d0: 7241 c2bd 1772 1dbd bddd 91bc bcff 513e
000000e0: 2716 d6bc d8d2 0a3e fa9b 29be 50da 213d
000000f0: 3972 c93d 8495 9e3c bda2 4ebd bc02 20be
00000100: 13cd fd3d 1fab 823d 398d bbbd f0a3 e1bc
00000110: c6d6 88bd 2d8f 22be ba05 5d3f f1ef c339
00000120: 7c0a fa3c 981f ed3d 5577 80bd d1db 15be
00000130: 8b3d fa3d 0b51 27be 3b72 93bb 4282 96bc
00000140: fd91 19bd 82dc 573c 0f79 5b3e 8b2b fcbd
00000150: 1cf7 b5bd 5a21 5d3e 38d5 983d 7579 72bc
00000160: 3e75 953d a838 95bc bdfb 65be c335 693c
00000170: e888 e3bd 90c2 a4bd 56f4 d23d 3504 473d
00000180: 1602 a33e 9e8f 10be 8db0 b13e 82ff da3d
00000190: c244 1abd 15c5 1dbd af94 80bd 2762 e53d
000001a0: e653 de3b 059a 0dbd 8eec 9dbd 2a44 123f
000001b0: c875 a8bd 813b e5bb 40ef 3abd 08b2 04bd
000001c0: fd6e d83d 1f11 aabd ac3a 69bd b33f bfbc
000001d0: 4392 b23d d703 79bf 8ea9 62bd 54bb ccbd
000001e0: c4f5 e73d a47f c53d 987d f2bc 66a0 193d
000001f0: 5ce7 0bbe 545b d53d 799f d5bd b077 d13c
00000200: c0e9 553e 5ffa 41be 3b24 033e fb81 ea3c
00000210: e130 533d 8a2d ddbd c4e5 82bd eb25 f6bd
00000220: a687 593e 9cd4 98be 67ee 2ebd 8ca8 9bbd
00000230: 94fa eabd d4e6 653d 8747 c23d e4b6 7b3d
00000240: f1c4 2fbe c1f8 0e3e f625 12be 409a 03bc
00000250: a9cd fbbd e785 173e bfc7 c8bd 890a 76bc
00000260: 0e40 013d 472a 293d 3f5a cc3b 04c8 263e
00000270: f3b4 d9bc 422e f9bc 9a61 3bbe 2561 2ebe
00000280: ffdf 9f3d c6a7 e4bd 1cf7 94bd 6c21 253e
00000290: 4ea4 01be cd01 2ab9 eca1 be3b 132d 4abd
000002a0: 213d b23d 4448 2d3d 4b5e 73bd ce9a ba3d
000002b0: b50b f83d 21dc 1fbe f1fd a0bd 4383 653d
000002c0: e4fa 88bd e3ca 30be 3968 3fbe 0504 e73d
000002d0: d8a3 5c3e 1ade 163e 0378 1f3e 4e0a 953c
000002e0: 4c13 d73c ef84 a6bd 0043 293b 8ff5 e6bd
000002f0: 403f a83d 9792 02be 5ca9 bb3d 84a9 d03d
00000300: 28ee 58be 1247 263d c91b dcbc 07a7 a13d
00000310: 5baa 943c 3cd9 9c3c 7bf3 c13d b6d6 033e
00000320: a4a5 1ebe b5e6 713d 1028 213e 2c8b 1e3e
00000330: 3e69 c2bb a2ea 7ebd f2d5 0f3d 5ba9 2cbe
00000340: 8e77 ee3d 4537 3fbe 8d09 c8bc 7fca 1f3d
00000350: 0431 863d 9660 f3bd d2d8 603d 9259 9fbd
00000360: 2e9b 4b3d f8d2 bcbd 7b05 3cbd f0b9 31be
00000370: fda1 963d db1b 4d3e 80b8 b53d 9fac a63c
00000380: ab62 223c 0be6 64bd a115 08bd 544a d1bd
00000390: d893 283e 3976 5b3d 3ba4 353e dae0 143e
000003a0: 2b64 3dbe d869 14bb 675f 3f3e 9913 bb3d
000003b0: bd50 8b3a 1364 343c c5f1 59b8 cd34 1ebe
000003c0: 7f4a 32bd 1597 13bd 3ac1 a33d 005b 12be
000003d0: e44d 5ebd 23fe 3ebc eed6 b3bd fa25 d53d
000003e0: 3a2e 0d3e 43c8 d53d e245 18be 1b5c b5bd
000003f0: 2f05 063d 6319 243e 948a c2bd 2c85 d1bd

bias f4 [32]
-0.016396534 -0.10969248 0.09348745 -0.032301944 -0.116506934 0.16565664 0.161316 0.13497981
-0.004784576 -0.05872552 0.044502337 -0.028547771 0.034772996 0.027838279 -0.0045707123 0.1012627
0.082278706 -0.13742438 0.03157083 -0.040188614 -0.037904333 0.054366898 -0.06522108 0.04557599
-0.014233724 -0.011733379 -0.05899896 0.06275192 -0.056221403 -0.033779792 -0.09473235 -0.029200163
00000000: 0652 86bc 73a6 e0bd 5976 bf3d 0b4f 04bd
00000010: 309b eebd e5a1 293e 0630 253e 2638 0a3e
00000020: efc7 9cbb 2c8a 70bd 1548 363d 04dd e9bc
00000030: 216e 0e3d 1a0d e43c eac5 95bb d262 cf3d
00000040: bd81 a83d fab8 0cbe 6a50 013d d19c 24bd
00000050: 9341 1bbd d3af 5e3d a192 85bd e4ad 3a3d
00000060: 9134 69bc 5c3d 40bc e5a8 71bd 1484 803d
00000070: 6a48 66bd ae5c 0abd 0903 c2bd 2e35 efbc

weight f4 [1, 32]
-0.3422966 -0.3445094 0.26326057 -0.39075276 0.39568096 0.33816284 0.39932394 0.3021684
-0.2490048 -0.27394256 0.27865127 0.40581822 -0.29555765 -0.36541063 0.303218 0.39050457
-0.2570583 -0.3458026 -0.40673736 -0.29561162 -0.28277227 0.41583484 -0.33679378 0.3573715
-0.3544597 -0.23888859 0.28391182 -0.4333798 -0.42527217 0.39244422 -0.32520875 -0.32825443
00000000: 8041 afbe 8963 b0be 17ca 863e bf10 c8be
00000010: b296 ca3e ae23 ad3e 3074 cc3e d1b5 9a3e
00000020: 1dfb 7ebe 3342 8cbe 61ab 8e3e 68c7 cf3e
00000030: 5553 97be 1a17 bbbe 643f 9b3e 37f0 c73e
00000040: 259d 83be 0a0d b1be e13f d0be 685a 97be
00000050: 87c7 90be 4ee8 d43e 3c70 acbe 66f9 b63e
00000060: be7b b5be 369f 74be e45c 913e f5e3 ddbe
00000070: 46bd d9be 73ee c83e c381 a6be f710 a8be
