Models/Office_model_4.pth (torch, 183514 bytes, 9 tensors)

weight f4 [256, 4]
0	0xbedb5544	-0.4283849
1	0xbdb832f0	-0.089940906
2	0x3e99ac80	0.3001442
3	0x3ee84e80	0.4537239
4	0xbccb1597	-0.024790568
5	0x3e4225a0	0.18959665
6	0x3e674265	0.22583921
7	0xbe04f23d	-0.12983032
8	0xbf0b42ea	-0.5439898
9	0x3eb5ee6a	0.35533458
10	0xbbdd5d67	-0.006755519
11	0x3e81b0a5	0.25330082
12	0xbd5ea440	-0.05435586
13	0xbe844d9e	-0.25840467
14	0x3ea0f4aa	0.31436664
15	0xbde7fb78	-0.11327261
16	0x3ecc0390	0.39846468
17	0x3ee3250e	0.44364208
18	0x3e7b85f0	0.24562812
19	0x3e923748	0.285578
20	0xbe39cf38	-0.18145454
21	0x3eeea51c	0.46610343
22	0xbe951b16	-0.29122227
23	0xbee023a6	-0.43777198
24	0xbeee1048	-0.46496797
25	0x3eb8e012	0.36108452
26	0x3ef34d7e	0.4752006
27	0xbef6fa7c	-0.4823798
28	0xbd5980ff	-0.053101536
29	0x3ef32569	0.4748948
30	0xbd247af6	-0.040156327
31	0xbdb3cd73	-0.08779421
32	0xbef71370	-0.48257017
33	0xbed074d6	-0.4071414
34	0x3e9ab2d6	0.30214566
35	0x3da5aa60	0.08089137
36	0x3f064cfd	0.52461225
37	0xbe954986	-0.29157656
38	0xbc102c9b	-0.008799697
39	0xbe778455	-0.24171574
40	0xbe892618	-0.26786876
41	0xbcb4b320	-0.02205807
42	0xbea0f1ce	-0.31434482
43	0x3d1e58d0	0.038658917
44	0x3ee7ca46	0.4527151
45	0x3eff6674	0.49882853
46	0xbe8dec0a	-0.27719146
47	0xbcd97396	-0.026544373
48	0xbd270f90	-0.040786326
49	0xbc0cc740	-0.008592427
50	0xbe916532	-0.28397518
51	0x3ecc45ce	0.39897007
52	0x3edc588e	0.43036312
53	0xbd9c4710	-0.076307416
54	0xbedd19ae	-0.43183655
55	0x3e082a48	0.13297379
56	0x3e0a6e78	0.13518703
57	0x3f13d27d	0.57743055
58	0xbd55559c	-0.052083597
59	0xbd84e3b1	-0.06488741
60	0x3e9b99ce	0.3039078
61	0x3e4530cc	0.19256896
62	0x3ef0d25c	0.4703549
63	0xbe500990	-0.20316148
64	0xbdbad1ef	-0.09122073
65	0x3d71d58a	0.059041537
66	0xbe39d5b4	-0.18147928
67	0xbdcdd178	-0.100497186
68	0xbebe2dac	-0.3714422
69	0xbebf6546	-0.37381953
70	0xbe7a94c0	-0.24470806
71	0xbec48946	-0.3838598
72	0xbf06080a	-0.52356017
73	0xbe91655b	-0.2839764
74	0x3d666d92	0.05625684
75	0x3e72049f	0.23634575
76	0xbddfd5a0	-0.109294176
77	0xbdb107d8	-0.08644074
78	0xbe98ad6e	-0.29819816
79	0xbdefc6e8	-0.1170786
80	0xbe1a7b24	-0.15086037
81	0x3effb0b8	0.49939513
82	0x3eadaeca	0.33922416
83	0x3ed13a04	0.40864575
84	0x3d3573ec	0.044300005
85	0xbf36239d	-0.7114809
86	0x3d3d71c1	0.046251062
87	0x3d404d7c	0.046948895
88	0x3c5826f3	0.01319288
89	0x3e2a6070	0.1663835
90	0xbe7781bf	-0.24170588
91	0x3ea6f179	0.32606104
92	0xbea01bf0	-0.31271315
93	0xbd955d00	-0.07293129
94	0xbe9fdf78	-0.3122518
95	0x3d796bc0	0.060893774
96	0xbea59422	-0.3233958
97	0x3d17fe20	0.037107587
98	0x3e9f7ece	0.31151432
99	0xbe5cb210	-0.215523
100	0xbc8e22aa	-0.017350513
101	0xbe21d793	-0.15804891
102	0xbe3822d4	-0.17982036
103	0xbe6c730c	-0.23090762
104	0xbe088a98	-0.1333412
105	0x3e4874b0	0.19575763
106	0x3e4e8e5e	0.20171496
107	0x3e2685f5	0.16262038
108	0xbed927a0	-0.42413044
109	0x3ee64c74	0.44980204
110	0x3efba1b2	0.491468
111	0x3e5ccfd0	0.21563649
112	0x3ef3914e	0.47571796
113	0xbe1393b0	-0.14411807
114	0xbef4413e	-0.47706026
115	0x3ee430e8	0.44568563
116	0xbe976f7c	-0.29577243
117	0x3ea1a05a	0.3156765
118	0x3b5068e0	0.0031800792
119	0x3f954855	1.1662699
120	0xbcc457a0	-0.023967564
121	0xbeaac5c4	-0.33354008
122	0xbe805764	-0.25066674
123	0x3eba0cfe	0.36338037
124	0xbef4d244	-0.4781667
125	0x3e54ccf0	0.20781302
126	0x3ed6ebb4	0.41976702
127	0xbc934200	-0.017975807
128	0xbe1df544	-0.15425593
129	0x3eebf8cc	0.46088254
130	0x3ed1f002	0.41003424
131	0xbd31f7a0	-0.043449044
132	0x3e0d8dac	0.13823575
133	0xbde53cd0	-0.1119324
134	0x3e7ebf1a	0.24877587
135	0x3dfc885b	0.12330695
136	0xbc9fab60	-0.019490898
137	0x3e6d9c30	0.23204112
138	0xbefaa51a	-0.48954087
139	0x3edf1a36	0.43574685
140	0x3ecbce8a	0.39806014
141	0x3e64141f	0.222733
142	0x3e545316	0.2073482
143	0x3e6e9493	0.23298864
144	0xbe9f3224	-0.31092942
145	0x3ef5d2b4	0.48012316
146	0x3cd15396	0.025552552
147	0xbd1816ef	-0.037131246
148	0x3c823802	0.015895847
149	0xbdb94067	-0.09045487
150	0xbb74b291	-0.003733788
151	0x3f519399	0.8186584
152	0x3eae6f66	0.34069365
153	0x3ec8083c	0.39068782
154	0x3eb446c0	0.35210228
155	0x3eba6b54	0.3641001
156	0x3e97e1f7	0.29664585
157	0xbecc2494	-0.39871657
158	0xbd11c8bd	-0.03559183
159	0x3eaae69f	0.33379075
160	0xbeb53634	-0.35392916
161	0xbe0c8e25	-0.13726099
162	0x3e8dd9e7	0.2770531
163	0xbe92de72	-0.28685337
164	0xbdc84520	-0.097788095
165	0xbee7cf00	-0.45275116
166	0xbee573ce	-0.44814914
167	0xbe67e118	-0.2264446
168	0x3e57a8c3	0.21060471
169	0x3ec27516	0.37979954
170	0xbc1881c8	-0.009308286
171	0xbf27481f	-0.65344423
172	0xbeed7700	-0.46379852
173	0xbe6b2c34	-0.22966081
174	0xbe7d1818	-0.24716222
175	0xbe43fbd4	-0.19139034
176	0x3f170c44	0.5900309
177	0xbe0aa919	-0.13541068
178	0xbc94fccc	-0.01818695
179	0xbe90d21c	-0.282853
180	0x3e15890b	0.14603059
181	0xbe58563e	-0.21126649
182	0x3e73924d	0.23786278
183	0xbda79651	-0.081829675
184	0xbe4e5f68	-0.20153582
185	0x3e358050	0.17724729
186	0x3ee11178	0.4395864
187	0x3dccda00	0.10002518
188	0x3ec7b8c0	0.3900814
189	0x3eeb6cba	0.4598139
190	0xbee884ca	-0.4541381
191	0x3b64b100	0.003489554
192	0x3e9c3066	0.30505675
193	0x3eba77f4	0.36419642
194	0x3eac209c	0.3361863
195	0x3eb381ae	0.35059875
196	0xbeac0fc1	-0.3360577
197	0x3d8b0511	0.06788076
198	0xbe2a64a9	-0.16639961
199	0x3e381481	0.17976572
200	0xbe837540	-0.25675392
201	0xbec2a49a	-0.38016206
202	0x3e9d6eaa	0.30748492
203	0xbe9fbcd8	-0.31198764
204	0xbedad3fe	-0.42739862
205	0x3ee7d4ee	0.4527964
206	0x3eedf10e	0.46472973
207	0xbece0a26	-0.40242118
208	0x3e83eaee	0.25765175
209	0x3c95ea00	0.018300056
210	0x3ed8cc16	0.42343205
211	0x3eb1c9ba	0.34724218
212	0x3e0ba8c5	0.13638599
213	0xbe7766ba	-0.24160281
214	0xbe7fa655	-0.24965794
215	0xbe8dbd77	-0.27683613
216	0x3cd2d6c0	0.025737166
217	0xbe533db8	-0.20629013
218	0xbe7e8abc	-0.2485761
219	0x3e967e66	0.2939331
220	0xbeb96770	-0.3621173
221	0x3d87f4d7	0.06638496
222	0x3d197d91	0.037473265
223	0xbdd4bd3a	-0.103876546
224	0x3dfb3a30	0.12266958
225	0xbe5d06b0	-0.21584582
226	0x3ed3753c	0.4130038
227	0xbed91e74	-0.42406046
228	0xbeea05a8	-0.4570744
229	0x3e61cbbc	0.22050375
230	0x3ed884cc	0.42288816
231	0x3e3beed0	0.18352818
232	0xbb311500	-0.0027020574
233	0x3e8e9cd8	0.27854037
234	0xbee2417a	-0.4419058
235	0x3eacdfb0	0.3376441
236	0xbe8fe223	-0.28102216
237	0x3ef9b5e1	0.48771575
238	0x3e6278e4	0.22116429
239	0x3e6304a0	0.22169733
240	0xbeed5082	-0.46350485
241	0xbe855848	-0.26043916
242	0xbe92272a	-0.28545505
243	0x3e03ff44	0.12890345
244	0x3d5693a0	0.05238688
245	0xbef6c884	-0.48199856
246	0xbe90c6f2	-0.28276783
247	0xbcae1ce0	-0.021254003
248	0xbe0c7384	-0.1371594
249	0xbeaf0b9a	-0.3418854
250	0x3ed56320	0.4167719
251	0xbef19f3a	-0.47191793
252	0x3c172468	0.0092249885
253	0xbeec0883	-0.46100244
254	0x3c320a91	0.010866777
255	0xbf946344	-1.1592793

bias f4 [256]
0	0x3b41bf00	0.0029563308
1	0x3eac6479	0.33670405
2	0x3f1ac987	0.60463756
3	0x3e5fbcac	0.21849316
4	0x3e247504	0.16060263
5	0x3d0e7c90	0.03478676
6	0x3e3d52bc	0.18488592
7	0x3f2edfa3	0.6830999
8	0xbed54ff4	-0.41662562
9	0xbeb42e1c	-0.3519143
10	0x3d8699a0	0.065722704
11	0x3e46767c	0.19381136
12	0xbe2c6fd8	-0.1683954
13	0x3ea349fa	0.31892377
14	0x3f4ac619	0.79208523
15	0x3e56e724	0.2098661
16	0xbf09c8b8	-0.538219
17	0x3ee408b8	0.44537902
18	0xbe9acb38	-0.3023317
19	0x3ef4aebe	0.47789568
20	0x3d01b850	0.031669915
21	0xbecfc1e1	-0.40577605
22	0xbeaef0cc	-0.34168088
23	0x3ec1bcce	0.3783936
24	0x3ccbc8e0	0.024876058
25	0xbeb82bd7	-0.35970947
26	0x3eff57e7	0.49871752
27	0xbee2a22e	-0.44264358
28	0x3ebcecac	0.36899316
29	0x3e9b2936	0.3030488
30	0xbeee0214	-0.4648596
31	0x3eabf350	0.3358407
32	0x3e19cc70	0.15019393
33	0xbeec491d	-0.4614953
34	0x3e420cbc	0.1895017
35	0x3e93d577	0.28873798
36	0xbea317bb	-0.31854042
37	0x3e074ec5	0.13213642
38	0xbef83ec4	-0.48485386
39	0x3f341778	0.7034831
40	0xbebccc4e	-0.36874622
41	0xbeb50ffc	-0.35363758
42	0xbdf05cb4	-0.11736432
43	0x3eeee162	0.46656328
44	0xbedfb7ab	-0.43694815
45	0xbda6dbcd	-0.081473924
46	0x3dad5a00	0.08464432
47	0x3d36c540	0.044621706
48	0x3ef8062e	0.48442215
49	0xbe3d0d6b	-0.1846215
50	0xbef5cb5c	-0.48006713
51	0x3ee970fa	0.45594007
52	0xbe899fee	-0.2687983
53	0x3ecfc2f5	0.40578428
54	0xbe2607e8	-0.16213953
55	0xbdf9b4aa	-0.12192662
56	0xbd84a628	-0.06477004
57	0x3ecb26b2	0.3967796
58	0x3e46a738	0.19399726
59	0x3ee468b1	0.44611123
60	0xbdc24310	-0.094854474
61	0x3efaa2d0	0.4895234
62	0xbeacd3f8	-0.3375547
63	0xbe25ab86	-0.16178712
64	0xbe000973	-0.12503605
65	0xbeface16	-0.48985356
66	0x3eea5fcd	0.45776215
67	0x3ed9e6ec	0.42558992
68	0x3ef4541c	0.4772042
69	0x3f064080	0.5244217
70	0x3f29a3a2	0.6626531
71	0xbca311e0	-0.019905984
72	0x3e74550c	0.23860568
73	0xbed4fbb2	-0.41598278
74	0x3efb3628	0.49064755
75	0x3e37cfc0	0.17950344
76	0x3e77f0c8	0.24212945
77	0x3e8ed263	0.27894887
78	0x3d84a908	0.06477553
79	0x3e166328	0.14686263
80	0x3f803fd1	1.0019475
81	0xbca4a404	-0.02009774
82	0xbd76f780	-0.06029463
83	0xbe88b2d0	-0.26698923
84	0x3e13fc34	0.14451677
85	0xbee73612	-0.4515844
86	0xbd4d7e5e	-0.05016934
87	0x3dfe3554	0.12412515
88	0xbeb24ec4	-0.34825718
89	0xbec29b82	-0.38009268
90	0xbedded18	-0.4334495
91	0x3eb06034	0.34448397
92	0xbf26397a	-0.6493145
93	0xbe1d2922	-0.15347722
94	0x3e574118	0.21020925
95	0xbe46bf54	-0.19408923
96	0xbf2f4375	-0.68462306
97	0xbea6aff0	-0.32556105
98	0xbe1ecf8c	-0.1550886
99	0xbef735b2	-0.48283154
100	0x3edda635	0.43290868
101	0x3e7a6f54	0.24456531
102	0x3f8cda53	1.1004127
103	0x3f2a1783	0.66442126
104	0xbdb104a8	-0.08643466
105	0xbd2bd0d0	-0.041947186
106	0xbea2f6b0	-0.31828833
107	0x3ed351f8	0.41273475
108	0x3f26e530	0.6519346
109	0xbe1daf5c	-0.15398926
110	0xbc402d8c	-0.011729609
111	0x3e1ecec9	0.1550857
112	0x3f19ce91	0.6008082
113	0x3de053f2	0.10953511
114	0xbef0ae42	-0.47007948
115	0xbe55589c	-0.20834583
116	0x3df87f83	0.12133696
117	0xbf2b4494	-0.66901517
118	0x3d806c50	0.06270659
119	0xbf03e9a2	-0.5152837
120	0x3f867ce4	1.0506864
121	0x3e3be7b1	0.18350102
122	0x3eebe526	0.46073264
123	0x3ec30c94	0.38095534
124	0x3e614bdc	0.22001594
125	0xbe7bf40f	-0.2460482
126	0xbe9e4b56	-0.30916852
127	0x3eb40ccc	0.35166013
128	0x3f0edb98	0.55803823
129	0x3ee1882b	0.440492
130	0x3eba3280	0.36366653
131	0xbe9458a4	-0.28973877
132	0x3edc281c	0.4299935
133	0xbed6fa96	-0.41988057
134	0x3f8c8a2f	1.097967
135	0x3e7836e2	0.24239686
136	0xbda4ba70	-0.08043373
137	0x3d9c4628	0.07630569
138	0xbdc5e550	-0.096628785
139	0x3d04e4f1	0.032444898
140	0xbedacf6c	-0.42736375
141	0x3f4d01b6	0.80080736
142	0xbf0f117a	-0.5588604
143	0x3e963b54	0.2934214
144	0xbe0f8ed0	-0.14019322
145	0x3e64dde4	0.2235027
146	0x3d19ffd9	0.03759751
147	0x3e40093c	0.18753523
148	0xbeed3c12	-0.46334893
149	0xbebf3f8a	-0.37353164
150	0x3f55f1ac	0.83571887
151	0x3d8b8848	0.06813103
152	0x3f1d266c	0.6138675
153	0xbeb88cbe	-0.36044878
154	0x3de11ed0	0.10992205
155	0xbf7dca47	-0.99136776
156	0xbde4f530	-0.11179578
157	0x3e6b8d31	0.23003079
158	0xbb04e100	-0.0020275712
159	0xbeabe093	-0.33569774
160	0x3efa45c4	0.48881352
161	0xbea6888a	-0.32526046
162	0xbcc35fc0	-0.023849368
163	0x3e23a26f	0.15979932
164	0xbe4f30f4	-0.20233518
165	0xbe795548	-0.24348938
166	0x3e888cba	0.26669866
167	0x3cee6e40	0.029105306
168	0x3d3f4a50	0.04670173
169	0x3ed6fb20	0.41988468
170	0xbee64543	-0.44974717
171	0xbf32b673	-0.69809645
172	0xbee542e9	-0.4477761
173	0xbea2a6ee	-0.31767982
174	0xbf19c7bb	-0.6007039
175	0x3eae44c3	0.34036836
176	0xbe8d2c08	-0.27572656
177	0x3eb36dab	0.35044608
178	0x3dcc925d	0.09988854
179	0xbddfbdef	-0.10924899
180	0x3e94a6fe	0.29033655
181	0xbf304ff4	-0.68872
182	0x3ce1cee0	0.027564466
183	0x3e822e24	0.25425828
184	0x3dfe9ba8	0.12432033
185	0x3f8456a4	1.0338941
186	0xbe542705	-0.2071801
187	0xbed751e8	-0.42054677
188	0x3f12ba4d	0.5731552
189	0xbeb055d2	-0.34440476
190	0x3f1171d3	0.56814307
191	0xbef6f2cc	-0.48232114
192	0xbe7cc3a6	-0.24684009
193	0x3eac8f48	0.33703065
194	0x3ed51fdb	0.41625866
195	0xbe8a7634	-0.27043307
196	0xbd961818	-0.07328814
197	0xbe820aa4	-0.25398743
198	0xbccf11e0	-0.025277078
199	0xbf0e94f1	-0.55696017
200	0x3ea38686	0.3193857
201	0x3e646b7c	0.22306627
202	0x3ed33302	0.41249853
203	0x3edbfd16	0.42966527
204	0xbdd3a678	-0.10334486
205	0xbec170f4	-0.3778149
206	0xbe76d244	-0.24103647
207	0x3ec73b55	0.38912454
208	0x3f239318	0.6389632
209	0xbdd21858	-0.102585495
210	0x3e53b408	0.20674145
211	0x3e1cd454	0.15315372
212	0xbed5ecce	-0.4178223
213	0xbed29e9d	-0.41136637
214	0x3fc44656	1.5333965
215	0x3ec6f471	0.3885837
216	0x3e94c736	0.29058236
217	0x3ef90274	0.48634684
218	0x3efaef06	0.49010485
219	0x3e28719c	0.16449589
220	0xbd67da64	-0.056604758
221	0x3ee53dec	0.44773805
222	0x3eb3a79c	0.35088813
223	0x3ed59858	0.41717792
224	0xbe711844	-0.23544413
225	0xbe02b950	-0.12766004
226	0xbf51a358	-0.8188987
227	0xbe243b97	-0.16038357
228	0x3f88712b	1.0659536
229	0x3c2719cb	0.010199021
230	0x3e99bcd8	0.3002689
231	0xbe356007	-0.17712413
232	0xbe756354	-0.23963672
233	0xbe50787b	-0.2035846
234	0x3e1b16a6	0.15145358
235	0x3f232c64	0.6373961
236	0x3f1566e1	0.58360106
237	0x3eda57ec	0.42645204
238	0xbea916f2	-0.33025318
239	0x3ebed68a	0.37273055
240	0x3dae1ca8	0.085015595
241	0x3deeb5a8	0.11655742
242	0x3e0d2f7e	0.13787648
243	0x3e0e9582	0.1392422
244	0x3e5a260a	0.21303573
245	0x3ed668b2	0.4187675
246	0x3f00c3ba	0.50298655
247	0xbdc190ee	-0.09451471
248	0x3e4f8f9d	0.20269628
249	0xbee17fd9	-0.44042853
250	0xbf431cf0	-0.7621603
251	0xbee2f756	-0.44329327
252	0x3df0a567	0.11750298
253	0x3e5bd684	0.2146855
254	0xbe7da633	-0.24770431
255	0xbeb9349c	-0.3617295

weight f4 [128, 256]
0	0x3d323dfe	0.04351615
1	0xbd428803	-0.047492992
2	0x3e5a86e6	0.21340522
3	0xbd1ab242	-0.037767656
4	0xbd20f8a2	-0.039299615
5	0xbcddcd88	-0.027075544
6	0xbd2d6df6	-0.042341195
7	0x3e455268	0.19269717
8	0x3c041918	0.008062623
9	0xbda44503	-0.080209754
10	0xbd7c014c	-0.061524674
11	0xbd658dc0	-0.056043386
12	0xbcbc9d38	-0.023024186
13	0x3af18b9f	0.0018428451
14	0x3e3bfea2	0.18358853
15	0xbd1d17ce	-0.03835278
16	0xbd369d48	-0.04458359
17	0xbcf3e288	-0.029771104
18	0xbd058271	-0.0325951
19	0xbd6a7768	-0.05724278
20	0xbc9b0200	-0.018921852
21	0xbde40228	-0.11133224
22	0xbcb4d896	-0.022075932
23	0x3cc7eb3a	0.024404157
24	0xbd15d01a	-0.036575414
25	0xb9c89d84	-0.0003826433
26	0x3c64776d	0.013944489
27	0x3c65ba78	0.014021508
28	0xbd81349a	-0.06308861
29	0x3d0ffde5	0.035154242
30	0x3cdab8c8	0.026699439
31	0xbd01a6c1	-0.03165317
32	0xbd478060	-0.048706412
33	0x3cf78919	0.03021674
34	0x3d05bbb8	0.032649726
35	0x3d012c8e	0.03153663
36	0xbc6b12a7	-0.014347709
37	0x3d277189	0.04087976
38	0x3bda1d1f	0.0066563035
39	0x3e419768	0.18905413
40	0x3cbc1c96	0.02296285
41	0xbd84ab2c	-0.06477961
42	0xbb7a7244	-0.003821508
43	0x3ca76242	0.020432595
44	0xbddc379e	-0.10752796
45	0xbcb11f52	-0.02162138
46	0x3c66c392	0.0140847135
47	0xbd006fd9	-0.031356666
48	0x3cc8f424	0.024530478
49	0x3cfcaed1	0.030845078
50	0x3c782a32	0.015146779
51	0x3c219fda	0.009864772
52	0x3ccc6708	0.024951473
53	0x3c1e1992	0.009649651
54	0xbc80a3a1	-0.015703024
55	0x3bc969d8	0.0061466508
56	0xba3da273	-0.00072339847
57	0x3d683d5c	0.05669914
58	0x3d1ef520	0.03880799
59	0x3c4bf73d	0.012449083
60	0x3d285d3a	0.041104533
61	0xbd1bc362	-0.03802813
62	0x3d524a7c	0.051340565
63	0x3a10d8d0	0.00055254716
64	0xbe348dac	-0.17632169
65	0x3d7053e2	0.058673747
66	0x3d1e8fd9	0.038711403
67	0xbc7b5739	-0.01534062
68	0x3d06a360	0.03287065
69	0xbcc4aa1e	-0.0240069
70	0x3e1a7aae	0.15085861
71	0xbd65af1c	-0.0560752
72	0x3c136bfe	0.008997915
73	0xbd5927ee	-0.053016596
74	0xbc3cb9fc	-0.0115189515
75	0xbb81412b	-0.003944536
76	0x3c36ce9e	0.01115766
77	0x3c229d09	0.009925135
78	0x3ba9bf5f	0.005180284
79	0x3d2fd0e0	0.042923808
80	0x3e4fcc34	0.20292741
81	0x3c57fe44	0.01318318
82	0x3cd51108	0.026009098
83	0x3c925ac2	0.017865542
84	0xbd2db544	-0.042409196
85	0xbd2e3e32	-0.042539783
86	0xbd5371e7	-0.051622298
87	0x3d509f36	0.050933085
88	0x3ba0888d	0.0048990906
89	0xbd46b8c4	-0.04851605
90	0x3c91b8ea	0.01778837
91	0x3c88e2a4	0.016709633
92	0xbd834ec5	-0.064115085
93	0xbc1e42e0	-0.009659499
94	0x3cc72cee	0.024313416
95	0xbd97ed2e	-0.07418285
96	0xbe6f4ea3	-0.23369841
97	0xbc71128e	-0.014713896
98	0xbcab09ea	-0.02087875
99	0xbcbf84dc	-0.023378782
100	0x3d94863e	0.07252167
101	0x3d6f8a70	0.058481634
102	0x3e833bb8	0.256315
103	0x3cab3b13	0.020902192
104	0x3d3a9207	0.04554942
105	0xbd0217bf	-0.031760927
106	0x3d59654c	0.05307512
107	0xbcbdba34	-0.023160078
108	0x3cb58b93	0.02216128
109	0xbd1e6e3e	-0.038679354
110	0xbcc3cdcd	-0.023901844
111	0x3c15cf3e	0.009143649
112	0x3cc1f1fa	0.023674954
113	0xbd48cf43	-0.049025785
114	0x3d0ad34a	0.033892907
115	0x3c54ba18	0.012983821
116	0xbc9a8ece	-0.018866923
117	0xbe15b25e	-0.14618823
118	0x3d91ea12	0.071247235
119	0xbdd9ddc9	-0.10638005
120	0x3e8e94c7	0.27847883
121	0x3c289ca1	0.0102912495
122	0x3d853fa8	0.06506282
123	0x3d31d11b	0.04341231
124	0x3ba505c7	0.005036089
125	0x3d648567	0.055791285
126	0xbd0a3466	-0.033741377
127	0xbd8c756a	-0.068583325
128	0x3dacc25f	0.08435511
129	0x3d98b09c	0.074555606
130	0xbd02b6e0	-0.031912684
131	0x3d327b50	0.04357463
132	0xbca2ceac	-0.01987394
133	0xbd8e5cb0	-0.069512725
134	0x3e9ae290	0.30250978
135	0xbd40b680	-0.047049046
136	0x3cf33696	0.029689115
137	0xbd13c3f8	-0.036075562
138	0xbd81a89f	-0.0633099
139	0xbd60676a	-0.054786123
140	0xbd4a6d9a	-0.04942093
141	0x3e81ae10	0.25328112
142	0xbd417237	-0.047228064
143	0xbd680a76	-0.0566506
144	0xbc4f71da	-0.012661422
145	0xbc49157e	-0.012273191
146	0x3df77895	0.12083546
147	0xbb5aba53	-0.0033375218
148	0x3d32fe5a	0.0436996
149	0x3aee03c7	0.0018159085
150	0x3e894aa8	0.2681477
151	0xbccf5fc4	-0.02531422
152	0x3d10a0aa	0.03530947
153	0xbc07e491	-0.008294241
154	0x3d429484	0.047504917
155	0xbe49fe40	-0.19725895
156	0xbd97b294	-0.07407108
157	0x3cf84471	0.030306073
158	0xbd77932a	-0.06044308
159	0xbd8e53f4	-0.069496065
160	0x3d22f824	0.039787427
161	0xbd8301f2	-0.063968554
162	0x3be5dac3	0.007014604
163	0xbce06302	-0.02739096
164	0x3c4ff64a	0.012692997
165	0xbd4c2c3e	-0.04984688
166	0xbd42eef6	-0.047591172
167	0xbd2afefe	-0.041747086
168	0x3d8a2d98	0.067469776
169	0xbd1b3ade	-0.037897937
170	0xbd9647e1	-0.073379286
171	0xbe329aa1	-0.17441799
172	0xbd2e4312	-0.042544432
173	0x3d84ee52	0.064907685
174	0xbdfb31c4	-0.122653514
175	0xbb48b89c	-0.0030627614
176	0x3d3c48c2	0.045967825
177	0x3ce9b5ca	0.028529067
178	0xbd560288	-0.052248508
179	0xbe0426df	-0.12905453
180	0x3d26bade	0.040705554
181	0xbe27de8a	-0.16393486
182	0x3c86b6f0	0.016444653
183	0xbc73ba17	-0.01487591
184	0xbc0b0936	-0.008486083
185	0x3e9bcd6a	0.30430156
186	0xbd13d6b7	-0.03609344
187	0x3be8cb9f	0.0071043517
188	0xbcd63d9a	-0.02615242
189	0x3cca17c0	0.024669528
190	0x3d8197ee	0.063278064
191	0x3d94811e	0.0725119
192	0x3cd4db2d	0.025983417
193	0xbd44e018	-0.048065275
194	0xbcebde66	-0.028792571
195	0xbcc3ed32	-0.023916814
196	0x3d5b3a7e	0.05352258
197	0x3d03ae31	0.032148544
198	0x3c414ba2	0.011797817
199	0xbe7620b4	-0.24035913
200	0x3c0aaa99	0.008463525
201	0xbc47e6e2	-0.012201043
202	0xbca47642	-0.020075921
203	0x3cd81426	0.026376795
204	0x3c409ae8	0.0117556825
205	0xbd3ae02c	-0.045623943
206	0x3d1f8e2a	0.038953938
207	0xbd216ce4	-0.039410487
208	0x3e22f723	0.15914588
209	0x3d84d080	0.06485081
210	0x3d48c77c	0.049018368
211	0x3dd26113	0.10272422
212	0x3c401c0c	0.011725437
213	0xbd23d4d3	-0.039997887
214	0x3ea97d51	0.3310342
215	0x3cfa1236	0.030526262
216	0xbcf6b699	-0.030116366
217	0xbd6a71fc	-0.05723761
218	0xbd0fc3e4	-0.035098925
219	0x3c5c50e0	0.0134470165
220	0x3d8bf5a6	0.06833963
221	0xbd226744	-0.039649263
222	0xbcd6989a	-0.026195813
223	0x3d8a8458	0.06763524
224	0xbc0ab9e6	-0.008467173
225	0x3d76a576	0.06021639
226	0xbe1f0936	-0.15530857
227	0xbd816cf6	-0.06319611
228	0x3e80a424	0.2512523
229	0xbc84f783	-0.016231304
230	0xbd042d23	-0.03226961
231	0x3d1eefcc	0.038802907
232	0x3d435b44	0.04769446
233	0xbd17a765	-0.037024874
234	0x3d0eef3d	0.034896124
235	0x3e39fcae	0.18162796
236	0x3e4d4012	0.20043972
237	0xbae5bd79	-0.0017527781
238	0x3d384e42	0.044996507
239	0xbc1432e2	-0.0090453345
240	0x3d8e0644	0.06934789
241	0xbc2370fb	-0.009975667
242	0x3d9ae47b	0.075631104
243	0x3d1efe0f	0.038816508
244	0x3c9fcadd	0.019505912
245	0xbc8887a8	-0.016666248
246	0x3da90f0c	0.08254823
247	0xbd8494f6	-0.064737245
248	0x3d0f1781	0.034934524
249	0xbcc5a36b	-0.024125775
250	0xbe3c0917	-0.18362843
251	0x3ce478be	0.027889606
252	0xbc2559da	-0.010092223
253	0x3d8789f4	0.06618109
254	0x3ca87602	0.020564083
255	0x3c6ee838	0.014581732

bias f4 [128]
0	0x3d9a0be9	0.07521803
1	0x3d9bb7be	0.076034054
2	0x3d9bb41a	0.07602711
3	0xbd1a2a9f	-0.037638303
4	0x3c3a74b2	0.011380361
5	0xbcd1b25c	-0.025597744
6	0xbbba978b	-0.005694335
7	0x3cf94f27	0.03043325
8	0x3d2b6730	0.041846454
9	0x3d17a6b8	0.03702423
10	0x3d05d6f0	0.032675683
11	0xbcd4dd6d	-0.02598449
12	0xbd8f652c	-0.07001719
13	0xbc99580d	-0.018718744
14	0xbd3a424b	-0.04547338
15	0x3c9bcd52	0.019018803
16	0x3d46aa85	0.048502464
17	0x3c2f9f7c	0.010719176
18	0x3cc5e54a	0.024157185
19	0x3d6ba758	0.05753264
20	0x3bdad61e	0.006678357
21	0xbc99e8df	-0.0187878
22	0xbc0d39dc	-0.008619752
23	0x3cca3985	0.02468563
24	0xbd2707a4	-0.04077877
25	0x3d07f898	0.03319606
26	0x3d3cfb1c	0.046137914
27	0xbc90475f	-0.017612157
28	0xbbc6ead6	-0.006070475
29	0xbd642ef6	-0.055708848
30	0xbc8d14e3	-0.017221874
31	0xbd942a48	-0.07234627
32	0x3cb510a3	0.02210266
33	0x3c82bb8a	0.015958566
34	0x3ca45dff	0.020064352
35	0x3d7b3206	0.061327003
36	0x3d135559	0.035970066
37	0x3d45eeb0	0.048323333
38	0x3c2d9c10	0.01059629
39	0x3cc4a7d9	0.024005817
40	0x3d80c7fa	0.062881425
41	0x3d1bcb80	0.03803587
42	0xbcae3db9	-0.021269666
43	0xbd34ae0e	-0.044111304
44	0x3d1be8a5	0.038063664
45	0x3cdc4a6b	0.026890954
46	0x3d94807d	0.0725107
47	0x3d0b7dd9	0.034055565
48	0xbd89b3ba	-0.06723733
49	0xbc81398b	-0.015774509
50	0x3b14ba22	0.0022693952
51	0xbc84de9b	-0.016219428
52	0xbc917538	-0.01775609
53	0xbd17555c	-0.03694664
54	0x3ce5b516	0.02804045
55	0xbc843864	-0.01614017
56	0x3d0f70af	0.035019573
57	0x3c5b15e5	0.013371919
58	0xbd17fa5a	-0.03710399
59	0xbd267eec	-0.040648386
60	0xbcfbef32	-0.030753706
61	0xbbed9ca8	-0.007251341
62	0xbbf99af7	-0.00761735
63	0xbd779f71	-0.06045479
64	0x3d7091ba	0.058732726
65	0xbae670b3	-0.0017581194
66	0xbca28953	-0.019840872
67	0xbd475072	-0.048660703
68	0xbd134477	-0.035953965
69	0xbc9b72cb	-0.018975636
70	0xbcbd4da9	-0.02310832
71	0x3d187c3e	0.03722786
72	0x3d0edd67	0.034879114
73	0x3d37c12e	0.044861965
74	0x39f4964e	0.00046651292
75	0xbc81fdef	-0.015868155
76	0xbbe6847d	-0.007034837
77	0xbd4930f3	-0.049118947
78	0x3d0423fa	0.032260872
79	0xbcbc2025	-0.022964546
80	0xbd465d9e	-0.048429124
81	0xbcacf6da	-0.021113802
82	0xbbf94cd2	-0.0076080346
83	0xbcb12d9d	-0.021628195
84	0xbd469ac2	-0.048487432
85	0x3cc1076b	0.023563107
86	0xbc8bdf17	-0.017074151
87	0x3b7af0c3	0.0038290478
88	0x3d1d8824	0.038459912
89	0x3d2cc14b	0.042176526
90	0x3b7c8733	0.0038532733
91	0x3d938218	0.07202548
92	0x3d12503f	0.03572106
93	0xbc1e0107	-0.0096438
94	0xbd544f31	-0.051833335
95	0x3c2ee797	0.0106753325
96	0xbd4a370a	-0.049368896
97	0xbc4b82d0	-0.012421325
98	0xbbd58c78	-0.0065169893
99	0x3cc003cf	0.023439316
100	0xbd56ceb5	-0.052443225
101	0x3c9b8c15	0.018987695
102	0xbadeded4	-0.0017003664
103	0xbbf31971	-0.0074188043
104	0xbd679a6d	-0.056543756
105	0xbc9735d4	-0.018458284
106	0x3bbe9a01	0.0058166985
107	0xbcc0c90d	-0.023533368
108	0x3d71956a	0.058980383
109	0x3d7febaf	0.062480625
110	0x3c8b26b9	0.016986238
111	0x3d0358f4	0.032067254
112	0xbbc648ad	-0.006051144
113	0xbcb9579b	-0.022624781
114	0xbd9406a5	-0.0722783
115	0x3c65cad2	0.014025407
116	0x3d07d7ba	0.033164717
117	0x3a2ed22c	0.00066688913
118	0x3b80e501	0.0039335494
119	0xbd2a96bb	-0.041647654
120	0x3d4293da	0.047504283
121	0xbc0dc704	-0.008653406
122	0x3d1566ec	0.036475107
123	0xbd6bbd52	-0.057553597
124	0xbd8f3c71	-0.0699395
125	0x3d9f18b3	0.07768383
126	0x3d12b676	0.03581854
127	0x3d9cd66a	0.07658084

weight f4 [64, 128]
0	0x3bfc7ed2	0.007705548
1	0xbd3dcfb3	-0.046340656
2	0x3d8423bf	0.064521305
3	0x3ce4fcad	0.027952516
4	0xbcb7ab2f	-0.022420494
5	0x3c82be51	0.01595989
6	0x3d81216d	0.063052036
7	0x3c9f9a36	0.019482713
8	0xbda6ae75	-0.08138744
9	0xbd5c95ab	-0.053853672
10	0x3da39beb	0.07988723
11	0xbd91213e	-0.070864186
12	0xbd297168	-0.04136792
13	0x3d858597	0.06519621
14	0xbda2306f	-0.07919394
15	0xbd2a061d	-0.041509736
16	0xbcca7674	-0.024714686
17	0xbda92cc4	-0.082604915
18	0x3d3e1227	0.04640403
19	0xbc6c57e1	-0.014425249
20	0x3d3a29ed	0.04545014
21	0x3de5eeb2	0.11227168
22	0x3bd80429	0.006592293
23	0x3d7f3190	0.062303126
24	0xbcf400ae	-0.02978548
25	0xbde931a6	-0.11386423
26	0xbbea5757	-0.007151525
27	0xbcad866a	-0.021182258
28	0x3d9430b6	0.072358534
29	0xbda5f2de	-0.08102964
30	0x3d716770	0.058936536
31	0xbc7da0f0	-0.015480265
32	0xbdcccb4b	-0.099997126
33	0xbbefc70a	-0.0073174285
34	0xbd24f31c	-0.04027091
35	0x3df585c5	0.11988405
36	0xbcc1ea9e	-0.023671445
37	0xbc04ca93	-0.008104938
38	0xbd5be2eb	-0.053683203
39	0xbd2b813e	-0.0418713
40	0xbda4ec2c	-0.08052859
41	0xbdcd1a0e	-0.10014735
42	0xbcb98457	-0.022646112
43	0xbc8f0489	-0.017458217
44	0x3c4a0942	0.012331309
45	0x3dabdb0c	0.08391389
46	0xbdbd2775	-0.092360415
47	0x3cfb358b	0.03066518
48	0xbd8df5a5	-0.069316186
49	0xbca1ceaa	-0.019751865
50	0xbc851dfb	-0.016249647
51	0x3d935c73	0.07195368
52	0x3c3281c4	0.010895196
53	0xbe00a117	-0.12561451
54	0xbc6ddaac	-0.0145174675
55	0x3d5ba599	0.053624723
56	0x3cf591ef	0.029976813
57	0xbd8c95fb	-0.06864544
58	0xbd932bce	-0.071860895
59	0xbce380e7	-0.027771426
60	0x3d1e0221	0.03857625
61	0xbd7b555d	-0.061360706
62	0x3d544be0	0.051830173
63	0x3cb8f40c	0.022577308
64	0xbdcad43f	-0.09903764
65	0xbd0f1555	-0.034932453
66	0x3ce83249	0.02834429
67	0xbd227f7f	-0.03967237
68	0x3d2d2c8f	0.042278823
69	0xbca04882	-0.019565824
70	0x3dd23a33	0.10265007
71	0x3d1d9bc8	0.038478643
72	0x3c07358e	0.0082525145
73	0xbddebc19	-0.108757205
74	0xbd73fd14	-0.059567526
75	0xbdc4faeb	-0.09618171
76	0xbd7c29d8	-0.061563343
77	0x3d0118a1	0.03151763
78	0xbcad933d	-0.021188373
79	0xbb80cb92	-0.0039305175
80	0xbda61d8b	-0.081111036
81	0xbd596b32	-0.053080745
82	0xbdc9154b	-0.098185144
83	0xbdeeed94	-0.11666408
84	0x3d659f24	0.05605997
85	0x3e04988a	0.12948814
86	0xba8fd5cf	-0.0010973754
87	0xbcc69e45	-0.02424539
88	0xbd8c1e76	-0.068417475
89	0x3dd0f3ca	0.10202749
90	0xbda22189	-0.079165526
91	0x3d702527	0.05862918
92	0xbc44f532	-0.01202135
93	0x3d7f80a8	0.062378556
94	0x3c05947c	0.008153077
95	0xbd31215f	-0.043244716
96	0xbdc32dfa	-0.09530254
97	0xbd624c59	-0.055248592
98	0x3db3b608	0.08774954
99	0xbbbc30cc	-0.0057431217
100	0xbda9d672	-0.08292855
101	0xbdd908e5	-0.105973996
102	0x3c9f4f99	0.019447135
103	0x3bc08708	0.005875472
104	0xba0ef94c	-0.0005454018
105	0x3da8ed10	0.08248341
106	0xbd94026c	-0.072270244
107	0xbc955e35	-0.018233398
108	0x3d719a58	0.058985084
109	0xbc31c4de	-0.010850159
110	0xbd18d66a	-0.037313856
111	0x3d7aeafa	0.061259247
112	0x3dbb49c6	0.091449305
113	0x3ce98911	0.028507741
114	0xbcafc878	-0.021457896
115	0xbd65841a	-0.056034185
116	0x3d9a27b6	0.075271055
117	0xbce1d80b	-0.027568838
118	0x3d530c60	0.051525474
119	0xbc9f47c6	-0.019443404
120	0xbd5a059d	-0.05322801
121	0xbb6d40d1	-0.0036201964
122	0x3b97363d	0.00461462
123	0xbdc885b8	-0.0979113
124	0xbcbdd1ec	-0.023171388
125	0x3cb49e11	0.022048028
126	0x3ce97c4d	0.028501654
127	0xbcbd80e4	-0.023132749
128	0xbd8e785f	-0.06956553
129	0xbb0d8080	-0.0021591485
130	0xbd006a17	-0.031351175
131	0x3d924cd4	0.0714356
132	0x3d2bc520	0.04193604
133	0x3d79aea0	0.06095755
134	0x3d947eae	0.07250725
135	0x3c888c58	0.016668484
136	0xbdaa568b	-0.08317288
137	0x3d33dc50	0.04391128
138	0x3cd735a9	0.026270704
139	0x3daf4d4a	0.085596636
140	0x3d2353a7	0.0398747
141	0x3df511f3	0.11966314
142	0x3bfaba89	0.0076516313
143	0xbcdd3532	-0.027002905
144	0xbcc236a9	-0.023707705
145	0xbdf69d9e	-0.12041782
146	0x3de28392	0.11060251
147	0xbc40eeff	-0.011775731
148	0xbc3ac1e5	-0.011398767
149	0xbc81ef7c	-0.015861265
150	0xbd812955	-0.063067116
151	0x3d6c8665	0.057745356
152	0x3c0e4cfd	0.008685348
153	0xbda6e92b	-0.08149942
154	0x3d823d36	0.06359331
155	0x3db3e38c	0.087836355
156	0xbd64689a	-0.05576382
157	0x3b68fcbb	0.003555103
158	0xbcd18cba	-0.025579799
159	0xbd9a56af	-0.07536065
160	0xbdc54e48	-0.096340716
161	0xbd8bbfe3	-0.06823709
162	0xbdb79f20	-0.089658976
163	0xbd12bc8d	-0.035824347
164	0xbda650aa	-0.08120854
165	0x3d4421f4	0.047883943
166	0xbdf2289c	-0.11824152
167	0x3c960ddf	0.018317161
168	0x3bb098d4	0.0053893123
169	0x3d8f8405	0.070076026
170	0xbdfb0c82	-0.12258245
171	0x3d1ff300	0.039050102
172	0xbc9c12f1	-0.019052
173	0x3d83c655	0.06434313
174	0x3c1487fe	0.009065626
175	0x3c5ec4eb	0.013596754
176	0xbdadebc1	-0.08492232
177	0x3df2ac44	0.11849263
178	0xbdb36797	-0.087599926
179	0x3d8bb7ef	0.06822192
180	0xbcb977d8	-0.022640154
181	0xbd456205	-0.04818918
182	0xbc912616	-0.017718356
183	0x3bc1f1bb	0.005918709
184	0xbcfb7c33	-0.030698871
185	0xbde117d4	-0.10990873
186	0x3b29b03f	0.0025892404
187	0x3cad2b1c	0.02113872
188	0x3d90447c	0.07044312
189	0x3bd45b65	0.0064806216
190	0xbda2c360	-0.07947421
191	0x3da515b1	0.08060778
192	0xbd0285cd	-0.031865884
193	0x3dec71f0	0.11545169
194	0x3d80a0a2	0.06280638
195	0xbd2405ae	-0.04004448
196	0xbd3c88d7	-0.04602894
197	0xbdb84101	-0.089967735
198	0x3dd428f7	0.10359376
199	0xbd16a63f	-0.03677964
200	0xbbb587ee	-0.0055398857
201	0xbd54a7c1	-0.051917795
202	0xbd3a5d50	-0.045499146
203	0xbdacc171	-0.084353335
204	0x3c5f4237	0.013626627
205	0xbb9cfc7a	-0.0047908397
206	0xbd417021	-0.047226075
207	0x3dee4234	0.11633721
208	0xbcafddd2	-0.021468077
209	0xbddc595d	-0.10759232
210	0xbda16da8	-0.078822434
211	0xbddf059e	-0.10889743
212	0xbd536732	-0.051612087
213	0x3d44c080	0.048035145
214	0xbd907f92	-0.07055582
215	0x3d56322e	0.05229395
216	0x3d234a54	0.039865807
217	0xba246ee9	-0.00062726304
218	0xbd892059	-0.06695623
219	0x3d2e75b8	0.042592734
220	0xbd15d8f5	-0.03658386
221	0xbd318285	-0.043337364
222	0x3cb81e1e	0.022475298
223	0xbd02c0bd	-0.03192209
224	0xbcc1e935	-0.023670772
225	0xbd674fab	-0.05647246
226	0x3d956208	0.072940886
227	0x3dafbfef	0.0858153
228	0x3ce17b7c	0.027524702
229	0x3ca76856	0.020435493
230	0x3bf60aaf	0.007508598
231	0xbbdb5825	-0.0066938573
232	0x3c7344f3	0.014847982
233	0x3bae860d	0.0053260387
234	0x3a0a8546	0.00052841415
235	0xbc5c2b3c	-0.013438042
236	0xbd002b05	-0.031291027
237	0x3d6fd35d	0.05855118
238	0xbcb7437b	-0.022371044
239	0x3d74edb7	0.059797015
240	0xbbc5f99c	-0.0060417186
241	0xbcf962bc	-0.030442588
242	0x3d8799a2	0.066211
243	0xbcc12d71	-0.023581238
244	0x3d7eab95	0.062175352
245	0x3cc52a6a	0.024068076
246	0x3d48404c	0.048889443
247	0x3d94cad1	0.07265247
248	0xbd28b890	-0.041191638
249	0x3d135d81	0.035977844
250	0xbc2997f4	-0.01035117
251	0xbdbcb2a8	-0.092137635
252	0xbd0578b2	-0.032585807
253	0x3c077784	0.008268241
254	0x3d8c6b86	0.06856446
255	0xbc937b60	-0.018003166

bias f4 [64]
0	0x3c7d9bf9	0.015479081
1	0xbbf043fd	-0.0073323236
2	0x3d5593d5	0.052142937
3	0x3d2dd884	0.042442814
4	0x3c42b172	0.011883127
5	0x3caefedb	0.021361759
6	0x3db719a6	0.08940439
7	0x3d9a226a	0.07526095
8	0x3d37dbb4	0.04488726
9	0x3d6c8ef4	0.05775352
10	0x3cc1be1f	0.023650227
11	0xbc0a6b0b	-0.008448373
12	0x3d6db112	0.058030196
13	0xbdcfb71e	-0.10142349
14	0x3b5b5634	0.003346813
15	0x3d79a114	0.06094463
16	0xbcf31408	-0.029672638
17	0xbdc19981	-0.09453107
18	0xbd8a88bf	-0.067643635
19	0xbcf24b2f	-0.029576866
20	0xbd7971bb	-0.060899477
21	0x3dd7864e	0.105236635
22	0xbd1e1803	-0.038597118
23	0xbd664d32	-0.056225963
24	0xbd7ba610	-0.061437666
25	0x3ceb6fdd	0.028739864
26	0xbcdef4dd	-0.02721637
27	0xbd8e7927	-0.06956702
28	0xbd2536be	-0.04033541
29	0x3c84c205	0.016205797
30	0x3c001616	0.007817766
31	0x3ce27588	0.027643934
32	0xbd6cb0ec	-0.057785913
33	0xbd82b709	-0.063825674
34	0xbd8cf2e7	-0.068822674
35	0xbcff74f6	-0.031183701
36	0xbd810d82	-0.063014045
37	0x3ddbf2c9	0.10739667
38	0xbc870c61	-0.016485395
39	0x3d126645	0.035742063
40	0xbd037725	-0.032096047
41	0xbcf25ef9	-0.029586302
42	0xbd86e8f5	-0.06587402
43	0xbd7c7789	-0.061637435
44	0x3d6f8197	0.058473196
45	0x3b76d4ac	0.0037663383
46	0xbcf92815	-0.03041462
47	0xbd129699	-0.035788152
48	0x3c7edfe3	0.015556308
49	0x3de16bad	0.11006866
50	0x3de7cbb2	0.11318149
51	0x3cc15873	0.023601746
52	0xbd449dd9	-0.048002098
53	0x3dc9c43e	0.09851883
54	0x3d41d7a8	0.047324806
55	0xbdb30bc5	-0.08742479
56	0xbd943d6c	-0.07238278
57	0xbd8470b5	-0.0646681
58	0x3dafd4ec	0.085855335
59	0x3d9c4b90	0.076316
60	0x3cdae002	0.026718143
61	0xbd79707e	-0.060898297
62	0xbc98be75	-0.018645504
63	0xbb45dd34	-0.0030191662

weight f4 [32, 64]
0	0xbdab0aa9	-0.08351643
1	0xbd85a960	-0.06526446
2	0xbd6390e9	-0.05555812
3	0x3e4f6de0	0.20256758
4	0xbd4ca8c0	-0.04996562
5	0x3e1ce5c8	0.1532203
6	0x3ac632e4	0.0015121368
7	0xbeb1ac3d	-0.3470172
8	0x3e7249f2	0.2366102
9	0xbdbc2cc2	-0.091882244
10	0x3da85302	0.082189575
11	0xbdfa1e6d	-0.122128345
12	0x3d4cf79b	0.050040822
13	0xbd373fd3	-0.044738602
14	0x3e11148b	0.14167993
15	0xbd1b72fb	-0.03795145
16	0x3d3dd11d	0.046342004
17	0xbe745878	-0.23861873
18	0x3dfeece9	0.12447531
19	0xbe20355f	-0.1564536
20	0x3d332b73	0.04374261
21	0xbdb51cc8	-0.0884338
22	0xbdb28466	-0.08716659
23	0x3e816610	0.2527318
24	0xb80f7c30	-3.4209515e-05
25	0x3c690d1a	0.014224315
26	0x3db89534	0.09012833
27	0xbe0d5d01	-0.1380501
28	0xbd978df9	-0.07400126
29	0x3c251952	0.010076838
30	0x3e80bb2f	0.2514281
31	0xbea0c4fd	-0.3140029
32	0x3d7c6421	0.061618928
33	0xbdcffa38	-0.10155147
34	0xbdf660db	-0.120301925
35	0xbdade2e6	-0.08490543
36	0xbbae3e3b	-0.005317477
37	0x3cbf9557	0.02338664
38	0x3b904631	0.0044028987
39	0xbd0396ad	-0.032126117
40	0xbd7bc321	-0.061465386
41	0x3cfd7724	0.0309406
42	0x3dd92869	0.10603411
43	0x3d35d7ea	0.044395365
44	0xbdfd9267	-0.1238144
45	0xbc59ff03	-0.013305428
46	0xbd06a675	-0.03287359
47	0x3dc4edc1	0.096156605
48	0xbd80f972	-0.06297578
49	0x3d0bac97	0.03410014
50	0x3d8f9a80	0.070118904
51	0x3d9229ca	0.07136877
52	0x3e1250db	0.14288656
53	0x3de9848e	0.11402236
54	0x3d5a150b	0.053242724
55	0x3d912d4b	0.07088717
56	0xbdad574d	-0.08463917
57	0xbe75032a	-0.23926988
58	0x3bd361ee	0.006450883
59	0xbca23199	-0.01979904
60	0xbc459f73	-0.012061941
61	0xbcf3f559	-0.029780077
62	0xbcc02f32	-0.023460004
63	0xbdca74a6	-0.0988553
64	0x3dba1357	0.0908572
65	0x3d9a5a49	0.07536752
66	0x3e0c8f02	0.13726428
67	0x3d47cd98	0.048780054
68	0x3d6319bd	0.055444468
69	0x3cf845f7	0.0303068
70	0xbdf1afe7	-0.11801129
71	0x3ee187fe	0.44049066
72	0xbe674b72	-0.22587374
73	0xbd2906d7	-0.04126629
74	0xbd25b9ba	-0.040460326
75	0xbd327669	-0.043569956
76	0x3cd4f9c7	0.02599801
77	0xbb96abaf	-0.004598103
78	0xbdead5ef	-0.11466586
79	0x3e029a47	0.12754165
80	0x3cb3dd83	0.021956211
81	0x3e6b1afc	0.22959512
82	0xbd739992	-0.059472628
83	0x3e4a89df	0.19779156
84	0xbd7ba51e	-0.061436765
85	0x3c0c484c	0.008562159
86	0x3e097c74	0.13426381
87	0xbe8f1a55	-0.27949777
88	0x3dfb8210	0.12280667
89	0x3cdf53bb	0.027261605
90	0xbd530c21	-0.05152524
91	0x3e0e196d	0.13876887
92	0x3d00339c	0.03129922
93	0xbdc06f71	-0.09396256
94	0xbe8750bb	-0.2642878
95	0x3ea8c2ca	0.32961112
96	0x3dc2636b	0.09491619
97	0xbde26696	-0.11054723
98	0x3e288c67	0.16459809
99	0x3d9b63df	0.07587408
100	0xbce861ad	-0.028366888
101	0xbdccf895	-0.10008351
102	0x3c940d09	0.018072622
103	0x3dcfc958	0.10145825
104	0x3d5dbc46	0.05413463
105	0xbdc16a8a	-0.09444149
106	0x3db0a1d9	0.0862462
107	0x3cbdfcaa	0.023191769
108	0x3d6d636c	0.057956144
109	0xbd61a994	-0.055093363
110	0x3c896c36	0.016775232
111	0x3dbb1059	0.091339774
112	0x3d41f8cb	0.047356408
113	0x3d30e987	0.04319146
114	0x3ba903d0	0.005157925
115	0xbcb92a1c	-0.022603087
116	0xbda4c8fe	-0.08046149
117	0xbe0a47f5	-0.13504012
118	0xbdd33f2a	-0.10314782
119	0x3dc3fac9	0.09569318
120	0x3dacc95e	0.08436845
121	0x3e734bfa	0.23759452
122	0x3dce6c9d	0.1007931
123	0xbdb4975a	-0.088179305
124	0x3d8a50a2	0.06753661
125	0x3d800720	0.06251359
126	0x3da352a8	0.0797475
127	0xbd9682c1	-0.07349158
128	0xbdfc441a	-0.12317677
129	0xbe3cffcd	-0.18456955
130	0xbdf277c1	-0.118392475
131	0xbc5a62c8	-0.013329215
132	0xbe21a535	-0.15785678
133	0x3d766f3d	0.06016468
134	0xbdfe2ef5	-0.124113
135	0x3d1bff7f	0.038085457
136	0x3daab5f2	0.083354846
137	0xbe56828f	-0.20948242
138	0xbe25ab8f	-0.16178726
139	0xbe0fbf69	-0.14037861
140	0x3dd42ff5	0.103607096
141	0x3d8d6f1e	0.069059595
142	0xbcf65640	-0.030070424
143	0x3e31c06f	0.17358564
144	0xbd979f85	-0.07403473
145	0x3d1fc0cf	0.039002236
146	0x3e36274b	0.17788427
147	0x3bf71a75	0.0075409957
148	0x3e0ff654	0.1405881
149	0xbbe33928	-0.006934304
150	0xbdd03404	-0.10166171
151	0xbdcf69f4	-0.10127631
152	0x3daf761f	0.08567452
153	0x3d462a2a	0.048380055
154	0x3e0a1908	0.13486111
155	0xbd5f13b5	-0.054462153
156	0x3c1f59e0	0.009726018
157	0x3e19ad69	0.15007557
158	0x3dd23bfc	0.10265347
159	0x3c8af589	0.016962783
160	0x3d2fded7	0.042937126
161	0x3e4526ff	0.19253157
162	0x3bfe3ad9	0.00775848
163	0x3d98583a	0.07438703
164	0x3c1cd4e9	0.009572246
165	0xbe3ecab8	-0.18632019
166	0x3c6c21a2	0.014412316
167	0x3e350549	0.17677797
168	0x3ddc90dd	0.10769818
169	0x3e1d5037	0.15362631
170	0xbcb03890	-0.021511346
171	0x3db0dbf7	0.08635705
172	0xbd961fdb	-0.07330295
173	0xbdfaacbe	-0.12239979
174	0x3e0412a5	0.12897737
175	0x3db38337	0.087652616
176	0xbd1ae0f6	-0.037812196
177	0xbe2d349c	-0.169146
178	0xbcb79801	-0.022411348
179	0x3e06368c	0.13106745
180	0xbb86d87a	-0.0041151615
181	0xbd0f54dd	-0.03499304
182	0xbcc523d6	-0.02406494
183	0x3dfb149e	0.12259792
184	0x3dbd47a2	0.092421785
185	0xb9ca3651	-0.0003856891
186	0x3d0bea9d	0.03415929
187	0xbe55839b	-0.20850985
188	0xbe0b140d	-0.13581868
189	0xbe37f156	-0.17963156
190	0xbdf8cfa6	-0.12148981
191	0x3ddd4ea0	0.10806012
192	0x3d96201c	0.07330343
193	0xbd55c9d2	-0.052194424
194	0x3d549080	0.05189562
195	0x3d4cc762	0.049994834
196	0xbd863fda	-0.065551475
197	0xbe6cccb8	-0.23124969
198	0xbe9f9dc5	-0.31175056
199	0xbe1a6fa9	-0.15081657
200	0x3d754386	0.05987885
201	0xbde86521	-0.11347414
202	0x3c868ddd	0.016425068
203	0x3c1f8e7f	0.009738564
204	0xbc1aa9db	-0.009439911
205	0x3e119a3e	0.14218995
206	0x3dc5ee5c	0.09664604
207	0x3de40858	0.11134404
208	0xbe802307	-0.25026724
209	0x3d52bac5	0.05144765
210	0x3dafab6d	0.08577619
211	0xbe0d102b	-0.13775699
212	0x3dd7f55a	0.10544844
213	0xbde65001	-0.11245728
214	0xbe718009	-0.23583998
215	0x3e38231b	0.17982142
216	0x39c7e2aa	0.00038125116
217	0xbd73e7f0	-0.059547365
218	0x3cb17fd4	0.021667399
219	0xbe17914d	-0.14801522
220	0xbc0c3f67	-0.008560038
221	0x3d2f2a7c	0.042765126
222	0x3dccbd17	0.099970035
223	0xbe5d4727	-0.21609174
224	0xbe05a8b0	-0.1305263
225	0x3d104500	0.035222054
226	0xbe4b45c9	-0.1985084
227	0x3d8362ec	0.06415352
228	0x3ce7f374	0.02831433
229	0xbd9ada7f	-0.07561206
230	0xbdffe617	-0.12495058
231	0x3e0ed3aa	0.13947931
232	0x3d5dd1e4	0.054155245
233	0xbe4a9677	-0.1978396
234	0x3da8cfb7	0.082427435
235	0x3ea50bcd	0.32235566
236	0xbd7920a8	-0.06082216
237	0xbd5d876f	-0.054084238
238	0xbccc729d	-0.024956996
239	0xbd5af79d	-0.0534588
240	0x3dcd0e94	0.10012546
241	0x3d030a8b	0.031992476
242	0xbdf82ea5	-0.12118272
243	0xbd59278b	-0.053016227
244	0x3d734bc8	0.059398443
245	0x3da76806	0.08174138
246	0x3d780bbc	0.060558066
247	0xbd8c32c6	-0.06845622
248	0x3e0422a7	0.12903844
249	0xbc893d86	-0.01675297
250	0xbd7627c6	-0.060096525
251	0xbe6409f1	-0.22269417
252	0xbd84b725	-0.064802445
253	0xbe2dff98	-0.16992033
254	0xbd53572a	-0.051596798
255	0x3c0a2fe5	0.0084342705

bias f4 [32]
0	0xbdd6e386	-0.104926154
1	0x3e01e2ea	0.12684217
2	0xbdbdea00	-0.092731476
3	0xbdaeeb10	-0.08540928
4	0xbdc30f36	-0.09524386
5	0x3d1d4157	0.03839239
6	0x3c0a7cc9	0.008452603
7	0xbc9e9d2d	-0.019362057
8	0xbd03051c	-0.031987295
9	0x3cbc8c35	0.023016075
10	0x3d91d752	0.07121147
11	0xbd703155	-0.058640797
12	0x3dc8af82	0.097991005
13	0xbb277e80	-0.0025557578
14	0xbb8ea0a6	-0.004352647
15	0x3d1e2047	0.038605
16	0xbdc3c6d7	-0.0955941
17	0xbd9a9e3c	-0.07549712
18	0x3e07f5ed	0.13277407
19	0xbdb6d927	-0.08928137
20	0xbc877bde	-0.016538557
21	0x3dcfe525	0.10151128
22	0xbc365715	-0.01112916
23	0x3e1c9f3e	0.15295121
24	0x3d45e846	0.048317216
25	0x3e06d72a	0.13168016
26	0x3df8bb66	0.121451184
27	0x3ca51ab8	0.020154342
28	0xbd4c639f	-0.049899694
29	0xbdd2cdbe	-0.102931485
30	0x3e30624e	0.17225
31	0xbe0df6b2	-0.13863638

weight f4 [1, 32]
0	0xbebfaa5b	-0.37434658
1	0x3e8b4d70	0.27207518
2	0xbeae56cd	-0.340506
3	0xbec8ea61	-0.39241317
4	0xbed09198	-0.4073608
5	0x3ecd71b0	0.401258
6	0xbeb70a30	-0.3574996
7	0xbedeaa64	-0.43489373
8	0xbeac2d56	-0.3362834
9	0x3ea981a6	0.33106726
10	0x3ebcc9d4	0.36872733
11	0x3ec98a8f	0.39363524
12	0xbedbdda9	-0.4294255
13	0x3eb13904	0.34613812
14	0x3ed30f4b	0.41222605
15	0xbe80b165	-0.2513534
16	0x3e8c57ed	0.27410832
17	0x3e8a1391	0.26968053
18	0xbe954d60	-0.29160595
19	0x3e9b0ca0	0.3028307
20	0x3eb91f08	0.36156487
21	0x3e96a00a	0.29418975
22	0xbec42c4a	-0.3831504
23	0x3ecffc18	0.4062202
24	0xbeb1667b	-0.346485
25	0x3e9f0730	0.3106017
26	0x3e87724d	0.26454392
27	0xbeed39f5	-0.4633328
28	0xbea83396	-0.32851857
29	0xbe97d754	-0.2965647
30	0x3e9decf5	0.30844846
31	0xbec8abef	-0.39193675
