Models/Office_model_10.pth (torch, 76184 bytes, 5 tensors)

weight f4 [128, 10]
000000 8d e4 1e 3e d4 a0 b8 3e 98 79 03 be ad 1e 09 be
       0.15516873 0.36060202 -0.12839353 -0.13390608
000010 c6 6d c0 be 97 76 03 bd c6 47 37 be ac e9 05 bd
       -0.3758375 -0.032095518 -0.17898473 -0.03269355
000020 b3 1b c9 3e 1f 03 45 3d 64 2e 2a 3d 42 2c 6e be
       0.39278945 0.04809868 0.041548148 -0.2325907
000030 d0 14 57 3d 72 6f f5 3d 51 96 1e be 9c 45 5f be
       0.052510083 0.11984147 -0.15487029 -0.21803898
000040 3c 40 6c be 77 61 89 bd 8a 1a 04 bf b7 9c 98 bd
       -0.23071378 -0.06708043 -0.51602995 -0.07451766
000050 44 ab 4f 3e 72 87 1c be 90 71 02 be 5a 5e 80 bf
       0.20280176 -0.15286043 -0.12738633 -1.0028794
000060 3e e1 b0 3e a5 0c 6c be c8 29 72 bc 66 47 d7 3e
       0.34546846 -0.23051699 -0.014780469 0.4204666
000070 5a 95 df 3e 58 d8 ac be 41 a4 80 be aa 4e 44 3e
       0.43668634 -0.33758807 -0.25125316 0.19170633
000080 3d 32 93 bd c7 db 60 3d 07 db 45 bf ba 55 47 be
       -0.071873166 0.054897096 -0.77287334 -0.19466296
000090 7f 26 35 bd c8 2b d2 bd 73 0a 15 3e 60 db 1c 3f
       -0.044226166 -0.10262257 0.14554767 0.6127224
0000a0 4f 7e 21 3f d1 53 19 3f df c3 9b bd 47 75 12 bf
       0.63083357 0.5989352 -0.07605719 -0.572102
0000b0 d5 0b 95 3e 17 b1 20 be ca b0 49 3e 88 b3 03 3f
       0.2911059 -0.15692554 0.19696346 0.5144582
0000c0 ea aa 24 3f 8c 47 60 3e 26 47 d4 3e b2 26 38 3d
       0.64323294 0.21902293 0.41460532 0.044958778
0000d0 0b 41 29 be 9e 0c 5d bf 81 5a b5 bd 63 eb 1d 3e
       -0.16528718 -0.8634738 -0.08855153 0.15421824
0000e0 df 2f 14 3f bf 85 c7 3e 12 5f a6 3e de 48 a9 3e
       0.57885545 0.38969228 0.32494408 0.33063406
0000f0 e0 c0 6e 3d 8c 1a 16 3d a3 8e 2a be 78 1a 11 bf
       0.05828941 0.03664641 -0.16655974 -0.56681013
000100 e1 fc 60 be 0a 21 fc 3c e4 77 c2 3c db 31 17 3e
       -0.21971466 0.030777473 0.023738809 0.14765112
000110 cd ce 34 3e 02 9b e5 3d c2 50 81 3e a4 33 b7 3d
       0.17657013 0.11211206 0.25256926 0.089453965
000120 7e 9e 44 3e 1f 08 4c 3e 68 11 a7 be 1b 93 af be
       0.19201085 0.19924973 -0.32630467 -0.3429192
000130 3c 1f 51 3d af 22 4f 3d ed 65 d6 be bb a8 5a 3c
       0.051055178 0.050570186 -0.41874638 0.013345893
000140 b0 bd c5 3e 8b 45 ee bd 27 1d fc 3d 20 46 71 3e
       0.38621283 -0.11634358 0.12310248 0.23561907
000150 f7 f6 26 3e 7f ce 87 3d 73 10 39 3e 62 a2 61 3c
       0.16305147 0.06631183 0.18072681 0.013771625
000160 8a aa 87 be 2b de 40 be 91 9f a6 3d 23 08 cc be
       -0.26497298 -0.1883475 0.081359036 -0.39849958
000170 37 98 ab 3d d8 86 91 3d 66 50 a1 be 45 b6 8e be
       0.08378642 0.071057975 -0.31506652 -0.27873436
000180 18 7d 4d 3e 4e ab 40 3e 9b 71 ff bd 7f 4f 8d be
       0.2006725 0.18815348 -0.124728404 -0.27599713
000190 dc cb 01 bf 5c 70 a3 3d 03 23 ab 3c c1 95 2d bd
       -0.5070169 0.07980415 0.020890718 -0.042379145
0001a0 13 3b 2e 3e e6 39 e0 3d b6 59 00 3e 83 02 62 3e
       0.17014723 0.10948543 0.12534222 0.2207127
0001b0 f7 b9 af be af db 5c 3e 49 0a b1 be 36 96 2a bf
       -0.34321567 0.21568178 -0.3457816 -0.66635454
0001c0 67 56 48 3d c0 be 06 bd b9 b3 89 be 00 08 e3 bd
       0.048910525 -0.032896757 -0.2689493 -0.1108551
0001d0 0a b7 fa 3e 82 77 7f 3d 4f 54 3f be 9e 38 8d be
       0.48967773 0.06236983 -0.18684505 -0.27582258
0001e0 90 86 00 bf 1a 8c a9 be a7 41 51 3d b5 da f0 bd
       -0.50205326 -0.33114702 0.051088 -0.11760465
0001f0 9c 39 0c be 53 3a 14 3d 88 a6 e1 3d b5 f6 32 3c
       -0.13693851 0.036188435 0.110180914 0.010923077
000200 72 a5 96 bd 6a 36 c3 be 82 10 9b 3e a3 92 a8 be
       -0.07355775 -0.38127452 0.30286032 -0.32924375
000210 f6 04 50 3e b5 ad 7a be a2 e1 c6 be 65 7d 9d be
       0.20314392 -0.24480326 -0.3884402 -0.3075973
000220 fc 46 2e 3d 29 2f 60 3e 0f 4a 88 3d 66 cf 3f 3d
       0.042548165 0.2189299 0.066547506 0.04682865
000230 ee 0e 50 3b 53 b6 c1 3e eb 62 30 be 10 bd 90 bf
       0.003174718 0.37834415 -0.17225234 -1.1307697
000240 1e fc bf 3e d1 42 45 3d 80 65 49 be 7a 6e 65 3e
       0.37497038 0.048159424 -0.19667625 0.22405425
000250 9c a6 92 3e ac 08 e6 bd 96 f9 35 bf 69 19 2a 3e
       0.28642738 -0.11232123 -0.7108396 0.16611256
000260 3b 02 f0 3d 3e d6 e6 be 31 91 96 bc 68 45 85 3e
       0.117191754 -0.4508533 -0.01837978 0.26029515
000270 88 a6 1a be f3 4a e4 3c f2 f1 87 be 8d e5 7a be
       -0.15102589 0.02786777 -0.26551777 -0.24501629
000280 21 35 08 3f 09 ea 4b be f0 c8 d4 bc a8 78 aa be
       0.5320607 -0.19913496 -0.02597472 -0.33295178
000290 4d a1 7f 3e a0 59 73 3e 08 17 9d be e5 9b 9d 3e
       0.24963875 0.23764658 -0.30681634 0.30783
0002a0 a5 f8 75 be 87 a0 cd bd 95 69 17 3e 3a 75 c0 3e
       -0.24020632 -0.10040384 0.1478637 0.37589437
0002b0 9c d6 2e be 99 c8 4c bf c0 e4 fb 3c ec 84 dc 3d
       -0.17074054 -0.7999359 0.030748725 0.1076754
0002c0 d2 be a8 3d d8 41 82 3e f3 ae c7 3e 40 b6 ca 3d
       0.08239521 0.2544086 0.39000663 0.09898043
0002d0 df 61 c2 3e 03 4b 76 be d3 d7 21 3c 25 9c 4b 3e
       0.37965295 -0.24052052 0.009878117 0.19883783
0002e0 7a 69 d2 3d 19 d6 a7 bc 51 3a b7 bc b9 65 4f be
       0.10274024 -0.020487832 -0.022366675 -0.20253648
0002f0 ba ec 49 3d 97 4d 80 be 55 e3 45 3f fc 26 14 3e
       0.049298026 -0.25059196 0.77300006 0.14467996
000300 8b 83 26 bd a2 66 97 be 2d d2 fa 3d a1 1c 6c 3e
       -0.040652793 -0.2957049 0.12247119 0.23057796
000310 ee 5a b0 3e 67 93 c8 3e 1d 31 4b be e4 b3 90 3d
       0.34444374 0.3917496 -0.19842954 0.070655614
000320 69 aa bc 3d 36 46 f8 3e 19 15 0f be 3e 03 a3 be
       0.09212191 0.48491067 -0.13972892 -0.3183841
000330 90 96 48 be 8b 86 91 be 33 b8 87 bd 0a df 29 3d
       -0.19588685 -0.2842296 -0.0662693 0.041472472
000340 a1 84 12 3f 0f a4 82 3e 7e 81 97 3e 27 06 bb be
       0.57233626 0.25515792 0.29590982 -0.3652813
000350 57 8a b9 3d 0d d7 82 3e 96 ca 28 3e d7 b9 b0 3c
       0.09059589 0.25554696 0.1648353 0.02157299
000360 98 2a 03 3e 74 b2 35 be 78 09 67 be 96 7f c1 be
       0.12809217 -0.17743856 -0.22562206 -0.37792653
000370 2a e7 a1 3e 62 0b 9e be f3 78 ea 3d af 6b 87 be
       0.31621677 -0.3086806 0.114488505 -0.26449344
000380 4e e6 21 be b2 8c 4e 3e a8 1f 8a be 9e 90 db 3a
       -0.1581051 0.20170859 -0.26977277 0.0016751473
000390 6b 47 14 3e 80 31 e6 3d d3 ae 56 bf 46 40 25 bc
       0.14480369 0.1123991 -0.8386051 -0.010086125
0003a0 50 9c 2d 3d 87 ea af be 4e 6f 74 bd 08 b7 16 3e
       0.0423854 -0.34358618 -0.05967646 0.14718258
0003b0 7f ec 11 3d d0 00 72 3e fe 91 9a 3e 12 9f 88 bd
       0.03562593 0.23633122 0.30189508 -0.06670965
0003c0 df 22 4a 3f 0a 3b 89 3d fc 2f 7c bd ee 6c 47 bf
       0.7895946 0.06700714 -0.0615692 -0.7790059
0003d0 08 bc 83 3d ce 74 a5 3d 70 68 0a 3f 3b 91 c5 3e
       0.064323485 0.08078919 0.5406561 0.38587365
0003e0 de 42 85 3d b1 d6 74 3e 8d 30 1a bf 93 60 3b 3e
       0.065068945 0.23910023 -0.6023033 0.18298559
0003f0 d9 59 e7 3c f6 3f 88 be ac a2 81 3e 0b 12 fd 3d
       0.028241085 -0.26611298 0.2531942 0.12356957

bias f4 [128]
000000 d2 d0 97 3e c9 99 eb be 25 2a 0d be 3c f2 d1 3c
       0.29651505 -0.46015766 -0.13785608 0.025628202
000010 6a 3c b4 3e c2 28 28 3e e9 b7 39 3e a5 12 9a bc
       0.35202342 0.16421798 0.18136562 -0.018807719
000020 3f 3d 11 be d2 48 a0 be eb f5 3d bd 13 70 0f 3e
       -0.1418352 -0.31305557 -0.046377104 0.14007597
000030 cf f7 05 bf 38 c7 4b bb cf 04 a8 3e d2 e8 13 3d
       -0.5233125 -0.0031094085 0.3281617 0.036110707
000040 42 65 f3 be 08 88 bc 3e db b5 ce be 58 db fc be
       -0.4753819 0.36822534 -0.4037312 -0.49386096
000050 67 83 4e 3e 6a 1b fa 3d 8a 6f cf bd 71 1c 40 3e
       0.20167314 0.1221226 -0.10128696 0.1876085
000060 49 36 18 3f 7f 5d 93 be bd 40 f3 bd 3a 2b b2 3d
       0.5945783 -0.2878227 -0.11877582 0.08699651
000070 53 f7 0a 3e 75 59 79 be 3d 2c eb 3b 8d 89 6b be
       0.13570909 -0.24350531 0.0071769045 -0.2300169
000080 82 1c 2a bf 2b 56 1e be 86 ce 23 be 59 9b 08 3f
       -0.6644975 -0.15462558 -0.15996751 0.5336204
000090 38 d4 0b 3e f8 08 a1 be 05 ff e9 be c6 ee 11 3d
       0.13655174 -0.31452155 -0.45702377 0.035628103
0000a0 ae 45 96 3e 56 4a cc 3e 57 0a ce 3e 05 d3 56 bd
       0.29350036 0.39900464 0.40242264 -0.052447338
0000b0 49 50 7c 3d ac db 02 bf df 5c 61 3e ed 8f 25 3f
       0.061600003 -0.5111644 0.22008084 0.6467274
0000c0 2d 2e 96 bd eb 6b e1 be ed cb 46 be 16 be 24 3e
       -0.07333026 -0.44027647 -0.19413729 0.16088137
0000d0 cf 1a 61 3e 34 22 e2 3e e4 93 6e be 42 70 d3 3e
       0.21982883 0.4416672 -0.23298603 0.41296583
0000e0 65 bf db be 56 29 75 be e2 19 86 be 3b 63 f4 3d
       -0.4291946 -0.2394155 -0.26191622 0.11932989
0000f0 47 f9 e6 3e f2 65 50 3e 7c aa 97 be 6e 1d 31 be
       0.4511206 0.20351389 -0.29622257 -0.17296383
000100 4b 6b 48 3e 36 55 e6 3d c1 b6 40 be 47 7b 45 3d
       0.19572179 0.112467214 -0.18819715 0.04821327
000110 cb c2 fd 3d e9 75 ac 3e ed 62 c3 3d 76 6f 11 bf
       0.123906694 0.33683708 0.09540353 -0.568107
000120 57 80 77 be 83 f3 94 3e 0b c6 ba 3d 4b c0 ec 3d
       -0.24170052 0.29092035 0.09119805 0.115601145
000130 65 e1 78 3e d4 9e 01 be a1 c0 16 be 1c fe 87 3d
       0.24304731 -0.12658244 -0.1472192 0.066402644
000140 7e 6a d4 be a1 3c ad 3e 23 eb ef be 27 33 c1 3e
       -0.41487497 0.3383532 -0.46859083 0.3773434
000150 96 48 d1 bd a0 96 9d be e4 8e 1d 3e 73 1b 12 3f
       -0.10218923 -0.3077898 0.1538654 0.57073134
000160 ed 96 09 3f 11 c3 26 be 72 b0 e1 be ed b2 41 bd
       0.5374592 -0.1628535 -0.4407993 -0.047289778
000170 ea 14 0d 3e ac ce 9d bd 02 e5 c9 3e 7b f3 4c 3e
       0.1377751 -0.07705435 0.39432532 0.20014755
000180 e4 66 2e 3d e7 e4 60 3e d5 45 16 bb 12 ca 9d 3d
       0.042578593 0.2196232 -0.0022929807 0.077045575
000190 fc 6a bc be 1c 44 17 be 77 8c ec be 74 86 f9 3d
       -0.36800373 -0.14772075 -0.46200916 0.12183848
0001a0 75 02 03 bf 9f a5 91 be bd d1 ad 3e 0a 47 50 3e
       -0.51175624 -0.2844667 0.3394908 0.20339599
0001b0 5d f2 8a be a8 b0 c3 3e b4 f9 5d be a8 29 78 be
       -0.27138034 0.38220716 -0.21677285 -0.2423464
0001c0 40 f3 59 3a 79 61 4d bd 7e 94 88 be 06 00 1a 3c
       0.000831414 -0.050141785 -0.2667579 0.00939942
0001d0 18 c8 47 bc eb 2f e9 be 49 2d 88 3d 5d a8 e3 3e
       -0.012193702 -0.4554437 0.066492625 0.44464388
0001e0 86 94 b7 3d e0 22 88 3e 05 85 a5 be d7 d8 b8 be
       0.089638755 0.26589108 -0.32328048 -0.36102936
0001f0 a8 68 78 be a1 b9 eb bd a9 20 20 be 55 b3 36 be
       -0.24258673 -0.11510015 -0.15637459 -0.17841847

weight f4 [128, 128]
000000 f0 25 d4 bd 15 bd 5c bc 90 7e 0a be 5b 86 2a be
       -0.103587985 -0.013472815 -0.13524842 -0.16652815
000010 8a ab 1a be 30 33 01 be db e1 f9 bd 99 66 6b 3d
       -0.151045 -0.12617183 -0.12201282 0.05747089
000020 ce 0a 9e bd 79 6d 80 3c cc ff 92 3d b1 71 bf 3d
       -0.077169046 0.0156772 0.07177696 0.09347857
000030 1b 2f 53 3c 0d e9 12 bd 2f 3e 13 be 3d 66 34 bd
       0.012889649 -0.035866786 -0.1437919 -0.044042815
000040 00 be 54 be 9c c2 7f bd 7b 82 1e be 67 27 2e be
       -0.20775604 -0.062441453 -0.15479462 -0.17007218
000050 7d 12 3a bd a1 57 72 3d 92 f0 cd bd f6 14 ba 3c
       -0.045427788 0.0591656 -0.10055651 0.022715073
000060 61 e2 18 be 0c 58 7a 3d c3 ba 38 be 82 89 35 3d
       -0.14930107 0.061119124 -0.18039994 0.04432059
000070 a5 6e a4 bd b0 35 5e 3c 74 af f0 3d 2b f3 9f bd
       -0.08028916 0.013562605 0.11752215 -0.078100525
000080 6d db 83 3d 75 6f d5 be b0 ec bf be 94 1a 38 be
       0.064383365 -0.41686597 -0.37485266 -0.17978889
000090 bf 05 44 be 09 ef be bd 5b ef a1 bc cf 4f 8d bc
       -0.19142817 -0.09322936 -0.019767454 -0.01724997
0000a0 fe c0 42 be 19 e8 df bd 84 3f 83 bd 17 cf 73 3d
       -0.19018933 -0.10932941 -0.06408599 0.05952367
0000b0 bb 1c 46 be ae b8 1c bc 97 09 9c 3c c1 ea 84 bd
       -0.19346897 -0.009565515 0.019047542 -0.06490088
0000c0 22 64 b7 bd bb 1b 51 bd 66 ce 4f be 27 c8 20 be
       -0.08954646 -0.051051836 -0.20293579 -0.15701352
0000d0 ea 37 f8 bd 8c 55 39 bd 0f 7d 1f 3d b3 e5 36 bd
       -0.1212004 -0.0452476 0.038937625 -0.044652652
0000e0 48 1e cb bd 1f 42 b3 bc a0 a2 ca bc 4b 95 13 be
       -0.09917885 -0.021882115 -0.024735749 -0.1441242
0000f0 23 73 36 be b9 64 7c bd 52 17 a3 bd 5c b6 dc 3c
       -0.17817359 -0.061619494 -0.07963432 0.026942424
000100 c2 20 26 be fa 31 33 be 16 4e a8 3d 4c 97 45 be
       -0.16223434 -0.17499533 0.08218019 -0.19295996
000110 fd 74 0e be ee 67 96 3c 52 40 d8 3c 97 07 cc 3d
       -0.13911815 0.018360104 0.026397858 0.09962385
000120 55 d6 56 3c 32 d3 3f 3e 6d 4b 46 bd fb 98 62 be
       0.013112624 0.18732908 -0.048411775 -0.2212867
000130 0a 35 a1 3e 70 3b 89 bd 16 fc 3b 3e 79 db 28 be
       0.31485778 -0.0670079 0.18357882 -0.16489972
000140 b4 b6 1a 3c 4d 85 57 be 44 fe 0b be 43 64 c3 3d
       0.009442974 -0.21046944 -0.13671213 0.09540608
000150 17 b0 41 be 4c 77 0b 3e 4a 9f 5a be 78 44 5b be
       -0.18914829 0.13619727 -0.21349826 -0.21412838
000160 57 2b f9 bd 75 28 a7 3a bb 17 e6 3b b3 57 34 3d
       -0.121664695 0.0012753146 0.007021872 0.04402895
000170 ff f3 c8 be 33 ac fe bd 35 48 d3 bd 7c e8 85 bd
       -0.39248654 -0.12435188 -0.10316507 -0.065384835
000180 39 97 6f bd b7 30 bf bd 69 ec 9c bd 76 e0 1e bd
       -0.058493827 -0.093354635 -0.07662279 -0.03878828
000190 65 0b 1a 3d c4 43 af 3d a5 e3 ee bd 91 e1 a7 3d
       0.037608523 0.08557847 -0.116645135 0.0819732
0001a0 b7 ca f3 bc 5c 4e d2 3c 01 c8 7d bd ac c2 1c be
       -0.029759748 0.02567213 -0.061958317 -0.15308636
0001b0 33 52 6b bd d3 47 b7 3c 22 30 24 be ea db 79 3d
       -0.05745144 0.022373116 -0.16033986 0.061000742
0001c0 03 f9 38 be 6c fc c1 bd 41 0e 45 bb ae fe 23 be
       -0.1806374 -0.09471974 -0.003006831 -0.16015121
0001d0 4d 79 1d 3e bd 8b 43 bd 5a 8a 41 bd 0f 59 fd bd
       0.15378304 -0.047740687 -0.047251083 -0.12370502
0001e0 82 75 4f 3d 94 86 d5 bd 55 af fd 3d 8d da 92 bc
       0.050649174 -0.10426059 0.123869576 -0.017926479
0001f0 fe ab 59 3c b4 20 e8 bd 9a 84 d9 3d 1d 00 54 bd
       0.013285635 -0.113343626 0.10620995 -0.05175792
000200 9b c2 28 3c cb 4c cb bc a5 39 a1 bd 92 05 cd 3b
       0.010300304 -0.024816891 -0.07872323 0.0062567675
000210 0f d6 f2 bb 99 c7 49 bd 1d 55 59 3c bb 06 8e bd
       -0.0074107717 -0.049262617 0.0132649215 -0.069348775
000220 86 23 be 3c ef d4 ae bc b8 11 45 bc 0f 48 93 3d
       0.023210298 -0.021341769 -0.01202815 0.071914785
000230 90 66 b2 bc 8b 49 a5 bd 49 03 82 bd 65 95 2b 3d
       -0.021777421 -0.08070668 -0.06348283 0.04189052
000240 e7 c7 86 bc 2f 35 2e 3d 71 9c 3d 3b 21 66 14 bd
       -0.016452743 0.04253119 0.0028932358 -0.03623021
000250 bf 55 8d bd 3b 53 6c 3d 8b 41 08 bb bf c9 ac bd
       -0.069011204 0.057696562 -0.002079102 -0.084369175
000260 35 02 82 bd d8 ca d5 3b e1 87 36 bd fc 26 9b 3d
       -0.06348077 0.006524425 -0.044563178 0.07575795
000270 40 f2 9f bd 1c 25 87 3d 05 4c 32 3d be 11 3d 3d
       -0.078098774 0.06598875 0.04352953 0.0461595
000280 02 60 0a bd 91 1a 23 3d d8 43 c2 3d 43 7e 6c 3c
       -0.033782966 0.039820258 0.094855964 0.0144344
000290 56 62 bc 3b d6 e9 40 bd 2a 42 74 3d 83 4c 9e 3d
       0.0057490272 -0.047098003 0.05963341 0.07729437
0002a0 fb cf 24 3c 1a 82 a4 bb 94 ee d7 bd 02 24 44 3d
       0.010059352 -0.005020392 -0.10543552 0.047885902
0002b0 21 92 55 3d dd 18 07 3d 07 5e ad bc e6 e7 aa bd
       0.052141313 0.032982696 -0.021163 -0.08345012
0002c0 32 72 83 bd b2 97 36 3d 3d 82 98 3d 07 df 99 bd
       -0.064182654 0.04457826 0.07446716 -0.07513242
0002d0 a3 54 4d 3d 1b 2e 1d bd d9 fc c8 bc 4b 95 b9 bd
       0.050129544 -0.038374048 -0.02453463 -0.090616785
0002e0 bd c9 4a bd 88 98 26 bd 68 d1 89 3d cd 23 ed 3c
       -0.0495088 -0.04067281 0.06729394 0.028947735
0002f0 73 49 b6 bd 94 8f c3 bb d8 fc 20 3d 92 13 5e bd
       -0.08900728 -0.0059680436 0.03930363 -0.054217882
000300 55 73 d6 3c 45 58 36 bd b2 40 cc bb b3 9e ad bd
       0.026178041 -0.044517774 -0.006233298 -0.08477535
000310 62 43 84 bd 13 63 67 3d 9f 82 16 bc e8 f3 81 bd
       -0.06458165 0.05649097 -0.009186416 -0.063453496
000320 17 90 9b bb 0e b4 08 bd 44 50 8e bd ab 49 e5 bd
       -0.0047474015 -0.03337484 -0.06948903 -0.11195692
000330 b0 d1 9e 3b d5 cb a6 bd 10 ba 8c bd 4c c3 96 bd
       0.004846774 -0.081443466 -0.06871426 -0.07361469
000340 8a b9 9f 3c c8 be c2 bc 30 13 84 bd 21 ce ae 3d
       0.019497652 -0.023772612 -0.06448972 0.0853541
000350 12 91 f0 3a 0a dd 01 3d 72 99 90 3b 70 72 95 ba
       0.0018353781 0.03170494 0.0044128234 -0.0011401903
000360 8a 7d 5d 3d d0 7b 78 bd f6 56 93 bc cc 06 37 3d
       0.0540748 -0.06066495 -0.017985802 0.044684216
000370 8f 61 a8 bd a7 78 18 bd 41 b1 b2 bd 31 df 7b 3a
       -0.08221733 -0.037224438 -0.08725215 0.0009608148
000380 b1 70 a3 bd ee 95 58 bd 9c ce 6f 3d ec da 07 bd
       -0.079804786 -0.05287736 0.058546647 -0.033167765
000390 8f e7 8d bd 52 88 9a 3d 91 69 21 3c 92 a7 09 3d
       -0.06928932 0.07545532 0.009851829 0.033607073
0003a0 d7 fe 91 3d 17 d5 66 bb ab 06 c1 bc 9f c6 16 3d
       0.07128685 -0.0035222226 -0.02356275 0.036810514
0003b0 a3 4d 88 3d 84 c1 b8 3c 38 b2 8c 3b 86 42 79 3c
       0.06655433 0.022553213 0.0042937063 0.015213614
0003c0 0e 8a 6b 3d 5a 4b 26 bd 68 38 39 bd a6 69 c4 3b
       0.057504706 -0.040599205 -0.04521981 0.0059940396
0003d0 60 04 bc 3b 2b e9 64 bc 62 2f 39 bd de 04 76 3d
       0.005737826 -0.013971607 -0.045211203 0.060063235
0003e0 2a 3f 82 3d 18 68 b9 bd 4c c5 94 bc 8c 0b be bd
       0.06359704 -0.090530574 -0.018160485 -0.09279546
0003f0 14 37 a2 bd b9 d8 7f bd ee 48 e8 bc 16 1e 6d bd
       -0.079206616 -0.062462542 -0.028355088 -0.05789002

bias f4 [128]
000000 b3 11 4b 3e 2c d3 4e bd d2 9c 4c bd 4c 77 93 3d
       0.1983097 -0.050494358 -0.049954243 0.072004884
000010 26 70 66 3d 67 e8 2f 3e 4d 40 26 3e 74 34 ef 3d
       0.056259297 0.17178498 0.16235466 0.116799265
000020 0e 64 8e bc a1 ae 3c 3e 77 36 16 bd 26 b1 4c bd
       -0.017381694 0.1842599 -0.036673035 -0.04997363
000030 97 37 43 3e f2 e6 1c 3d c2 4c 81 3d d4 9b 11 be
       0.19064175 0.038306184 0.063134685 -0.142196
000040 83 7b 8b bd d0 22 4b 3e 0f 50 3e bc c2 ca 3e 3d
       -0.06810667 0.19837499 -0.011615767 0.046580084
000050 e6 88 96 3c a0 89 15 3e 51 63 78 3e f0 eb 88 3d
       0.018375825 0.14603281 0.24256636 0.066856265
000060 ff ca 2c 3e 13 d3 c8 3e ca 9e 0a 3d d9 9e 1d 3e
       0.16874312 0.39223537 0.03384284 0.15392627
000070 0b b0 4a 3d aa 42 a7 3c 5d b0 9d 3d 19 e9 4b 3d
       0.049484294 0.02041753 0.07699654 0.049782846
000080 b5 91 0f 3c 30 2d ec 3d 69 f6 ab 3c 5d 8b 84 bd
       0.008762767 0.11532056 0.020991521 -0.06471894
000090 bf 16 71 3d d3 60 06 be 54 47 51 3d 59 9c 83 3d
       0.058859583 -0.13122873 0.051093414 0.06426305
0000a0 95 a6 38 3d 45 8d 2b bd 73 16 37 3e 00 16 16 be
       0.04508074 -0.041882772 0.17879657 -0.1465683
0000b0 a2 f0 21 bd b9 6b 93 bb 79 58 3b 3d 1d b6 43 3e
       -0.039536126 -0.0044989255 0.04573867 0.1911244
0000c0 76 55 4a 3d 70 c6 6e 3d 1f 20 a6 bc 8a e2 9d 3d
       0.04939791 0.058294713 -0.020278988 0.077092245
0000d0 3f 1a 13 3d a2 11 b3 bd 58 1f 21 3d 6f 5d 42 be
       0.035913702 -0.087435976 0.039336532 -0.18980955
0000e0 bf ca 2c 3c 1d 8d 44 3d 2f e1 b7 3d 12 de 07 bd
       0.010546385 0.04798614 0.08978497 -0.033170767
0000f0 9d b0 76 bd f3 04 ed 3c ad 64 ee bd 6f 47 12 3e
       -0.060227025 0.028933024 -0.11640296 0.14285062
000100 c4 01 1a 3d a3 06 13 3d 7b 49 3a 3e 42 83 26 3e
       0.03759934 0.035895 0.18192093 0.16261008
000110 6d 68 b4 3d 0f 86 80 3d 8f 10 8f bd 8e 49 87 3d
       0.0880898 0.0627557 -0.0698558 0.06605826
000120 ab 20 83 bc 69 7b 81 3d 9c 40 45 3e d5 e3 5c bc
       -0.016006788 0.06322367 0.19262928 -0.013482054
000130 f6 33 17 be c3 97 d9 3d ac 28 f9 3d e7 6d b9 3c
       -0.14765915 0.106246494 0.12165961 0.022635413
000140 e4 fb 01 bc 2a 15 22 3b 68 87 d9 bd 10 a9 86 3d
       -0.007933591 0.0024731853 -0.1062153 0.06575215
000150 99 c4 3f 3d 89 48 87 3c b5 88 1e 3e a9 23 15 bd
       0.04681835 0.01651408 0.15481837 -0.03641096
000160 60 2e 6d bd ad 0c fa 3d ba 1c e4 3d 0e f4 a6 bd
       -0.057905555 0.12209449 0.11138292 -0.081520185
000170 96 c7 10 be 5e 2a 86 3b 60 2b 36 3d 09 d8 74 bc
       -0.14138636 0.004094406 0.04447496 -0.014944085
000180 0d d7 49 3d 23 96 dd bd 95 b2 54 bd 91 18 9b 3d
       0.049277354 -0.10819652 -0.05192812 0.07573045
000190 e0 64 d9 3d 7e 8c 1c 3d 08 00 eb bd e3 e2 7c bd
       0.106149435 0.03821992 -0.11474615 -0.061739814
0001a0 5a 1a cc bd f0 6f 0a bc cd fb c9 bd ee c4 90 bc
       -0.09965964 -0.00844954 -0.0986248 -0.017672028
0001b0 cb e4 e8 bd 99 b7 cf 3d 3b 70 34 bd c5 ff 40 3d
       -0.11371764 0.1014244 -0.044052344 0.04711892
0001c0 0d 41 df 3d bb 15 92 bb 48 70 83 bd 4a 02 0a 3e
       0.10901079 -0.004458157 -0.064179 0.13477436
0001d0 c6 e4 30 3d e4 72 fd 3d 4e 71 2c 3d e2 fb 3c bd
       0.043186925 0.12375429 0.042100243 -0.04613865
0001e0 d0 0d 6b 3d 8f 3a 33 bd 25 56 9f bb 04 a2 7f bd
       0.05738622 -0.043757018 -0.004862564 -0.06241037
0001f0 7b 2b ed bd de cd 56 3e ed 8f 45 bd 29 cb 67 bd
       -0.11580559 0.2097697 -0.04823296 -0.056590233

weight f4 [1, 128]
000000 84 e9 fc bd 76 18 9a b9 4e a5 af bc e2 df 0b bd
       -0.12349227 -0.00029391394 -0.021441128 -0.03414906
000010 5d 13 f9 bb ae 93 dd 3d 24 a2 d1 bd e7 5d c1 bd
       -0.0076011852 0.10819183 -0.10236004 -0.094417386
000020 c5 63 0f 3d ff 5b d9 3d 08 db 13 3d ed 1a df 3d
       0.035007257 0.1061325 0.036097556 0.108938076
000030 7b 64 35 be 56 33 56 be a0 a5 85 3d 9c 18 59 3a
       -0.17714112 -0.2091802 0.06525731 0.000828156
000040 08 c2 e3 39 4b d4 a6 3d 13 cc ba b9 4a ca 84 bd
       0.00043441379 0.081459604 -0.00035628732 -0.06483896
000050 fb 48 03 be 2b 70 23 3d d6 2b aa 3e a1 1c d0 bb
       -0.12820809 0.039901894 0.3323657 -0.006351069
000060 16 74 81 bc 8a 58 b2 3e 0d 6b 61 3a 2d 4c 8e bd
       -0.015802424 0.34833175 0.00085990207 -0.06948123
000070 de 17 01 3d cc 90 b6 3d a5 9a cc 3d 0b 2e 60 39
       0.031516902 0.089143366 0.099904336 0.00021379457
000080 ff c9 ba 3d 6c d5 f9 3d 52 18 d6 3c 53 b4 24 bd
       0.09120559 0.1219891 0.026134644 -0.040211033
000090 6e a1 53 3d a1 58 bf 3d c0 ba ad bd d4 19 91 be
       0.051667623 0.093430765 -0.08482885 -0.28340018
0000a0 40 f7 3f ba 80 8e bb 3d 33 75 48 3e be 3f bd 3c
       -0.0007322915 0.09158039 0.19575958 0.023101684
0000b0 6a af 1f ba fb 64 96 bd ee 5e 03 bd 58 1f e4 3d
       -0.00060915074 -0.07343479 -0.032072954 0.11138791
0000c0 d5 bb 35 3d 24 8b 49 b9 c3 b3 80 b9 cf 1a bf bc
       0.044368584 -0.00019220688 -0.00024547995 -0.023328213
0000d0 20 13 cd 3d 31 6a 7e 3d 85 8c 9f ba 87 a6 97 3d
       0.100134134 0.06211299 -0.0012172615 0.074048094
0000e0 46 4f 17 3d 66 72 b5 3d 59 5b 97 b9 90 31 97 b9
       0.036940835 0.088597104 -0.00028869024 -0.0002883789
0000f0 dd 78 47 bd 87 c4 85 39 7a cf c3 3d 09 5e 7f bc
       -0.04869925 0.0002551416 0.095610574 -0.015586385
000100 be 36 df bc 2b 79 e6 3d 63 c7 49 be a0 9d 0d be
       -0.027247783 0.1125358 -0.19704966 -0.1382966
000110 41 b2 a1 3d 58 c6 96 bc 53 68 f6 3d 80 67 af 3d
       0.07895327 -0.018405125 0.12031617 0.08564663
000120 67 68 d6 b9 c0 ae c7 39 cc ff cc 3d f1 03 c0 3d
       -0.00040895047 0.00038086437 0.10009727 0.09375752
000130 11 f2 c5 3c 67 40 06 bc 31 a4 0b bd d7 f4 37 3d
       0.024163278 -0.008194066 -0.034092132 0.04491123
000140 fc 55 d8 bc c3 1a cd 3d b6 d7 93 3d 84 0a 83 bb
       -0.026408188 0.1001487 0.07218878 -0.0039990563
000150 c7 13 8d ba 64 e1 c0 ba c6 32 e9 3d c8 fa 7d 3d
       -0.001076334 -0.0014715609 0.113866374 0.06200674
000160 9c 46 d5 3d d4 7e 87 bc ca f3 f6 bd bf ae 14 3d
       0.10413858 -0.016539969 -0.12058218 0.036299463
000170 72 60 ce 3c e8 2f 11 3d 7e 30 98 bc 3d 98 9b 39
       0.025192473 0.035446078 -0.01857781 0.0002967733
000180 7b 87 e1 b9 09 6e 51 3d d5 cf a5 3d e8 1b 70 3d
       -0.00043016285 0.05113033 0.080962814 0.058620363
000190 64 ce f2 3e cf 82 43 bb b3 bd fb 3c e2 a2 6d 3d
       0.4742309 -0.0029832607 0.030730104 0.058016665
0001a0 61 7a 96 3d 7c ae bd bd 93 30 1b 3d 24 47 5c 3d
       0.07347561 -0.09261796 0.03788812 0.053778782
0001b0 43 7f 0e 3d 39 0e 04 bd 4b 32 96 ba 96 be 87 bb
       0.034789335 -0.032240126 -0.001145908 -0.0041425927
0001c0 d3 fc 31 be e2 be e0 3c 68 c1 12 3a 74 91 62 bd
       -0.17381601 0.02743477 0.0005598278 -0.055314496
0001d0 45 06 6a 3d 2c 51 6d 3d 32 fb 24 b9 c6 b9 76 3d
       0.057134885 0.05793874 -0.00015733836 0.06023576
0001e0 fc 84 68 bc a4 eb 35 b9 db 16 e6 3d 52 97 8d b9
       -0.014191862 -0.00017349288 0.11234828 -0.00027006358
0001f0 de 51 3b 3d c4 50 7b bd d1 54 09 3d b3 8a cf b8
       0.04573237 -0.06135632 0.033528153 -9.896364e-05
