Models/Office_model_10_50.pth (torch, 189714 bytes, 9 tensors)

weight f4 [256, 10]
0	0xbe2666e9	-0.16250195
1	0xbe5d4ad6	-0.21610579
2	0xbb279c17	-0.0025575215
3	0x3dedd050	0.11611998
4	0xbddbc415	-0.10730759
5	0xbc874098	-0.016510293
6	0xbea9374e	-0.33050007
7	0xbd2552ca	-0.040362157
8	0x3e9ac01b	0.3022469
9	0x3cac9460	0.021066844
10	0x3e54b70e	0.20772955
11	0xbe2308b3	-0.15921287
12	0xbd0c5427	-0.03425994
13	0x3dded665	0.10880736
14	0xbdbc6452	-0.09198822
15	0xba4929ad	-0.00076737517
16	0x3d3f1147	0.046647336
17	0xbc006d9b	-0.007838632
18	0x3f1aa1a0	0.6040287
19	0x3f204881	0.6261063
20	0x3e83c5f3	0.2573696
21	0x3e6432e2	0.22285035
22	0x3e8354eb	0.25650725
23	0xbe173567	-0.14766465
24	0xbca414b0	-0.020029396
25	0x3e75792a	0.23972002
26	0x3da8e66c	0.082470745
27	0x3e4c2066	0.19934234
28	0x3ddd583c	0.10807845
29	0x3e05c6ea	0.13064161
30	0xbd93b05b	-0.072113715
31	0x3e8e70e0	0.27820492
32	0x3e82cb80	0.25545883
33	0x3e1a860b	0.15090196
34	0xbe2d6336	-0.16932377
35	0xbe056fd1	-0.13030936
36	0x3e22eb52	0.1591008
37	0xbcc237f3	-0.02370832
38	0x3e26c27d	0.16285129
39	0x3e474c3f	0.1946268
40	0xbc8b0064	-0.01696796
41	0x3db2f9f5	0.08739082
42	0xbe804fa2	-0.25060755
43	0xbd6c45b5	-0.057683665
44	0x3e5da670	0.21645522
45	0xbe8c8f30	-0.27452993
46	0xbd459ed4	-0.048247173
47	0x3e8ceadf	0.27522942
48	0xbd97261b	-0.07380315
49	0x3e53a47d	0.20668216
50	0xbe5b1db5	-0.21398051
51	0x3dfc21da	0.12311144
52	0xbcbb7dd1	-0.022887142
53	0x3e374757	0.17898308
54	0x3e6759d7	0.22592865
55	0xbb5359db	-0.0032249603
56	0xbe48f39d	-0.19624181
57	0xbd087653	-0.033315968
58	0x3ec0eb89	0.376797
59	0x3e0b7d9f	0.1362214
60	0xbe1196ac	-0.14217633
61	0xbe7e3b44	-0.24827296
62	0xbe4bed5e	-0.19914767
63	0xbe3bbbb6	-0.18333325
64	0xbd9a7ba8	-0.07543117
65	0x3e091e18	0.13390386
66	0xbe85fea4	-0.26170838
67	0x3e039e94	0.12853462
68	0xbd276748	-0.04086998
69	0xbca8a277	-0.020585282
70	0x3ec32396	0.38113087
71	0x3ea4d86e	0.32196373
72	0x3dfadbd6	0.12248962
73	0x3ebccdcb	0.36875758
74	0x3ce09f47	0.0274197
75	0x3ed93fc3	0.4243146
76	0x3e88110e	0.26575512
77	0x3e7da5cb	0.24770276
78	0x3e1f0aae	0.15531418
79	0xbc19e685	-0.009393339
80	0x3dd73d7f	0.10509776
81	0xbd116875	-0.03550001
82	0xbd5797ca	-0.05263499
83	0x3e1e4cd2	0.15458992
84	0x3e166039	0.14685144
85	0x3e2fd54f	0.17171215
86	0xbde29df8	-0.110652864
87	0xbd200667	-0.039068606
88	0x3e6ece02	0.23320773
89	0x3f0b4836	0.5440706
90	0xbe91957d	-0.28434363
91	0x3e1f0322	0.15528539
92	0xbe9d6b90	-0.30746126
93	0xbdf23ba2	-0.1182778
94	0xbe5bc20c	-0.21460742
95	0x3c775980	0.015097022
96	0x3caf9310	0.02143243
97	0x3e98ba89	0.29829815
98	0xbdf1fdc6	-0.118159816
99	0xbe9ed01b	-0.31018147
100	0x3dcbe224	0.09955242
101	0x3dae1744	0.08500531
102	0x3e9733a5	0.2953159
103	0xbc814b80	-0.015783072
104	0xbd385690	-0.045004427
105	0xbdbe4e40	-0.09292269
106	0xbe15e268	-0.14637148
107	0xbe972b71	-0.2952533
108	0x3d059ce8	0.03262034
109	0x3dbe76fc	0.09300038
110	0xbe2e24be	-0.17006204
111	0x3e7004dd	0.23439355
112	0x3d0a7c20	0.03380978
113	0xbd653411	-0.055957858
114	0xbcd7c162	-0.02633733
115	0x3c23333f	0.0099609485
116	0xbc8d41f5	-0.017243365
117	0xbe14785a	-0.14499035
118	0xbed5597a	-0.41669828
119	0xbed65e57	-0.4186885
120	0x3e89ffad	0.26952878
121	0xbe57f78d	-0.21090527
122	0xbe834c9f	-0.25644395
123	0x3e8a038d	0.26955834
124	0x3e73fe4c	0.23827475
125	0xbea9439f	-0.33059403
126	0xbcb0b865	-0.021572301
127	0x3db0c90a	0.08632095
128	0x3dc018e2	0.09379746
129	0xbe8985cf	-0.268599
130	0x3dd74bed	0.105125286
131	0x3e4c9fe8	0.19982874
132	0xbe54a8d5	-0.2076753
133	0x3e5b2168	0.21399462
134	0x3daaa313	0.08331885
135	0xbe90d121	-0.28284553
136	0xbe0bdf2c	-0.13659352
137	0xbe4182c3	-0.18897538
138	0x3dda5097	0.106599025
139	0xbec928dd	-0.3928899
140	0x3e0b5060	0.1360488
141	0xbe90fa37	-0.283159
142	0xbe88e11c	-0.26734245
143	0xbe5bf9ca	-0.21482006
144	0x3e06c686	0.13161668
145	0xbe82ee6e	-0.25572532
146	0xbd9f4bce	-0.077781305
147	0xbe84f36e	-0.25966972
148	0xbe84f6c8	-0.2596953
149	0x3b2c8a00	0.0026327372
150	0x3eaec66f	0.34135768
151	0x3d4f4017	0.05059823
152	0xbd7af2f8	-0.06126687
153	0x3d154f7c	0.036452755
154	0x3cd71ab9	0.02625786
155	0x3e87385f	0.26410195
156	0x3e522dac	0.20525235
157	0xbe8106f8	-0.2520063
158	0x3efa8222	0.48927408
159	0x3eba86c4	0.36430943
160	0xbe586504	-0.21132284
161	0xbb94f880	-0.004546225
162	0xbe8faaac	-0.280599
163	0x3df9ea64	0.122029096
164	0x3e08e554	0.13368732
165	0x3e81b47b	0.25333008
166	0xbca51840	-0.020153165
167	0x3e6e4a36	0.23270497
168	0x3e6a9e5e	0.22911975
169	0x3cf78a60	0.03021735
170	0x3e703b1d	0.2346005
171	0xbcabcaab	-0.020970663
172	0xbd02ee9f	-0.031965848
173	0x3d72e6df	0.059302207
174	0xbe7b3606	-0.24532327
175	0x3ddf657a	0.10908027
176	0xbe1629f0	-0.14664435
177	0xbe07dfdc	-0.1326899
178	0x3ebb30b1	0.36560586
179	0x3ea29ca8	0.31760144
180	0x3d54c383	0.051944267
181	0x3e3e5c25	0.18589838
182	0xbe64e2d0	-0.22352147
183	0x3dddddf4	0.1083335
184	0xbe4afbe5	-0.19822653
185	0xbd0b7807	-0.034050014
186	0xbe9fb0dc	-0.3118962
187	0x3d8576cd	0.065168
188	0xbe3d5037	-0.18487631
189	0x3d3ee05b	0.04660068
190	0xbd3c6cc0	-0.04600215
191	0xbdd40566	-0.10352592
192	0xbe7a9056	-0.24469122
193	0xbe0569f7	-0.13028704
194	0x3dabe2d7	0.08392876
195	0x3e247e23	0.16063742
196	0xbc533bb9	-0.012892657
197	0x3e8b1b14	0.27169096
198	0x3e0ab6d0	0.135463
199	0xbec4fdc4	-0.38474858
200	0xbf09d755	-0.53844196
201	0xbe932e96	-0.2874648
202	0x3cbebf5f	0.023284612
203	0x3d6b67e4	0.057472125
204	0xbc8e72fd	-0.017388815
205	0xbd47c0e7	-0.04876795
206	0x3d41d78a	0.047324695
207	0xbe611f70	-0.21984649
208	0x3ef11fc1	0.4709454
209	0x3e385957	0.1800283
210	0x3d8ed1e0	0.06973624
211	0x3e64135a	0.22273007
212	0x3e8cd45d	0.2750577
213	0x3c6973e0	0.014248818
214	0xbe4457be	-0.19174096
215	0x3ddd6bb0	0.108115554
216	0xbc8532d0	-0.01625958
217	0x3e98b0a3	0.29822263
218	0xbe637c33	-0.22215347
219	0xbe1896f2	-0.14901331
220	0xbd983ddc	-0.07433674
221	0x3b88acb0	0.0041709766
222	0xbe841bdb	-0.25802502
223	0xbbc50c31	-0.006013416
224	0x3e5068c4	0.20352465
225	0xbe933c2c	-0.28756845
226	0x3df25a67	0.11833649
227	0x3db3317a	0.08749671
228	0xbe6a5619	-0.22884406
229	0xbda6c833	-0.08143654
230	0x3eb07591	0.34464696
231	0xbe0ee57e	-0.13954732
232	0x3c0dc9be	0.008654056
233	0xbe138fcb	-0.14410321
234	0xbc8cb4e0	-0.017176092
235	0x3d099471	0.03358883
236	0x3e326c8e	0.17424223
237	0x3df5561c	0.11979315
238	0xbd5688ac	-0.052376434
239	0xbea15fb7	-0.31518337
240	0xbe9be35f	-0.30446908
241	0xbde94622	-0.1139033
242	0xbe9a8408	-0.30178857
243	0xbd792ab0	-0.060831726
244	0xbd96d40a	-0.07364662
245	0x3e5250b6	0.20538601
246	0xbd96c95a	-0.073626235
247	0xbe981b0b	-0.29708132
248	0x3de854b0	0.11344278
249	0xbe4f2cca	-0.2023193
250	0x3e6163c2	0.22010711
251	0x3e2d304d	0.16912957
252	0x3e3f7b16	0.18699297
253	0xbc81328c	-0.015771173
254	0xbd829084	-0.063752204
255	0x3e86eebf	0.26354024

bias f4 [256]
0	0x3df70333	0.12061157
1	0x3e5ecdfb	0.21758263
2	0x3e3083b8	0.17237747
3	0xbe3c61eb	-0.18396728
4	0xbda8ab98	-0.08235854
5	0xbcc3aa29	-0.02388485
6	0xbe9ff752	-0.31243378
7	0x3e6b1a55	0.22959264
8	0x3dec4347	0.1153627
9	0x3df1f95c	0.1181514
10	0xbe5575cf	-0.20845722
11	0xbe192cac	-0.14958447
12	0x3ddbdb5b	0.10735198
13	0xbe008275	-0.12549765
14	0xbe56ae3b	-0.20964901
15	0x3eeb6c23	0.4598094
16	0xbd80a3f0	-0.062812686
17	0x3ef11d8f	0.47092864
18	0xbe174c67	-0.14775239
19	0x3d304e2a	0.043043293
20	0x3e4a80e0	0.19775724
21	0xbe9ce7b1	-0.30645517
22	0x3e5034f8	0.20332706
23	0xbeadb68b	-0.33928332
24	0x3caed270	0.021340579
25	0x3ddd3740	0.10801554
26	0xbe92a4cc	-0.28641355
27	0x3e7fec03	0.24992375
28	0x3eabdff8	0.33569312
29	0x3f0777e9	0.52917343
30	0xbf4cd685	-0.8001483
31	0xbe404f44	-0.18780237
32	0x3f217c72	0.63080513
33	0x3e46f9a7	0.19431172
34	0x3ebdf41a	0.37100297
35	0x3efa615c	0.48902404
36	0xbe617c65	-0.22020109
37	0xbe0ca96d	-0.13736506
38	0xbe43eda8	-0.19133627
39	0x3f00129a	0.50028384
40	0xbde97366	-0.11398964
41	0xbed54f16	-0.416619
42	0x3e6fc07a	0.23413268
43	0x3e3b970e	0.18319342
44	0xbea01e5a	-0.31273156
45	0xbdbd6bac	-0.092490524
46	0x3e4e8d02	0.20170978
47	0xbc81167e	-0.015757795
48	0xbe2731bd	-0.16327567
49	0x3eb93d16	0.36179417
50	0x3ee2b2da	0.44277078
51	0x3e8ad804	0.27117932
52	0xbd95b326	-0.073095605
53	0x3d8f989c	0.0701153
54	0x3aec7cdd	0.0018042583
55	0xbea7ad23	-0.3274928
56	0xbe46a80e	-0.19400045
57	0x3e2a96d3	0.16659097
58	0xbe2e6a99	-0.17032851
59	0xbe4f4eb2	-0.20244864
60	0xbef6633d	-0.48122588
61	0xbd9a985a	-0.0754859
62	0xbe962273	-0.29323158
63	0xbeaf1155	-0.3419291
64	0xbe62ec44	-0.2216044
65	0x3f1360c6	0.5756954
66	0xbdc454ce	-0.09586488
67	0x3f71f48c	0.94513774
68	0xbf01f953	-0.50771064
69	0x3e41277a	0.18862715
70	0xbd9c2328	-0.07623893
71	0xbec5fca0	-0.386693
72	0xbc67f2c0	-0.014156997
73	0xbcfd1f0b	-0.030898592
74	0xbe44a304	-0.1920281
75	0x3de8c45c	0.113655776
76	0xbe87f19f	-0.2655153
77	0xbc824776	-0.015903216
78	0x3e84ae78	0.2591436
79	0x3e89ffbd	0.26952925
80	0x3e572ea7	0.2101389
81	0x3be53fd6	0.006996135
82	0xbe2e8069	-0.17041172
83	0xbec92114	-0.3928305
84	0xbd6b97ba	-0.057517745
85	0x3e976aed	0.29573765
86	0x3d8d9095	0.069123425
87	0xbd98ba8c	-0.07457456
88	0xbd982041	-0.07428027
89	0x3cf2e586	0.02965046
90	0xbe8eed2a	-0.27915317
91	0x3f67c070	0.9052801
92	0xbc95b0cd	-0.018272782
93	0x3cd2f74c	0.025752686
94	0xbeae03a3	-0.3398715
95	0xbe8bff63	-0.27343282
96	0x3d8699a5	0.06572274
97	0xbd7b196d	-0.061303545
98	0xbcf5aaf2	-0.02998874
99	0x3dd7c1c0	0.10535002
100	0x3e9a1b61	0.30099013
101	0xbe00839d	-0.12550206
102	0x3f2ec6df	0.68272203
103	0x3e24dc1a	0.16099587
104	0xbe641629	-0.22274078
105	0x3e291d9c	0.16515201
106	0xbcdf7a55	-0.027280012
107	0xbf2da16f	-0.67824453
108	0x3ec27a2c	0.37983835
109	0xbe815670	-0.2526126
110	0x3e6cf8e4	0.23141819
111	0xbeb47a98	-0.35249782
112	0xbf1add42	-0.6049386
113	0x3de0a030	0.10968053
114	0xbe8dec76	-0.27719468
115	0xbcff4620	-0.031161368
116	0x3e080fc4	0.13287264
117	0x3e4d7388	0.20063603
118	0xbe925ed7	-0.28587982
119	0xbe7a9b42	-0.24473289
120	0x3e90df33	0.28295287
121	0xbf05d27f	-0.52274317
122	0xbe1079ba	-0.14108935
123	0x3ecd2e85	0.40074554
124	0xbe9e90c2	-0.30969816
125	0xbde552fe	-0.1119747
126	0xbe1af3a7	-0.15132008
127	0x3e2095f9	0.1568221
128	0xbe4b79ff	-0.19870757
129	0x3eb94105	0.36182418
130	0xbf15cc03	-0.5851442
131	0x3f16ff73	0.58983535
132	0xba903700	-0.0011002719
133	0x3e466282	0.19373515
134	0x3eafb1b2	0.34315258
135	0x3d812f75	0.0630788
136	0xbea386b8	-0.3193872
137	0xbb978453	-0.0046239286
138	0xbea786e1	-0.32720092
139	0xbe964f55	-0.293574
140	0xbf1cde62	-0.6127683
141	0x3ece90d5	0.40344873
142	0x39767fa8	0.00023507944
143	0x3e711348	0.23542511
144	0xbe7c3af8	-0.2463187
145	0xbdfe963a	-0.12430997
146	0xbe6a0f01	-0.22857286
147	0x3db4739e	0.08811115
148	0x3ecd450e	0.40091747
149	0xbeb49aa9	-0.35274246
150	0x3f154cbb	0.58320206
151	0xbe7e3d89	-0.24828161
152	0x3e6d09bd	0.23148246
153	0x3e88f03f	0.26745793
154	0xbe69199b	-0.22763674
155	0xbe72695e	-0.23673007
156	0xbf0e0c2b	-0.55487317
157	0xbd85229c	-0.06500742
158	0x3d5cc7e1	0.053901557
159	0xbeaa0dd1	-0.33213666
160	0xbe6173e5	-0.22016867
161	0xbe4618e2	-0.1934543
162	0xbf03f162	-0.51540196
163	0xbda83bfb	-0.08214565
164	0xbe9d8555	-0.30765787
165	0xbe83a4f4	-0.25711787
166	0xbdad3a3b	-0.08458372
167	0xbeba05e5	-0.36332622
168	0x3efd9d6c	0.49534166
169	0xbea31bf4	-0.31857264
170	0xbe864842	-0.26227003
171	0x3ea59bd3	0.32345447
172	0x3e8d22ed	0.2756571
173	0x3f3f4354	0.7471211
174	0xbeed48af	-0.46344516
175	0x3eed8700	0.4639206
176	0xbd83497d	-0.06410501
177	0xbee66a0a	-0.45002776
178	0x3e7759ef	0.241554
179	0x3e9744ca	0.2954467
180	0x3e3459d7	0.17612396
181	0xbd613193	-0.05497892
182	0xbe8d27a4	-0.27569306
183	0xbd459efd	-0.048247326
184	0x3edddc48	0.43332124
185	0xbf12fb38	-0.5741458
186	0xbe41f5e6	-0.18941459
187	0x3f2c4839	0.67297703
188	0x3e3788d6	0.17923293
189	0x3e726ff5	0.2367552
190	0x3e2f3e8d	0.17113705
191	0xbe0f39f8	-0.13986957
192	0xbf155056	-0.5832571
193	0x3dad6444	0.0846639
194	0xbd5e78c0	-0.054314375
195	0x3bf748cf	0.0075465213
196	0x3ebcbfc8	0.36865067
197	0xbedb9f98	-0.42895198
198	0x3f761d61	0.9613858
199	0x3e3c2ae6	0.1837574
200	0xbda46201	-0.08026505
201	0x3d573170	0.05253738
202	0xbd3fe2de	-0.046847217
203	0x3e48e09a	0.19616929
204	0xbe97c732	-0.2964416
205	0xbdb04fda	-0.086089805
206	0xbf0c874b	-0.5489394
207	0xbd4def21	-0.05027688
208	0xbd84e168	-0.06488305
209	0x3d8b3d9d	0.06798861
210	0x3eb6db35	0.35714117
211	0x3ec303d3	0.38088855
212	0x3e13fc42	0.14451697
213	0x3e68154c	0.22664374
214	0x3dac0be0	0.084007025
215	0x3e937c7f	0.2880592
216	0x3e913384	0.28359616
217	0x3d820763	0.06349065
218	0x3e2f024c	0.1709072
219	0x3e26701e	0.16253707
220	0x3edba3cd	0.42898408
221	0xbf3e0742	-0.74229825
222	0xbe435430	-0.19075084
223	0xbd30d355	-0.043170292
224	0x3d8f1631	0.069866545
225	0x3e71dba3	0.23618941
226	0xbd74918d	-0.05970912
227	0xbe432f9a	-0.19061127
228	0xbe35fc76	-0.17772087
229	0x3e84a7a6	0.25909156
230	0x3d3eb9c0	0.046563864
231	0xbec64d2a	-0.38730747
232	0xbba1b6e4	-0.0049351323
233	0xbc0d519e	-0.008625416
234	0xbe8d09f1	-0.27546647
235	0xbf1a584b	-0.60290974
236	0x3f3c36ce	0.73521125
237	0x3c503a40	0.0127092
238	0x3d514d58	0.05109915
239	0x3f03abd6	0.51434076
240	0xbdc6eca0	-0.097131014
241	0xbbf481ca	-0.007461761
242	0xbf7fcdcb	-0.9992339
243	0xbe711d6e	-0.23546383
244	0x3e55ddee	0.2088544
245	0x3e5bbde8	0.21459162
246	0xbe7af5e5	-0.24507864
247	0xbd6cf044	-0.057846323
248	0xbe2ef9e4	-0.17087513
249	0x3e884203	0.26612863
250	0x3f53f8b5	0.8280137
251	0xbe51d4b6	-0.20491299
252	0xbd8235ec	-0.06357941
253	0x3c669120	0.014072686
254	0xbe2d7fb6	-0.16943249
255	0xbe83832f	-0.25686023

weight f4 [128, 256]
0	0x3e4b0ee1	0.19829895
1	0x3e0cd072	0.1375139
2	0x3d897aa8	0.06712848
3	0x3d2d5a40	0.042322397
4	0x3cc6ec9f	0.024282752
5	0x3db2bfa0	0.08727956
6	0x3cc2adf9	0.023764597
7	0x3cdef028	0.027214125
8	0x3e00fbac	0.12596005
9	0xbbbcf064	-0.0057659615
10	0xbd2e4f44	-0.042556062
11	0xbd0119c4	-0.031518713
12	0xbb292fdc	-0.002581588
13	0xbb0dfab7	-0.002166433
14	0xbd5366ca	-0.0516117
15	0xbd3c0493	-0.0459028
16	0xbd74c0a5	-0.059754033
17	0x3ca870c6	0.020561587
18	0xbccd371d	-0.025050694
19	0x3d1e32e8	0.038622767
20	0x3e6f81a6	0.233893
21	0x3d8a69cd	0.06758461
22	0xbd0856a4	-0.033285752
23	0xbea52ea3	-0.32262143
24	0xbd2ae160	-0.04171884
25	0x3d89908b	0.067170225
26	0xbd596220	-0.053072095
27	0xbcbb9c8b	-0.022901794
28	0x3e22022b	0.1582114
29	0x3ecac268	0.39601445
30	0xbe662fc8	-0.22479165
31	0x3cf9792f	0.030453293
32	0x3e028654	0.12746555
33	0xbce1b819	-0.027553605
34	0x3ea15528	0.31510282
35	0x3ec98623	0.3936015
36	0xbb988a95	-0.004655192
37	0x3ca7e5fd	0.02049541
38	0xbc97ce77	-0.018531067
39	0x3ec0cb22	0.37654978
40	0x3d9603f6	0.07324974
41	0xbd3d36a7	-0.0461947
42	0x3d005a88	0.031336337
43	0x3cc3e229	0.023911553
44	0xbd5860bc	-0.052826628
45	0x3d81daa2	0.06340529
46	0x3d1a957c	0.037740216
47	0xbd40ca62	-0.047068007
48	0xbbfb8803	-0.007676126
49	0x3eb9cf50	0.3629098
50	0x3dfdb496	0.1238796
51	0x3d96298a	0.07332142
52	0xbb4e41be	-0.003147229
53	0xbd06f892	-0.0329519
54	0xbd2a223a	-0.041536547
55	0xbd9be57e	-0.076121315
56	0xbcab0fdf	-0.020881591
57	0x3d143e2c	0.036192104
58	0x3d1a9fce	0.037750058
59	0xbd624128	-0.05523792
60	0xbe72096a	-0.23636404
61	0xbd49dc0c	-0.04928212
62	0xbd8860e7	-0.06659108
63	0xbd11e37f	-0.035617348
64	0x3d0cdf0e	0.03439241
65	0x3dd19f26	0.10235433
66	0xbd6ded42	-0.058087595
67	0x3e831086	0.25598544
68	0xbd67efd9	-0.05662522
69	0x3d50ed08	0.0510073
70	0xbe8058be	-0.25067705
71	0xbe166209	-0.14685835
72	0xbd1cf4d2	-0.038319416
73	0x3de23f85	0.11047272
74	0xbcbe2489	-0.02321078
75	0x3c93bc9f	0.018034277
76	0x3d120602	0.03565026
77	0xbcd6338f	-0.026147632
78	0x3d8ae3b9	0.06781716
79	0x3d829146	0.06375365
80	0xb9478629	-0.00019028097
81	0x3c913add	0.017728264
82	0xbdf00e8b	-0.11721524
83	0xbda132c8	-0.07871014
84	0x3d6bfb32	0.057612605
85	0x3ccf9047	0.025337351
86	0x3bc9e406	0.0061612157
87	0x3cbb08c6	0.022831332
88	0x3cbbcf81	0.022926094
89	0x3c39d7b0	0.011342928
90	0xbd2732ee	-0.040820055
91	0x3ed0e824	0.4080211
92	0xbd3176a2	-0.043326028
93	0xbd07b9ec	-0.033136293
94	0xbecd11fb	-0.4005278
95	0x3b5fcfd6	0.003415098
96	0xbd16c299	-0.036806677
97	0x3d0646ef	0.03278249
98	0x3d62c3ba	0.05536244
99	0x3cf705d3	0.030154144
100	0xbd8731d2	-0.06601299
101	0x3c89737f	0.016778706
102	0x3eebf7ef	0.46087596
103	0xbd02dc9e	-0.03194868
104	0xbd28062e	-0.04102152
105	0x3d2c95bc	0.042134985
106	0x3ad68809	0.0016367446
107	0xbf1430a0	-0.57886696
108	0x3e9f9d75	0.31174818
109	0xbe4713c1	-0.1944113
110	0x3ea6ee58	0.32603717
111	0xbe4bad47	-0.19890319
112	0xbef5bebd	-0.47997084
113	0xbb8ac85a	-0.0042353095
114	0x3d21f11c	0.03953658
115	0x3c847c87	0.01617266
116	0xbbc92f29	-0.006139655
117	0xbcac4197	-0.02102737
118	0xbcf3d2d5	-0.029763618
119	0x3c825865	0.01591129
120	0x3d422496	0.047398172
121	0xbec28feb	-0.38000426
122	0xbd194de1	-0.037427787
123	0xbd1ec5c8	-0.038762838
124	0x3ba4c648	0.00502852
125	0x3c5963fa	0.013268465
126	0xbccc4189	-0.024933593
127	0x3ca1a511	0.01973203
128	0x3cc97153	0.02459017
129	0xbc975114	-0.018471278
130	0xbe205583	-0.1565762
131	0x3d583806	0.052787803
132	0x3ae18f7d	0.00172089
133	0x3d272c8a	0.04081396
134	0xbcf7c2d4	-0.030244268
135	0xbcca6efb	-0.024711123
136	0x3d13f7bc	0.03612493
137	0xbc41f5ec	-0.0118384175
138	0xbcb4789b	-0.022030165
139	0xbe5611cf	-0.20905231
140	0xbe5fc1ee	-0.21851322
141	0xbb23b203	-0.002497793
142	0x3cb7112d	0.022347057
143	0xbc2dc15e	-0.010605184
144	0xbce85cd1	-0.02836457
145	0xbd401530	-0.046895206
146	0x3d29871e	0.041388623
147	0x3e5e404b	0.21704213
148	0x3f076bca	0.5289885
149	0xbc81c1f1	-0.015839549
150	0x3e31d423	0.1736608
151	0x3c60ddec	0.013724785
152	0x3d137bfc	0.036006913
153	0xbd06a01e	-0.032867543
154	0xbcf4ed73	-0.02989838
155	0xbe505e71	-0.20348527
156	0xbe9fd736	-0.3121888
157	0xbe4a4f0a	-0.19756714
158	0x3d8a3feb	0.06750473
159	0xbdcdbce2	-0.10045792
160	0x3d7ebf5c	0.062194213
161	0x3ba1ff70	0.0049437806
162	0xbed79e80	-0.42113113
163	0x3d5a224e	0.05325537
164	0x3ca58495	0.020204822
165	0x3c79a7bc	0.015237745
166	0xbcbd2f3b	-0.02309381
167	0xbeb5461c	-0.35405052
168	0x3e6d4086	0.23169145
169	0x3befb2f7	0.0073150354
170	0x3d74bd62	0.059750922
171	0xbd449f64	-0.04800357
172	0xbc771bb0	-0.015082285
173	0x3e5916cc	0.21200103
174	0xbbc2d2aa	-0.0059455233
175	0x3ed3e5fb	0.413864
176	0x3d9289b4	0.07155171
177	0x3e079eac	0.13244122
178	0xbce5f787	-0.028072132
179	0xbd2bf802	-0.041984566
180	0xbb73fa56	-0.003722807
181	0xbe10656c	-0.1410119
182	0x3d017e83	0.03161479
183	0xbbc72ae0	-0.006078109
184	0x3d3fee59	0.046858165
185	0xbe9914d3	-0.298987
186	0x3c2b068c	0.010438573
187	0x3e5ab692	0.21358708
188	0x3c340dfe	0.010989664
189	0x3d9577f2	0.072982684
190	0x3bf96a4c	0.0076115485
191	0xbca742e9	-0.020417647
192	0xbe04e3e8	-0.12977564
193	0x3c62382e	0.01380734
194	0xbd64b0d2	-0.05583269
195	0xbd13a668	-0.03604737
196	0xbd41ecc9	-0.047344957
197	0x3d62a4d3	0.05533297
198	0x3d853d37	0.065058164
199	0xbbd07f44	-0.0063628275
200	0xbc48103a	-0.0122109
201	0x3aa4e94b	0.0012581734
202	0xbc37d856	-0.011221012
203	0xbc5502bc	-0.01300114
204	0xbd1b21b0	-0.037873924
205	0xbd0b68cc	-0.03403549
206	0xbe08497e	-0.13309285
207	0xbd2b4e22	-0.04182256
208	0xbd8f5348	-0.069983065
209	0xba775492	-0.0009434904
210	0x3dc7604d	0.09735165
211	0xbd310c3a	-0.04322455
212	0x3c9b97f9	0.018993365
213	0xbd5fb724	-0.054618016
214	0x3d1a0726	0.037604474
215	0x3d9b8ea2	0.075955644
216	0x3ecd6c22	0.4012156
217	0x3ca82a21	0.020527901
218	0x3e109759	0.14120235
219	0xbd01f6f7	-0.031729665
220	0x3e9019aa	0.2814458
221	0xbea48e66	-0.3213989
222	0xbc467b8a	-0.012114415
223	0xbc97b58b	-0.018519184
224	0xbd4cd4ee	-0.050007753
225	0xbd8c7e14	-0.06859985
226	0xbce67e41	-0.028136374
227	0xbcfdb31b	-0.030969193
228	0x3d248f36	0.04017564
229	0x3ce75a59	0.028241323
230	0x3c0a068c	0.008424412
231	0xbe33bfb5	-0.17553599
232	0x3d51fd72	0.051267095
233	0xbcec93f3	-0.028879141
234	0xbc23e25a	-0.010002697
235	0x3dac9b6e	0.08428083
236	0x3ecba803	0.3977662
237	0x3c17a6d2	0.009256082
238	0xbd0155ca	-0.031575955
239	0xbcf34442	-0.029695634
240	0xbce8d551	-0.02842203
241	0xbd9acbad	-0.07558379
242	0xbe79d52c	-0.24397725
243	0x3d8d344c	0.068947405
244	0x3a9be4a1	0.0011893698
245	0x3d7556c5	0.059897203
246	0xbe01d9d7	-0.12680756
247	0x3d6f45cc	0.058416173
248	0xbd34c9f2	-0.044137903
249	0x3d387dfe	0.04504203
250	0x3ed93e18	0.42430186
251	0x3cb4be89	0.02206351
252	0xbd2218e0	-0.039574504
253	0xbc8827b3	-0.016620493
254	0xbd4638f2	-0.04839415
255	0x3d3254aa	0.043537773

bias f4 [128]
0	0x3d3b5bcf	0.045741852
1	0x3d37a527	0.044835236
2	0x3d635fb4	0.05551119
3	0xbd94a15c	-0.07257339
4	0x3d555dd3	0.05209143
5	0x3cefbd82	0.029265169
6	0x3d2510a0	0.040299058
7	0x3daf734f	0.08566915
8	0x3d46fd52	0.04858143
9	0xbced69dc	-0.028981142
10	0xbd5922c4	-0.05301167
11	0x3d01644a	0.031589784
12	0x3caad7b9	0.020854818
13	0xbd0fd56b	-0.03511564
14	0x3ce7b240	0.028283238
15	0xbd863d8f	-0.0655471
16	0x3d18618c	0.037202403
17	0xbd91a894	-0.07112232
18	0x3d3952f6	0.045245133
19	0x3c02c6e2	0.007981988
20	0xbcfe4f52	-0.031043682
21	0x3c8c4dfa	0.017127026
22	0xbd274778	-0.040839642
23	0xbd2a1fa8	-0.041534096
24	0x3d301dcc	0.042997167
25	0x3d02b202	0.031908043
26	0xbba37e45	-0.0049894177
27	0x3b9b2caa	0.004735549
28	0x3bf4a938	0.0074664615
29	0xbd753dba	-0.05987332
30	0xbaed8d19	-0.0018123715
31	0xbd9143f1	-0.07093037
32	0xbd544332	-0.051821895
33	0x3c1668c1	0.009180249
34	0x3cdcbc53	0.026945269
35	0xbb988685	-0.004654708
36	0x3cbc179a	0.022960473
37	0xbd103f6b	-0.03521673
38	0x3d2ea752	0.042640038
39	0xbd070a30	-0.0329687
40	0x3c930df4	0.01795099
41	0xbb1983ae	-0.0023424434
42	0x3d5fbe94	0.05462511
43	0x3c81b9aa	0.015835602
44	0xbd5cb428	-0.053882748
45	0x3d19fc37	0.037594046
46	0x3d088a41	0.033334974
47	0x3d6851bd	0.056718577
48	0x3cd74a16	0.026280444
49	0x3d27d1c7	0.040971544
50	0xbc5f0147	-0.013611144
51	0x3ccf00a0	0.025268853
52	0xbdb057b6	-0.086104795
53	0xbd1f3f05	-0.03887846
54	0xbc8b8f4a	-0.017036099
55	0xbda0f153	-0.07858529
56	0x3ceea5be	0.029131766
57	0xbd34c42d	-0.0441324
58	0xbd992059	-0.07476873
59	0x3da46d0c	0.080286115
60	0x3d63ab51	0.055583302
61	0x3d00dfed	0.031463552
62	0xbc8c6f9a	-0.01714306
63	0xbd7ef51b	-0.06224547
64	0x3ca42934	0.020039178
65	0xbd6b2dc8	-0.057416707
66	0x3d113962	0.035455115
67	0xbd3c6a43	-0.045999777
68	0x3da853b8	0.08219093
69	0xbabbdb9f	-0.001433242
70	0x3c84130f	0.01612237
71	0xbd175a0f	-0.03695112
72	0x3db6f738	0.08933872
73	0x3ca35618	0.019938514
74	0xbcb9207c	-0.022598498
75	0xbd04ee9d	-0.03245412
76	0x3a7710fc	0.0009424833
77	0xbd022ff3	-0.03178401
78	0xbc50e05d	-0.012748805
79	0x3cd58ec7	0.026069058
80	0xbbe5b937	-0.0070106047
81	0x3c516927	0.012781418
82	0x3d955181	0.07290936
83	0xbd4b9c04	-0.049709335
84	0xbbb9aaa7	-0.0056660953
85	0x3c73fe3f	0.01489216
86	0xbc9631ab	-0.01833423
87	0xbc494cdb	-0.01228639
88	0xbcdb60fc	-0.026779644
89	0xbd0543c3	-0.032535326
90	0x3bebdfd4	0.0071983133
91	0x3cb9d9cc	0.022686861
92	0x3d1fd817	0.03902444
93	0xbcb12fd0	-0.021629244
94	0x3d7d0106	0.061768554
95	0x3b06c124	0.0020561898
96	0xbc525d20	-0.012839586
97	0x3d591dc6	0.05300691
98	0xbc8236aa	-0.015895206
99	0xbd999089	-0.07498271
100	0x3cf0ed83	0.02941013
101	0x3ce4b0fe	0.027916428
102	0x3d6c2f8d	0.057662535
103	0xbda3bcdd	-0.07995007
104	0x3c6f6e0a	0.014613638
105	0x3b935033	0.0044956445
106	0xbd279658	-0.040914863
107	0x3cdcc8e2	0.026951257
108	0x3c061d19	0.008185648
109	0x3d19fe0a	0.037595786
110	0xbda49a2d	-0.08037219
111	0x3d0ede16	0.034879766
112	0x3d07d143	0.033158552
113	0xbd402fbd	-0.046920527
114	0xbd0c2a1c	-0.034219846
115	0x3cb31115	0.021858731
116	0xbc471a19	-0.012152218
117	0xbcff1154	-0.031136192
118	0xbc3985e9	-0.011323431
119	0xbcfdfd22	-0.031004492
120	0xbd29d939	-0.041466925
121	0xbdb28746	-0.087172076
122	0xbd06026e	-0.03271716
123	0x3d728b93	0.05921514
124	0x3c344c91	0.011004583
125	0xbd3992bf	-0.045305964
126	0xbc4ff30b	-0.012692223
127	0x3d126770	0.035743177

weight f4 [64, 128]
0	0x3c9de6a9	0.019275026
1	0xbde9eae8	-0.11421758
2	0x3d86901f	0.06570458
3	0x3cdb4c21	0.0267697
4	0x3d7d5c98	0.061855882
5	0xbdc9fdef	-0.09862887
6	0xbcfe7e3a	-0.031066049
7	0xbecb1de6	-0.39671248
8	0x3d0ed364	0.034869567
9	0x3d3d5d75	0.046231706
10	0x3cf6d5fc	0.030131333
11	0x3d046151	0.03231937
12	0xbe4393a4	-0.19099289
13	0xbe25715f	-0.16156529
14	0x3e875f06	0.26439685
15	0x3b068a8a	0.0020529353
16	0xbe850ced	-0.25986424
17	0xbcca7596	-0.024714272
18	0x3d25dac8	0.04049185
19	0xbcfddcae	-0.030989017
20	0x3db75dd0	0.0895344
21	0x3d4924df	0.04910743
22	0x3ce1be68	0.027556613
23	0xbd194f7e	-0.037429325
24	0xbd9a39a9	-0.07530529
25	0x3dbff401	0.09372712
26	0x3dc2d05a	0.09512396
27	0xbd5ef00a	-0.054428138
28	0xbec5faa3	-0.38667783
29	0xbda4128c	-0.0801135
30	0xbd75cb49	-0.06000832
31	0x3d889597	0.06669157
32	0xbd1df460	-0.038563132
33	0x3d0fa29b	0.035067182
34	0x3d249278	0.040178746
35	0xbd366362	-0.044528373
36	0xbc6b0cd8	-0.014346324
37	0xbec37497	-0.38174888
38	0xbe27b5eb	-0.1637799
39	0x3dce181a	0.10063191
40	0x3e93d268	0.28871465
41	0xbf1809af	-0.59389776
42	0x3da7f3e5	0.08200816
43	0xbc4c4c80	-0.012469411
44	0xbce13cf8	-0.027494892
45	0xbeb0e282	-0.34547812
46	0x3db47f8f	0.08813392
47	0x3d8b93de	0.06815313
48	0xbe6193b9	-0.22029008
49	0x3d5aad23	0.053387772
50	0x3d6ef831	0.058342163
51	0xb7be6390	-2.2696127e-05
52	0xbdbbf829	-0.09178192
53	0x3d260802	0.04053498
54	0xbdc8823f	-0.097904675
55	0xbdc2ee27	-0.0951808
56	0xbd4fc644	-0.05072619
57	0x3e6eb867	0.23312531
58	0xbd72e599	-0.059300993
59	0xbd79881a	-0.060920812
60	0xbccd50d6	-0.02506296
61	0xbb28d4ff	-0.0025761721
62	0xbd4aa554	-0.049474075
63	0xbd72ca40	-0.059274912
64	0x3d415598	0.04720077
65	0xbbe5bd2a	-0.0070110755
66	0x3db34087	0.08752542
67	0xbd972932	-0.07380904
68	0xbeab0010	-0.33398485
69	0x3da3afff	0.07992553
70	0x3d619d99	0.055081937
71	0x3d892372	0.06696214
72	0xbd42c6b8	-0.047552794
73	0xbe0bd028	-0.13653624
74	0x3e857bd1	0.26071027
75	0xbd350fb2	-0.04420442
76	0xbc490daf	-0.012271329
77	0xbc20bdfb	-0.00981092
78	0xbd5a8ef4	-0.053358987
79	0x3de91e57	0.1138274
80	0xbd4017b7	-0.046897616
81	0xbd1c8ed2	-0.03822214
82	0x3d285871	0.04109997
83	0x3d342e3f	0.043989416
84	0x3ea0d25e	0.31410497
85	0x3dc9dd37	0.098566465
86	0x3bb2133a	0.005434421
87	0x3db26e6d	0.08712468
88	0x3c6c5cfa	0.014426464
89	0x3d1e810a	0.03869728
90	0x3da4a9dd	0.08040211
91	0x3d29b5ab	0.041433018
92	0xbd0d0a51	-0.034433667
93	0xbd9faa9b	-0.07796212
94	0x3c6c18b3	0.014410186
95	0xbd1f130a	-0.038836516
96	0xbc38f9e5	-0.011290048
97	0xbc7c80cd	-0.015411568
98	0xbea47b0f	-0.32125136
99	0xbde9f1e0	-0.11423087
100	0xbd9dfefd	-0.07714651
101	0x3dd77467	0.10520249
102	0xbe35d5ca	-0.17757335
103	0x3cbe4f4b	0.02323117
104	0x3df2f5d3	0.118632935
105	0x3c78eb98	0.015192889
106	0x3d30a850	0.043129265
107	0x3df32afa	0.118734315
108	0xbcefac76	-0.02925704
109	0xbd3bc9da	-0.045846798
110	0xbd831dab	-0.06402143
111	0xbda8c2c4	-0.082402736
112	0x3ddcc97f	0.1078062
113	0xbd988c2a	-0.07448609
114	0xbdd2a521	-0.10285402
115	0xbdd50b89	-0.10402591
116	0xbe31b5e7	-0.17354546
117	0x3c097369	0.008389332
118	0x3ce66c0d	0.028127695
119	0x3b8091a1	0.0039236103
120	0xbeed7afc	-0.46382892
121	0x3cbbc7b3	0.022922372
122	0x3d97652d	0.073923446
123	0x3daad773	0.08341875
124	0xbd1886bb	-0.037237864
125	0x3d2a5992	0.041589327
126	0x3d57deed	0.052702833
127	0x3d2e3542	0.04253126
128	0xbdad2c2c	-0.08455691
129	0xbd558c93	-0.052136015
130	0x3d42c6a4	0.04755272
131	0xbdb92549	-0.09040315
132	0xbcbcc921	-0.023045124
133	0xbd38a056	-0.045074783
134	0x3da0b416	0.07846849
135	0xbc423731	-0.011853979
136	0xbb9f737c	-0.0048660617
137	0x3ab7c605	0.0014020806
138	0x3d1ce6bd	0.038305987
139	0xbd2caf90	-0.042159617
140	0x3d1e52ec	0.0386533
141	0xbd062e53	-0.032759022
142	0x3db4d76e	0.088301525
143	0x3d1d9140	0.0384686
144	0x3d94a084	0.072571784
145	0xbdb88434	-0.09009591
146	0x3d81bc30	0.06334722
147	0x3cfda813	0.030963933
148	0x3db6d34a	0.08927019
149	0x3d07c114	0.033143118
150	0x3d8607f3	0.06544485
151	0xba451cae	-0.0007519227
152	0xbdb92f35	-0.09042207
153	0x3d474dba	0.04865811
154	0x3dae88eb	0.08522209
155	0xbc93a6eb	-0.018023929
156	0x3cae4f22	0.021277968
157	0x3c316bb1	0.010828898
158	0xbdf19cb6	-0.11797468
159	0xbd8780a9	-0.06616337
160	0xbd8c7fde	-0.06860326
161	0xbdeaaf2d	-0.114591934
162	0xbcedab8d	-0.029012466
163	0x3a928c5f	0.001118075
164	0xbd108801	-0.035285953
165	0xbb1c7676	-0.002387432
166	0xbe05bc2b	-0.13060062
167	0x3de687d8	0.11256379
168	0x3c919377	0.017770512
169	0xbcee0707	-0.029056085
170	0x3d1402db	0.036135536
171	0x3df9e2d4	0.12201467
172	0xbdaa6e02	-0.083217636
173	0xbd464aaf	-0.048411068
174	0x3d68fae4	0.056879893
175	0x3cbc95c4	0.023020633
176	0x3a54c9aa	0.00081172085
177	0xbd669e23	-0.056303155
178	0x3d22aa6b	0.039713304
179	0xbcea57ee	-0.028606381
180	0xbda2f5f6	-0.079570696
181	0xbdfa9d5c	-0.12237045
182	0xbc232eed	-0.009959918
183	0x3ba354aa	0.004984458
184	0x3c85688f	0.016285209
185	0x3d0de4e3	0.03464211
186	0x3c83b0e9	0.016075568
187	0xbc951de1	-0.018202724
188	0x3da5bfbe	0.080932125
189	0xbdbfc2ba	-0.09363313
190	0x3bbb2126	0.0057107387
191	0xbd138228	-0.0360128
192	0x3de4edb3	0.1117815
193	0x3cab7e8c	0.020934366
194	0x3da45c89	0.08025462
195	0x3d64e862	0.05588568
196	0xbd398982	-0.045297153
197	0x3ddf4d8b	0.10903462
198	0xbde864d3	-0.11347356
199	0x3ce24e2c	0.027625166
200	0xbc33cc4b	-0.010974
201	0x3ca89115	0.020576993
202	0x3d6f938a	0.058490314
203	0x3dd09a53	0.10185685
204	0xbba1fe16	-0.0049436195
205	0xbd93ee04	-0.07223132
206	0xbb8ec216	-0.004356633
207	0xbd0719b7	-0.032983508
208	0xbdbb0e4c	-0.09133586
209	0xbdaa7258	-0.083225906
210	0x3d83ddb0	0.06438768
211	0xbd4b9707	-0.049704578
212	0xbd8dfcf2	-0.06933011
213	0x3da059ba	0.07829614
214	0x3d537882	0.051628597
215	0x3dc82300	0.09772301
216	0x3d85ca0d	0.06532679
217	0x3d695cd5	0.056973297
218	0x3d721816	0.059105
219	0xbdd59846	-0.104294345
220	0x3d33ca4a	0.04389409
221	0xbdc34b1c	-0.0953581
222	0x3daccf4e	0.08437978
223	0xbdd0a63f	-0.10187959
224	0xbd01171d	-0.031516183
225	0x3d0d30b2	0.034470268
226	0x3bd5ba13	0.006522426
227	0xbd53dc17	-0.051723566
228	0x3d16e105	0.03683569
229	0xbc295ba8	-0.010336794
230	0xbd83e68c	-0.06440458
231	0xbb5e686d	-0.0033936754
232	0xbd0cf42e	-0.034412555
233	0x3d437711	0.047720972
234	0x3deb2b64	0.114828855
235	0xbdbc3e73	-0.09191599
236	0xbdab69ad	-0.083697654
237	0x3d552e04	0.052045837
238	0xbd38f8f2	-0.045159288
239	0xbd95ab1b	-0.073080264
240	0xbcf48a7b	-0.029851189
241	0x3c13f9de	0.009031741
242	0xbd845457	-0.06461399
243	0xbdcecb3d	-0.100973584
244	0x3d87aabc	0.06624362
245	0x3d81a01b	0.06329366
246	0x3d69b8dc	0.05706106
247	0xbddaea76	-0.10689251
248	0x3d217fa2	0.03942836
249	0xbdb1bfe3	-0.086791776
250	0xbd7a3993	-0.061090063
251	0x3d6bc058	0.05755648
252	0xbcdf2148	-0.02723755
253	0xbd78dfd9	-0.060760353
254	0x3d231ce4	0.039822474
255	0xbcb9e513	-0.022692239

bias f4 [64]
0	0xbd2b5d60	-0.041837096
1	0xbd58c7e7	-0.052925017
2	0x3afb2a83	0.001916245
3	0xbd3a0850	-0.045418084
4	0x3c5323bd	0.012886939
5	0x3c721f10	0.014777914
6	0x3ce72053	0.028213656
7	0x3c694da7	0.014239705
8	0xbc0be3cf	-0.0085382005
9	0x3cc29e2c	0.023757063
10	0xbd801c6a	-0.062554196
11	0x3d756008	0.059906036
12	0xbc6bb874	-0.014387239
13	0xbd1aad0b	-0.037762683
14	0x3c824988	0.015904203
15	0xb9f3bacc	-0.00046487746
16	0x3db607a6	0.088881776
17	0x3c11d181	0.008900047
18	0xbc7497ca	-0.014928767
19	0xbc2214d4	-0.009892661
20	0x3ddb5b48	0.1071077
21	0xbc9bbf6d	-0.019012177
22	0x3cd32187	0.025772823
23	0x3df41d0c	0.11919603
24	0xbd8450fc	-0.06460759
25	0xbd1d1cca	-0.038357534
26	0xbd14b974	-0.036309674
27	0xbccb0c6a	-0.024786193
28	0xbd1e7d6c	-0.03869383
29	0x3db072ba	0.08615632
30	0x3d34f718	0.04418096
31	0xbd77656c	-0.060399458
32	0x3dcd95b4	0.10038319
33	0x3cecc58d	0.028902793
34	0x3d045ab0	0.03231305
35	0x3d2d637a	0.042331196
36	0x3d5ecda4	0.054395333
37	0x3d1abb9e	0.037776582
38	0xbcc370d3	-0.02385751
39	0xbda183af	-0.07886445
40	0xbddf0c09	-0.108909674
41	0xbd931571	-0.07181824
42	0x3cad2af9	0.021138655
43	0xbc0d57a9	-0.008626857
44	0x3d4b1263	0.04957808
45	0xbd5e1d1c	-0.05422698
46	0xbdabb94e	-0.083849534
47	0x3d52205d	0.051300395
48	0xbdd76393	-0.10517039
49	0x3dd27c15	0.10277573
50	0x3d195e72	0.037443586
51	0x3d4b1942	0.049584635
52	0x3d84d58c	0.06486043
53	0x3da2c8c2	0.07948448
54	0x3ce95752	0.02848402
55	0xbdd828ab	-0.10554632
56	0xbc8711f2	-0.01648805
57	0x3de3a8f3	0.11116209
58	0x3dd4d876	0.10392849
59	0xbda00190	-0.07812798
60	0xbdb44c4b	-0.08803614
61	0xbd29c2c6	-0.041445516
62	0x3da7a52d	0.08185802
63	0x3dbc9abd	0.092092015

weight f4 [32, 64]
0	0xbd64ddd6	-0.05587562
1	0xbccd429b	-0.025056174
2	0x3d14e55b	0.036351543
3	0x3e31861d	0.17336316
4	0xbcdd3660	-0.027003467
5	0xbd67823b	-0.05652068
6	0x3e310fed	0.17291231
7	0xbc187f41	-0.009307683
8	0x3d3818f0	0.044945657
9	0x3df8eef5	0.121549524
10	0xbdc3af2d	-0.095548965
11	0x3dbc1dcd	0.091853715
12	0xbdf63fc0	-0.12023878
13	0x3d6753ae	0.056476288
14	0x3e3f2454	0.18666202
15	0x3d138c15	0.036022265
16	0xbe18a863	-0.14907984
17	0x3cfc669e	0.03081065
18	0xbdf0a107	-0.117494635
19	0x3da88643	0.082287334
20	0x3d12aaf9	0.035807583
21	0x3cfa42d4	0.030549444
22	0x3d03c447	0.032169607
23	0xbde00190	-0.10937798
24	0x3e18df9f	0.14929055
25	0x3dea1bf0	0.1143111
26	0x3dbc79c4	0.092029124
27	0x3ce36fad	0.027763212
28	0x3bfa9d51	0.007648148
29	0xbcc4ccdd	-0.024023468
30	0xbd55ef49	-0.052230153
31	0x3e0096b9	0.12557496
32	0xbd9c8335	-0.07642213
33	0x3dc49dc3	0.09600403
34	0xbe0c9885	-0.13730057
35	0x3e60e88a	0.21963707
36	0x3e2e072d	0.16994925
37	0xbe123c24	-0.14280754
38	0xbccb2f57	-0.024802847
39	0xbc71cf7a	-0.014758939
40	0x3d00f8e7	0.03148737
41	0x3e19675d	0.14980836
42	0xbdfabb76	-0.122427866
43	0x3d896824	0.067093164
44	0xbd5821a2	-0.05276645
45	0x3dcdd2a0	0.10049939
46	0xbd8c0826	-0.06837492
47	0xbd148973	-0.036263894
48	0x3df9bf8b	0.12194737
49	0xbe13d1c3	-0.14435486
50	0x3e24928c	0.16071528
51	0xbd86cf3f	-0.06582498
52	0xbd2bbcd7	-0.04192814
53	0x3db08af6	0.08620255
54	0xbe28cd21	-0.164845
55	0x3d3d1246	0.046160005
56	0xbc56f610	-0.013120189
57	0x3da5cce8	0.080957234
58	0x3d566c7f	0.052349564
59	0x3d047ef3	0.03234763
60	0xbdf24515	-0.118295826
61	0x3e112411	0.14173914
62	0xbdb039fe	-0.08604811
63	0xbd4b95b5	-0.04970332
64	0x3d6a50f9	0.057206128
65	0x3d8eae47	0.069668345
66	0xbe173647	-0.14766799
67	0xbdd1190e	-0.10209857
68	0xbe2c307b	-0.16815369
69	0xbd43a919	-0.047768686
70	0xbb1a9acf	-0.0023590808
71	0xbdf0a41d	-0.11750052
72	0xbc5ab464	-0.013348673
73	0xbe356374	-0.1771372
74	0x3cab83da	0.020936895
75	0xbd2489d7	-0.040170517
76	0xbd5dd47e	-0.054157726
77	0xbe296e26	-0.16545925
78	0x3c2cb66e	0.0105415415
79	0x3d4ac7e6	0.049507044
80	0x3d97fa25	0.07420758
81	0xbe0a5dcb	-0.13512342
82	0xbe633357	-0.22187553
83	0xbe23f814	-0.16012603
84	0x3dfb6904	0.122758895
85	0x3d6089cb	0.05481891
86	0xbd901550	-0.07035315
87	0xbd426525	-0.04745974
88	0xbe9b15c2	-0.30290037
89	0x3d96f58d	0.07371054
90	0xbcdee6f4	-0.027209736
91	0xbe899667	-0.2687256
92	0xbe35dd86	-0.17760286
93	0x3e20d947	0.15707885
94	0x3daefe4d	0.08544598
95	0x3ca8178c	0.02051904
96	0x3dfd87c0	0.12379408
97	0xbdb433fb	-0.08798977
98	0xbcee710b	-0.029106637
99	0xbc2ad463	-0.0104266135
100	0xbda0df09	-0.078550406
101	0x3e23ae43	0.15984444
102	0xbdc7fd76	-0.09765141
103	0x3dbac992	0.09120478
104	0x3d5b6179	0.053559754
105	0xbd9128b2	-0.0708784
106	0xbd2bb2d8	-0.041918606
107	0xbea51797	-0.3224456
108	0x3da9563e	0.082684025
109	0x3c66cbd8	0.014086686
110	0xbc54283d	-0.012949047
111	0x3d62410e	0.055237822
112	0x3d8f63c7	0.07001453
113	0x3e13e7f5	0.14443953
114	0x3d47b906	0.048760436
115	0xbdcabadd	-0.098989226
116	0x3e0526c5	0.1300307
117	0xbeb0e1ac	-0.34547174
118	0xbc5eb4ad	-0.013592881
119	0xbdfd11e9	-0.12356932
120	0x3b62cee7	0.0034608187
121	0x3d7bb87a	0.061455227
122	0xbd8fb78e	-0.07017432
123	0xbdeee40a	-0.11664589
124	0x3e2692c3	0.16266923
125	0xbded35b1	-0.115825064
126	0x3dc8dc4a	0.09807642
127	0xbca4ce13	-0.020117795
128	0x3d4934e7	0.049122717
129	0x3dfa09b3	0.12208881
130	0xbd40f303	-0.047106754
131	0xbde7ff60	-0.11328006
132	0x3d473de2	0.048643
133	0xbdb39cfa	-0.08770175
134	0xbda494d3	-0.080361985
135	0xbe159ab8	-0.14609802
136	0xbd89e5cd	-0.06733284
137	0xbdbb9c91	-0.09160722
138	0x3d48db45	0.049037237
139	0xbdf2fa0a	-0.118640974
140	0x3de95934	0.11393967
141	0x3c8303dc	0.015993051
142	0xbddbe18f	-0.10736381
143	0x3d9d4073	0.07678308
144	0xbda28eba	-0.07937379
145	0xbdc73d7a	-0.097285226
146	0x3e50deb1	0.2039745
147	0xbe2e1f94	-0.17004234
148	0x3e1c3509	0.15254606
149	0xbc42cb94	-0.011889357
150	0xbeafe634	-0.3435532
151	0x3d28ca25	0.041208405
152	0x3dd74934	0.10512009
153	0x3c94ec34	0.018179037
154	0xbde9b106	-0.11410718
155	0xbb6eb5b8	-0.003642423
156	0xbde3d59f	-0.11124729
157	0xbd377cb8	-0.044796675
158	0x3e7535a0	0.23946238
159	0xbe930de3	-0.28721532
160	0x3da4a232	0.08038749
161	0xbd3d837f	-0.046267983
162	0x3ec9e9be	0.39436144
163	0xbcc6c041	-0.024261596
164	0x3d8c89b2	0.06862201
165	0xbd1967db	-0.03745256
166	0xbe156cf6	-0.14592347
167	0x3dd5ec7a	0.10445495
168	0xbc8dddf7	-0.017317755
169	0x3d1cad8b	0.03825144
170	0x3d59124e	0.052995972
171	0x3daaf209	0.08346946
172	0x3d4ac203	0.04950143
173	0x3d820e03	0.06350329
174	0xbd8324ee	-0.06403528
175	0xbeaccaaa	-0.3374837
176	0xbecb54a1	-0.39713004
177	0x3e04af58	0.12957513
178	0xbcd85a76	-0.026410323
179	0x3e7d0dea	0.24712339
180	0xb9ccbe1b	-0.00039051552
181	0xbcfc593d	-0.03080427
182	0xbcc01dea	-0.023451764
183	0xbd8f2ecf	-0.0699135
184	0x3d8591f2	0.065219775
185	0x3a56e284	0.00081972056
186	0x3eaa41d1	0.3325334
187	0xbdb43415	-0.08798996
188	0xbc6b92fa	-0.014378304
189	0xbe0f1ead	-0.13976546
190	0xbc28d806	-0.01030541
191	0xbe215318	-0.15754354
192	0x3df5bff0	0.119995
193	0x3e1f19c8	0.15537179
194	0x3d46e2b5	0.04855605
195	0xbdac22ac	-0.08405051
196	0xbe47550e	-0.1946604
197	0x3d9f2fbc	0.077727765
198	0x3ab427b6	0.0013744745
199	0xbd9e56ff	-0.07731437
200	0xbe2fdd02	-0.17174152
201	0xbc856823	-0.016285008
202	0x3d236556	0.039891563
203	0xbd422ed2	-0.047407933
204	0x3c890eeb	0.016730746
205	0xbdf5aea0	-0.11996198
206	0xbe07594f	-0.13217662
207	0xbc98bf15	-0.018645803
208	0x3db3803f	0.087646954
209	0x3bbc17f1	0.0057401587
210	0x3c9c7d53	0.019102728
211	0xbd36affc	-0.044601426
212	0x3cf3ac09	0.029745119
213	0x3df48964	0.11940268
214	0xbd10842e	-0.035282306
215	0x3e264614	0.1623767
216	0x3c015924	0.007894788
217	0xbde7a9bf	-0.113116734
218	0xbdf50a31	-0.119648345
219	0xbdad026e	-0.08447729
220	0xbe00e1b1	-0.12586094
221	0x3e53c64c	0.20681113
222	0x3c620068	0.013794042
223	0xbd13ace6	-0.03605356
224	0x3e0c9dc1	0.13732053
225	0xbe4f0f6f	-0.20220731
226	0x3c11aa89	0.008890756
227	0xbce286bc	-0.027652137
228	0xbe440ea5	-0.19146211
229	0x3dac5d14	0.08416191
230	0x3daafe36	0.08349268
231	0x3c6c3dca	0.014419029
232	0xbd8ba1fb	-0.06818005
233	0xbdd2dd0b	-0.10296067
234	0x3cd6e5e7	0.026232673
235	0xbe54f575	-0.2079676
236	0x3d483358	0.04887709
237	0x3cf96ad1	0.030446442
238	0xbc1e4099	-0.009658956
239	0x3d049ff7	0.032379117
240	0xbb090de7	-0.0020912827
241	0xbcda0000	-0.026611328
242	0xbe2874db	-0.16450827
243	0x3d850daf	0.064967506
244	0x3d45b608	0.0482693
245	0xbc99def2	-0.018783066
246	0x3d8f824b	0.07007273
247	0xbddc863b	-0.1076779
248	0x3e5844d4	0.21120006
249	0x3d2c11ee	0.042009287
250	0x3d9603b5	0.07324926
251	0x3d21cb72	0.03950066
252	0x3e216737	0.1576203
253	0xbd846a33	-0.064655684
254	0x3dcdef92	0.1005546
255	0x3d7c9b23	0.061671387

bias f4 [32]
0	0xbe1ad4f6	-0.151203
1	0x3ded4292	0.11584963
2	0x3e031fed	0.12805147
3	0x3d8ce1cd	0.068790056
4	0x3ddd07c2	0.10792495
5	0xbd30621e	-0.04306232
6	0x3d2bc232	0.041933246
7	0xbde6de1b	-0.11272832
8	0x3d168af5	0.036753614
9	0x3d801482	0.062539116
10	0x3c84519d	0.016152197
11	0x3da5f896	0.08104055
12	0x3daf865e	0.085705504
13	0x3ce46850	0.027881771
14	0x3ce6e450	0.02818504
15	0xbd98abcc	-0.07454643
16	0x3c20cc47	0.0098143285
17	0xbdcf6730	-0.10127103
18	0x3d534d28	0.051587254
19	0xbc90abe7	-0.017660094
20	0x3de67e55	0.11254565
21	0x3e11481f	0.14187668
22	0x3e1659d5	0.14682706
23	0xbdc1c53c	-0.094614476
24	0xbce4367b	-0.02785801
25	0xbbb93dfb	-0.0056531406
26	0x3d2b91a5	0.041886944
27	0xbb9e9b99	-0.004840326
28	0x3da37eb5	0.07983152
29	0x3beb9c93	0.007190296
30	0xbd82e91d	-0.06392119
31	0xbd3946f8	-0.045233697

weight f4 [1, 32]
0	0xbecbf37d	-0.39834204
1	0x3e9ecc79	0.31015375
2	0x3ebc21c4	0.3674451
3	0x3e9bafbd	0.30407515
4	0xbe81fbb5	-0.2538735
5	0xbea6ccdd	-0.32578173
6	0x3ea6d70e	0.3258595
7	0xbeb55f18	-0.35424113
8	0x3ed2928f	0.4112744
9	0xbed29af9	-0.4113386
10	0xbe9062e7	-0.28200457
11	0x3eb3c5ff	0.35111997
12	0xbead7b65	-0.33883205
13	0xbeb662da	-0.35622293
14	0xbeaec54d	-0.34134904
15	0xbed0e0fd	-0.40796652
16	0x3eb95d41	0.3620396
17	0xbea41d3f	-0.32053563
18	0xbec74574	-0.38920176
19	0xbeb59664	-0.354663
20	0x3ecc0e3b	0.39854607
21	0x3e9a4557	0.30131027
22	0x3e9be313	0.3044668
23	0x3ede2ff5	0.43395963
24	0xbec9bf64	-0.39403832
25	0xbec5dca5	-0.386449
26	0x3ed18570	0.40922117
27	0x3ebba1b9	0.36646822
28	0xbe86b581	-0.26310351
29	0xbe9ef644	-0.3104726
30	0xbe941871	-0.28924897
31	0xbe92891c	-0.2862023
