Models/Parking_lot_model_10.pth (torch, 23754 bytes, 5 tensors)

weight f4 [64, 10]
-0.038488764 -0.25166652 0.23678252 0.13307023 -0.1099575 0.18418586 -0.2306461 -0.31475535
-0.038358904 0.12584993 -0.12706669 0.14703926 -0.14132439 -0.06064143 -0.058347136 -0.30546457
0.32885504 -0.19629225 0.47424695 0.4182247 0.2505999 0.024080757 0.12661412 -0.29361063
0.0207889 0.0932049 0.078739 0.16184512 -0.18626615 -0.24895206 -0.14531481 0.03985813
-0.13026427 0.044627953 0.26670864 0.060353067 0.20796455 -0.17318375 0.31747317 -0.24742307
0.29441294 0.24132255 -0.11946778 0.49644384 0.11971042 0.1828146 0.5322773 0.15652959
0.48543504 -0.012415236 -0.5104321 0.47927698 -0.020567257 0.113327704 0.3508841 -0.18608585
0.24805002 0.3320527 -0.04423797 0.5638593 0.31764916 0.013171952 0.0016898428 -0.018439556
0.3076516 0.26469836 -0.12288298 -0.3111061 -0.25584665 0.10841545 -0.03770277 0.039809544
-0.09142745 0.7611217 -0.19079275 -0.042088263 0.14652665 0.26762006 0.0958755 -0.075553104
0.4787207 0.255092 -0.030020453 0.11009405 -0.27391484 -0.041837182 0.512909 0.5112088
0.01077267 0.43091524 -0.15351608 -0.020882305 -0.113827914 0.3817728 -0.37065932 -0.20959614
0.21072103 0.23126397 0.3098479 0.08152544 -0.054243505 0.275425 0.12879118 -0.091923505
0.25007457 0.14692378 0.013265361 0.27200297 0.09060224 -0.020198047 -0.56854 0.21743324
0.011439523 -0.049085155 0.018587286 -0.017904738 0.18325198 0.43954042 0.21245873 0.21531709
-0.2677024 0.19814587 0.038564865 0.16973822 0.055669732 -0.0002968997 -0.0930512 0.016943894
0.07170113 -0.15985642 0.21646516 -0.050658714 0.08007213 -0.16939147 0.029765317 0.09147388
0.1964509 -0.04289558 -0.301839 0.028792381 -0.027423667 -0.0014770778 0.038254607 0.11250429
0.22803144 -0.09373423 0.0058534206 -0.34481063 0.08466854 -0.3860978 0.4962701 0.22393005
0.08809428 0.14652279 -0.17361647 -0.23440194 0.2040988 0.15131752 -0.21934749 -0.09822279
0.6125657 0.048067555 -0.04072415 -0.39583907 0.012640095 -0.08198637 0.47446314 0.0495855
0.2849023 0.14961131 0.39537317 -0.16890298 0.12946741 0.03156469 -0.27000427 -0.3219152
0.09344219 -0.25489387 0.1860053 0.17791444 -0.21102345 -0.2779332 -0.14349705 -0.01278161
0.13040353 0.044099662 0.22103643 0.10389642 -0.06179593 -0.06320837 0.23574068 -0.21352907
0.21419458 0.32511297 -0.16345693 -0.36840844 0.16768469 0.2176725 -0.107242495 -0.19290265
-0.133865 -0.12218606 -0.123577975 0.14201589 0.07040697 -0.028159216 0.18702342 0.062013634
0.44386512 -0.28851148 0.33199292 0.28724977 0.22210033 0.039513264 -0.12706172 0.24606255
-0.25444198 -0.09065348 -0.15822284 -0.23697995 0.18636441 -0.33672133 0.23322806 0.35880914
-0.11133182 -0.22477709 0.14611211 -0.23820835 0.025343314 -0.36150536 0.43221787 0.19149418
0.04298932 0.34680286 0.26098636 -0.12408055 -0.44112736 0.1598205 -0.5095074 0.059192643
-0.45372894 -0.3675813 0.13031907 -0.13803767 -0.31428292 0.09360389 -0.17371607 -0.48176414
-0.20822906 -0.2636381 -0.05625107 0.20969185 0.0522871 0.2749996 0.26447174 -0.16945061
00000000: 65a6 1dbd 6fda 80be 1e77 723e 9043 083e
00000010: 6631 e1bd 389b 3c3e 7e2e 6cbe 9d27 a1be
00000020: 3a1e 1dbd cede 003e c51d 02be 7691 163e
00000030: 57b7 10be 2663 78bd 68fd 6ebd da65 9cbe
00000040: b05f a83e d600 49be 7fd0 f23e 8c21 d63e
00000050: a14e 803e 0245 c53c 22a7 013e 2254 96be
00000060: 7c4d aa3c 36e2 be3d ea41 a13d baba 253e
00000070: 8ebc 3ebe 4aed 7ebe 68cd 14be 4742 233d
00000080: ff63 05be cdcb 363d 098e 883e c734 773d
00000090: a9f4 543e 1557 31be d88b a23e 795c 7dbe
000000a0: 4bbd 963e 421d 773e 86ab f4bd e32d fe3e
000000b0: bd2a f53d c033 3b3e 5343 083f 4b49 203e
000000c0: f18a f83e 4669 4bbc aeab 02bf cb63 f53e
000000d0: aa7c a8bc 5b18 e83d 15a7 b33e 4a8d 3ebe
000000e0: d300 7e3e d002 aa3e e032 35bd 1559 103f
000000f0: e9a2 a23e 2ccf 573c b77d dd3a 8d0e 97bc
00000100: 8384 9d3e 8b86 873e 12aa fbbd 4c49 9fbe
00000110: 55fe 82be eb08 de3d 386e 1abd 550f 233d
00000120: 513e bbbd dfd8 423f 2d5f 43be be64 2cbd
00000130: 150b 163e 7f05 893e 605a c43d 96bb 9abd
00000140: e11a f53e 6b9b 823e 74ed f5bc fd78 e13d
00000150: 913e 8cbe 775d 2bbd 014e 033f 94de 023f
00000160: da7f 303c eca0 dc3e 5233 1dbe 5e11 abbc
00000170: 9c1e e9bd b977 c33e 0fc7 bdbe 5fa0 56be
00000180: 41c7 573e 76d0 6c3e 62a4 9e3e cff6 a63d
00000190: 702e 5ebd 8104 8d3e d6e1 033e 6442 bcbd
000001a0: c609 803e 3073 163e f556 593c f943 8b3e
000001b0: ab8d b93d 6076 a5bc d68b 11bf d2a6 5e3e
000001c0: d66c 3b3c 840d 49bd 5d44 983c f5ac 92bc
000001d0: 68a6 3b3e 710b e13e c88e 593e 157c 5c3e
000001e0: 4a10 89be c0e6 4a3e 31f6 1d3d dbcf 2d3e
000001f0: f205 643d 34a9 9bb9 a191 bebd eccd 8a3c
00000200: 0bd8 923d 67b1 23be 0ba9 5d3e 837f 4fbd
00000210: dbfc a33d f574 2dbe 65d6 f33c a856 bb3d
00000220: 6d2a 493e 47b3 2fbd a48a 9abe 00de eb3c
00000230: 99a7 e0bc 829a c1ba ddb0 1c3d a668 e63d
00000240: 1381 693e bbf7 bfbd 0dce bf3b 058b b0be
00000250: b366 ad3d 9cae c5be 1d17 fe3e eb4d 653e
00000260: c66a b43d 120a 163e 84c8 31be 1007 70be
00000270: 47ff 503e fbf2 1a3e a19c 60be 0829 c9bd
00000280: 1bd1 1c3f 7ce2 443d 5ece 26bd 6bab cabe
00000290: 6718 4f3c 78e8 a7bd d5ec f23e 2a1a 4b3d
000002a0: b7de 913e b533 193e 5a6e ca3e e7f4 2cbe
000002b0: 1b93 043e fa49 013d 003e 8abe 12d2 a4be
000002c0: 9e5e bf3d 7381 82be 2c78 3e3e 342f 363e
000002d0: 8816 58be 434d 8ebe e4f0 12be f569 51bc
000002e0: 8188 053e d9a1 343d 6057 623e a5c7 d43d
000002f0: bb1d 7dbd 6473 81bd 0166 713e 5da7 5abe
00000300: d355 5b3e 3575 a63e 4161 27be 08a0 bcbe
00000310: 89b5 2b3e 8ae5 5e3e f4a1 dbbd 4688 45be
00000320: e813 09be af3c fabd 7316 fdbd 9d6c 113e
00000330: 8831 903d 28ae e6bc 1183 3f3e 0202 7e3d
00000340: 4a42 e33e c7b7 93be fafa a93e 6712 933e
00000350: 456e 633e a9d8 213d 781c 02be d2f7 7b3e
00000360: 3846 82be 88a8 b9bd 2b05 22be dfaa 72be
00000370: 50d6 3e3e bd66 acbe 56d3 6e3e d5b5 b73e
00000380: f001 e4bd f72b 66be 6a9e 153e e4ec 73be
00000390: c89c cf3c 3b17 b9be a94b dd3e 0d17 443e
000003a0: 9215 303d 2590 b13e 01a0 853e f21d febd
000003b0: 72db e1be fca7 233e 146f 02bf fc73 723d
000003c0: 294f e8be 9e33 bcbe 5d72 053e bf59 0dbe
000003d0: b1e9 a0be 65b3 bf3d a0e2 31be caa9 f6be
000003e0: 003a 55be 93fb 86be 8667 66bd 76b9 563e
000003f0: 002b 563d bfcc 8c3e d768 873e 7684 2dbe

bias f4 [64]
-0.06420876 0.14060856 -0.0062148613 -0.043775484 0.0006913792 0.60293996 -0.3989765 0.46647394
0.6153136 0.025688972 0.09647466 0.37050697 -0.3027896 0.10694457 -0.1947064 -0.39001992
0.44065395 -0.22318816 0.061977327 -0.35015708 0.12877372 0.20439659 0.1455797 -0.29174888
-0.215605 -0.105917275 0.34397694 -0.2964054 -0.34737104 -0.04552499 0.17269123 0.006065217
0.46052054 0.42879036 0.28725594 0.29360518 -0.49579138 0.667089 0.006670106 0.47872692
-0.41528827 0.13069639 0.057448033 0.27131122 -0.26912037 0.17474772 -0.3957205 0.24363987
-0.17843609 0.29219535 0.29304877 0.07323051 0.17077792 -0.029694414 -0.034066282 -0.09778431
0.204903 -0.18042234 -0.10768197 0.5061404 -0.0030242503 0.0019094917 0.05149876 -0.23933387
00000000: e27f 83bd b1fb 0f3e 09a6 cbbb ec4d 33bd
00000010: ac3d 353a 465a 1a3f a646 ccbe acd5 ee3e
00000020: 3185 1d3f ae71 d23c 8294 c53d 17b3 bd3e
00000030: 3d07 9bbe c105 db3d 1d61 47be b1b0 c7be
00000040: 659d e13e 708b 64be f0db 7d3d ca47 b3be
00000050: 42dd 033e 574d 513e d812 153e 1c60 95be
00000060: 8fc7 5cbe 28eb d8bd bf1d b03e 73c2 97be
00000070: 9eda b1be 6978 3abd f8d5 303e babe c63b
00000080: 59c9 eb3e 698a db3e 3613 933e 6b53 963e
00000090: 5ed8 fdbe 58c6 2a3f e890 da3b b21b f53e
000000a0: aaa0 d4be 46d5 053e a14e 6b3d 4ee9 8a3e
000000b0: 25ca 89be 11f1 323e e19b cabe bb7c 793e
000000c0: f3b7 36be a19a 953e 7d0a 963e e1f9 953d
000000d0: 68e0 2e3e b341 f3bc 1689 0bbd 2443 c8bd
000000e0: 18d2 513e a2c0 38be 5d88 dcbd 6b92 013f
000000f0: 8032 46bb e947 fa3a 5df0 523d f013 75be

weight f4 [64, 64]
-0.09118466 -0.124070525 -0.00960137 -0.12610029 -0.05105441 0.23120044 -0.06381189 -0.120110996
0.103813425 -0.021667648 -0.093560725 0.031069428 0.06880374 0.117447294 0.06935194 0.0397563
0.071646 -0.08939989 -0.06557295 -0.0060027293 -0.072512165 0.02870192 0.029330809 -0.14132436
0.053870942 -0.051106356 0.10577096 0.10588931 0.055731054 -0.17202084 0.04038423 0.051546562
-0.03181453 0.212959 -0.10178277 0.18635836 -0.13288428 0.13787553 -0.0042400486 -0.081052996
0.07604628 0.16451912 0.03289457 0.11512943 0.1105578 -0.24122837 -0.008866099 -0.03704994
0.117673084 0.029156838 0.011669851 -0.1337927 0.002425622 -0.0020904767 -0.00484789 -0.0854406
-0.12329158 -0.0371724 -0.003551689 -0.18073238 0.04679457 0.01552279 0.12340257 -0.18750963
0.11888502 0.024882376 -0.030958138 0.023776712 0.15947916 -0.2005235 -0.041136082 0.017801112
0.09035548 0.13594337 0.11885125 0.03317344 0.026750676 -0.07004474 0.107475564 -0.04250624
0.060466155 -0.08446204 0.03262015 0.09899668 0.10822712 0.09331542 0.011213507 0.025646709
-0.017700369 -0.033238407 -0.00046562895 -0.079967536 -0.036663387 0.16663982 -0.058254406 -0.052649125
0.16023828 -0.09156992 0.16626208 -0.06287397 -0.09334471 -0.062351175 0.107730046 -0.07322735
-0.06443971 -0.10449511 0.08017433 -0.19161025 0.13259757 0.27195182 0.03748582 -0.04281586
-0.088175096 0.018802652 0.09858595 0.11318413 0.0963137 -0.07788984 0.03329364 0.11385274
0.019167308 0.05516088 0.09801726 -0.020348305 0.011306065 0.11137769 0.11207747 0.047873344
-0.09237619 0.1888601 0.024391484 -0.03751365 0.097616374 -0.24123381 0.17264578 0.1761619
0.1265707 0.14350788 0.06844829 -0.014970267 0.063279524 0.050740264 0.114944614 -0.023228146
0.17380309 0.054385025 0.029014362 -0.0706137 0.19104291 -0.0064478987 -0.02125297 0.04508707
0.051863406 0.08859133 0.17731549 -0.02520811 0.109287366 0.038253233 0.0001356887 0.109884545
0.20627347 -0.035983495 0.16869898 -0.051935088 0.015092226 0.027931148 0.020305654 0.095783584
0.050652716 -0.09859402 -0.044966474 -0.11335294 -0.015093526 0.26535752 0.055893917 0.0912737
0.10994417 0.05595743 -0.02369395 -0.059941594 0.12319786 -0.106189325 -0.0009992617 -0.067525804
0.0054658344 0.021602282 0.102985255 0.19660331 0.11556621 0.017858839 0.04956206 0.27093697
0.013642436 -0.08971364 -0.086467855 -0.13904978 -0.26671812 0.4495136 -0.08603683 -0.24773552
-0.17241053 -0.27392998 0.10979657 0.2794158 -0.0882885 -0.10206924 -0.08819888 -0.09306725
-0.34602144 0.024569264 -0.20417657 -0.056217387 -0.095440805 -0.08689319 0.0507601 0.07002178
0.109378666 0.10449363 -0.1388352 -0.013259692 -0.041310824 -0.10407061 -0.0574905 -0.03721843
-0.24542658 0.15177274 -0.1432277 0.3363509 -0.13145357 -0.027106803 -0.2612502 -0.21266064
0.008689752 0.054422695 -0.060639113 0.34920245 0.089795634 -0.37729603 -0.0783757 -0.04272885
-0.013139901 0.01181063 -0.16415676 0.03654785 -0.3107479 0.1301513 -0.082482465 0.15628457
0.10834473 -0.03556715 -0.0020799842 -0.07295774 -0.02890374 -0.01402421 -0.07174034 -0.50695217
00000000: 06bf babd b018 febd 114f 1dbc 6f20 01be
00000010: 6e1e 51bd cfbf 6c3e cfaf 82bd c1fc f5bd
00000020: 229c d43d 5a80 b1bc c49c bfbd 5085 fe3c
00000030: fae8 8c3d 3588 f03d 6408 8e3d 81d7 223d
00000040: 23bb 923d 4a17 b7bd 1c4b 86bd 8bb2 c4bb
00000050: 4281 94bd 4a20 eb3c 2a47 f03c 55b7 10be
00000060: c7a7 5c3d e654 51bd 729e d83d 7fdc d83d
00000070: 3f46 643d 3b26 30be ef69 253d 7d22 533d
00000080: f44f 02bd ed11 5a3e 7c73 d0bd bad4 3e3e
00000090: d112 08be 3e2f 0d3e 1bf0 8abb 1dff a5bd
000000a0: 27be 9b3d b377 283e 75bc 063d fbc8 eb3d
000000b0: 216c e23d 9204 77be 1d43 11bc aec1 17bd
000000c0: 96fe f03d 52da ee3c e732 3f3c f400 09be
000000d0: 2ff7 1e3b 6100 09bb 0ddb 9ebb 7bfb aebd
000000e0: 4c80 fcbd 1642 18bd 74c3 68bb e911 39be
000000f0: aaab 3f3d 4d53 7e3c 7dba fc3d 8602 40be
00000100: fd79 f33d 20d6 cb3c ec9b fdbc 61c7 c23c
00000110: 814e 233e 0856 4dbe 4f7e 28bd a3d3 913c
00000120: 4b0c b93d bd34 0b3e 4968 f33d dfe0 073d
00000130: 3c24 db3c 9e73 8fbd 261c dc3d 061b 2ebd
00000140: 5cab 773d 6ffa acbd b59c 053d c5be ca3d
00000150: 2ea6 dd3d 281c bf3d dbb8 373c 0c19 d23c
00000160: 5d00 91bc ff24 08bd a91f f4b9 05c6 a3bd
00000170: 592c 16bd a1a3 2a3e 2c9c 6ebd 9ca6 57bd
00000180: 8115 243e 0389 bbbd 9b40 2a3e 11c4 80bd
00000190: 832b bfbd f263 7fbd 92a1 dc3d 39f8 95bd
000001a0: f7f8 83bd 8801 d6bd 7032 a43d 7a35 44be
000001b0: a8c7 073e 453d 8b3e bb8a 193d af5f 2fbd
000001c0: 2595 b4bd 0508 9a3c 6ee7 c93d 15cd e73d
000001d0: 1e40 c53d b584 9fbd e95e 083d a02b e93d
000001e0: c204 9d3c 60f0 613d 46bd c83d 7db1 a6bc
000001f0: 133d 393c fd19 e43d df88 e53d d716 443d
00000200: ba2f bdbd 8b64 413e a6d0 c73c eaa7 19bd
00000210: 18eb c73d ff05 77be 0eca 303e c963 343e
00000220: c09b 013e bbf3 123e 9e2e 8c3d da45 75bc
00000230: b298 813d 06d5 4f3d 1568 eb3d f448 bebc
00000240: 70f9 313e d5c2 5e3d 87af ed3c ea9d 90bd
00000250: c1a0 433e e548 d3bb b51a aebc 38ad 383d
00000260: b96e 543d 5f6f b53d 3192 353e 3d81 cebc
00000270: 0ed2 df3d 6caf 1c3d a847 0e39 260b e13d
00000280: 5a39 533e 6e63 13bd 6dbf 2c3e e3b9 54bd
00000290: 6245 773c ddcf e43c 0b58 a63c 2f2a c43d
000002a0: 3979 4f3d a9eb c9bd c42e 38bd 9625 e8bd
000002b0: d64a 77bc f1dc 873e 05f1 643d b5ed ba3d
000002c0: 692a e13d 9e33 653d d119 c2bc 5185 75bd
000002d0: 294f fc3d ca79 d9bd a9f9 82ba f84a 8abd
000002e0: be1a b33b 45f7 b03c efe9 d23d 6152 493e
000002f0: faad ec3d b34c 923c 9601 4b3d 40b8 8a3e
00000300: 8684 5f3c c9bb b7bd 0f16 b1bd 1163 0ebe
00000310: 478f 88be a626 e63e 1434 b0bd 61ae 7dbe
00000320: 638c 30be 8d40 8cbe 06dd e03d 960f 8f3e
00000330: 9ad0 b4bd ad09 d1bd 9da1 b4bd 0b9a bebd
00000340: b929 b1be 7b45 c93c aa13 51be 3444 66bd
00000350: 7876 c3bd 0ff5 b1bd d3e9 4f3d 9467 8f3d
00000360: ec01 e03d c200 d63d d12a 0ebe 2e3f 59bc
00000370: 8a35 29bd f922 d5bd 297b 6bbd 5a72 18bd
00000380: 1b51 7bbe 506a 1b3e 48aa 12be 2f36 ac3e
00000390: c49b 06be 160f debc 96c2 85be b6c3 59be
000003a0: 765f 0e3c 55ea 5e3d b860 78bd aaca b23e
000003b0: c6e6 b73d f22c c1be 7083 a0bd 7204 2fbd
000003c0: bd48 57bc 5f81 413c b618 28be 33b3 153d
000003d0: 591a 9fbe 6246 053e 91ec a8bd 1009 203e
000003e0: d8e3 dd3d dcae 11bd 5850 08bb de6a 95bd
000003f0: 89c7 ecbc cdc5 65bc 99ec 92bd 9ec7 01bf

bias f4 [64]
0.1080902 0.039396327 -0.19036694 0.1109395 -0.013911052 0.1397036 0.09982444 0.061347693
-0.13227376 -0.028747965 0.11537455 0.16823769 -0.0057176594 -0.04185115 0.14486969 0.20351264
0.044718567 0.059530564 0.16358665 0.057682645 0.07306754 -0.09578759 -0.04756309 0.13714938
-0.0032434787 0.0106407935 0.24915488 0.04465298 -0.024690956 -0.01006457 0.20980276 0.08290686
0.15520205 -0.05660968 -0.061140917 0.08079662 -0.055682663 -0.006857433 -0.035188124 0.13378888
0.108071506 -0.08170248 0.08329467 -0.03832719 0.17430507 -0.020756092 -0.038191836 0.016500242
0.39875406 0.06553124 0.5971152 -0.11078926 0.17949922 0.06728854 0.06356784 -0.041974094
0.09354447 -0.019153584 0.119371474 0.16677095 0.059387352 0.036757257 -0.01063102 -0.1195517
00000000: 655e dd3d 0b5e 213d 8def 42be 4034 e33d
00000010: 2eeb 63bc 760e 0f3e c270 cc3d b847 7b3d
00000020: c672 07be da80 ebbc 7e49 ec3d 8046 2c3e
00000030: 345b bbbb 1d6c 2bbd b858 143e 9e65 503e
00000040: d12a 373d 52d6 733d 4283 273e a344 6c3d
00000050: 6fa4 953d 492c c4bd 84d1 42bd e370 0c3e
00000060: 8b90 54bb b956 2e3c 7522 7f3e 0be6 363d
00000070: b044 cabc dee5 24bc 89d6 563e 12cb a93d
00000080: 49ed 1e3e 8ddf 67bd e66e 7abd b378 a53d
00000090: 8113 64bd 51b4 e0bb 6c21 10bd f4ff 083e
000000a0: 9854 dd3d a153 a7bd 6596 aa3d f9fc 1cbd
000000b0: 077d 323e ae08 aabc 0b6f 1cbd 842b 873c
000000c0: 7e29 cc3e 3e35 863d 8bdc 183f 7be5 e2bd
000000d0: a5ce 373e 93ce 893d db2f 823d 07ed 2bbd
000000e0: 3e94 bf3d fae7 9cbc 0879 f43d 01c6 2a3e
000000f0: 2740 733d c78e 163d bb2d 2ebc 86d7 f4bd

weight f4 [1, 64]
-0.08604116 0.08224166 0.02018768 -0.14418893 0.1046279 -0.10949001 -0.025594696 -0.11026246
0.011986602 0.013157299 -0.09252911 -0.08774477 0.064734995 0.041803923 -0.11272606 -0.54443115
0.013294377 0.10098653 -0.11383459 0.07529307 -0.06999145 -0.024654351 0.14165752 0.059538577
-0.00039322584 0.033518877 0.1681745 -0.09345018 0.03884085 0.063784465 -0.063816324 -0.0503181
-0.0041513545 0.06561484 0.13607968 0.115823425 0.060662948 -0.008910731 0.056343354 -0.09775786
0.04844308 0.13986957 -0.074750446 0.05827937 -0.114283 0.13543472 -0.0022185303 -0.06237665
0.29287574 -0.064036526 0.3246533 0.033693973 -0.122279555 0.0915083 -0.1218124 -0.0706023
-0.060239185 0.08323807 -0.0041360757 0.1361273 -0.3266451 0.00014550134 -0.06468632 0.08514878
00000000: 5936 b0bd 516e a83d a260 a53c 43a6 13be
00000010: 2747 d63d 4c3c e0bd f8ab d1bc 49d1 e1bd
00000020: 7463 443c b691 573c e77f bdbd 88b3 b3bd
00000030: c893 843d 973a 2b3d ecdc e6bd d75f 0bbf
00000040: a9d0 593c 07d2 ce3d 1c22 e9bd 4133 9a3d
00000050: ad57 8fbd ecf7 c9bc ab0e 113e b9de 733d
00000060: e129 ceb9 174b 093d f035 2c3e cf62 bfbd
00000070: 9517 1f3d 6ea1 823d 22b2 82bd 5a1a 4ebd
00000080: 1608 88bb 1361 863d 7958 0b3e d534 ed3d
00000090: b679 783d 51fe 11bc 4ac8 663d 4635 c8bd
000000a0: 406c 463d f839 0f3e c316 99bd 59b6 6e3d
000000b0: 350d eabd 66af 0a3e c364 11bb a87e 7fbd
000000c0: cff3 953e 9525 83bd f538 a63e b102 0a3d
000000d0: b46d fabd b468 bb3d c878 f9bd f097 90bd
000000e0: 5dbd 76bd b978 aa3d eb87 87bb f464 0b3e
000000f0: 073e a7be b891 1839 437a 84bd 7c62 ae3d
