Models/Parking_lot_model_4.pth (torch, 22208 bytes, 5 tensors)

weight f4 [64, 4]
0	0xbeb7cc2a	-0.35897952
1	0x3e61626c	0.22010201
2	0xbe0f00b9	-0.1396512
3	0x3ebddaba	0.37080938
4	0xbe0be8fa	-0.13663092
5	0xbf02a7c8	-0.51037264
6	0x3eae1952	0.34003693
7	0xbe52ee40	-0.20598698
8	0xbe11f27f	-0.14252661
9	0x3e469d87	0.1939603
10	0x3c94dc4f	0.018171458
11	0xbf357d26	-0.70894086
12	0xbd7a8673	-0.061163377
13	0xbefdcf02	-0.49571997
14	0x3e641272	0.22272661
15	0x3e931e5b	0.28734097
16	0x3c31d17c	0.010853168
17	0x3dc36865	0.09541396
18	0x3e918042	0.28418165
19	0x3eeeafdf	0.46618554
20	0xbf167c55	-0.58783466
21	0x3e8ea89c	0.27863014
22	0x3c8cad38	0.01717244
23	0x3e076430	0.13221812
24	0x3f58364b	0.84457844
25	0xbc5598a8	-0.013036884
26	0xbd949203	-0.07254412
27	0x3d2f13a9	0.04274336
28	0xbe80d1e5	-0.25160137
29	0xbe01beed	-0.12670489
30	0xbdf97f07	-0.12182432
31	0x3eb311ac	0.3497442
32	0x3f2f06fc	0.6837003
33	0xbf0ac92d	-0.5421322
34	0x3e97beab	0.29637656
35	0x3efeb7e3	0.4974967
36	0x3eaf11ea	0.34193355
37	0xbe7e2cc5	-0.24821766
38	0x3c8cd16c	0.017189704
39	0xbdeb2188	-0.11481005
40	0x3f2c6504	0.6734164
41	0x3e8cbd61	0.27488235
42	0xbdf245a5	-0.1182969
43	0x3d070a5d	0.032968868
44	0xbec9165c	-0.3927487
45	0xbd1ed62a	-0.03877846
46	0x3e903c9e	0.28171247
47	0xbf20716d	-0.62673074
48	0xbeed2a57	-0.46321365
49	0xbf09bb02	-0.53800976
50	0x3e137d8c	0.14403361
51	0x3e8076e8	0.25090718
52	0x3f15f52f	0.58577245
53	0x3b963a72	0.004584604
54	0x3e39681c	0.18106121
55	0x3ee624a2	0.44949824
56	0x3e9c9b09	0.30587032
57	0xbf05a861	-0.5221005
58	0x3dd17dc2	0.102290645
59	0x3f107329	0.5642572
60	0x3f1c71c9	0.6111112
61	0x3de7d083	0.11319067
62	0xbc036ef8	-0.0080220625
63	0x3f2efb48	0.68352175
64	0x3f0be0c4	0.5463984
65	0xbf008174	-0.5019753
66	0x3c77e64f	0.015130593
67	0xbe1d03bb	-0.15333454
68	0xbf1d98e0	-0.61561394
69	0x3e26ff8f	0.16308425
70	0x3d0088c8	0.031380445
71	0x3e687f9a	0.22704926
72	0x3f7ede5f	0.9955806
73	0x3ec896ce	0.39177555
74	0xbd569353	-0.052386593
75	0xbef8d637	-0.48600933
76	0x3e6b32ac	0.22968549
77	0x3ed50312	0.41603905
78	0xbe29c447	-0.1657878
79	0x3e4e1435	0.20124896
80	0x3f452340	0.7700691
81	0x3df976dc	0.12180874
82	0xbd1edd42	-0.038785227
83	0xbea3c85d	-0.31988803
84	0x3bc90e45	0.0061357343
85	0xbefef5b9	-0.49796847
86	0xbdef3e80	-0.11681843
87	0x3e9bb269	0.30409554
88	0x3f6f1bbc	0.93401694
89	0xbeb7d206	-0.35902423
90	0xbd2945cc	-0.04132633
91	0xbdafc59e	-0.08582614
92	0x3ce07f7d	0.027404541
93	0xbe8b1d4d	-0.27170792
94	0x3d90c53a	0.07068868
95	0x3e9a8365	0.3017837
96	0xbee94102	-0.4555741
97	0xbef5f0b0	-0.48035192
98	0x3e923faf	0.28564212
99	0x3f02e0c2	0.51124203
100	0xbe8f782b	-0.28021368
101	0xbea0b2fb	-0.3138655
102	0xbe007136	-0.12543187
103	0x3e4b7c36	0.19871601
104	0xbe7deb91	-0.24796893
105	0xbed9371f	-0.42424867
106	0xbdfe225f	-0.124088995
107	0x3e90ea1d	0.28303614
108	0xbf1ae2f4	-0.60502553
109	0xbe08040f	-0.13282798
110	0x3cb114a5	0.02161629
111	0xbf6688dc	-0.9005258
112	0xbf201bc8	-0.6254239
113	0x3bd1e701	0.0064057116
114	0x3e08ce32	0.13359907
115	0xbe6e6ccf	-0.23283695
116	0x3eb10bc7	0.34579298
117	0x3de4e1c8	0.11175877
118	0xbe1085d0	-0.14113545
119	0xbe770d19	-0.2412609
120	0x3e9c444e	0.30520862
121	0x3eb689d4	0.3565203
122	0xbe177ea6	-0.14794406
123	0xbd6e906d	-0.058243204
124	0xbe69b536	-0.22823033
125	0x3dcbe107	0.0995503
126	0x3e9d2cf2	0.30698353
127	0xbeddf013	-0.43347225
128	0x3f162ab1	0.5865889
129	0xbdd643e7	-0.1046217
130	0xbdde064b	-0.10841044
131	0xbab4311f	-0.0013747549
132	0x3e87fbb9	0.26559237
133	0x3e915f99	0.28393248
134	0x3e0ae889	0.13565268
135	0x3f014046	0.504887
136	0x3eaa339d	0.33242503
137	0xbd57d490	-0.05269295
138	0x3ed425de	0.4143514
139	0x3ed210ae	0.4102835
140	0x3a3cc177	0.00072004594
141	0x3e8a549d	0.2701768
142	0xbe23d2ad	-0.15998335
143	0x3e54da13	0.20786314
144	0x3ed6a502	0.41922766
145	0xbe253927	-0.16135083
146	0x3aa453ca	0.0012537178
147	0xbe38ca52	-0.18045929
148	0xbeac23b6	-0.33620995
149	0xbf514f93	-0.81762046
150	0x3deeba8b	0.11656674
151	0x3f58aa6a	0.8463503
152	0x3f393c2d	0.72357446
153	0xbf15ed5b	-0.585653
154	0x3cf6ad02	0.030111793
155	0x3d87c18a	0.066287115
156	0x3f58af2b	0.84642285
157	0x3e13168a	0.14364067
158	0xbd5988cc	-0.053108975
159	0xbef9f253	-0.4881769
160	0x3c382edd	0.011241642
161	0xbe8707bc	-0.26373088
162	0xbe042e52	-0.12908295
163	0x3e97834d	0.29592362
164	0x3d79e45c	0.061008796
165	0xbbf4f16d	-0.0074750693
166	0xbdb17f7f	-0.08666896
167	0x3f4849d0	0.7823763
168	0xbdb20da7	-0.0869401
169	0x3eb08f5e	0.3448438
170	0x3ea1e9f0	0.31623793
171	0xbee24455	-0.44192758
172	0xbf019df2	-0.5063163
173	0x3ea2fdcb	0.31834254
174	0x3eb30977	0.3496816
175	0x3d6b8e50	0.057508767
176	0x3c41875e	0.011812059
177	0xbeca088c	-0.39459646
178	0xbdff2683	-0.124585174
179	0x3eb52552	0.35380036
180	0x3ea3e7a1	0.32012656
181	0xbe727df1	-0.23680855
182	0xbde7de81	-0.11321736
183	0x3e20fa1c	0.15720409
184	0x3eb8c282	0.36085898
185	0xbefc3d56	-0.49265546
186	0x3ec137d3	0.37737903
187	0xbce8b3b3	-0.028406
188	0x3d0162a6	0.03158822
189	0xbecf9f88	-0.405514
190	0xbdf6a5bc	-0.1204333
191	0x3e9695b1	0.2941108
192	0x3e489d4b	0.19591253
193	0x3e2843d8	0.1643213
194	0xbe0e89e3	-0.13919787
195	0x3eb4594e	0.35224384
196	0x3f333a78	0.7001109
197	0x3e583e2e	0.2111747
198	0xbdf1c532	-0.1180519
199	0xbe201b0e	-0.1563532
200	0x3e974ce8	0.29550862
201	0xbee4db92	-0.4469877
202	0x3e9456a3	0.2897235
203	0xbbd494a7	-0.0064874473
204	0xbe851780	-0.25994492
205	0xbcbf0783	-0.023319012
206	0xbe10aa8c	-0.14127558
207	0x3e6a2bfc	0.22868341
208	0x3dc0a844	0.09407094
209	0xbf1b558b	-0.60677403
210	0x3e1d67b3	0.1537159
211	0x3f218dc5	0.6310695
212	0xbe8f1c3d	-0.27951232
213	0x3e70f27b	0.23529999
214	0xbe133beb	-0.14378326
215	0x3e9bacc3	0.30405244
216	0xbe6f8539	-0.23390664
217	0x3def796a	0.1169308
218	0xbe11fd8c	-0.14256877
219	0x3eac8417	0.33694527
220	0x3f83ab77	1.0286702
221	0x3d9500ce	0.07275544
222	0xbd51d5bd	-0.051229227
223	0xbf07c412	-0.53033555
224	0x3f1edecc	0.6205871
225	0xbf1703d7	-0.58990234
226	0x3e1d5241	0.15363409
227	0x3f14d06b	0.5813052
228	0x3ec38161	0.38184646
229	0xbdbe8a62	-0.09303738
230	0x3ed8ccb5	0.4234368
231	0x3c10fbf6	0.008849135
232	0xbeae5de2	-0.34056002
233	0xbc4a8510	-0.012360826
234	0x3bff731f	0.007795706
235	0xbfea2959	-1.8293868
236	0xbe8fef67	-0.28112337
237	0x3e514808	0.20437634
238	0x3c3c6c0e	0.011500372
239	0xbf136aa5	-0.575846
240	0xbe5d75d4	-0.21626979
241	0xbd083c61	-0.033260707
242	0x3e4b4fb1	0.19854619
243	0xbf70ab27	-0.9401116
244	0x3f3d9a56	0.7406362
245	0xbe9b8f86	-0.30382937
246	0xbcbe3915	-0.023220578
247	0xbed9523b	-0.4244555
248	0x3f1f9833	0.6234161
249	0xbd354902	-0.04425908
250	0xbd2a1c81	-0.04153109
251	0xbe8acc43	-0.27108964
252	0xbf03353a	-0.5125309
253	0xbdc7179d	-0.09721301
254	0x3daeb224	0.085300714
255	0x3e38eca0	0.18059015

bias f4 [64]
0	0x3f16e9b2	0.5895034
1	0xbe0aa645	-0.1353999
2	0x3f0a2a91	0.539712
3	0xbebb1378	-0.3653829
4	0xbec81acb	-0.3908294
5	0x3eb31f67	0.34984896
6	0x3dcb3b77	0.099234514
7	0x3f32b7ea	0.6981188
8	0xbe0aafba	-0.13543597
9	0xbea918b0	-0.33026648
10	0x3f14f468	0.58185434
11	0x3cc22418	0.023698851
12	0x3dbc5834	0.09196511
13	0xbf07a599	-0.52987057
14	0xbe74b635	-0.23897631
15	0xbebabd27	-0.36472437
16	0xbdf71279	-0.1206407
17	0xbe5cf0ca	-0.21576229
18	0x3d2d4b21	0.042307977
19	0x3936a3cc	0.00017417892
20	0x3c8f603d	0.017501945
21	0x3e94fa93	0.29097423
22	0x3d99ff47	0.075193934
23	0xbf345134	-0.70436406
24	0xbf111e6f	-0.5668706
25	0x3eabac61	0.33529952
26	0xbce79a8e	-0.02827194
27	0xbe5d9e70	-0.2164247
28	0x3e10ef62	0.14153817
29	0x3e17fca8	0.14842474
30	0x3efbd1e8	0.49183583
31	0xbe602dcb	-0.21892469
32	0xbdd0dcc4	-0.10198358
33	0x3e89de56	0.2692744
34	0xbe3032ce	-0.1720688
35	0xbd6b757c	-0.05748509
36	0xbe9511e2	-0.29115206
37	0xbf41abef	-0.75652975
38	0x3e81de4b	0.2536491
39	0x3f268a8e	0.6505517
40	0x3f143bf4	0.5790398
41	0x3ddb5983	0.107104324
42	0xbe077343	-0.13227563
43	0x3d1a4bd8	0.037669986
44	0x3ec873e5	0.3915092
45	0x3efae19e	0.49000257
46	0x3cd7b9f4	0.026333787
47	0xbe8c978d	-0.27459374
48	0x3ec1236d	0.3772234
49	0x3eda9149	0.4268897
50	0xbd5e7471	-0.054310266
51	0x3eb628e9	0.35578087
52	0x3c8a66ea	0.016894776
53	0x3f2f910d	0.68580705
54	0x3e8c3bdd	0.27389422
55	0x3e5be3f9	0.21473683
56	0xbe6c5625	-0.23079737
57	0xbe945d0d	-0.28977242
58	0x3e43bace	0.19114229
59	0x3ebac148	0.36475587
60	0xbf23ef5a	-0.64037097
61	0xbecad127	-0.39612696
62	0x3e7ce96e	0.24698421
63	0x3ecc7f85	0.3994104

weight f4 [64, 64]
0	0xbe654613	-0.22390012
1	0xbbbff515	-0.0058580735
2	0x3e085c3c	0.13316435
3	0x3ddaa26c	0.10675511
4	0xbd8f3355	-0.06992213
5	0x3e54db66	0.20786819
6	0xbdcdc256	-0.10046832
7	0xbda7ab6a	-0.081869915
8	0xbda8c0f6	-0.082399294
9	0xbd5d27e5	-0.053993125
10	0xbdcd0fbe	-0.10012768
11	0x3c2697ea	0.010168055
12	0x3dda175f	0.10648989
13	0x3dca7bee	0.09886919
14	0x3bb09403	0.005388738
15	0xbe213780	-0.15743828
16	0xbdbcbc73	-0.09215631
17	0x3e3eceed	0.18633623
18	0xbe2ac3a0	-0.16676188
19	0xbd465f63	-0.04843081
20	0xbef6e970	-0.48224974
21	0xbe65367f	-0.2238407
22	0xbddd898b	-0.1081725
23	0x3d922d1d	0.07137511
24	0x3e081c88	0.13292134
25	0xbe61498b	-0.2200071
26	0xbd37d93b	-0.0448849
27	0x3d4e9ad1	0.050440613
28	0x3dfd11bc	0.12356898
29	0xbe01c2a2	-0.12671903
30	0xbe43f693	-0.1913703
31	0x3dcdf25f	0.10055994
32	0xbe679284	-0.22614485
33	0xbd8bf17a	-0.068331674
34	0xbdb81668	-0.08988649
35	0xbcc9ae0f	-0.02461913
36	0xbe8564f3	-0.2605358
37	0xbd5c3252	-0.053758927
38	0x3c4131e5	0.011791681
39	0xbe875893	-0.26434764
40	0xbde501bd	-0.11181972
41	0xbda6d178	-0.08145422
42	0xbd98f1f5	-0.07468025
43	0xbd929b5a	-0.07158537
44	0xbcf1dce6	-0.029524278
45	0xbe5a811e	-0.21338317
46	0xbddd7923	-0.108141206
47	0xbe8061e1	-0.25074676
48	0xbc12f185	-0.008968716
49	0xbdbe9de2	-0.093074575
50	0x3df6658c	0.12031087
51	0xbe579c69	-0.2105576
52	0x3c99c2e5	0.01876969
53	0xbe199b94	-0.15000755
54	0xbe30199f	-0.17197274
55	0xbdfdfb90	-0.12401497
56	0xbde920e1	-0.11383224
57	0xbd070249	-0.032961164
58	0x3f1982e4	0.5996535
59	0x3e1864e7	0.14882241
60	0xbbd44e6c	-0.006479075
61	0xbeb03b18	-0.34420085
62	0xbeb8d90a	-0.36103088
63	0x3d4f6304	0.050631538
64	0xbd551a4a	-0.052027024
65	0x3da266a8	0.079297364
66	0xbd1dd72c	-0.038535282
67	0x3debdf85	0.11517242
68	0xbd3d8f45	-0.04627921
69	0xbe456c66	-0.19279632
70	0xbd363623	-0.044485223
71	0x3d8918d7	0.06694191
72	0x3c1e98cf	0.009679987
73	0xbc98cd14	-0.018652476
74	0x3e16afe6	0.14715537
75	0x3dd1cbd0	0.10243952
76	0x3de3065a	0.11085196
77	0xbcbed650	-0.023295552
78	0xbd1ecbd4	-0.038768604
79	0xbdc9939c	-0.098426074
80	0x3e09623d	0.13416381
81	0xbd1247a8	-0.035712868
82	0xba5468a9	-0.0008102754
83	0x3c854275	0.01626704
84	0x3eccee5c	0.40025604
85	0x3d9eb291	0.077489026
86	0xbb61a1b9	-0.003442867
87	0x3dec7a77	0.11546796
88	0xbd9472a1	-0.07248426
89	0x3df2e7fb	0.11860653
90	0x3d646deb	0.05576889
91	0xbdf0f071	-0.117646106
92	0xbd659ed8	-0.05605969
93	0x3ddc02a3	0.107426904
94	0xbb834ca4	-0.004006939
95	0x3d52c2bc	0.051455244
96	0xbd80e6a4	-0.06293991
97	0xbdd435cc	-0.103618234
98	0xbce0503f	-0.027382014
99	0x3dc63477	0.096779756
100	0xbd539397	-0.051654425
101	0xbd3b6352	-0.045749016
102	0x3dc25fa4	0.09490898
103	0x3dd002b1	0.10156763
104	0x3afa4d49	0.0019096519
105	0x3c78267f	0.015145897
106	0x3db9d468	0.090737164
107	0x3dbcd5ba	0.092204526
108	0x3dcedd1e	0.101007685
109	0x3e01b181	0.12665369
110	0x3d56ae52	0.05241234
111	0x3e25c830	0.16189647
112	0xbd69f25c	-0.057115898
113	0x3d30cb2d	0.043162514
114	0xbda8a132	-0.082338706
115	0x3d0cf23e	0.034410708
116	0x3dddd026	0.10830717
117	0x3d677bc9	0.056514535
118	0x3d0ca9a8	0.034341484
119	0x3e22a042	0.15881446
120	0x3dc57bcb	0.09642752
121	0x3dd4e17b	0.103945695
122	0xbe83399c	-0.2562989
123	0xbcbeb697	-0.023280425
124	0xbd6f926e	-0.058489256
125	0x3d9c9d60	0.076472044
126	0x3e2a6283	0.16639142
127	0xbd8c7675	-0.068585314
128	0x3daa5665	0.0831726
129	0xbd49eebf	-0.04929995
130	0x3da61f49	0.08111436
131	0x3dbd1a90	0.09233582
132	0xbda09a3a	-0.078419164
133	0x3d40904a	0.047012605
134	0xbdf2e18e	-0.118594274
135	0xbd2a19aa	-0.04152838
136	0x3ced1559	0.028940843
137	0xbdb3ba7d	-0.08775804
138	0xbdcbf92b	-0.099596344
139	0x3dbd1a32	0.09233512
140	0x3ca855dc	0.020548753
141	0xbcdde6f9	-0.027087675
142	0xbe1b3d1f	-0.15160035
143	0xbde379b8	-0.111072004
144	0xbd32a4da	-0.043614246
145	0x3cc68a67	0.024235917
146	0xbd401a6f	-0.04690021
147	0x3cd196ab	0.02558454
148	0xbe1c36ce	-0.15255281
149	0x3d338450	0.043827355
150	0x3d6e064e	0.05811148
151	0x3d8f8a51	0.07008804
152	0x3dba944c	0.09110317
153	0x3d231303	0.039813053
154	0x3b89f4e6	0.0042101024
155	0x3e0f064d	0.13967247
156	0xbc0669b0	-0.008203909
157	0xbd0d9a1b	-0.034570795
158	0xbd9b3eee	-0.07580362
159	0xbd21efaa	-0.039535202
160	0xbd55cbe5	-0.052196402
161	0x3caf02fd	0.02136373
162	0x3d8001b9	0.062503286
163	0xbd778bdd	-0.06043612
164	0xbae1879b	-0.0017206551
165	0xbe086cec	-0.133228
166	0xbe2f9ab6	-0.17148861
167	0xbda0263f	-0.07819795
168	0xbe18e890	-0.14932466
169	0x3d0f2cbd	0.034954775
170	0xbe002f11	-0.12517954
171	0xbd367def	-0.044553693
172	0xbe0a5bae	-0.13511536
173	0xba7e12a0	-0.00096921064
174	0x3d9a33b2	0.07529391
175	0xbc4f7315	-0.012661715
176	0xbdf807bd	-0.12110851
177	0xbe1738e0	-0.1476779
178	0xbe1140e6	-0.14184913
179	0xbe06f8c3	-0.13180833
180	0xbcd89b62	-0.02644128
181	0x3d3a0057	0.04541048
182	0xbc53dca7	-0.012931026
183	0x3d23dd39	0.040005896
184	0x3d3aaed9	0.045576904
185	0xba57a135	-0.0008225621
186	0x3e353425	0.17695673
187	0x3dc44707	0.0958386
188	0x3dcd161d	0.100139834
189	0xbe4e79d1	-0.20163657
190	0x3d58764a	0.052847184
191	0xbca06976	-0.019581538
192	0x3d49f705	0.04930784
193	0x3d95613f	0.07293939
194	0x3db7ccf3	0.08974638
195	0xbdab893b	-0.08375784
196	0xbdf44b01	-0.11928368
197	0xbe464359	-0.19361629
198	0xbda59d9e	-0.08086704
199	0x3dc980f6	0.098390505
200	0x3ddf91e2	0.10916497
201	0xbaafaa5d	-0.0013402213
202	0xbda203d5	-0.07910887
203	0xbdc9b00f	-0.09848034
204	0xbdc7a95e	-0.09749101
205	0xbcde808d	-0.027160907
206	0x3cbc299b	0.022969058
207	0x3ce55978	0.027996764
208	0x3e1dd750	0.15414166
209	0xbd8d4284	-0.068974525
210	0x3df01909	0.11723525
211	0x3d82ac9a	0.063805774
212	0x3da7ca5a	0.081928924
213	0x3d810d99	0.06301422
214	0x3e2a3202	0.16620639
215	0xbdd588f7	-0.104265146
216	0xbdebe8e0	-0.11519027
217	0x3d8552b3	0.06509914
218	0xbc105803	-0.008810046
219	0x3d19e466	0.037571333
220	0x3d14bf57	0.03631529
221	0x3d9bc539	0.076059766
222	0xbdd8340f	-0.105568044
223	0xbd73aad0	-0.05948907
224	0x3d850087	0.06494241
225	0x3db43635	0.08799402
226	0xbbccef53	-0.0062541156
227	0xbd73dee0	-0.059538722
228	0xbd4b108e	-0.049576335
229	0xbd06a1af	-0.032869037
230	0x3c1424eb	0.009042005
231	0xbd48b936	-0.049004756
232	0xbd9b5d8a	-0.075862005
233	0x3b0bb5fc	0.0021318188
234	0x3db65d15	0.08904473
235	0xbdcdf42b	-0.10056337
236	0xbc482bb3	-0.01221745
237	0xbd3657d0	-0.04451734
238	0xbdf98199	-0.12182922
239	0xbd818eaa	-0.06326039
240	0x3d799c05	0.060939807
241	0xbdaea6b0	-0.08527887
242	0xbdb18c91	-0.08669389
243	0x3d80e2f0	0.06293285
244	0x3dcf7de2	0.10131432
245	0x3dc29c56	0.09502475
246	0xbdb06fde	-0.08615087
247	0x3c5ec8ba	0.013597662
248	0x3dbbc8fc	0.09169194
249	0x3db24b16	0.08705728
250	0xbdbe93d9	-0.093055435
251	0xbd84429c	-0.06458017
252	0x3dda6bfe	0.10665129
253	0x3e571ae2	0.21006349
254	0x3e135137	0.1438645
255	0x3d573b73	0.05254693

bias f4 [64]
0	0x3e0c83d4	0.13722163
1	0xbc079007	-0.008274085
2	0x3dea289f	0.11433529
3	0xbd617655	-0.05504449
4	0x3e2e7ab3	0.17038994
5	0x3db72865	0.089432515
6	0xbdd0e100	-0.10199165
7	0xbda260d2	-0.07928623
8	0x3e952e51	0.291369
9	0x3e35a018	0.17736852
10	0xbe22b652	-0.15889862
11	0xbe2ca7bb	-0.16860859
12	0x3e7342d8	0.23755968
13	0xbe01b27d	-0.12665744
14	0x3da04179	0.07824988
15	0x3d1d3a12	0.03838546
16	0x3f09b31e	0.53788936
17	0xbdd5de80	-0.10442829
18	0x3d9774f0	0.07395351
19	0xbb8249ad	-0.003976068
20	0xbd988cfd	-0.074487664
21	0x3e9cabf2	0.30599934
22	0x3df8b6ca	0.12144239
23	0x3ebc9bd6	0.36837643
24	0xbe002e09	-0.12517561
25	0xbd978a2c	-0.07399401
26	0x3deac250	0.114628434
27	0x3c35b576	0.011090627
28	0xbd97e699	-0.0741703
29	0x3d32b595	0.0436302
30	0xbc8c2a6b	-0.01711007
31	0x3da32c35	0.07967416
32	0x3dbfe458	0.09369725
33	0x3da08797	0.07838362
34	0x3ef4ce00	0.47813416
35	0xbdaf98ad	-0.085740425
36	0x3e2625fd	0.16225429
37	0x3dc08bbd	0.09401653
38	0x3e13b4bd	0.14424415
39	0x3e03918e	0.12848493
40	0xbd12b3a5	-0.035815854
41	0x3f2643b1	0.6494704
42	0x3e76eb77	0.2411326
43	0x3d60ee7c	0.054914936
44	0x3d136904	0.035988823
45	0x3e224a46	0.15848646
46	0x3d34986d	0.044090677
47	0x3df7ed08	0.12105757
48	0xbd9f7590	-0.07786095
49	0x3d78bf91	0.060729567
50	0x3dd57818	0.10423297
51	0x3d60dbf8	0.05489728
52	0xbde25b4c	-0.1105257
53	0x3d6149a1	0.05500186
54	0x3e548a00	0.20755768
55	0xbda2db03	-0.079519294
56	0x3e079122	0.13238958
57	0x3d3fbbc7	0.046809938
58	0xbdabf86f	-0.08396994
59	0x3f0c8b8f	0.5490045
60	0x3dd2b932	0.102892295
61	0x3bb2e82d	0.0054598064
62	0x3db6d4e3	0.08927324
63	0x3d25d023	0.040481698

weight f4 [1, 64]
0	0xbd6f6da2	-0.058454163
1	0x3dbd2a9b	0.09236642
2	0xbb9e364b	-0.0048282496
3	0x3cea47da	0.028598715
4	0xbf0a211b	-0.53956765
5	0xbd97ab74	-0.07405749
6	0x3df21aa4	0.118214875
7	0xbb1d95d0	-0.0024045594
8	0x3e0b614c	0.13611335
9	0xbe38e9ae	-0.18057892
10	0x3d2e738c	0.042590663
11	0x3d2a61f5	0.041597325
12	0xbd5b18ea	-0.053490557
13	0x3d05f528	0.032704502
14	0xbb62630c	-0.00345439
15	0x3d93fa8d	0.07225523
16	0x3e65c517	0.22438465
17	0xbd600db7	-0.05470058
18	0x3e1fb11e	0.15594909
19	0x3ca4d80e	0.020122554
20	0x3cfc554e	0.030802395
21	0x3dab6c7f	0.08370303
22	0xbe0a0293	-0.13477544
23	0x3e4417d9	0.19149722
24	0x3cb8e83f	0.022571681
25	0x3d17a648	0.037023813
26	0xbc8f000f	-0.017456083
27	0xbd2831d0	-0.04106313
28	0x3dd4909d	0.10379145
29	0x3cc9a137	0.024613006
30	0x3e0febae	0.14054748
31	0xbe246890	-0.16055512
32	0xba8a01f3	-0.0010529145
33	0xbe8d4c7b	-0.27597412
34	0x3e5d84a7	0.21632634
35	0x3e038d32	0.1284683
36	0x3df55419	0.11978931
37	0x3df7dcc4	0.121026546
38	0xbe145889	-0.14486898
39	0xbe10990c	-0.14120883
40	0xb9743835	-0.00023290592
41	0x3e179496	0.14802775
42	0xbd145d56	-0.036221825
43	0xbe035780	-0.12826347
44	0x3dd0d2ef	0.101964824
45	0xbda73772	-0.08164872
46	0x3de6d11b	0.112703525
47	0xbcb777b7	-0.022395952
48	0xbd58df1e	-0.052947156
49	0x3ab4ace4	0.0013784436
50	0xbd8c00c9	-0.06836087
51	0x3d9c5b69	0.076346226
52	0x3d0340c9	0.032044206
53	0xbd2c2bc4	-0.042033926
54	0xbe12ee3c	-0.14348692
55	0xbd2852b1	-0.041094486
56	0xbd915243	-0.07095768
57	0x3d64c1cf	0.055848893
58	0xbd73543a	-0.059406497
59	0x3e22f22e	0.15912697
60	0x3cbad2b6	0.022805553
61	0xbbb35242	-0.0054724524
62	0x3da29ad1	0.07939685
63	0x3e00744a	0.12544361
