Models/Parking_lot_model_4.pth (torch, 183584 bytes, 9 tensors)

weight f4 [256, 4]
000000 27 52 ab 3e 65 47 a8 be 1c 31 84 3c b3 d2 02 3e
       0.33461115 -0.3286697 0.016136698 0.12775688
000010 e0 9e 33 3e a4 ba 80 3e 2e c0 e2 3e 40 c7 4b bc
       0.17541075 0.25142395 0.44287246 -0.012437642
000020 54 a6 c6 be 6d 1a 83 3e f8 5f b3 3c 82 6d 40 bc
       -0.38798773 0.256061 0.021896347 -0.011744859
000030 50 30 32 3d a2 09 fb be 59 5e 25 be 3c 33 44 be
       0.043503106 -0.49030787 -0.16149272 -0.1916017
000040 78 de db bd 00 5b 4a 3b c4 0c aa be 1e c0 ce 3e
       -0.10735792 0.0030876994 -0.33212864 0.4038095
000050 5c fc e1 3e da 98 bd bd 79 2d 66 be f2 29 89 be
       0.44137847 -0.0925767 -0.22478284 -0.26789814
000060 4f 3d 00 bf b2 da ff 3e dd cc bb bc bb 4b a0 3d
       -0.5009355 0.4997154 -0.022924835 0.078269444
000070 4c 53 c2 3e ec 1e 1b be aa 6c 96 be e8 05 cc 3e
       0.37954175 -0.15148515 -0.2937978 0.39848256
000080 81 4a c0 3d 5a 69 1f bf b3 26 de 3c a1 8e b5 bd
       0.093892105 -0.6227013 0.027118063 -0.08865095
000090 c0 4b bd bc e0 ea c2 3d 70 2b fe be 60 7a 59 3d
       -0.02310741 0.09517455 -0.49642515 0.05309522
0000a0 39 2a 00 bf 68 d0 4a be 28 dd 35 3d 1e cb 8a bc
       -0.50064427 -0.19806063 0.044400364 -0.016942557
0000b0 56 f2 4b bd 36 bc 59 3e 67 54 20 be a8 07 04 bf
       -0.049791656 0.21263203 -0.15657197 -0.5157418
0000c0 60 8b 0d 3e 20 33 c4 bc d2 d8 8c 3e ac 73 84 3e
       0.13822699 -0.02395016 0.2750917 0.258695
0000d0 ce 64 c7 be e0 f3 72 be 92 9f a0 be 70 4f 78 be
       -0.38944095 -0.23725843 -0.31371742 -0.24249053
0000e0 72 f8 a5 3e f3 a9 4d be 0b 5f e8 bd 6f 21 48 3c
       0.3241611 -0.20084362 -0.11346253 0.012215002
0000f0 d3 fb b1 3e ab fd c7 3e 3e c7 90 3b 45 ac 0d 3e
       0.3476244 0.3906072 0.004418283 0.13835247
000100 81 0d ae bc 18 36 33 be 32 51 ff bd ac fc 49 be
       -0.021246674 -0.17501104 -0.12466659 -0.19725293
000110 93 df 2a bf d1 9f 54 be 93 00 98 3c b0 5f f3 3e
       -0.667474 -0.2076409 0.018554961 0.4753394
000120 f4 3d bd 3e c4 56 88 be 74 ca d2 be 50 63 d9 3e
       0.3696133 -0.26628697 -0.41170084 0.42458582
000130 80 68 62 3d 22 94 91 be ac da de be 3e 50 bc 3e
       0.05527544 -0.2843333 -0.43526208 0.3677997
000140 a8 cd 9e 3d 9e eb fc 3e 42 1c 9c be 56 e0 d5 be
       0.077540696 0.49398512 -0.3049031 -0.41772717
000150 6e e3 8c 3e 5f 03 03 3f 32 39 2b 3e e3 2c ee 3e
       0.27517265 0.5117702 0.16721037 0.4651862
000160 ce 59 24 be d1 da b6 bd f6 8c 92 3e d4 09 a4 3e
       -0.16049883 -0.08928455 0.2862317 0.32038748
000170 28 64 14 be a0 75 7a bd e2 ad a6 3e 20 c4 1d bd
       -0.14491332 -0.061147332 0.32554537 -0.038517118
000180 fc 96 03 be c6 4a e6 bd 76 6b 60 bd 44 15 4e 3f
       -0.12850565 -0.11244731 -0.054789983 0.805012
000190 bc 69 5c 3f 2e 4c 82 bf 8f 0c e5 3c 60 bd b0 3e
       0.8609884 -1.0179498 0.02796009 0.34519482
0001a0 98 96 e5 be ec 83 d4 be 28 41 d8 3e 96 1c ff be
       -0.44841456 -0.41506898 0.4223721 -0.49826497
0001b0 90 02 50 3e 9f 2b 51 3e b3 f1 74 3e 73 d8 eb bd
       0.20313478 0.20426796 0.23920326 -0.11515894
0001c0 9e a3 9d be 24 b3 ee 3e ce 50 9e 3c 78 45 fd 3b
       -0.30788893 0.46621048 0.01932564 0.0077292286
0001d0 f8 8f 3b 3e 8a 49 81 3e 06 76 aa 3e 5c e7 bb 3e
       0.18316638 0.25251418 0.3329317 0.3669995
0001e0 64 dd a2 3e c8 15 67 3d 86 37 57 bc 5b 0a e6 be
       0.31809533 0.056417257 -0.013135796 -0.44929776
0001f0 51 d2 fc 3e 72 8c 2e bf 6b d6 e9 3c 59 ff ae 3e
       0.4937921 -0.6818305 0.028544625 0.3417919
000200 b8 3d c3 be 78 8f f4 3e ee fb dd 3e 0e 36 96 be
       -0.38133025 0.47765708 0.4335627 -0.29338115
000210 1d 0b bc be e9 c6 6e be 65 85 01 3d 2a 76 43 3d
       -0.3672723 -0.23318066 0.031621356 0.047720112
000220 52 a1 27 3f 00 b0 91 3d f3 4b 26 bd 5b f8 b6 bc
       0.6548053 0.071136475 -0.040599775 -0.022335222
000230 66 8b bd 3e 6a d9 d1 be e2 05 aa 3e e4 95 10 be
       0.37020415 -0.40986186 0.33207613 -0.14119679
000240 50 80 06 3e 7c d0 d2 3e 50 43 99 3e c0 b5 dd 3d
       0.13134885 0.41174686 0.29934168 0.10825682
000250 97 f5 da be 6b 9f bf be 03 df 47 be 02 39 c0 be
       -0.42765495 -0.37426314 -0.19518666 -0.37543494
000260 e0 f5 44 3e b4 79 0a be 22 9a fa be 7a 38 aa 3e
       0.19234419 -0.13522989 -0.4894572 0.33246213
000270 8a 44 3a 3e 1c 30 df 3d cb fa 0e be 4d 09 7f be
       0.18190208 0.10897848 -0.13962857 -0.24905892
000280 0b a2 0b bf 31 87 8b 3d 60 7f 13 3d 35 a8 e9 3e
       -0.5454413 0.06812895 0.036010146 0.45636144
000290 fe d1 f4 be 58 60 30 3e 04 4e d3 be d8 c4 8d 3d
       -0.4781646 0.17224252 -0.4127046 0.069223106
0002a0 f5 1d 7f be 89 a4 06 bf 3d fc 00 3c ef 3a 71 3f
       -0.24913771 -0.5259481 0.007872638 0.9423055
0002b0 f6 8f 82 be 7e 00 a4 be 2a da b2 3e 3a 54 ec 3e
       -0.25500458 -0.32031626 0.3493207 0.4615801
0002c0 90 0b 4e 3d a0 ec a3 bc 3e ca b3 be f0 7c ad 3e
       0.050303996 -0.020010293 -0.35115236 0.33884382
0002d0 b7 ce 96 be ac 3d d9 3e aa 38 85 3c 07 9e 6f be
       -0.29454586 0.42429864 0.016262371 -0.23400126
0002e0 9e e4 e8 3e 16 4a fb 3e ee 80 de be c4 9c 54 3e
       0.4548692 0.4907996 -0.4345774 0.20762926
0002f0 33 02 37 3f 42 0e ab 3e 05 da 03 bd 18 fd 1e bf
       0.7148773 0.33409315 -0.03219034 -0.6210494
000300 e2 92 9d 3e ca 7b 87 be 56 87 e8 3e b8 20 04 be
       0.30776125 -0.2646163 0.45415753 -0.12903106
000310 11 b5 09 3f f2 48 39 be 7c e9 f1 3b c6 4d 8e 3e
       0.5379191 -0.18094233 0.00738257 0.2779371
000320 54 70 f8 3e b6 35 82 be 14 2f 8b be 6e dd bb 3e
       0.485232 -0.25431603 -0.27184355 0.36692375
000330 d8 43 88 3e 70 58 99 3d ae e4 a4 be 38 e3 fd be
       0.2661426 0.07487571 -0.3220572 -0.49587417
000340 0e 6b c7 3c 3c 62 0f 3e 86 c4 92 be 78 56 b0 bd
       0.02434304 0.14002317 -0.2866556 -0.086102426
000350 f4 57 a4 3e 08 1d 3e 3e 00 7f e0 be 18 9c c9 3d
       0.32098353 0.18565762 -0.43846893 0.09844226
000360 b6 46 f6 3e c8 0b e5 be 86 89 d8 be f4 56 c2 3e
       0.48100823 -0.4473555 -0.42292422 0.37956965
000370 1c aa de 3e 34 83 fa 3e 50 74 84 3e f2 38 83 be
       0.43489158 0.48928225 0.2586999 -0.25629383
000380 6e 12 ed be 38 74 04 3e 66 cd b6 be 0e 74 f3 be
       -0.46303123 0.12934959 -0.35703582 -0.4754948
000390 d9 41 69 be 41 d3 78 be f0 d9 4f bc 56 ef 91 bd
       -0.22779025 -0.24299337 -0.012686238 -0.07125728
0003a0 ad 48 c3 3d c3 f9 a4 be 17 81 55 be e8 63 da 3e
       0.09535346 -0.32221803 -0.20850025 0.42654347
0003b0 e9 98 a2 be 6c 44 b0 3e 62 53 e5 bd b0 08 43 3e
       -0.31757286 0.34427202 -0.11197545 0.19046283
0003c0 6b cc 02 3f 46 19 ce bc 3f 91 db 3d 92 f6 00 3f
       0.5109317 -0.025158536 0.10721063 0.50376236
0003d0 52 18 ee 3e 88 c0 31 be 9c 13 ad be a8 31 e9 bd
       0.4650293 -0.17358601 -0.33804023 -0.11386424
0003e0 a0 0a 05 3e 4e 90 fc 3e 52 05 82 3e 24 f7 23 be
       0.12992334 0.49328846 0.25394684 -0.16012245
0003f0 1a 07 d9 be f8 fc 15 be d0 fb ff 3e 44 78 6f 3e
       -0.4238823 -0.14647281 0.49996805 0.23385721

bias f4 [256]
000000 ef 40 c6 3e 40 63 41 3d d9 6c b2 bd ef 8f ac 3d
       0.38721415 0.047213793 -0.08712167 0.08425891
000010 88 c7 d1 3e 2b 9b fb be 93 52 30 3f d6 93 95 be
       0.40972543 -0.4914182 0.68876 -0.29214352
000020 ba 19 e3 bc c0 22 5f 3d d2 7f 3f bf ea 80 89 be
       -0.027722228 0.0544765 -0.74804413 -0.26856166
000030 7a 1e b7 3e e8 fb 6e 3e db 35 09 bf aa 5a 15 bf
       0.3576544 0.23338282 -0.535978 -0.5834147
000040 55 2c 1b be 88 ea a6 3e a4 9d 17 be 58 ea 84 3d
       -0.1515363 0.32600808 -0.14806229 0.0649001
000050 b8 88 20 be e6 cc 00 bd 1d 66 e3 be 38 d3 c1 3e
       -0.15677154 -0.031445406 -0.44413844 0.3785646
000060 3c 36 c7 bd 2e eb 31 bf e2 9c bd 3e af c1 89 3d
       -0.09727141 -0.6949948 0.37033755 0.06726395
000070 1c a9 c7 be a8 59 21 3e 79 c1 45 bd f0 83 7b bf
       -0.38996208 0.15756857 -0.048280213 -0.98248196
000080 d2 c6 c2 3e 57 be 45 be 56 7b 8e 3e 30 0d 9d bd
       0.38042313 -0.1931089 0.27828473 -0.07668531
000090 f0 85 b1 be ec 53 1d bc f6 38 a3 be 5b 83 8b be
       -0.346725 -0.009602528 -0.31879395 -0.27248654
0000a0 5f 2a 01 bf 0c 05 98 be 72 a1 d9 3d 06 de c0 3e
       -0.5045528 -0.2969135 0.106264964 0.3766939
0000b0 1c 83 af 3e c5 e7 cf bd 84 1e c2 be 85 76 85 bd
       0.34279716 -0.101516284 -0.37913907 -0.065167464
0000c0 68 bc 6b 3e 66 81 c9 bd 82 e1 f7 be f0 aa 95 3d
       0.2302109 -0.09839134 -0.48414236 0.07307994
0000d0 86 f8 ed 3e d4 15 55 be 82 1a 88 be b0 d2 d9 be
       0.4647867 -0.20809108 -0.26582724 -0.42543554
0000e0 f8 d3 fb 3d 48 fa 2e 3f 1f 80 5d be c2 f1 8a be
       0.12296289 0.6835065 -0.21630906 -0.27137572
0000f0 f8 bb 87 3e 30 58 06 bd e8 74 e8 3e 10 7c a0 3e
       0.26510596 -0.032798946 0.45401692 0.31344652
000100 20 3b d9 3c da d1 a4 be d5 96 cb be 6a e6 21 bc
       0.02651745 -0.32191354 -0.39763513 -0.009881595
000110 c0 48 8a bc 36 93 d0 be e3 c0 dc be 28 28 2b 3e
       -0.016880393 -0.40737313 -0.4311591 0.16714537
000120 e2 df 88 bf 7e 7d 92 3e 50 ef c7 be 04 64 f2 be
       -1.0693324 0.28611368 -0.39049768 -0.4734193
000130 c8 9e e8 be 6c e8 f5 3e 66 2c f5 3d 6d 95 11 bf
       -0.4543364 0.48028886 0.11971359 -0.5686863
000140 61 15 e7 bd 24 18 10 3e bf a0 d9 be 4a e4 50 3f
       -0.112833746 0.14071709 -0.42505452 0.8159834
000150 45 f7 13 bf 1b 88 b4 be fe a4 96 3e e2 8f ea 3e
       -0.5779918 -0.3526009 0.29422754 0.458129
000160 8b 31 38 3f 40 8d 9e 3f d0 25 a7 3d 20 f0 52 be
       0.71950597 1.2386856 0.08161509 -0.20599413
000170 21 ea d0 3c 72 ce d4 3e a6 b2 b4 3e 80 6f b9 3d
       0.025502266 0.41563755 0.35292548 0.0905447
000180 c0 9e d9 be e0 0d 03 be 03 b2 d3 3e 87 bc c7 be
       -0.4250393 -0.12798262 0.4134675 -0.39011022
000190 9e 06 9c 3e bf cc 86 3f bb 3d 92 be 3d 6d 90 3c
       0.304738 1.0531234 -0.28562722 0.017630214
0001a0 40 4c c2 3e b2 3f cd 3e 5a 6d f2 3e 88 8f d3 3d
       0.379488 0.40087658 0.47349054 0.10330111
0001b0 9f 0d e8 3e b9 12 07 bb 48 45 27 be 18 df 8d bd
       0.45322892 -0.0020610525 -0.16335022 -0.069273174
0001c0 e8 f8 1a be a3 9a b9 3e 85 85 35 bf c0 b5 e7 be
       -0.15134013 0.3625079 -0.7090686 -0.45255852
0001d0 50 87 e9 3d c1 e4 95 3f c0 60 5e be 50 9b d9 be
       0.11402762 1.1710435 -0.21716595 -0.42501307
0001e0 e4 2b ef be 26 d3 8d be 0b 93 64 bf 50 c9 01 be
       -0.46713173 -0.27700156 -0.8928687 -0.12674451
0001f0 08 94 2d be f2 d0 d2 be 64 60 3a be 70 61 b6 bd
       -0.16951 -0.41175038 -0.18200833 -0.089053035
000200 be eb f3 bc 14 e6 73 3e e4 cf 4e be 26 1b a9 3e
       -0.029775497 0.23818237 -0.20196491 0.33028525
000210 96 74 b2 3e f6 ce f9 3e c0 cd b5 3c 48 23 98 be
       0.34854573 0.4879071 0.022192836 -0.29714417
000220 ef ea 07 bf 97 0b 29 3f 2a b4 f1 be e1 11 b8 3e
       -0.53092855 0.6603331 -0.47207767 0.3595114
000230 74 75 82 3e 74 2a bc be 2c 30 b2 3e 78 0e 0f 3d
       0.25480235 -0.3675114 0.34802377 0.034925908
000240 05 5a df be 63 b4 14 bf be fb d9 3e 74 1d 8c be
       -0.43623367 -0.5808775 0.42574877 -0.2736622
000250 8c 13 7d be 69 d6 b1 3e 66 26 fb be f0 47 e4 3e
       -0.24714488 0.34733894 -0.49052733 0.44586134
000260 10 86 df bd 2d fd 2c 3f ee a0 b9 3e 04 01 73 3e
       -0.10914242 0.67573816 0.36255592 0.23730856
000270 ee a0 1e 3e 95 ef 22 3f 20 a8 8f 3c 54 72 22 be
       0.15491077 0.63646823 0.017536223 -0.15863925
000280 84 1f 24 3f 20 13 c2 3c 50 3c d4 3e 4c 75 08 3e
       0.6411059 0.02369076 0.41452265 0.13325995
000290 0f 09 d1 bd ec 6c 91 be cd d0 57 bf d6 58 8d be
       -0.10206806 -0.28403413 -0.8430298 -0.2760684
0002a0 28 d3 93 bd 0e 57 b9 be 6f 71 9c be 1a 90 08 be
       -0.07218009 -0.3619923 -0.30555293 -0.1333622
0002b0 86 2d c4 be e0 c9 93 be b6 5c a5 3e d0 b8 17 be
       -0.38315982 -0.28864956 0.32297295 -0.14816594
0002c0 d5 4c 9b 3e c4 c0 1c be 70 1c 95 3e 0a 52 93 3e
       0.30332056 -0.15307909 0.2912326 0.28773528
0002d0 c0 03 d4 3d 29 d6 0f 3f 1a 13 26 3f 7f d3 84 3d
       0.10352278 0.5618616 0.64872897 0.06485652
0002e0 21 28 d2 be 3d ce 52 be d7 01 03 bf 34 16 58 be
       -0.4104624 -0.20586486 -0.5117468 -0.2110222
0002f0 ac 79 8b 3e 3c c0 b7 3e d9 d0 c0 3e 9a ed a2 3e
       0.27241266 0.3588885 0.37659338 0.318219
000300 00 c7 78 bd 5a ba 97 bd 32 ff 93 3e a3 8b eb be
       -0.060736656 -0.074085906 0.28905636 -0.46004972
000310 cc 73 b0 bb ae d4 f4 3e 28 ca 81 bd 08 51 0e 3f
       -0.005384898 0.47818512 -0.06337386 0.55592394
000320 92 cf 96 3e 00 c7 10 be 44 b0 c6 be ee 7f 98 3e
       0.2945524 -0.14138412 -0.38806355 0.29785103
000330 28 f5 78 3e 7d 51 60 bf 3a 78 b9 3e 8f 0b 2b 3e
       0.2431227 -0.8762434 0.36224538 0.16703628
000340 62 c7 22 3f 14 bf d5 3e 58 02 17 bd 32 31 fe 3e
       0.63585484 0.41747344 -0.03686747 0.49646908
000350 a5 9e ad be 92 67 b0 be 17 9c 4c be 68 51 91 be
       -0.339101 -0.34454018 -0.19981419 -0.2838242
000360 95 a5 67 3e 37 be 82 bd 6a af e6 bc f4 f7 c6 3e
       0.22621758 -0.06383937 -0.028159816 0.38861048
000370 60 92 9d bd 76 76 c5 be ae 7a 10 3e b2 57 2f 3f
       -0.076939344 -0.3856694 0.14109299 0.6849319
000380 d0 fd 93 be d0 a5 23 be e4 c5 86 3e 48 68 b8 be
       -0.2890458 -0.15981221 0.26322854 -0.3601706
000390 e0 08 3d 3f 88 df 3f 3e c6 92 f3 be 8b 48 e5 3e
       0.7384167 0.18737614 -0.47572917 0.44781908
0003a0 c0 96 36 3e f4 d7 5b be 8a 5d e0 be fc 50 b6 3e
       0.17830944 -0.21469098 -0.43821365 0.3560866
0003b0 56 32 95 3e 24 f7 b8 3e 68 94 bc bd c7 61 f6 3e
       0.29139966 0.36126053 -0.09207994 0.48121473
0003c0 e0 3c 9b 3e 18 43 90 bd d8 b8 0b bf 74 84 c0 be
       0.3031988 -0.07044047 -0.54578924 -0.37601054
0003d0 00 b4 b2 3d 46 65 c9 bc f8 c6 bf bd 78 3e 59 be
       0.087257385 -0.024584424 -0.09364122 -0.21215236
0003e0 f0 4c a2 3d 30 c6 bb bd 27 8f 89 3e 66 e4 dc 3e
       0.07924831 -0.09168661 0.2686703 0.43143004
0003f0 52 f4 d9 3e 20 5d f3 be 58 1d ee 3d e8 95 dc 3e
       0.42569214 -0.47531986 0.116266906 0.4308312

weight f4 [128, 256]
000000 fe 3c 0d bd a4 54 63 bd 74 14 ca bc 25 67 60 3d
       -0.034481995 -0.05550064 -0.024667956 0.054785866
000010 50 de bf 3c 84 32 52 3d eb e9 43 bd 40 aa 20 bd
       0.023421437 0.051317707 -0.047830503 -0.039224863
000020 2e 3e 82 bc c0 c2 9f 3c 9c 6d 42 3d b0 be e9 bc
       -0.01589879 0.019502044 0.047467813 -0.02853331
000030 c8 68 a7 3c 97 50 47 bc 28 6d 5d 3d ca fd a6 3c
       0.020435706 -0.01216521 0.054059178 0.020384688
000040 c9 30 60 3d 40 83 08 3d 74 11 8c 3d 62 77 3b 3d
       0.054734025 0.033328295 0.068392664 0.04576815
000050 a9 b6 76 3c f5 cc ed bc f7 58 8c bc 50 41 8f bd
       0.015058198 -0.029028395 -0.017132265 -0.06994879
000060 c8 e9 8a 3d a6 0b e1 3c b2 1f f8 bc 0b 6e 8c bd
       0.067828715 0.027471375 -0.030288551 -0.068569265
000070 dd b9 99 bc 90 1f de bc 47 99 ee bc f2 18 52 bd
       -0.018765384 -0.02711466 -0.029125823 -0.05129332
000080 bf 7c 08 bc 06 65 10 b7 27 f7 05 3d ca 5d 2b bd
       -0.008330523 -8.60659e-06 0.032706406 -0.04183749
000090 58 d1 54 3d e8 a2 3d 3d 9e 31 87 3d e8 d4 07 bc
       0.05195746 0.046297938 0.066012606 -0.008290507
0000a0 a9 30 03 bd 3e 15 15 bd e1 e7 92 3d ec cc 57 3d
       -0.032028828 -0.03639721 0.07173134 0.052685663
0000b0 13 80 8a 3c 0a 4d 21 3d df 8f 0d 3d 6c 62 9f 3b
       0.016906774 0.03938011 0.034561034 0.0048640277
0000c0 9c 8f 40 3b 0d 4d 87 bb b0 1d 8c 3d 98 50 0a bd
       0.0029382473 -0.004129058 0.068416 -0.033768266
0000d0 aa 25 74 3d 06 2f 83 3d aa 0d 31 3d d4 45 af 3c
       0.05960623 0.064054534 0.04322592 0.021395601
0000e0 47 19 08 3d 06 dc 86 3d 33 cd d8 3c 85 b8 89 3c
       0.03322723 0.06584935 0.026465034 0.016811619
0000f0 4d 12 11 3d a3 74 da bb 64 a2 bc bc 11 74 cd 3c
       0.035417844 -0.006666736 -0.023026653 0.025079759
000100 12 3a 4d 3d a2 e4 40 bd fb 5f a2 bb a1 41 81 bd
       0.05010421 -0.04709304 -0.0049552894 -0.06311346
000110 a7 38 1d 3d fc a8 b7 bc 30 14 80 3d 80 80 00 bd
       0.038384106 -0.022419445 0.062538505 -0.031372547
000120 5e a6 8b bd 88 46 86 3d ef 2c 26 3c 42 56 1d 3d
       -0.068188414 0.065564215 0.010142549 0.03841234
000130 4e 1b 26 bd 88 b0 72 bd b0 7e ad bb 40 de 1c bd
       -0.040553384 -0.059250385 -0.0052946433 -0.03829789
000140 65 9e 33 3a 51 4a 8a bc a4 5e 92 bd a5 81 4e bc
       0.0006851911 -0.01688114 -0.071469575 -0.012604152
000150 d8 c3 f8 3c 0d 62 48 3d 66 39 0b 3c 17 fa 4a 3c
       0.030366823 0.048921634 0.008497572 0.012388728
000160 af a7 f8 bc 42 af 18 3d 28 f5 8a 3d 96 15 53 bb
       -0.030353395 0.037276514 0.06785041 -0.003220891
000170 8c 54 27 bd 48 32 33 3d f6 27 2a 3d 75 91 56 bc
       -0.040852115 0.043749124 0.041542016 -0.013096203
000180 3e 95 48 3d f8 c1 8a 3d c7 4f 73 bd 7d 73 51 3d
       0.048970453 0.06775278 -0.059402253 0.05113553
000190 06 36 88 bd 06 46 a4 bc 90 56 3c bd 14 b9 d9 3c
       -0.06650929 -0.020052921 -0.04598099 0.02657751
0001a0 2d 0e 60 3c 97 d1 4d 3c 1b e3 39 bd 18 c0 0c bd
       0.013675255 0.012562177 -0.0453826 -0.034362882
0001b0 16 4a e4 bc 40 50 37 3d 8f df 14 3d 0f a5 89 3c
       -0.027867358 0.044754267 0.036346015 0.016802339
0001c0 91 e9 e5 bc 55 04 94 3d 9e 66 4f bd f6 4b 63 bd
       -0.028065475 0.07227389 -0.050634973 -0.055492364
0001d0 ad 6c 66 bc 88 d6 59 3d 79 6e c7 39 41 14 16 3d
       -0.014063996 0.05318311 0.00038038546 0.03664041
0001e0 84 76 c3 3c 75 89 11 3d 1e 95 9f 3b a4 47 b9 bc
       0.023860224 0.03553148 0.004870071 -0.022617169
0001f0 44 00 37 3d 66 4e 5b 3d 9c e1 77 bd cc f9 8b 3d
       0.044677988 0.053541563 -0.060517892 0.06834754
000200 96 db 66 3d c0 3d 30 3d e8 ce 2f bd 24 cd 3e bd
       0.056361757 0.04302764 -0.04292193 -0.046582356
000210 17 3f ef bc 54 35 56 3d de 1e 45 bd b6 f4 dc bc
       -0.029204888 0.05229695 -0.04812514 -0.026972156
000220 3f ba f5 bc c3 24 05 3d c6 19 39 bd 2f d1 2b bd
       -0.029996036 0.03250576 -0.045190595 -0.04194754
000230 cd 1f 2f 3c 66 78 46 3d fe a8 68 bd 36 81 7a 3d
       0.010688734 0.048454665 -0.05680179 0.06115838
000240 39 62 7f bd 2a b0 5c bd 39 8d 84 bc 04 7b d3 3c
       -0.06234953 -0.05387894 -0.016180621 0.025815494
000250 87 7a 8b 3c 0a bf cd 3b 0c 45 6c 3d 74 81 8e bd
       0.017026199 0.006278877 0.057683036 -0.06958285
000260 9e e5 61 bd e8 68 87 bc 67 e3 90 3b dc 1f 4a 3d
       -0.05515062 -0.016529515 0.0044216397 0.04934679
000270 be a6 03 bc 49 ea ca 3c 97 b9 50 3c 2b 1f 81 3b
       -0.00803536 0.024769919 0.012739561 0.003940483
000280 d7 97 ef 3c 8e ed 64 3d f9 7a aa 3c b8 5e 30 bd
       0.029247208 0.055890612 0.020810591 -0.04305908
000290 94 46 fb ba 24 37 b3 3c ca 3e 4c bc 84 d3 c1 3c
       -0.0019170814 0.021876879 -0.012466142 0.023660429
0002a0 1a c4 24 bd d0 ac 35 3d 6f a6 22 bd cb f7 25 3d
       -0.04022608 0.04435426 -0.039709505 0.040519517
0002b0 95 20 71 3d 7c 2e c6 3c ae 76 4f 3d ae f3 90 bd
       0.058868963 0.024192087 0.05065029 -0.07077728
0002c0 1a 04 04 bd ad 3b 05 bb 8a 1d 27 3d f0 d4 4c bd
       -0.032230474 -0.002032976 0.040799655 -0.05000776
0002d0 35 03 13 bd 73 90 86 3d cd 7e 4e 3d 73 ef 2c 3d
       -0.03589173 0.0657052 0.050413895 0.042220544
0002e0 b0 c8 30 3d d3 1e 4c bd 14 3f 0b 3d 20 32 26 bd
       0.04316014 -0.049834084 0.033995703 -0.040575147
0002f0 6f bc 70 3c 3e 7e 10 bd 9f 89 d1 3c 9c ea 5c bd
       0.014693364 -0.035276644 0.025578318 -0.05393468
000300 46 4a 51 bd 5f 1e 6c 3c 5e 13 18 3d 48 f2 41 3d
       -0.051096223 0.014411538 0.037127845 0.047350198
000310 3d 52 1f 3d f1 87 6a 3d 9d 10 93 bc ff 84 81 39
       0.038896788 0.05725855 -0.017952258 0.00024703887
000320 02 0b b5 3a f3 e4 07 bd 9e 06 2a bd 04 af 8a 3d
       0.0013812485 -0.033177327 -0.041510217 0.06771663
000330 1d 50 7d 3d bf 66 90 bd 60 95 b0 3c 7c e6 90 3d
       0.06184398 -0.07050847 0.021555603 0.070752114
000340 16 35 15 bd d9 e3 01 bd 14 bf 4a bd 92 58 25 3d
       -0.03642758 -0.031711433 -0.049498633 0.04036767
000350 0b 52 70 3d 2d a5 45 bc 21 44 b8 3b e3 19 c8 bc
       0.058671992 -0.012063307 0.005623356 -0.024426406
000360 91 aa 86 3c 71 f6 1e 3d a2 b9 67 3d 2b 3d 52 bd
       0.016438754 0.038809244 0.056573518 -0.051327866
000370 19 1c 10 bc 84 d6 fd bc 0d a4 50 3d 7a ae 29 3d
       -0.0087957615 -0.030986078 0.0509377 0.04142616
000380 ae 5d 5d bd 3f 0e 32 bc a7 64 b5 3b 9c 90 b8 3c
       -0.054044418 -0.010867654 0.0055356803 0.022529893
000390 ac 7a 90 3d 36 24 c9 bb 63 49 83 bc 87 8b 80 bd
       0.07054648 -0.00613835 -0.016026204 -0.06276613
0003a0 9f 86 14 bd 7f 41 03 3c 8d 0f d8 3b e7 11 5b bc
       -0.036261197 0.008011221 0.0065936507 -0.0133709675
0003b0 52 2c db 3c 6b 63 26 3d 02 e4 21 bd 8f 6b 26 3d
       0.026754532 0.040622156 -0.039524086 0.04062992
0003c0 bf a7 51 bd 14 3d 4c 3a b9 53 46 3d 0c 72 52 3d
       -0.051185366 0.0007791084 0.048419688 0.051378295
0003d0 52 c9 2e 3d 74 14 4d 3c b2 e5 26 bd 8a 17 5b 3d
       0.042672463 0.012517083 -0.0407464 0.053489245
0003e0 cf b3 11 bd 90 97 84 bd 7e 34 f6 bc bb 6b 8e bc
       -0.03557187 -0.06474221 -0.030054327 -0.017385354
0003f0 a2 76 37 3d 29 33 ee 3c 15 38 c8 3c 82 af 56 bd
       0.04479087 0.02907713 0.024440804 -0.05241347

bias f4 [128]
000000 e6 73 e3 bc 66 88 fc 3c 1f 9b 83 bc e7 a8 d0 bc
       -0.027765226 0.030826759 -0.016065178 -0.025471164
000010 8f d5 1d 3d fa fa cf 3c 14 ee 89 bd 00 98 9d bc
       0.038533743 0.02538823 -0.06734863 -0.019237518
000020 47 a2 d3 bc b0 3a 52 3c a4 6f 02 bd a0 95 6f 3c
       -0.025834216 0.012831375 -0.03184475 0.014623076
000030 79 f7 9b bd 70 86 02 bd d9 da d1 bb 52 9a 40 bb
       -0.07615561 -0.03186649 -0.0064042625 -0.0029388857
000040 e1 99 a6 3c 00 8e 2b 3d 45 66 8a bd 09 df 0f 3d
       0.020337047 0.04188347 -0.067577876 0.035124812
000050 82 55 11 bc ec cf 15 bd b0 02 4a 3d 4d a9 40 bc
       -0.008870484 -0.036575243 0.04931897 -0.011759114
000060 e4 e3 af 3c a6 8d 2d bd ce 0b 49 3d 26 34 a4 bc
       0.021470971 -0.042371415 0.049083523 -0.020044398
000070 14 eb e8 bc 62 e9 22 bd 79 72 59 bc e8 73 5f 3c
       -0.028432406 -0.039773352 -0.013271921 0.013638474
000080 e4 11 6d 3d 0f d2 3b 3d df 1a 3e bb 10 d5 41 3d
       0.05787839 0.045854624 -0.0029007716 0.047322333
000090 1b 09 84 bc 1a bf 3c bd 37 cb b1 bc 4f 3a ef 3c
       -0.016117623 -0.046080686 -0.021703346 0.029202608
0000a0 e7 a2 54 3c 3b ef 47 bc d1 76 54 3d 09 22 1a 3d
       0.012978292 -0.012203033 0.051871125 0.037630115
0000b0 c3 c5 2a 3c 84 d2 ad bc 52 72 93 bc 0f 5f 4c bd
       0.010423127 -0.021218546 -0.017998848 -0.049895342
0000c0 7a 3b a9 bc 2a 37 33 3d 42 ec dc bc 26 68 2b 3d
       -0.020658243 0.04375378 -0.026968125 0.04184737
0000d0 32 e8 8b 3d 80 85 50 bd 86 46 27 3d 15 d9 14 3d
       0.06831397 -0.050908566 0.04083874 0.036339838
0000e0 b2 ed 4e bd 04 ff d1 bc 53 a8 bd bc f6 11 00 3d
       -0.050519653 -0.025634296 -0.023151552 0.03126713
0000f0 6a 7d b1 bc 17 9e 52 bc c0 07 ad 3c 60 c1 40 bc
       -0.021666247 -0.012855074 0.02112186 -0.011764854
000100 b5 13 8d 3d e3 6e 66 bd db c7 a4 3c 8a 07 37 3d
       0.068885244 -0.056258094 0.02011483 0.044684924
000110 f4 89 d6 3c 5f f9 a8 bc 62 ce e8 bc d8 90 2f bd
       0.026188828 -0.020626722 -0.028418723 -0.042862743
000120 cb c2 02 3d a0 c7 57 3d 1e 37 de 3b 22 38 9b bd
       0.03192405 0.05268061 0.006781473 -0.07579066
000130 ec d0 a2 bc e1 65 ec bc 23 68 95 3c 26 c5 ff bc
       -0.019875012 -0.028857173 0.018238133 -0.031221937
000140 f0 35 2f 3b 84 9a 8b 3c 37 6a 9f 3c 4f 7a 78 bd
       0.002673503 0.017041452 0.019459827 -0.060663518
000150 51 85 a7 bc 12 fb 76 bd a7 5b 76 3d f7 d0 6d bb
       -0.020449312 -0.060298033 0.060146 -0.0036287883
000160 d5 9e e0 bc 6a 92 f7 ba b5 dc 8a bd 9c d2 16 3b
       -0.027419487 -0.0018888239 -0.06780378 0.0023013717
000170 c0 d5 23 bc 1f 06 e3 3c a7 b6 94 3c 83 e3 31 3d
       -0.009999692 0.02771288 0.018153502 0.043429863
000180 b5 9f ac bc 85 57 54 3c 20 f0 4a 3d 1e a3 11 bd
       -0.021072248 0.012960319 0.049545407 -0.03555595
000190 7f 03 13 3d a2 d2 8a 3d 3e 6b 41 bd be 69 4d bd
       0.035892006 0.06778456 -0.047221415 -0.05014967
0001a0 0b 86 1a 3d 89 ff 0a bc 09 b3 5f 3c 26 e3 7e 3d
       0.03772549 -0.008483776 0.013653525 0.062228344
0001b0 f8 fa 4c bd e5 4c 78 3d e5 a4 46 3d ae 9c 6c 3c
       -0.05004403 0.060620207 0.0484971 0.014441652
0001c0 ac 08 87 3d b7 9f cb bc d8 2d 4c 3d e5 8e 2a bd
       0.06593451 -0.024856431 0.049848408 -0.04164018
0001d0 ec 46 91 3d 44 ab d6 3c 91 88 1e 3b c8 43 80 bc
       0.070936054 0.026204713 0.0024190287 -0.01565732
0001e0 66 a5 0f 3d b1 ca 7b 3c 83 1c 07 3d fe 0c 8a 3d
       0.035069846 0.01536815 0.032986175 0.06740759
0001f0 8d d5 3e bd 63 ee 8b 3c 28 5d 8c bd 3f f9 e2 bc
       -0.046590377 0.017081445 -0.06853706 -0.02770674

weight f4 [64, 128]
000000 ae 06 be 3d 87 64 89 bc d5 4f 8e bc 10 34 be be
       0.09278618 -0.016771568 -0.017372051 -0.37149096
000010 8b d4 9e bd 19 0d aa 3d 41 07 fd 3c 54 70 93 3c
       -0.07755383 0.083032794 0.030887248 0.017997898
000020 bc 23 b2 bd f9 a6 54 bc 5a d0 b7 3c 0e d4 e6 bc
       -0.08698222 -0.0129792625 0.022438217 -0.028177287
000030 17 81 d4 bd 3b 72 59 bd 9c 7a 7c 3d af 37 0e 3d
       -0.103761844 -0.053087454 0.061640367 0.034721073
000040 8f 43 73 bc dd e4 61 bd f2 f4 f7 3c 8e 0f 17 3c
       -0.01484765 -0.0551499 0.030268166 0.009220017
000050 ed e4 76 bd ff 5b d8 3a 23 82 17 3e 1f 68 ca bc
       -0.060276914 0.0016506909 0.14795737 -0.024707852
000060 a0 d6 6f 3d e2 59 ca bd 9f b2 94 3d 18 ab 90 bd
       0.05855429 -0.09880425 0.07260632 -0.070638835
000070 28 eb 8e bd 86 36 63 bd e8 cf 67 bc b2 fe 48 bd
       -0.06978446 -0.05547192 -0.01414869 -0.04907102
000080 bf f0 cb bc c4 7c a3 3d da 3d 39 3d 0b 96 c9 3e
       -0.02489507 0.079827815 0.045225002 0.39372286
000090 47 84 cb 3c e2 02 5a 3d 88 8e 81 3c 02 83 62 bc
       0.024843348 0.053225406 0.015815035 -0.01382518
0000a0 ea 61 6d 3d 65 8d 03 3c b2 e2 d7 3c 4c bd 77 bc
       0.057954706 0.008029317 0.026353214 -0.0151208155
0000b0 1c 60 86 3c f4 c2 ae 3c b5 a7 d3 bc 66 86 97 bd
       0.01640325 0.021333195 -0.025836805 -0.07398681
0000c0 93 51 f4 bb 7c 2c 89 3d c5 d4 8c 3d 9c be 01 bd
       -0.0074560135 0.06697938 0.0687652 -0.03167592
0000d0 d0 ab 72 3d 61 3b 96 3d d5 98 5a bc 76 da 8e 3d
       0.059245884 0.073355444 -0.013342102 0.06975262
0000e0 c9 25 20 3d fb 9f a9 3c 99 41 ba 3d 73 b5 2a bc
       0.039098535 0.020706167 0.09094543 -0.010419237
0000f0 dc a2 91 3c 08 4a 0d 3d 69 7a 68 3d 11 25 87 3d
       0.017777853 0.03449443 0.056757364 0.06598867
000100 60 75 8a 3b dc e1 8a bd 69 6c a2 3c a0 57 59 3c
       0.004225418 -0.067813605 0.019827085 0.01326552
000110 9b 2c 3c bd 23 d2 22 bd 7c 88 61 bd 61 51 60 bd
       -0.045940977 -0.039751183 -0.055061802 -0.05476511
000120 72 a7 e1 3a 6c ff b3 3d 52 86 a2 3d f1 01 67 bc
       0.001721604 0.08788952 0.07935776 -0.014099584
000130 7b 32 8a 3c 43 89 6c 3d c6 d2 35 bb 95 29 50 bd
       0.016869774 0.05774809 -0.002774404 -0.050820906
000140 af 60 db 3a 81 46 45 bd 21 5c f5 3c 3c 02 97 bd
       0.0016737188 -0.04816294 0.029951157 -0.07373473
000150 32 01 06 3d 69 ae 48 3d 78 5f 7f 3d 9a de 60 3d
       0.032715984 0.048994455 0.062346905 0.05489979
000160 4d d6 6f 3d e8 3f 2e 3d e8 58 b1 3d 03 cd 8f bd
       0.058553983 0.042541414 0.08659536 -0.07021525
000170 37 26 c6 3d 84 56 76 bd 64 7e 33 3c 9f 1c 47 3d
       0.09675258 -0.0601411 0.010955427 0.04861128
000180 dc 9d 24 3d f2 b3 65 bd cc ae a3 3c 72 71 1c 3b
       0.04018961 -0.056079812 0.01998081 0.002387133
000190 d2 98 d2 bd c1 d3 bb 3c fc ca 45 3d 4d 35 a7 3d
       -0.102830544 0.02292812 0.048289284 0.08164463
0001a0 d8 d0 7c 3d 22 41 21 bd 16 0e 9e bd ca 04 89 bd
       0.061722606 -0.039368756 -0.077175304 -0.066903666
0001b0 c1 87 59 3d 49 c5 a6 3d a7 75 84 3d 1c c5 57 3c
       0.05310798 0.08143098 0.06467753 0.013169553
0001c0 69 77 a2 3c 4a ef d7 3b 1a 33 44 3d 74 6e 51 3c
       0.01983233 0.006589805 0.047900297 0.012782682
0001d0 c3 a8 85 3d 68 02 be bd b6 4a 83 bd 20 50 90 bd
       0.06526329 -0.09277803 -0.06410734 -0.07046533
0001e0 df 29 04 3d d1 75 e9 3b f7 04 08 bd 6d 54 00 3a
       0.032266494 0.0071246405 -0.03320786 0.0004895393
0001f0 f5 b5 db 3c 01 53 96 bd f4 15 be bd bb 05 83 3d
       0.026820162 -0.073400505 -0.09281531 0.063975774
000200 c5 bb f6 3b 57 55 ed bc 75 11 b7 3d c3 bc 04 3e
       0.007529708 -0.028971357 0.089388765 0.12962632
000210 f7 17 08 bd 3e 13 a8 bd d3 86 d9 3c ed 6e e0 bb
       -0.03322598 -0.08206795 0.026553547 -0.006849161
000220 6d 0b 45 bc 87 34 4a 3c 38 0b 16 bb 22 91 74 3d
       -0.01202665 0.012341625 -0.002289487 0.059708722
000230 20 0d 26 3d 10 c1 cd bd d9 13 09 3d 1b b4 a5 bd
       0.04053986 -0.100465894 0.033466194 -0.08090993
000240 fc 0c 71 bd 66 f9 ab 3c f5 25 86 3d b1 fb da 3d
       -0.058850273 0.020992946 0.065502085 0.106925376
000250 45 ce 29 bd eb cb 4f bc 8f 7d 9b bd 30 bd 8a 3d
       -0.04145648 -0.012682895 -0.07592308 0.06774366
000260 8e 5f 91 bd f0 9c de bc 80 1c 20 3d 7c ca 15 3c
       -0.07098304 -0.027174443 0.03908968 0.009142514
000270 6f e7 80 bd 8c 8f 69 3d 7c b4 cc 3d 43 a0 bd bd
       -0.062941425 0.057021663 0.09995362 -0.09259083
000280 33 8f 1b 3d 73 b9 fe bc 92 af c5 bd e9 a7 12 be
       0.037978362 -0.031094288 -0.09652628 -0.14321865
000290 a5 a5 6d 3d 7c d3 71 bd bd ed df bd ea c2 59 3d
       0.0580193 -0.059039578 -0.10934017 0.0531644
0002a0 75 05 ea bc 85 cf ab bd 1d 79 92 3d 73 54 c4 bd
       -0.028567055 -0.083891906 0.07152007 -0.0958642
0002b0 df 7d 01 bd 77 de b5 3d fb 3b 0d bd 6e 9e 9b 3c
       -0.03161418 0.088803224 -0.03448103 0.018996444
0002c0 b0 ef 45 3d 4c 53 1b bc 43 94 57 3d be 2c b1 3c
       0.048324287 -0.009480309 0.052631628 0.02162778
0002d0 e1 ef 0a 3d 13 fc 88 3d 62 ee 9c bc 5c 25 33 bd
       0.033920173 0.06688704 -0.019156639 -0.0437368
0002e0 7c db 5c 3c c8 5e ca 3d a6 c1 6d bd c9 52 96 3c
       0.0134800635 0.09881359 -0.058046006 0.018350022
0002f0 4b 46 87 bd c4 da 50 3d ad a9 fd bb 9c 86 b0 bd
       -0.06605204 0.05098988 -0.007741174 -0.08619425
000300 10 2d 75 3d 18 f9 ce 3d de b1 2a bd 66 a2 42 bd
       0.059857428 0.101061046 -0.041673534 -0.047518156
000310 a2 ac 53 3d bc 30 68 3d 96 90 aa bc 6d c8 5e 3d
       0.051678307 0.0566871 -0.020820897 0.05439036
000320 4c 2b c5 3d e9 5c 94 bc 29 ed 96 bd d2 50 6d bd
       0.09627399 -0.01811071 -0.073694535 -0.057938404
000330 c1 49 33 3d a1 7a 81 3d d9 1a aa 3d 4e 33 69 bd
       0.04377151 0.06322218 0.08305902 -0.056933694
000340 32 9a 80 bd 59 b7 41 bd 1d 56 95 bc 49 89 00 bd
       -0.062794104 -0.047293995 -0.018229539 -0.031380925
000350 00 7e 8a 3d d5 d6 a8 bd 83 06 fa bc c8 2d 6e 3d
       0.06762314 -0.08244101 -0.030520683 0.05814913
000360 cc 13 0d bd a0 9b 0d bd 27 6e 39 bd f4 63 7c bd
       -0.034442708 -0.034572244 -0.045271065 -0.06161876
000370 8a 83 af bb 64 5c 5e 3d 33 21 a7 bd 28 b3 d4 3d
       -0.005356257 0.05428733 -0.08160629 0.10385734
000380 fc 56 8e bd 3f 79 21 bb ac 3e 3f bd a4 e8 f9 3c
       -0.06950185 -0.0024638919 -0.046690628 0.03050644
000390 36 0b cd bc 1d da da 3c 88 e5 86 3d 96 ea be 3d
       -0.02502976 0.026715333 0.06586748 0.093220875
0003a0 6c 26 0e 3d c4 4e 12 bd 0c 7f 5f 3d 87 ee 1c 3d
       0.03470461 -0.035719648 0.05456452 0.038313415
0003b0 ee a9 75 bd 94 e2 98 3d 69 57 b5 3c 04 95 a5 bc
       -0.05997651 0.07465091 0.022136407 -0.020212658
0003c0 46 7d 01 3d d3 75 0c 3d 14 05 d6 bc 78 71 87 bd
       0.03161361 0.034292053 -0.026125468 -0.06613439
0003d0 e8 55 94 3d f1 c2 09 3d a9 4c 2c bd 26 af 24 bd
       0.07242948 0.033633176 -0.042065296 -0.040206097
0003e0 0a e2 93 bd bc 8f 2f 3d 73 c0 7b 3c 9f 32 0e bc
       -0.07220848 0.042861685 0.015365708 -0.008679061
0003f0 fe e8 a0 3c 01 de 70 3d f0 16 98 3d 00 14 23 bd
       0.01964235 0.05880547 0.0742625 -0.039813995

bias f4 [64]
000000 64 6a fe 3c bb e0 fa 3b 8f 27 45 3c 17 a8 28 3d
       0.03105659 0.0076561845 0.012033357 0.041175928
000010 8c 23 55 3d 92 5f a4 3d 9f 70 38 bd 31 72 1e bd
       0.052035853 0.08026041 -0.04502928 -0.03868312
000020 a4 b7 62 bd 85 6b 04 3d a7 3e cb 3c 91 3b b0 3d
       -0.055350915 0.0323291 0.024810148 0.086051114
000030 dd 42 85 bd 45 84 e2 3d ad d6 e2 3b 83 54 9b 3d
       -0.06506894 0.11060385 0.006922564 0.07584479
000040 2a 52 77 bd db 25 8f bd 9d 71 bd 3c fb 18 17 3d
       -0.060381092 -0.06989642 0.023125464 0.036889058
000050 52 99 fb bb c9 a2 e5 bc e6 3f 79 bc c3 85 e2 3c
       -0.0076781893 -0.028031724 -0.0152129885 0.027651673
000060 e1 1c aa 3d f0 d5 a8 bb f7 08 b2 bd 79 d0 6e 3d
       0.083062895 -0.0051524565 -0.08693116 0.058304284
000070 5b 0a 3e 3d 92 a5 80 3d b7 22 0d bc ad 56 b3 bd
       0.046396594 0.0628158 -0.008614234 -0.087567665
000080 af 10 02 3b f9 d3 41 bd 05 f1 98 bd 80 4a c5 3d
       0.001984637 -0.047321294 -0.07467846 0.0963335
000090 74 78 b4 bd 3b a9 cf bd ac b4 a6 3d f2 e1 aa bd
       -0.08812037 -0.101397 0.08139929 -0.08343877
0000a0 32 21 96 bc 37 47 26 3d ff ad 88 3d 32 e0 c5 bc
       -0.018326376 0.04059526 0.06673812 -0.024154756
0000b0 8c ae 93 bd 91 fe cd 3b 30 e0 ca bc b6 a9 81 3d
       -0.072110265 0.00628645 -0.024765104 0.06331198
0000c0 17 b6 61 3d 36 50 d6 3d d5 8c 60 3d 9e 9a cf bc
       0.055105295 0.10464518 0.054821808 -0.025342282
0000d0 7b 91 c6 bd 91 30 23 3d b9 31 d1 bc ba c8 e9 ba
       -0.09695717 0.03984124 -0.025536405 -0.001783631
0000e0 16 35 d8 bd a6 5e 01 bd 07 ed 3b bb 7f 73 22 bc
       -0.10557 -0.031584404 -0.0028675215 -0.009915232
0000f0 d6 1c 34 bd 8b 1d 89 3c 25 ca 8f ba e3 06 98 bd
       -0.043972813 0.01673772 -0.0010970278 -0.074231885

weight f4 [32, 64]
000000 eb a8 10 bc ff 6e 10 3e 27 d4 b0 bd 23 00 af bd
       -0.008829336 0.14104842 -0.08634215 -0.08544948
000010 8e ae e2 3c da 70 be bd 1a 27 cc 3d 2d c2 4b 3c
       0.027671125 -0.092988685 0.099683955 0.012436432
000020 a8 9b a9 bd 74 d1 02 3e 46 4c e2 3c 7e 93 b6 3c
       -0.08281642 0.12775213 0.02762426 0.022287127
000030 46 fa 13 3d 77 21 31 3e f2 7c eb bc 81 f3 18 3d
       0.03612735 0.17297922 -0.028746102 0.0373416
000040 69 88 16 be 72 55 85 3d 10 f4 c8 3c e5 66 45 3c
       -0.14700474 0.06510438 0.02453044 0.012048458
000050 07 f2 92 bd 98 ed ff 3c a1 41 16 be 25 3c 5c bc
       -0.07175069 0.031241223 -0.14673473 -0.013442074
000060 6b 69 7f bd 4d fb db 3d cb 92 b6 3b 77 00 b5 bc
       -0.062356394 0.10741291 0.0055716983 -0.022094948
000070 71 9b 0d 3d c2 c8 b5 bc 4f 1a 14 be 34 7d 3a bd
       0.03457207 -0.022190455 -0.14463161 -0.04552956
000080 b7 7c af 3b 48 09 2f be 2b da a6 bd 11 c0 c9 3c
       0.0053554433 -0.17093384 -0.08147081 0.024627717
000090 6e 4c 2a 3d de 4d 2a be 15 23 19 3d d5 bb 90 3d
       0.041576795 -0.16631266 0.037386972 0.07067076
0000a0 43 6c 42 bd f4 93 45 bd 1c db 5d 3d 7c 3a 68 bd
       -0.047466528 -0.048236802 0.054164037 -0.0566964
0000b0 7d f4 09 be 31 82 fa bd 44 54 87 3d 50 92 af 3d
       -0.13472171 -0.12231863 0.06607869 0.08572829
0000c0 c6 12 0f 3e 3c 5b 14 3d 8d 3e d7 bd 07 cd 0e bc
       0.13972005 0.03621982 -0.105099775 -0.0087158745
0000d0 59 a8 04 bc 86 a6 de bc 0d b0 14 3e bf e4 31 3d
       -0.008096778 -0.027179014 0.14520283 0.04343104
0000e0 05 6f 03 be e9 f7 09 be 24 3f 17 3d da eb 15 be
       -0.1283532 -0.13473476 0.03692545 -0.14640751
0000f0 e0 18 1f 3e c8 c5 84 3d 94 08 21 be 44 84 8f b9
       0.15536833 0.06483036 -0.15725929 -0.0002737363
000100 82 e1 cf bd 00 e6 83 3d b9 ab c0 bd 8f 49 15 be
       -0.10150434 0.064403534 -0.094077535 -0.14578842
000110 65 30 2b 3d c1 f8 63 3c 54 3c 0e 3e ff 82 f3 bd
       0.0417942 0.013914288 0.13890201 -0.1189022
000120 9a 3a 72 bd fb 23 7d bc 5c d7 97 bc 5e eb 1a be
       -0.059137918 -0.015450473 -0.018535309 -0.15128848
000130 50 3c cd 3b 4c 96 11 3e 1d af ac 3d 2b 60 ad 3d
       0.0062632933 0.1421749 0.08431838 0.08465608
000140 b9 d6 2b be 0a d9 60 3d 16 cc 26 bd 25 de 60 bc
       -0.16781129 0.054894485 -0.040721975 -0.013724838
000150 46 df 35 bd b7 39 c4 3c cc f9 50 bc 0a bf 13 3d
       -0.044402383 0.023953302 -0.012754869 0.03607086
000160 1f 0a 2d 3e f3 04 0e 3e 05 d4 c9 bd 28 b8 b9 3d
       0.16898392 0.13869075 -0.09854893 0.09068328
000170 e7 c8 04 3c 2a 0a 20 be 5b 65 09 bd ba 67 b2 bb
       0.0081045395 -0.15628877 -0.033543926 -0.005444494
000180 b8 4b 22 3d 02 bf e8 bd 87 de 0b be 4a bf c3 bc
       0.039622992 -0.11364557 -0.13659106 -0.023894925
000190 76 89 b2 bc 27 16 2b be 84 bd c9 3c af fc 13 3e
       -0.021794062 -0.16707669 0.0246265 0.1445186
0001a0 61 d6 90 bd 83 7c 73 bd 52 91 c6 3d de dd 10 be
       -0.070721395 -0.059444916 0.096956864 -0.14147136
0001b0 03 93 06 be 1d 9e f7 bd 54 80 ca ba f8 21 74 3d
       -0.13142018 -0.120907046 -0.0015449622 0.059602708
0001c0 db f7 1b 3e b5 4c a3 bc e0 2d 22 be fb 02 d0 bd
       0.15231268 -0.019934038 -0.15837812 -0.101568185
0001d0 4f cd 2d be ac 7a 1f 3e 82 ce 1c bd 9b 1c 09 3e
       -0.1697285 0.1557414 -0.03828288 0.13389818
0001e0 77 5b 6e bd e2 80 2d 3d 8b 04 c7 bd d2 e5 81 bd
       -0.058192696 0.04235924 -0.097176634 -0.06342663
0001f0 48 1e 45 bd 2c 19 ad bc 86 cd 14 3d cf 13 81 bd
       -0.04812458 -0.021130167 0.036328815 -0.06302606
000200 92 35 20 3c 72 08 c7 3c 05 7e a0 3d 55 9b fd 3d
       0.009778397 0.02429602 0.07836536 0.12383143
000210 2d 70 46 3c 9c 2f a5 3e 40 6c 63 bd 1e 78 e8 3b
       0.012111706 0.32262886 -0.055523157 0.007094397
000220 9f d5 15 bb 1a 18 bb 3c 52 11 1e 3d 99 af 9d 3e
       -0.0022862924 0.022838641 0.038590737 0.30798033
000230 b3 21 4b 3a 06 be f6 bd ef d0 4b bd 71 09 36 bd
       0.0007748857 -0.12047963 -0.0497598 -0.044442598
000240 ed f7 a9 3d de 22 e9 3d df 30 61 3e 82 3a 13 3e
       0.08299241 0.113836035 0.21991299 0.14377788
000250 d5 6c b7 bd 7d 1a 47 3d b7 3a be 3c 10 35 e0 3d
       -0.08956305 0.048609246 0.023221357 0.10947621
000260 d4 b3 54 bd b5 db f9 3c 14 5a 6d 3c f9 72 d2 bd
       -0.05192931 0.030500272 0.014486808 -0.102758355
000270 71 5f b0 be a7 83 cf bd 99 e1 4b bd af c3 db bd
       -0.34447816 -0.101325326 -0.049775694 -0.10730683
000280 87 21 89 3d 55 1b 8e 3d b3 9a 9a 3d be 3d 43 bd
       0.06695848 0.06938807 0.07549038 -0.047666304
000290 55 b9 63 3d da d4 b1 bc c7 9f b6 bd fb 06 a7 bc
       0.05559667 -0.02170794 -0.08917194 -0.02038907
0002a0 95 5b 10 3d 2b b8 99 3d 47 f0 0c 3d 8d 57 42 3e
       0.03524359 0.075058304 0.034408834 0.1897871
0002b0 d3 b1 00 3e 4d 62 76 3d 22 90 9e bd 3e 21 9c 3d
       0.12567835 0.06015234 -0.07742335 0.07623528
0002c0 4a f8 fc bd 84 35 26 3d 8e f6 7d bc 76 8b ad 3c
       -0.12352045 0.04057838 -0.015500678 0.021184664
0002d0 42 94 37 3d 63 f9 a5 3c a4 87 ba bd 43 95 48 bd
       0.044819124 0.020260518 -0.09107903 -0.048970472
0002e0 ba 97 9a 3d 80 b0 48 bd ff 45 33 3d b8 11 cf 3d
       0.07548471 -0.04899645 0.043767925 0.101108015
0002f0 85 76 61 bd 31 31 c1 bd 2c ef 1d bb b1 c2 d9 3d
       -0.05504467 -0.09433211 -0.0024098856 0.106328376
000300 ad 07 f4 3c cb a6 d5 3c fe 0e 7f 3d d3 a2 85 3d
       0.029788816 0.02608051 0.062270157 0.06525197
000310 95 84 15 bd 5d 80 34 bc b9 4b 30 bd 7e 4d 4d bd
       -0.036503393 -0.011016932 -0.043040965 -0.05012273
000320 fe 20 2a 3b b6 87 1c be aa 52 83 bc c7 d5 8a 3d
       0.0025959606 -0.15286145 -0.016030628 0.06779056
000330 d0 29 91 3d 9a f4 71 bc 55 9b 86 3d f1 cd 0d 3d
       0.07088053 -0.01476779 0.06572596 0.03462023
000340 83 03 0c 3e 5d 18 e6 bd 4f 1a 5c 3d e1 03 07 3e
       0.13673215 -0.11235116 0.053736027 0.13185073
000350 7b ce 76 bc f6 d5 ad 3d 70 a8 80 bc 5c 54 8e 3c
       -0.015063877 0.084880754 -0.015705317 0.01737421
000360 22 08 ad bd 9f f3 c5 bb e2 3c 13 3e 03 9e 9a 3b
       -0.08448817 -0.006041005 0.14378694 0.0047185435
000370 cd d8 c0 bd e0 2e fb 3d a2 3e b7 3a 7d 1f 94 bd
       -0.094163515 0.122648 0.0013980458 -0.072325684
000380 2a 5a a4 bc a7 e4 0c 3e 0f c3 82 bd a7 12 2b be
       -0.020062525 0.13759099 -0.06384861 -0.16706334
000390 9a 77 1d 3e 1d ed e0 3c 8a 96 36 be 9f c6 4d bd
       0.15377656 0.027456814 -0.17830864 -0.050238248
0003a0 4b bc 53 bc 05 41 86 3d e1 06 32 bd 1a 26 01 3e
       -0.0129233105 0.0655537 -0.04346359 0.12612191
0003b0 3e bd 9a 3d b0 e4 19 3e 1d c4 b9 bd 7f ab f3 bd
       0.07555626 0.15028644 -0.09070609 -0.11897945
0003c0 f4 a9 0e be 32 0c 94 bd 18 0f f8 3d 40 fa 16 bd
       -0.1393202 -0.072288886 0.12112254 -0.03685975
0003d0 96 67 5b 3d 34 e6 0a be 2c 0a ba bd 28 a8 ef bd
       0.053565584 -0.13564378 -0.090839714 -0.11701995
0003e0 d7 2f 22 3e db 9c d1 3c 1c 78 a0 3c 07 70 2e 3e
       0.15838562 0.02558749 0.019588523 0.17034923
0003f0 1b c1 17 3d da 8b 8f bd 2c 51 25 3e 12 33 ef 3c
       0.037049394 -0.070090964 0.16144246 0.029199157

bias f4 [32]
000000 81 38 a4 bc fc c1 1f 3d e7 3b c2 bd 25 08 79 bc
       -0.020046474 0.039003357 -0.09484082 -0.015199696
000010 ff bb c6 bd c2 73 9b bd ee a2 f0 bd 7f b2 70 3d
       -0.09703826 -0.075904384 -0.11749826 0.058763977
000020 4b b1 d6 bc e8 33 05 3e 52 d4 88 3d da 8c 24 3d
       -0.026207587 0.13008082 0.06681122 0.04017339
000030 a1 80 94 3d 39 ba 3c bd e4 91 26 3d 20 f2 23 3d
       0.072510965 -0.046076033 0.040666476 0.04002583
000040 b0 fb 53 3d 84 90 d1 3d 13 a4 5f 3d d2 e6 b1 bc
       0.0517537 0.10232642 0.054599833 -0.021716509
000050 55 cd 72 bd 2d 3f 95 3d d9 b7 2a bc 6f af 88 3d
       -0.05927785 0.072874404 -0.010419809 0.06674086
000060 62 8d ef bd f6 43 d7 bc a7 aa c4 3d c7 29 09 3d
       -0.116968885 -0.026277523 0.09602862 0.033487108
000070 2e a0 ea 3d 75 ca 87 3d 83 42 08 be 0b 0c 08 bd
       0.11456333 0.066304125 -0.13306622 -0.03321461

weight f4 [1, 32]
000000 c3 ad af 3e ab 22 9e 3e c6 50 94 be 0f 0c a3 be
       0.34312257 0.30885825 -0.28967875 -0.31845137
000010 26 ba cd be 50 2d 97 3e 08 0d bf be 00 82 cd 3e
       -0.40181082 0.29526758 -0.3731463 0.40138245
000020 f4 d1 99 3e 03 8c a3 3e 0e 10 b5 be 1d 5e c5 3e
       0.30042994 0.31942758 -0.3536381 0.38548365
000030 0b 3c ce 3e 53 45 a8 3e 1c 33 b5 3e fd 96 98 3e
       0.40280184 0.3286539 0.35390556 0.29802695
000040 8f 4d c5 3e 25 11 a3 3e fd a6 c5 be 52 ff a5 be
       0.38535735 0.31849018 -0.38603964 -0.32421356
000050 91 0b 94 3e 5e 1b d0 3e e7 a3 c8 be e5 2c b7 be
       0.28915074 0.4064588 -0.39187548 -0.3577644
000060 26 b4 ad be ef e0 8e 3e e3 b9 b4 3e ca 39 bb 3e
       -0.33926505 0.27905986 0.3529807 0.36567527
000070 02 c8 d7 3e b6 07 d4 3e 62 b1 94 be 94 52 a8 be
       0.4214478 0.41412133 -0.29041582 -0.32875502
