Models/Parking_lot_model_10.pth (torch, 189742 bytes, 9 tensors)

weight f4 [256, 10]
0	0xbd2323de	-0.039829127
1	0x3e424c5f	0.18974446
2	0x3d124fba	0.035720564
3	0xbe6d7030	-0.23187327
4	0xbead78ae	-0.33881134
5	0xbeb32f4b	-0.3499702
6	0x3dd1c5cc	0.10242805
7	0x3ec91e4a	0.3928092
8	0xbebcc7b0	-0.368711
9	0xbe8ba451	-0.272738
10	0x3f1ea03e	0.6196326
11	0xbc254dcf	-0.010089352
12	0xbbff12d1	-0.0077842255
13	0x3f2b47ef	0.66906637
14	0x3e8eb84e	0.27874988
15	0x3e7b6546	0.24550352
16	0x3d427dee	0.047483377
17	0xbdd71470	-0.10501945
18	0xbec29b92	-0.38009316
19	0xbf24d4ae	-0.64387023
20	0x3d9510a8	0.072785676
21	0x3e124bc4	0.14286715
22	0x3e05ee47	0.13079177
23	0x3d2fc31a	0.042910673
24	0xbd2f7645	-0.0428374
25	0xbb4c32cd	-0.003115821
26	0xbe9c359b	-0.30509648
27	0xbe26ce0f	-0.16289543
28	0xbe737753	-0.23775987
29	0xbe5e8d94	-0.21733695
30	0xbe774261	-0.24146415
31	0x3e9fdae6	0.31221694
32	0xbe9331ef	-0.28749034
33	0x3e7f7036	0.24945149
34	0x3e861380	0.26186752
35	0x3de24121	0.110475786
36	0x3dad29b9	0.084552236
37	0xbe5e7322	-0.21723607
38	0x3cf909c2	0.03040016
39	0xbe8c1521	-0.2735987
40	0xbd1ae958	-0.03782019
41	0x3e2d6a9a	0.16935197
42	0x3ea0740f	0.31338546
43	0xbe92f4d6	-0.2870242
44	0x3ca1c940	0.019749284
45	0x3deeeb08	0.116659224
46	0x3e9c6995	0.30549303
47	0x3c250ea0	0.010074288
48	0xbe8ec35f	-0.2788343
49	0xbe792115	-0.24329026
50	0xbde2f6c2	-0.110822216
51	0xbe14a01f	-0.14514206
52	0xbe9abc2a	-0.30221683
53	0x3e50411a	0.20337334
54	0xbe8ac5c0	-0.27103996
55	0x3e751e1a	0.23937264
56	0x3e231482	0.15925792
57	0xbde149fe	-0.11000441
58	0xbe93e703	-0.28887185
59	0xbe838a3f	-0.2569141
60	0x3e9a241d	0.30105677
61	0xbebb5b38	-0.36593032
62	0xba560e69	-0.00081655994
63	0x3ea9476e	0.3306231
64	0xbe819e5f	-0.2531614
65	0xbdfc4899	-0.123185344
66	0xbd76fa8e	-0.06029754
67	0xbe3bc4f1	-0.18336846
68	0xbda8e9da	-0.08247729
69	0x3e46e4b7	0.19423185
70	0x3dbc90e7	0.092073254
71	0x3e9977cf	0.2997422
72	0x3c42477b	0.011857863
73	0xbe7c3d04	-0.2463265
74	0xbe678c42	-0.22612098
75	0x3db9c49e	0.09070705
76	0x3dd344d6	0.10315864
77	0xbcb0dd50	-0.021589905
78	0xbea6e360	-0.32595348
79	0xbf0258fb	-0.50917023
80	0xbdf64f20	-0.12026811
81	0xbe6fad12	-0.23405865
82	0xbe93fb39	-0.28902605
83	0xbe668faa	-0.22515741
84	0xbc530080	-0.012878537
85	0x3e948d7b	0.2901419
86	0xbe05d7af	-0.13070558
87	0xbd79f118	-0.06102094
88	0xbe838160	-0.25684643
89	0x3e4be796	0.19912562
90	0x3e0e52bd	0.1389875
91	0x3e806870	0.2507968
92	0xbe808d1e	-0.25107664
93	0x3e15ab1d	0.14616056
94	0xbe38d06f	-0.18048261
95	0xbe54bd8d	-0.20775433
96	0x3e7ab9ec	0.24484986
97	0xbe8804b1	-0.2656608
98	0xbe944b2e	-0.28963608
99	0x3e000aa5	0.1250406
100	0x3ef32375	0.4748799
101	0xbf04bfaa	-0.51854956
102	0x3cc132b5	0.02358375
103	0x3f01f16b	0.50759
104	0x3f22d49b	0.6360566
105	0x3ec4616f	0.38355586
106	0xbefb8753	-0.49126682
107	0xbf20dec2	-0.628399
108	0xbef3d3da	-0.47622567
109	0xbeb4e187	-0.35328314
110	0xbdf55c3e	-0.119804844
111	0x3e7df94d	0.24802132
112	0xbcc64096	-0.024200719
113	0xbd91b88b	-0.07115277
114	0x3e64eda2	0.22356275
115	0xbe0297b0	-0.12753177
116	0xbdda4836	-0.106583044
117	0xbe6aad86	-0.22917756
118	0x3d939b05	0.07207302
119	0x3ed06c84	0.4070779
120	0xbeae1e4a	-0.34007484
121	0x3e19ba89	0.15012564
122	0x3d66cb51	0.05634624
123	0xbe36a251	-0.17835356
124	0xbe5f5971	-0.21811463
125	0xbe65e458	-0.22450387
126	0x3eedf3df	0.4647512
127	0xbe7b11ff	-0.24518584
128	0xbf0b0e5b	-0.5431878
129	0xbf16e258	-0.58939123
130	0x3e954590	0.29154634
131	0x3e5f1d55	0.21788533
132	0xbb5ed893	-0.00340036
133	0xbf1af029	-0.60522705
134	0xbea8ebec	-0.32992494
135	0x3e8eb9e0	0.27876186
136	0x3e9f3b3b	0.31099877
137	0xbe86ee6c	-0.26353776
138	0xbe7e3056	-0.24823126
139	0xbe1715e1	-0.1475444
140	0x3e8343c8	0.2563765
141	0x3e43e3f8	0.19129932
142	0x3e0a2753	0.13491563
143	0x3dab5b9f	0.08367085
144	0xbe7f6cd8	-0.24943864
145	0x3e87996f	0.26484248
146	0xbdf7e3b6	-0.12103979
147	0xbe3f062d	-0.186547
148	0xbeac1d83	-0.33616266
149	0x3e639d3f	0.22227953
150	0xbeb48415	-0.3525702
151	0x3d3095b2	0.04311151
152	0x3cfa6c26	0.030569147
153	0x3d26e90b	0.04074959
154	0x3c7d866f	0.015473946
155	0xbd25bd0f	-0.040463503
156	0x3dcaecbc	0.09908435
157	0x3e92f2f9	0.28700998
158	0xbe82bbd7	-0.25533935
159	0xbece07ea	-0.40240413
160	0xbe9691a0	-0.29407978
161	0x3e463bc5	0.19358738
162	0xbe8b4ba4	-0.27206147
163	0xbcb8e549	-0.02257027
164	0xbe84d96d	-0.25947133
165	0xbd509ae7	-0.050928976
166	0x3d442b66	0.04789295
167	0x3e3f28bc	0.18667883
168	0x3e855932	0.26044613
169	0x3e7f1740	0.24911213
170	0xbd4ad0ff	-0.04951572
171	0xbeae3838	-0.34027267
172	0x3d293e4b	0.041319173
173	0xbee242ad	-0.44191495
174	0xbec61c3c	-0.38693416
175	0x3d17643b	0.03696082
176	0x3e8e7f08	0.27831292
177	0xbe06ff58	-0.13183343
178	0xbec884c7	-0.391638
179	0xbde484c5	-0.11158136
180	0x3e9febed	0.31234685
181	0xbcf8af47	-0.030357016
182	0xbd66b55d	-0.056325305
183	0xbe8dd546	-0.27701777
184	0x3ed825b8	0.42216277
185	0x3e23ddd5	0.16002591
186	0x3ea00b28	0.31258512
187	0x3e08ce5b	0.13359968
188	0x3e9c295c	0.30500305
189	0xbda20089	-0.07910258
190	0xbd74be6a	-0.059751906
191	0xbe0f9048	-0.14019883
192	0xbdd50142	-0.104006305
193	0xbe67d579	-0.22640027
194	0x3d943ae7	0.07237797
195	0xbe0da595	-0.13832696
196	0xbe304047	-0.1721202
197	0x3ea0943a	0.31363088
198	0x3e9bb1a0	0.30408955
199	0x3e1f9ca3	0.15587096
200	0xbdb6b025	-0.08920316
201	0x3d76d15f	0.060258266
202	0x3d134765	0.03595676
203	0xbe8a0b8a	-0.2696193
204	0x3e1a049a	0.15040818
205	0xbe7ab6fd	-0.24483867
206	0x3e4a47e3	0.19753985
207	0xbeaf4db3	-0.34238967
208	0xbe7c43bd	-0.24635215
209	0x3e345958	0.17612207
210	0xbe4b0287	-0.19825183
211	0x3e84aab9	0.259115
212	0x3e86187f	0.26190564
213	0xbdc0154d	-0.09379063
214	0x3e169ba0	0.14707804
215	0x3e7889d5	0.24271329
216	0x3e75f159	0.24017848
217	0x3c111637	0.008855394
218	0xbcbb474c	-0.022861145
219	0xbdd7f2d5	-0.105443634
220	0x3ea0a139	0.31373003
221	0xbe9d9881	-0.30780414
222	0x3d021b1a	0.031764127
223	0xbd3e587c	-0.046471104
224	0xbe8b588d	-0.27215996
225	0xbe9d2419	-0.30691603
226	0x3e7b331d	0.24531217
227	0x3db778eb	0.0895861
228	0xbeb02fa3	-0.34411344
229	0xbe83a2b4	-0.2571007
230	0xbec65d03	-0.38742837
231	0xbe647a41	-0.22312261
232	0x3d097233	0.033556174
233	0x3e891cc3	0.26779756
234	0xbe440f23	-0.19146399
235	0x3d8fe325	0.07025746
236	0x3c34cb41	0.011034788
237	0x3ea52b4b	0.32259592
238	0xbedbb360	-0.4291029
239	0x3e10103f	0.14068697
240	0x3e13fca8	0.1445185
241	0x3e0e5bd9	0.13902225
242	0x3b78eba2	0.0037982245
243	0xbce41945	-0.02784408
244	0x3e1f96f7	0.15584932
245	0x3d2cb528	0.04216495
246	0xbe7b716e	-0.24554989
247	0x3d137af7	0.03600594
248	0x3e47d11f	0.19513367
249	0xbe768318	-0.24073446
250	0x3e37b8e5	0.17941625
251	0x3e3b0eca	0.1826736
252	0xbcd43fac	-0.025909267
253	0xbe1ee43c	-0.15516752
254	0xbbbe6672	-0.0058105523
255	0xbbd18a6e	-0.006394676

bias f4 [256]
0	0xbef9820c	-0.4873203
1	0xbf0ebeac	-0.5575969
2	0x3c38e98f	0.011286153
3	0x3d81c03b	0.06335493
4	0x3e5ff2b6	0.2186993
5	0xbe0207dd	-0.12698312
6	0x3e7a1bcf	0.2442467
7	0x3e1e863b	0.15480892
8	0x3e46d666	0.19417724
9	0x3d8acf9d	0.0677788
10	0xbf644776	-0.8917154
11	0x3ea144da	0.31497842
12	0xbf10f495	-0.566232
13	0xbe8f7b2c	-0.2802366
14	0x3d9a0485	0.07520393
15	0xbee08e37	-0.438585
16	0x3e8fd20c	0.2808994
17	0xbf09defd	-0.5385588
18	0x3eaf663b	0.34257683
19	0xbd402061	-0.04690588
20	0xbd978d4a	-0.073999956
21	0xbe42e912	-0.19034222
22	0xbeb5086d	-0.3535799
23	0xbd2d135e	-0.042254798
24	0xbdb1dea5	-0.08685044
25	0x3e982819	0.29718092
26	0xbed33cfc	-0.41257465
27	0xbcd77d21	-0.026304783
28	0xbdbbc101	-0.09167672
29	0xbdb07394	-0.08615795
30	0x3e424a1c	0.18973583
31	0xbe6b23cd	-0.22962876
32	0x3e8988eb	0.26862273
33	0xbefe4ccb	-0.49667963
34	0x3ebc0720	0.36724186
35	0x3d437530	0.04771918
36	0xbe96df99	-0.29467466
37	0xbe3deed4	-0.18548137
38	0x3e12b623	0.14327292
39	0xbec4ee58	-0.38463092
40	0x3ec9b71c	0.39397514
41	0xbeaac038	-0.33349776
42	0x3dfa7901	0.12230111
43	0x3e4f1f06	0.20226678
44	0xbd587b9b	-0.052852254
45	0xbe4b20c6	-0.19836721
46	0x3d43a0e2	0.04776085
47	0xbe65269b	-0.22378008
48	0xbe156774	-0.14590245
49	0x3e40c946	0.1882678
50	0x3d400c53	0.046886753
51	0x3e50c08b	0.2038595
52	0x3d6e6e40	0.05821061
53	0xbea780e2	-0.32715517
54	0xbc358222	-0.011078389
55	0xbd14f8a6	-0.036369942
56	0x3dbc78cc	0.09202728
57	0xbee957d2	-0.45574814
58	0x3f7576ef	0.95884603
59	0xbe8c7ba3	-0.27438077
60	0xbe94a940	-0.29035378
61	0x3ede2faf	0.43395755
62	0xbd562c3b	-0.052288275
63	0xbe9f3fc9	-0.31103352
64	0xbd7dea79	-0.06199119
65	0x3e0e673b	0.13906567
66	0x3df18ba9	0.11794216
67	0x3e2824ae	0.16420242
68	0x3f05bfe2	0.52245915
69	0x3ea6c050	0.32568598
70	0x3e2d3948	0.16916382
71	0x3e9ca253	0.30592594
72	0x3cf9f5f8	0.030512795
73	0xbdbd51c2	-0.0924411
74	0xbf37a14e	-0.71730506
75	0xbf0a2937	-0.5396914
76	0x3da41914	0.08012596
77	0x3ed70b5c	0.42000854
78	0xbd4c6172	-0.04989762
79	0x3d8a2530	0.06745374
80	0xbe674651	-0.22585417
81	0xbe55ed4e	-0.20891306
82	0xbe78a4e2	-0.24281648
83	0xbecc0b53	-0.3985239
84	0x3e16adea	0.1471478
85	0xbe50c2b0	-0.20386767
86	0x3e5228f1	0.2052343
87	0xbef66117	-0.4812095
88	0xbca67bc0	-0.02032268
89	0xbee3dc1c	-0.44503868
90	0x3ed12804	0.40850842
91	0x3eb7aa5e	0.35872167
92	0xbe0ceda8	-0.13762534
93	0x3df9b20f	0.12192165
94	0x3e9a0ca2	0.30087763
95	0x3e9c097d	0.3047599
96	0x3dcc8975	0.09987155
97	0x3e9478de	0.28998464
98	0x3ba08901	0.0048991446
99	0x3b967722	0.0045918385
100	0x3df1abcf	0.11800348
101	0xbe97d388	-0.29653573
102	0x3cbb1912	0.022839103
103	0x3e236adc	0.15958732
104	0xbdd720ec	-0.10504326
105	0x3e60d9c2	0.21958068
106	0x3ddaa988	0.10676867
107	0x3e4ef03f	0.20208834
108	0xbc9de250	-0.019272953
109	0xbe831632	-0.2560287
110	0xbe7aa418	-0.2447666
111	0xbea4ab51	-0.32161954
112	0x3eb9c507	0.36283132
113	0x3e4ffe9e	0.20311972
114	0x3e2dac4e	0.1696026
115	0xbe6b86e5	-0.23000677
116	0x3eec5ffc	0.4616698
117	0x3e9a018c	0.30079305
118	0x3f0555dd	0.5208414
119	0x3e2e4a97	0.17020641
120	0xbd251aba	-0.04030869
121	0x3ea644ad	0.3247427
122	0x3e2e808f	0.17041229
123	0xbebdf539	-0.37101153
124	0xbeefd437	-0.46841595
125	0xbdfb9646	-0.12284522
126	0xbd7b2a98	-0.061319917
127	0x3f0c45bb	0.547939
128	0xbc58f2d9	-0.013241493
129	0x3eca1e0c	0.3947605
130	0x3e0a8e91	0.13530947
131	0x3efc8fd8	0.49328494
132	0x3e47c57b	0.19508927
133	0x3e80e6bd	0.2517604
134	0xbda5a457	-0.08087986
135	0xbe63a8bb	-0.22232334
136	0x3f1a8526	0.6035942
137	0xbe31d3be	-0.1736593
138	0xbf890e6b	-1.0707525
139	0x3e290ab1	0.16507985
140	0x3e87b3a3	0.2650424
141	0xbe4eec0c	-0.20207232
142	0xbece3787	-0.4027674
143	0xbf1d66a6	-0.61484754
144	0xbe9f8695	-0.31157365
145	0xbc1f7080	-0.009731412
146	0x3e953574	0.29142344
147	0x3f010777	0.50402015
148	0xbdf3f7e0	-0.11912513
149	0x3ed5c7f7	0.41754124
150	0xbe8a6148	-0.27027345
151	0x3ef7a6ea	0.48369533
152	0xbe60a9f5	-0.21939833
153	0x3ddeb57d	0.1087446
154	0x3ee55ba4	0.4479648
155	0x3ee7c4e8	0.45267415
156	0xbe03be97	-0.12865673
157	0x3f008234	0.50198674
158	0x3ed53385	0.4164087
159	0x3e843eda	0.25829202
160	0x3dd3b7c6	0.103377864
161	0xbe0c6037	-0.13708578
162	0x3e8e56ef	0.278007
163	0xbf2bf840	-0.67175674
164	0x3e2d676d	0.16933985
165	0x3e7ca0cd	0.24670716
166	0xbbfece80	-0.0077760816
167	0x3ed4d2ca	0.4156707
168	0xbf040b4a	-0.51579726
169	0xbed2c6ed	-0.41167393
170	0x3eb3e0e4	0.35132515
171	0xbe298c37	-0.16557394
172	0x3ecfe8c2	0.40607268
173	0xbe9f3cf8	-0.31101203
174	0x3c75c6f0	0.015001044
175	0xbe997efc	-0.29979694
176	0x3e5ea514	0.2174266
177	0xbe90b91e	-0.28266233
178	0xbe8898dd	-0.26679125
179	0x3ef678ee	0.48139137
180	0x3e1ca4d6	0.15297255
181	0x3e683e65	0.22680052
182	0x3ef4f848	0.47845674
183	0xbe76a95d	-0.24088044
184	0xbc630682	-0.013856532
185	0xbeb4145c	-0.35171783
186	0x3e3d004c	0.18457144
187	0x3ec5f9ea	0.38667232
188	0x3ec4c8dc	0.38434494
189	0x3e012136	0.12610325
190	0xbe0ddbba	-0.1385335
191	0xbe8e77b3	-0.27825698
192	0x3db1dc93	0.08684649
193	0x3ec73848	0.38910127
194	0x3de38e54	0.11111131
195	0xbe6f4bec	-0.23368806
196	0x3e78683b	0.24258511
197	0xbec78ab1	-0.38973
198	0xbe8b27a3	-0.27178678
199	0x3e98d282	0.29848105
200	0xbeda65ea	-0.4265588
201	0xbed3d2e8	-0.41371846
202	0xbe61bf63	-0.22045664
203	0x3ea5f698	0.324147
204	0x3def6dea	0.11690886
205	0xbe099ebf	-0.13439463
206	0x3e16ab46	0.14713773
207	0x3def1bb0	0.11675203
208	0x3e0f5644	0.13997751
209	0xba980f58	-0.0011601252
210	0x3e4a3eb2	0.19750479
211	0x3ead0909	0.33795956
212	0xbe4507c0	-0.19241238
213	0x3e6ae7ea	0.2294003
214	0xbe70ac1e	-0.23503157
215	0x3ccb73fa	0.024835575
216	0xbe5fd100	-0.21857071
217	0x3eadef2d	0.3397154
218	0xbdf45cc6	-0.11931758
219	0x3eeb7e2b	0.45994696
220	0xbf360595	-0.7110227
221	0x3c8a5750	0.016887337
222	0x3ef581cc	0.4795059
223	0xbd0611f8	-0.03273198
224	0x3ebce122	0.36890513
225	0xbddeea5b	-0.108845435
226	0xbe4e2e42	-0.20134833
227	0x3d189d98	0.037259668
228	0xbeb44219	-0.35206679
229	0x3e80814f	0.25098655
230	0x3e378d1b	0.17924921
231	0xbee03bff	-0.43795773
232	0xbda3754e	-0.079813585
233	0xbe037494	-0.1283744
234	0xbe9c0524	-0.30472672
235	0x3ef0ba26	0.4701702
236	0xbf018f53	-0.5060932
237	0xbe044c3c	-0.12919706
238	0x3e5ace16	0.21367678
239	0x3dde1dcc	0.10845527
240	0xbeee993b	-0.4660128
241	0x3f06832a	0.5254389
242	0x3ecfa6bd	0.405569
243	0x3e773e3a	0.24144831
244	0xbebb551c	-0.3658837
245	0xbe0cce51	-0.13750578
246	0xbe94dc02	-0.29074103
247	0x3ef65bd5	0.48116937
248	0xbe0157af	-0.12631105
249	0xbd12f6dd	-0.03587996
250	0xbdcb85fc	-0.09937665
251	0x3d0a33f8	0.033740968
252	0xbe8c4cbd	-0.27402297
253	0xbcee91c1	-0.029122235
254	0x3f4ac0fc	0.7920072
255	0x3e02d561	0.1277671

weight f4 [128, 256]
0	0x3d16f2b1	0.036852542
1	0xbd4898e8	-0.048973948
2	0xbd3437ff	-0.043998715
3	0xbd4be3f2	-0.049777932
4	0xbc86dde7	-0.016463233
5	0xbc4059cb	-0.011740158
6	0xbd95757d	-0.072978
7	0xbd1dc78d	-0.038520385
8	0x3c201011	0.0097694555
9	0xbce9121e	-0.028451022
10	0x3c661928	0.014044084
11	0xbd49294a	-0.049111642
12	0x3cadeac0	0.021230102
13	0x3d9def78	0.07711691
14	0x3d7dc7c1	0.06195808
15	0xbcae52f4	-0.02127979
16	0x3cd338ea	0.025783975
17	0x3cab8d45	0.020941386
18	0x3d39b82c	0.045341656
19	0x3d0dd48a	0.03462652
20	0x3d42e985	0.047585983
21	0xbca6e592	-0.02037314
22	0xbca8cd31	-0.020605655
23	0xbcb0dedc	-0.021590643
24	0xbbe09288	-0.0068534054
25	0xbce150dd	-0.027504379
26	0x3d56f53f	0.05247998
27	0x3d10669f	0.035254117
28	0x3ca4798b	0.020077487
29	0xbd2beac0	-0.041971922
30	0xbd8460e6	-0.064637944
31	0x3c8cd182	0.017189745
32	0xbc7ea246	-0.015541619
33	0xbcf20dab	-0.029547533
34	0xbcf3ab59	-0.02974479
35	0x3d8537f1	0.065048106
36	0xbd55c43a	-0.05218909
37	0x3d823130	0.06357038
38	0x3ad1d68c	0.0016009375
39	0x3d603734	0.054740146
40	0x3d2d3232	0.042284198
41	0x3cdc8c5a	0.026922394
42	0xbc00b8e8	-0.007856585
43	0x3cf0255e	0.029314693
44	0xbd3bba00	-0.04583168
45	0x3d58ea1e	0.052957647
46	0x3c04b885	0.0081006335
47	0xbd2d98bb	-0.042381983
48	0x3c4d78f1	0.012541042
49	0x3c6242ce	0.013809873
50	0x3cf03fdf	0.029327331
51	0x3c9c75a4	0.019099064
52	0x3da9a85a	0.08284064
53	0xbc7176ff	-0.014737844
54	0x3d15fa32	0.036615558
55	0x3d8c84dd	0.06861279
56	0x3c85f3f6	0.016351681
57	0xbd1b7a29	-0.037958298
58	0x3cd70e61	0.026251974
59	0xbb8470d0	-0.0040417686
60	0xbcda943c	-0.026682012
61	0x3c4ddcf0	0.012564883
62	0x3c995f80	0.018722296
63	0x3da41ef7	0.080137186
64	0x3c582d4c	0.013194393
65	0x3cdb85b7	0.026797159
66	0xbca79c46	-0.02046026
67	0x3d666299	0.056246374
68	0xbba3b671	-0.004996114
69	0xbca66997	-0.020314021
70	0xbd2884d7	-0.04114231
71	0x3cab1e48	0.020888463
72	0xbccb28ed	-0.024799788
73	0xbd450ddc	-0.04810892
74	0x3c7164d1	0.014733509
75	0x3bac1d10	0.005252488
76	0xbc84d419	-0.016214417
77	0x3d3f8a23	0.046762597
78	0x3d06a3b7	0.032870974
79	0x3d05d20d	0.032671023
80	0x3b64301b	0.0034818712
81	0x3caf7450	0.021417767
82	0x3d1c6fe0	0.03819263
83	0xbd2e5d86	-0.04256966
84	0x3cb06808	0.021533981
85	0x3c7390d0	0.014866069
86	0x3d6451e0	0.055742145
87	0x3d5c1fab	0.05374114
88	0xbc89f138	-0.016838655
89	0xbc357942	-0.011076273
90	0x3c35a727	0.0110872155
91	0xbc97d243	-0.018532878
92	0xbd882f8c	-0.06649694
93	0xbc568dd6	-0.01309534
94	0x3ca46e80	0.020072222
95	0x3ccaab4c	0.024739884
96	0xbd91a4df	-0.07111525
97	0x3d0a56e1	0.03377426
98	0x3cecb32f	0.028894035
99	0x3c762dc2	0.015025558
100	0xbd66a412	-0.056308813
101	0xbcb4b7e8	-0.02206035
102	0xbc1a5dd1	-0.009421782
103	0xbb3f64fe	-0.0029204483
104	0x3cb73008	0.02236177
105	0x3d2f367e	0.042776577
106	0xbcb5e13e	-0.02220213
107	0x3c21c872	0.00987445
108	0x3d636f2c	0.055525944
109	0xbd2a536a	-0.041583456
110	0x3c78d6f7	0.01518797
111	0xbc19cd5c	-0.00938734
112	0xbcc3f165	-0.023918817
113	0x3d881539	0.06644673
114	0x3d2b6424	0.04184355
115	0x3c99f29c	0.018792443
116	0xbd0005a3	-0.031255376
117	0x3bc1b7f4	0.0059118215
118	0x3d137066	0.035995863
119	0x3d66adbc	0.05631803
120	0xbd11548c	-0.03548102
121	0xbd5c3a10	-0.05376631
122	0x3d95669c	0.07294962
123	0x3b2a320e	0.0025969776
124	0xbd1729f6	-0.03690525
125	0x3865bf88	5.4776232e-05
126	0xbd178672	-0.03699345
127	0x3aa315c2	0.0012442397
128	0xbc0e90b4	-0.008701492
129	0xbc8d01ec	-0.01721283
130	0xbd751c1b	-0.059841257
131	0xbd78f1fe	-0.060777657
132	0xbb8d2475	-0.0043073245
133	0xbd23023c	-0.039797053
134	0xbd8ec32b	-0.06970819
135	0x3d36aa0a	0.044595756
136	0xbbaabd89	-0.0052105826
137	0x3cc1c82f	0.023655025
138	0x3bb22397	0.0054363715
139	0x3a18efa3	0.00058340485
140	0xbd4e5f84	-0.05038406
141	0xbd74028d	-0.059572745
142	0x3c536ee3	0.012904855
143	0xbc415009	-0.011798867
144	0xbb9fc32c	-0.004875561
145	0xbc470f0d	-0.0121495845
146	0xbd024919	-0.031807993
147	0xbceaff09	-0.028686063
148	0xbd5c4220	-0.053774
149	0xbb884a15	-0.004159222
150	0xbd882921	-0.0664847
151	0x3d0db05d	0.03459202
152	0x3c8f3160	0.017479599
153	0xbd8e33f7	-0.06943505
154	0xbd1fb14f	-0.038987454
155	0x3d3cf75c	0.046134338
156	0xbd901d95	-0.07036892
157	0x3cc1190f	0.02357152
158	0x3c737803	0.014860156
159	0xbd16ff9f	-0.036864873
160	0xbd1a3f8b	-0.037658256
161	0x3c2d4bf1	0.010577188
162	0xbc8057e4	-0.01566691
163	0x3d05f62c	0.03270547
164	0xbccdd08c	-0.025123857
165	0xbd65116e	-0.055924825
166	0xbd53f7a6	-0.051749848
167	0xbca80fa1	-0.020515265
168	0x3da6c71b	0.08143445
169	0x3cb1fb70	0.02172634
170	0x3c0b6c02	0.008509638
171	0x3ce9456c	0.028475486
172	0x3cab6971	0.020924302
173	0x3c1a2ca7	0.00941006
174	0xbcec1c17	-0.028821988
175	0x3d03c62a	0.032171406
176	0xbd361e88	-0.04446271
177	0x3c15673a	0.009118849
178	0x3cf56d57	0.029959364
179	0xbb109a67	-0.0022064687
180	0xbc3d68f8	-0.011560671
181	0xbd170c49	-0.03687695
182	0x3c7f05bc	0.015565332
183	0x3d363879	0.04448745
184	0xbcee704f	-0.029106287
185	0x3d982090	0.07428086
186	0xbc9572b6	-0.018243175
187	0xbd7f483c	-0.062324747
188	0xbd916063	-0.070984624
189	0xba9682ba	-0.0011483051
190	0xbb2c3a24	-0.0026279772
191	0xbcfdee41	-0.030997397
192	0x3cc2cd04	0.0237794
193	0xb98fb4bc	-0.00027409743
194	0xbc819cbb	-0.015821805
195	0xbc8ef7dc	-0.017452173
196	0x3cd9e385	0.026597748
197	0x3d320bb3	0.04346819
198	0xbd400e36	-0.046888553
199	0xbb8c1ba8	-0.004275758
200	0x3d1b363b	0.037893515
201	0xbd1b137f	-0.03786039
202	0xbce56c66	-0.02800579
203	0x3d25f800	0.040519714
204	0xbd3034e1	-0.04301918
205	0xbd9da443	-0.07697346
206	0x3d8e8d09	0.06960494
207	0x3d6889ba	0.05677197
208	0x3d49f74f	0.049308117
209	0x3d23efa0	0.040023446
210	0xbc461630	-0.012090251
211	0xbd62e877	-0.055397477
212	0x3d9f6dd8	0.07784623
213	0xbd527c39	-0.051388
214	0x3ce98055	0.028503576
215	0xbd83e70b	-0.06440552
216	0xbcba9d2a	-0.02278002
217	0xbd8de396	-0.06928174
218	0xbc4855a7	-0.012227452
219	0xbcb8b8f7	-0.022549136
220	0xbd35eae0	-0.044413447
221	0x3cb6fd00	0.022337437
222	0x3bc8f69f	0.006132915
223	0x3cdbb292	0.026818547
224	0x3d06f4bb	0.032948237
225	0xbc0db885	-0.00864995
226	0xbbe9014e	-0.0071107512
227	0xbc56c66d	-0.013108832
228	0x3d65dcd2	0.056118794
229	0x3c8a7155	0.016899744
230	0x3cf2049d	0.029543215
231	0xbced639a	-0.028978158
232	0x3d1a334b	0.037646573
233	0x3d1ad0cf	0.03779679
234	0x3d95ffd9	0.0732419
235	0xbd5d1525	-0.053975243
236	0x3d600953	0.054696392
237	0xbd49154b	-0.049092572
238	0x3d85bada	0.0652978
239	0xbd9971ad	-0.07492385
240	0x3cca1065	0.02466602
241	0xbd1b87b6	-0.03797122
242	0x3ccd456d	0.025057519
243	0x3c8a6357	0.016893072
244	0x3c9fa8e5	0.019489715
245	0x3c15fc83	0.009154442
246	0xbca65eff	-0.02030897
247	0xbd28bf75	-0.041198213
248	0xbc8693af	-0.016427843
249	0xbd972629	-0.07380325
250	0x3c39bd8d	0.011336696
251	0xbd3f2d8c	-0.046674296
252	0x3c1bde95	0.009513517
253	0xbcd746b1	-0.026278825
254	0x3d1c38ac	0.038139984
255	0x3ce43fb4	0.027862407

bias f4 [128]
0	0x3d889718	0.06669444
1	0x3d451527	0.048115876
2	0x3d9364a6	0.071969315
3	0xbd6c624a	-0.057710923
4	0xbd435907	-0.047692325
5	0x3bf9305c	0.007604642
6	0xbd70db2c	-0.05880277
7	0x3d59c5f3	0.053167295
8	0x3c25bb1d	0.010115412
9	0x3d69a58f	0.057042655
10	0xbd856eaf	-0.06515252
11	0xbc80c4df	-0.015718875
12	0xbd466882	-0.04843951
13	0xbd20d149	-0.03926209
14	0x3cc2b4d3	0.023767864
15	0x3a31403e	0.0006761587
16	0x3d48a8f9	0.04898927
17	0xbd37b2a1	-0.04484809
18	0xbd072ed2	-0.033003636
19	0x3bee5ea1	0.0072744642
20	0xbcb9223c	-0.022599332
21	0x3d396370	0.045260847
22	0x3d65a8a2	0.056069024
23	0x3d6b2a70	0.05741352
24	0xbb226df2	-0.002478477
25	0x3c88ad97	0.016684337
26	0xbce19746	-0.027537953
27	0xbcc62e25	-0.024191925
28	0xbcf80b58	-0.030278847
29	0xbb4e600f	-0.003149036
30	0x3d01a33b	0.03164981
31	0x3cc21497	0.023691459
32	0x3cd76170	0.026291579
33	0x3d51a230	0.051180065
34	0xbbca9fe3	-0.0061836108
35	0xbd02a66e	-0.031897
36	0x3d706e5b	0.058698993
37	0xbd6316ac	-0.055441543
38	0xbcef27c8	-0.029193774
39	0x3cd5078f	0.02600458
40	0xbc55b69c	-0.013044026
41	0x3bbee521	0.005825654
42	0xbd65bf59	-0.056090686
43	0xbc77028a	-0.015076289
44	0xbd240e10	-0.040052474
45	0x3c8183d9	0.01580994
46	0xbbc10848	-0.00589088
47	0xbd46b9f9	-0.0485172
48	0x3d094aac	0.03351848
49	0xbc4b765a	-0.012418354
50	0x3cb19056	0.02167527
51	0x3cd57a68	0.026059344
52	0xbcfe66f6	-0.031054955
53	0xbd0c57c4	-0.034263387
54	0xbd33c148	-0.0438855
55	0x3bfacdc0	0.007653922
56	0xbd241096	-0.04005488
57	0xbd8cc51c	-0.06873533
58	0x3ca58869	0.020206647
59	0xbd3bf219	-0.04588518
60	0x3cd36d16	0.025808852
61	0xbb004fee	-0.0019578892
62	0x3d095bd7	0.03353485
63	0xbc8de85e	-0.017322715
64	0xbd2e6c34	-0.04258366
65	0x3aad9e75	0.0013246076
66	0x3c57f26b	0.013180356
67	0x3d8514e7	0.064981274
68	0x3bafb2c0	0.005361885
69	0x3b7104cb	0.0036776538
70	0x3b97641c	0.0046200883
71	0x3d4b9eea	0.0497121
72	0xbd1844b9	-0.037174914
73	0x3d0ff126	0.035142086
74	0x3d1908e3	0.03736199
75	0xbd527da6	-0.05138936
76	0x3d1b0fe6	0.03785696
77	0xbcf39490	-0.029733926
78	0xbc524291	-0.0128332535
79	0x3cecacdf	0.028891025
80	0x3d3af10e	0.045640044
81	0xbca3edf4	-0.020010926
82	0x3c9ad2eb	0.018899402
83	0xbd3f86a1	-0.04675925
84	0xbd12af80	-0.0358119
85	0xbd6052ec	-0.05476658
86	0x3c8ff5d2	0.017573271
87	0xbd8575e5	-0.06516627
88	0xbcdf0657	-0.027224703
89	0xbd211f6a	-0.0393366
90	0xbcd36e3f	-0.025809405
91	0x3cdbff9d	0.026855284
92	0x3c419f18	0.011817716
93	0xbce011f4	-0.02735231
94	0xbd8174ff	-0.06321143
95	0xbb995a04	-0.00467992
96	0x3d5a3ee8	0.05328265
97	0xbc1ecc04	-0.009692196
98	0x3d7b3e33	0.061338615
99	0x3c7ac156	0.015304884
100	0xbc8acb8a	-0.016942758
101	0x39bcf7cf	0.00036042786
102	0x3cd8c4ff	0.026461123
103	0x3d1713b3	0.03688402
104	0x3cbadfe4	0.022811837
105	0x3d3ea9a9	0.04654852
106	0x3c4f834d	0.012665582
107	0x3c9dca7a	0.019261587
108	0x3be6c370	0.007042341
109	0x3d43f8dd	0.047844756
110	0x3c80f428	0.015741423
111	0x3d002e8a	0.031294383
112	0x3d2bfb7d	0.041987885
113	0x3cbaf184	0.022820242
114	0xbcca6c8f	-0.024709968
115	0xbcc74a6a	-0.024327476
116	0xbd0b56be	-0.03401827
117	0xbd82ff77	-0.06396382
118	0x3d267f3a	0.040648676
119	0x3c8d7230	0.017266363
120	0x3d1e7676	0.038687192
121	0xbd983894	-0.074326664
122	0x3d1c9707	0.03822997
123	0xbcba12de	-0.022714075
124	0xbd65cd6f	-0.05610412
125	0x3d5167ca	0.05112437
126	0xbc75a585	-0.014993076
127	0xbd0c168d	-0.034201194

weight f4 [64, 128]
0	0x3d11a805	0.035560627
1	0xbcb5fb2e	-0.022214498
2	0x3d8f1d04	0.06987956
3	0x3d741f3a	0.059600092
4	0x3d682cf0	0.05668348
5	0xbdc1f1ea	-0.094699696
6	0xbd89b226	-0.06723432
7	0x3d3d0d91	0.046155516
8	0x3dc9830a	0.09839447
9	0x3c41cfac	0.011829298
10	0x3d2de582	0.042455204
11	0xbda2a3fd	-0.079414345
12	0xbd808b1a	-0.062765315
13	0x3da672bd	0.08127353
14	0x3dddbad1	0.10826648
15	0x3d99bf02	0.07507135
16	0x3db901ba	0.090335324
17	0xbd906b24	-0.070516855
18	0xbc751682	-0.01495898
19	0x3d0070fe	0.031357758
20	0xbd75e3e7	-0.060031798
21	0x3d92acba	0.07161851
22	0xbc16d63b	-0.00920635
23	0x386fcca5	5.717263e-05
24	0xbdb94933	-0.09047165
25	0x3c7e1c23	0.015509638
26	0xbd18bf45	-0.037291784
27	0xbd271598	-0.040792078
28	0x3d09186d	0.03347056
29	0x3d10e96e	0.035378866
30	0xbd8cea53	-0.06880631
31	0x3dbffaee	0.09374033
32	0x3d254167	0.040345576
33	0xbd760387	-0.060061958
34	0xbc95421f	-0.018220006
35	0x3d484ce1	0.048901442
36	0x3d15eee8	0.036604792
37	0xbcab9924	-0.020947047
38	0x3d46f155	0.048569996
39	0xbd53210e	-0.051545195
40	0x3dd699db	0.10478564
41	0x3d33e029	0.043914948
42	0xbdee080b	-0.11622628
43	0xbdb3a7cd	-0.0877224
44	0x3d0bea17	0.034158792
45	0xbc14fe28	-0.009093799
46	0x3d6d6111	0.057953898
47	0xbd479203	-0.048723232
48	0x3d878fa0	0.06619191
49	0x3cdb3c64	0.026762195
50	0x3d2d56bd	0.04231905
51	0x3de67aff	0.112539284
52	0xbd7e048f	-0.062016066
53	0x3db35cb8	0.08757919
54	0x3dc22782	0.09480192
55	0xbd879741	-0.06620646
56	0xbd8da265	-0.0691574
57	0x3d7a11cd	0.061052132
58	0x3d933cde	0.07189344
59	0x3db77def	0.08959567
60	0xbdc65ddd	-0.09685872
61	0xbd537c14	-0.051632002
62	0x3c8577c7	0.016292466
63	0xbda61320	-0.081091166
64	0x3c6576a5	0.014005338
65	0x3d682673	0.056677293
66	0x3d55bcfc	0.052182183
67	0x3d907b26	0.07054739
68	0xbd8541e3	-0.065067075
69	0x3d2ef670	0.04271549
70	0x3bb97181	0.0056592827
71	0x3bc5745a	0.006025833
72	0xbd2ee7a7	-0.04270139
73	0x3c39a841	0.011331619
74	0x3d7495c8	0.059713155
75	0x3c7771f1	0.015102849
76	0x3d499698	0.049215883
77	0xbd374e20	-0.04475224
78	0x3cfcb883	0.0308497
79	0x3d93a943	0.072100185
80	0xbd886a1a	-0.06660862
81	0xbd295c30	-0.041347682
82	0x3b833c50	0.0040049925
83	0x3d4d7ef5	0.050169904
84	0xbd08ee7c	-0.03343056
85	0xbcd64dfc	-0.026160233
86	0xbd928733	-0.071546935
87	0x3c807965	0.015682885
88	0xbd2e1262	-0.042498
89	0x3cf20894	0.029545106
90	0xbba4d246	-0.0050299494
91	0x3d01c3f2	0.03168101
92	0xbd6d7eae	-0.05798214
93	0x3c155f10	0.009116903
94	0x3bed6910	0.0072451904
95	0x3cdfb9a8	0.027310207
96	0x3df40ef2	0.11916913
97	0x3d04a430	0.032383144
98	0xbd2df20a	-0.042467155
99	0x3ce183cd	0.027528668
100	0x3caeb13d	0.021324748
101	0xbca00831	-0.019535156
102	0x3ba85deb	0.005138149
103	0x3dcd11b3	0.100131415
104	0xbcc2b30a	-0.023767013
105	0xbcb12423	-0.021623677
106	0xbd80b5a9	-0.06284649
107	0x3d4d4d5d	0.050122607
108	0xbbc4cf5a	-0.0060061635
109	0x3de90f00	0.11379814
110	0x3d8a2b31	0.06746519
111	0xbdc2912b	-0.09500345
112	0x3d5b77f9	0.05358121
113	0x3cce1291	0.025155338
114	0xbd87b29a	-0.066258624
115	0x3d8f3530	0.069925666
116	0x3d15ecb2	0.036602683
117	0xbd455ac9	-0.048182283
118	0x3d30da14	0.043176726
119	0xbd706440	-0.058689356
120	0xbcc19a82	-0.023633245
121	0xbda9855e	-0.08277391
122	0x3d832a51	0.064045556
123	0x3cb66fda	0.022270132
124	0xbbb1d09e	-0.0054264804
125	0x3d9281c3	0.07153656
126	0x3df16741	0.11787272
127	0xbd8a9794	-0.067671925
128	0xbd20bd08	-0.039242774
129	0x3d1492cb	0.036272805
130	0x3cc06f81	0.02349067
131	0x3d2d23b6	0.042270385
132	0x3dd6761e	0.10471748
133	0x3dbc728a	0.09201534
134	0xbdbf43fe	-0.0933914
135	0xbdb84aa4	-0.089986116
136	0xbdeb41a7	-0.114871316
137	0xbcf10b13	-0.029424226
138	0xbd28e41d	-0.04123317
139	0x3d3dbed9	0.046324585
140	0x3d35ae23	0.044355523
141	0xbda6f7bf	-0.081527226
142	0xbc54068c	-0.012941014
143	0x3cc6e2d8	0.02427809
144	0xbb5f9001	-0.0034112933
145	0x3d57240e	0.05252462
146	0x3dadb76a	0.08482249
147	0x3d37ef66	0.044906043
148	0x3b6aa2fa	0.0035802708
149	0x3d362bca	0.044475354
150	0xbd72c356	-0.059268318
151	0xbdcf4e7e	-0.10122393
152	0xbc01e37f	-0.007927774
153	0xbc3c2400	-0.011483192
154	0xbc865d9f	-0.016402064
155	0x3cb0c6cf	0.021579174
156	0xbde34c04	-0.11098483
157	0x3d11a47b	0.03555725
158	0xbcd6c1a9	-0.026215391
159	0xbd9dc36a	-0.07703288
160	0xbbfb8336	-0.0076755537
161	0x3c4e0f73	0.012576926
162	0xbd343f3f	-0.04400563
163	0xbcc35e0d	-0.023848558
164	0x3d15c1a4	0.036561623
165	0x3d4fa399	0.05069313
166	0x3de3294c	0.11091861
167	0x3dafc9a5	0.085833825
168	0x38f6a693	0.00011761221
169	0x3d86bfb0	0.0657953
170	0x3dfb3d06	0.12267499
171	0x3d97136e	0.07376753
172	0xbc335a13	-0.010946768
173	0x3d2c93ac	0.04213302
174	0xbc880a7b	-0.01660656
175	0x3d38306e	0.04496806
176	0xbda6b034	-0.08139077
177	0xbdb67ac3	-0.08910134
178	0x3c8604bb	0.016359678
179	0xbe01f8b9	-0.12692536
180	0xbd95db62	-0.073172346
181	0xbdeeb490	-0.11655533
182	0xbd95de52	-0.07317795
183	0xbd0fa078	-0.035065144
184	0x3c90cd7e	0.017676111
185	0x3c39a956	0.011331877
186	0x3d541459	0.051777218
187	0xbd060e75	-0.03272863
188	0x3c0267e5	0.007959341
189	0xbd5fb830	-0.054619014
190	0xbd62b2ca	-0.055346288
191	0x3c5211bd	0.012821612
192	0xba2f2260	-0.00066808425
193	0xbd93e70d	-0.07221804
194	0x3d0bbb14	0.03411396
195	0x3d85bf60	0.065306425
196	0x3ca84124	0.020538874
197	0x3d755aa4	0.059900895
198	0x3c95fc28	0.018308714
199	0x3a144e2c	0.00056574005
200	0x3c858cdc	0.016302519
201	0xbdaf7abc	-0.085683316
202	0xbb97577d	-0.0046185837
203	0xbc9ebbf3	-0.01937673
204	0x3b05f13d	0.0020437979
205	0xbd9b52d2	-0.07584156
206	0x3d9fec63	0.07808759
207	0xbcdeb00e	-0.027183559
208	0x3cd1fcae	0.025633182
209	0x3d5d5b27	0.054042008
210	0xbbef1265	-0.007295894
211	0xbd4a4806	-0.049385093
212	0xbd8e9f72	-0.069640055
213	0x3bf58d66	0.0074936626
214	0x3da9c27a	0.082890466
215	0x3d3af95c	0.045647964
216	0x3c8adb3f	0.016950248
217	0xba7de2da	-0.00096849876
218	0x3dd48f94	0.10378948
219	0x3d88c0d2	0.066774026
220	0xbcb1d2c3	-0.021706944
221	0x3db7c0a5	0.08972291
222	0x3d0d4c8b	0.034496825
223	0xbd65511e	-0.055985563
224	0xba17117b	-0.00057627977
225	0xbd8b6e09	-0.06808097
226	0xbdb23db7	-0.087031774
227	0x3d85b767	0.06529122
228	0x3d3f712c	0.04673879
229	0x3da783f0	0.08179462
230	0x3d7d075a	0.06177459
231	0x3c827a31	0.015927406
232	0xbdae1331	-0.08499754
233	0x3dc0e45c	0.09418556
234	0xbcb82687	-0.022479309
235	0xbd84c6c7	-0.06483226
236	0xbd1ee647	-0.03879383
237	0xbd8072ee	-0.06271921
238	0x3d8a6693	0.06757846
239	0x3d66ca99	0.056345556
240	0x3c8b741e	0.017023142
241	0x3acc41da	0.001558359
242	0xbda0095a	-0.07814284
243	0xbd27581e	-0.04085552
244	0xbd667090	-0.05625969
245	0xbd5cab74	-0.053874448
246	0xbd4a91bb	-0.049455386
247	0x3b6bd07e	0.0035982425
248	0xbd2402bc	-0.04004167
249	0x3db92351	0.09039939
250	0xbd79f81b	-0.061027627
251	0xbdc4fc10	-0.096183896
252	0xbd57843f	-0.052616354
253	0x3dba1ccb	0.09087523
254	0xbde3cae9	-0.111226864
255	0xbda2cc3e	-0.07949112

bias f4 [64]
0	0x3b60b1fb	0.0034285772
1	0xbd31f5b2	-0.043447204
2	0x3dedd180	0.116122246
3	0xbc1188e7	-0.008882738
4	0xbd8237ab	-0.06358274
5	0x3d3b3ba0	0.04571116
6	0xbd516482	-0.051121242
7	0xbd68e85f	-0.05686223
8	0xbd84fe79	-0.06493849
9	0xbd5261ca	-0.05136279
10	0x3d799fbd	0.060943354
11	0x3c896c9d	0.016775424
12	0x3c86f2f1	0.016473265
13	0x3dbd5baf	0.09246003
14	0x3d618587	0.055058982
15	0xbd1d750a	-0.038441695
16	0xbd846045	-0.064636745
17	0x3c2dd2bd	0.010609326
18	0x3d01abab	0.031657856
19	0x3d37d31a	0.044879057
20	0x3d186813	0.037208628
21	0xbd0e7e8c	-0.034788653
22	0x3c94bd3f	0.018156646
23	0x3c03c22e	0.0080419015
24	0x3d80ef4c	0.06295642
25	0xbdb4efd6	-0.088348076
26	0x3d39f278	0.04539725
27	0xbc47dee5	-0.012199138
28	0xbdbd402a	-0.09240754
29	0x3d774a4a	0.060373582
30	0xbe08d90f	-0.13364051
31	0x3d024d52	0.03181202
32	0x3d81e240	0.06341982
33	0x3d98ebb7	0.07466834
34	0x3da000dd	0.07812665
35	0xbc613bbb	-0.013747151
36	0xbd3def36	-0.046370707
37	0xbdb2d6ff	-0.087324135
38	0x3c13bfb4	0.009017874
39	0xbda1a37d	-0.07892511
40	0xbda7c01a	-0.08190937
41	0x3b250fc7	0.0025186406
42	0xbdbdebe5	-0.09273509
43	0xbd9d88e6	-0.07692127
44	0x3df1c890	0.118058324
45	0x3cc8b8b2	0.024502132
46	0x3c12401e	0.00892642
47	0x3df8317f	0.12118816
48	0x3dae01cc	0.084964365
49	0x3d72550b	0.059163135
50	0xbc21576f	-0.009847506
51	0xbbb4ae5f	-0.0055139507
52	0x3d4c7304	0.049914375
53	0x3d3d67e6	0.046241663
54	0xbd88e2b6	-0.06683867
55	0xbd45aed3	-0.04826243
56	0x3d022f24	0.031783238
57	0x3cc1d978	0.023663267
58	0xb8e0bafe	-0.00010715982
59	0x3d5696db	0.05238996
60	0xbd7c6719	-0.06162176
61	0xbdb15d70	-0.086604
62	0xbd075c24	-0.033046857
63	0x39d9dd3c	0.00041554298

weight f4 [32, 64]
0	0x3cb63fa9	0.022247152
1	0xbe03283f	-0.12808321
2	0xbd9ad308	-0.07559782
3	0x3cafba17	0.02145104
4	0x39cafff7	0.0003871915
5	0xbc98b43e	-0.018640634
6	0x3dad1935	0.084520735
7	0x39c5ae6b	0.0003770472
8	0x3dca620d	0.09881983
9	0x3e00fde1	0.12596847
10	0x3d641245	0.055681486
11	0xbe20a1aa	-0.1568667
12	0xbc96020c	-0.018311523
13	0xbc3f725d	-0.011684981
14	0x3e3dfd8f	0.18553756
15	0xbdb49e58	-0.08819264
16	0x3e7570ff	0.23968886
17	0xbc02a0b3	-0.007972884
18	0x3bf37e3f	0.007430821
19	0x3cda2ff7	0.0266342
20	0xbdbb9a1c	-0.091602534
21	0xbd85f03c	-0.06539962
22	0x3d547e42	0.05187822
23	0xbb876921	-0.0041324054
24	0xbd0ae70a	-0.033911742
25	0x3c84c24b	0.016205927
26	0x3d20d10b	0.03926186
27	0xbe8c8a24	-0.27449143
28	0xbdc00c53	-0.09377351
29	0x3ac5de8c	0.0015096231
30	0x3d1bc317	0.03802785
31	0xbca54651	-0.020175131
32	0x3e3ba914	0.18326217
33	0x3bc106b4	0.0058906917
34	0xbe1d9e6e	-0.15392467
35	0x3e43c7a1	0.19119121
36	0xbc0c3ff7	-0.008560172
37	0x3d44c992	0.048043795
38	0x3d8c6be9	0.0685652
39	0xbe50fbbb	-0.20408528
40	0x3dd157ad	0.10221801
41	0x3e008389	0.12550177
42	0xbd3c1c8e	-0.04592567
43	0x3e06872f	0.13137506
44	0x3dec7f1a	0.1154768
45	0xbc8bfb7c	-0.01708769
46	0x3e9577ae	0.2919287
47	0x3d9bdb96	0.07610242
48	0x3c94e5a6	0.018175911
49	0x3d97ee8a	0.074185446
50	0x3dd04aa0	0.101704836
51	0x3e4871fa	0.19574729
52	0xbdd57010	-0.10421765
53	0x3dbc0beb	0.09181961
54	0x3e744a31	0.23856427
55	0xbde76071	-0.112976916
56	0x3dcb1d01	0.099176414
57	0x3c452ca0	0.012034565
58	0xbdec4342	-0.11536266
59	0x3cf01ba1	0.02931005
60	0xbdcf1b0f	-0.10112583
61	0xbd55aade	-0.052164905
62	0xbda8c843	-0.08241322
63	0xbe0b88cf	-0.13626407
64	0x3b9c6273	0.0047724782
65	0xbdf7947b	-0.12088867
66	0x3d5f2725	0.05448069
67	0x3ca539f6	0.02016924
68	0x3c3bb6b5	0.011457135
69	0x3e063ffa	0.13110343
70	0xbce63be7	-0.028104736
71	0xbc64d268	-0.01396618
72	0x3da7ccba	0.08193345
73	0x3e057e83	0.13036542
74	0x3e322ef4	0.17400724
75	0xbcab52ce	-0.020913508
76	0x3d3a5a2b	0.045496147
77	0xbd0801c6	-0.033204816
78	0xbd23b84b	-0.039970677
79	0x3da993eb	0.08280166
80	0xbb00202d	-0.0019550428
81	0xbd5ec2ed	-0.054385114
82	0x3d848a3e	0.0647168
83	0x3d1c75d9	0.038198326
84	0x3e0f61d9	0.1400217
85	0xbdddd468	-0.10831529
86	0x3c94c65c	0.018160991
87	0x3e37f7e2	0.17965654
88	0xbde51372	-0.111853495
89	0xbe02f135	-0.12787326
90	0x3e08a5e4	0.13344532
91	0xbd215cec	-0.039395258
92	0xbcc6f7c6	-0.02428807
93	0x3cae9678	0.021311983
94	0x3da363b3	0.079780005
95	0xbe0d3475	-0.13789542
96	0xbbb16bb9	-0.005414453
97	0x3cbfdb35	0.023419956
98	0xbd3a6d32	-0.045514293
99	0x3cc87061	0.024467649
100	0x3cb8e98b	0.0225723
101	0xbdd9a059	-0.10626287
102	0x3d4ef668	0.05052796
103	0x3c3651a2	0.011127861
104	0xbde560a3	-0.112000726
105	0x3e3e78b7	0.18600737
106	0xbe07c6c0	-0.13259411
107	0x3b790441	0.003799692
108	0xbd6da3b9	-0.058017466
109	0x3d574742	0.05255819
110	0x3e222f9d	0.15838476
111	0x3dd823fc	0.105537385
112	0x3e2bd6f4	0.16781217
113	0xbc8aa157	-0.016922636
114	0xbdc37fd4	-0.09545866
115	0xbc933b83	-0.017972713
116	0xbd58b193	-0.052903723
117	0x3d67e2c8	0.05661276
118	0x3cb5f1d8	0.022210047
119	0xbc71373a	-0.01472264
120	0x3dee9f2c	0.116514534
121	0x3e20583f	0.15658663
122	0xbdd0673e	-0.10175942
123	0xbde0c499	-0.10974998
124	0xbc833cd8	-0.016020223
125	0xbdbadf59	-0.091246314
126	0xbdcdd939	-0.100511976
127	0x3da2afe3	0.07943704
128	0x3d24425e	0.040102355
129	0xbd2e567a	-0.04256294
130	0xbd5acc03	-0.053417217
131	0x3e0a7689	0.1352178
132	0xbc3373c2	-0.010952892
133	0xbd709705	-0.058737773
134	0x3d1a0126	0.03759875
135	0xbde33df6	-0.110958025
136	0xbcfd7144	-0.030937798
137	0xbcb18fd7	-0.021675033
138	0xbddfa6f4	-0.10920516
139	0x3dccfcdb	0.10009166
140	0xbddea87b	-0.10871979
141	0xbe1d8f1f	-0.15386628
142	0xbd09c769	-0.033637438
143	0xbd86a15d	-0.06573746
144	0xbd680144	-0.056641832
145	0xbd8ab7d0	-0.06773341
146	0x3dfa7275	0.12228862
147	0xbdfe3d99	-0.124140926
148	0x3d717640	0.058950663
149	0x3daf5603	0.08561327
150	0xbdefbcd7	-0.1170594
151	0xbda9df2b	-0.08294519
152	0x3d340f2f	0.043959793
153	0xbd02d895	-0.03194483
154	0x3d300d06	0.04298117
155	0x3d3dd167	0.04634228
156	0x3d7c837f	0.061648842
157	0x3db5b35e	0.08872102
158	0xbd7d0194	-0.061769083
159	0x3cb04ceb	0.021521052
160	0xbd8ac74e	-0.067762956
161	0xbcacee47	-0.021109713
162	0x3deb037a	0.114752725
163	0xbe1df602	-0.15425876
164	0xbdd33d72	-0.10314454
165	0x3d0eb506	0.034840606
166	0xbde0add1	-0.10970653
167	0xbd13e318	-0.036105245
168	0x3de08310	0.10962498
169	0x3cc2b14c	0.023766182
170	0x3e2ebbab	0.17063777
171	0xbdd42d6c	-0.10360226
172	0xbd4d8545	-0.050175924
173	0xba3aeb68	-0.0007130415
174	0xbe166198	-0.14685667
175	0x3ce4de9f	0.027938185
176	0x3b4fbee6	0.0031699478
177	0x3dc4256f	0.095774524
178	0xbc911d40	-0.017714143
179	0xbd2f6c93	-0.042828154
180	0xbdd566b5	-0.104199804
181	0x3d032b09	0.032023463
182	0x3d043806	0.03227999
183	0xbdd10c84	-0.10207465
184	0xbdb97507	-0.09055524
185	0xbda8264c	-0.082104295
186	0x3dd73376	0.10507862
187	0xbd8cb162	-0.068697706
188	0x3e33d2af	0.17560838
189	0x3e0dd157	0.13849388
190	0x3db72c8e	0.08944045
191	0x3ccda45d	0.025102789
192	0xbe2b5af2	-0.16733912
193	0x3e39d800	0.18148804
194	0xbaa76634	-0.0012771548
195	0x3e03c3af	0.12867616
196	0xbe12036a	-0.14259115
197	0xbd875d93	-0.06609645
198	0x3d3df183	0.0463729
199	0xbda33949	-0.07969911
200	0xbde4e6a6	-0.11176805
201	0xbe1b68b7	-0.15176664
202	0x3d39e9c3	0.04538895
203	0x3bf6688b	0.0075197867
204	0xbde4da80	-0.11174488
205	0x3c9f8150	0.01947084
206	0x3d17875e	0.03699433
207	0xbe2f3390	-0.17109513
208	0xbda42cf6	-0.08016388
209	0x3dc87c50	0.09789336
210	0x3c12ea3f	0.008966981
211	0xbe0c2a8d	-0.13688107
212	0xbdd6627c	-0.10468003
213	0x3e14a7a6	0.14517078
214	0xbd915cde	-0.07097791
215	0xbd0eab77	-0.03483149
216	0xbd51eaf1	-0.05124945
217	0x3da91e8a	0.08257778
218	0xbdcc4c7c	-0.09975526
219	0xbd1c5626	-0.038168095
220	0x39a50a08	0.00031478726
221	0xbdb07f0c	-0.08617982
222	0xbe1becc1	-0.15227033
223	0xbd0c219e	-0.034211747
224	0xbe0d26f4	-0.1378439
225	0xbe0b6a09	-0.13614668
226	0x3d0b5a07	0.034021404
227	0x399b9a67	0.00029678943
228	0x3d0e9fcf	0.034820374
229	0x3b741878	0.003724603
230	0xbe39d228	-0.18146574
231	0x3e0f6047	0.1400157
232	0x3dc1b18b	0.09457692
233	0xbd85a2c4	-0.06525186
234	0x3d947320	0.07248521
235	0x3d69f593	0.057118963
236	0xbe3babc0	-0.18327236
237	0xbcfd1d4b	-0.030897757
238	0xbc954218	-0.018219993
239	0xbb617307	-0.0034400837
240	0x3d59cba4	0.053172722
241	0x39d11d3d	0.0003988537
242	0xbc227398	-0.009915255
243	0x3dcaf6e4	0.09910372
244	0x3d51c0b8	0.05120918
245	0xbe0e0599	-0.13869323
246	0x3c017459	0.007901275
247	0xbcb1a3a9	-0.021684485
248	0xbdb4add5	-0.08822218
249	0x3c5a3fa3	0.013320836
250	0xbd3f3c4a	-0.046688356
251	0xbd932e4b	-0.07186564
252	0x3debc6fd	0.115125634
253	0x3d6752f8	0.05647561
254	0xbcf5151c	-0.029917292
255	0x3d6725f8	0.056432694

bias f4 [32]
0	0xbd836f7c	-0.06417748
1	0x3d19149b	0.037373167
2	0xbd903788	-0.07041842
3	0xbd0f814c	-0.035035416
4	0xbd42e701	-0.047583584
5	0x3c46025b	0.0120855225
6	0xbdc11b4b	-0.09429034
7	0x3dc0bc1f	0.09410881
8	0xbd826ed8	-0.06368798
9	0x3d3a4de6	0.045484446
10	0xbdf82196	-0.12115781
11	0x3d9f15a8	0.077678025
12	0x3c2cd0a6	0.010547793
13	0xbda24439	-0.07923169
14	0xbd26b89b	-0.040703397
15	0xbd92cfc5	-0.07168535
16	0x3e17cae3	0.14823489
17	0xbdd0d920	-0.10197663
18	0xbd96318f	-0.07333671
19	0xbdb5e285	-0.08881096
20	0x3dfccb32	0.12343444
21	0xbdb7ee5f	-0.089810126
22	0x3d1575c6	0.03648927
23	0x3e0892c4	0.13337237
24	0xbcbdb3fb	-0.02315711
25	0x3d0e2bba	0.03470967
26	0xbd9eed1c	-0.07760069
27	0x3c84c949	0.016209261
28	0xbe071627	-0.13192044
29	0xbdad6dc0	-0.08468199
30	0xbde495e4	-0.11161402
31	0x3d57714a	0.052598275

weight f4 [1, 32]
0	0x3e98cbea	0.29843074
1	0x3e988479	0.2978857
2	0xbebac5e1	-0.36479095
3	0xbeaa03bc	-0.33205974
4	0xbeb1fab4	-0.34761584
5	0x3e88c728	0.26714444
6	0xbeaa7757	-0.33294174
7	0x3ec47a5e	0.3837461
8	0x3ecf353b	0.404703
9	0xbe9f0978	-0.31061912
10	0x3ebd3180	0.36951828
11	0x3ed6138f	0.41811797
12	0xbeae9117	-0.3409507
13	0xbe835c2c	-0.2565626
14	0x3ebbb11e	0.36658567
15	0xbecfb615	-0.40568605
16	0x3ebfc5f2	0.37455708
17	0xbe9c7929	-0.30561188
18	0x3eac382f	0.33636615
19	0xbea45e07	-0.32102987
20	0x3e90e88e	0.28302425
21	0xbec087a9	-0.376035
22	0xbea343f3	-0.3188778
23	0x3ebd1e2f	0.3693709
24	0xbe94d5d5	-0.2906939
25	0xbecafaef	-0.39644572
26	0x3ecf6189	0.405041
27	0xbeb4a6d3	-0.35283527
28	0xbed51087	-0.41614172
29	0x3e8761ee	0.26441902
30	0xbe9bd92d	-0.3043913
31	0xbec50ebb	-0.384878
