Models/Playground_model_4.pth (torch, 183570 bytes, 9 tensors)

weight f4 [256, 4]
0	0xbe8caf16	-0.2747733
1	0x3ea21ba4	0.31661713
2	0x3ea815be	0.32829088
3	0xbedddfdc	-0.43334854
4	0xbede424c	-0.43409956
5	0x3e545f64	0.20739514
6	0xbef062bc	-0.46950328
7	0xbe69fb48	-0.22849762
8	0x3e2e92a9	0.17048134
9	0xbea3d225	-0.31996265
10	0xbcbf701d	-0.02336889
11	0x3de445db	0.111461364
12	0xbeb86e7e	-0.360218
13	0xbeedd1be	-0.46449083
14	0xbecf5cec	-0.4050058
15	0x3d950340	0.072760105
16	0xbd65dcc0	-0.056118727
17	0x3dea73e0	0.11447883
18	0xbec9f8ca	-0.39447623
19	0xbe20d514	-0.15706283
20	0xbecf71de	-0.4051656
21	0x3e1a5708	0.15072262
22	0xbeccfa8a	-0.40034896
23	0x3c8e7900	0.017391682
24	0x3ead6244	0.33864033
25	0x3d9cfea8	0.07665759
26	0xbeb680e6	-0.35645217
27	0xbec8d30c	-0.39223516
28	0xbef85956	-0.48505658
29	0x3e59ca48	0.2126857
30	0xbeb4948c	-0.35269582
31	0xbe31f810	-0.17379785
32	0xbecd639c	-0.40115058
33	0xbd857298	-0.06515998
34	0xbeaef148	-0.34168458
35	0x3ecc9d52	0.39963776
36	0x3d9eb6c0	0.077497005
37	0x3edebae2	0.43501955
38	0x3e991aba	0.29903203
39	0xbe94597c	-0.2897452
40	0x3e06c0ca	0.1315948
41	0x3ebe00bd	0.37109938
42	0x3e1d8def	0.15386175
43	0x3edb9ea9	0.42894486
44	0x3ec91b78	0.3927877
45	0xbe3fe84c	-0.18740958
46	0xbeafad10	-0.34311724
47	0x3db553f8	0.088539064
48	0x3e85e046	0.2614767
49	0xbe1130d6	-0.14178786
50	0xbe8e6139	-0.2780855
51	0x3edffd8a	0.43748122
52	0x3e80e33e	0.25173372
53	0xbed56700	-0.41680145
54	0x3ef4eea0	0.47838306
55	0xbe252214	-0.16126281
56	0x3d9fe4b0	0.078072906
57	0xbeb4f7ea	-0.35345393
58	0x3eabd35a	0.33559686
59	0x3d7108e0	0.058846354
60	0x3eb3c7cc	0.3511337
61	0x3e20c48c	0.15699977
62	0x3eae2d5c	0.3401898
63	0xbe30dfec	-0.1727292
64	0xbed2ba04	-0.41157544
65	0x3dd323f6	0.103095934
66	0x3e77ac7c	0.24186891
67	0xbd7ba91c	-0.061440572
68	0x3decd210	0.11563504
69	0x3e9c233e	0.30495638
70	0x3ec5c3d4	0.38625968
71	0xbe6ff428	-0.23432982
72	0xbea79432	-0.32730252
73	0xbea98890	-0.33112
74	0x3eeb6fe4	0.45983803
75	0x3e7866e4	0.24258
76	0xbeb3ffd4	-0.3515612
77	0xbe84991f	-0.25898072
78	0xbe4b652b	-0.19862811
79	0xbeee8d51	-0.4659219
80	0x3dea6938	0.1144585
81	0xbe06b250	-0.13153958
82	0xbea2cf0e	-0.31798595
83	0xbec68a76	-0.38777512
84	0xbe6058b2	-0.21908835
85	0x3d510ca1	0.051037434
86	0xbe8a5246	-0.27015895
87	0xbed4f606	-0.4159395
88	0x3ea8e531	0.3298736
89	0x3b499de7	0.0030764283
90	0xbd236b8c	-0.039897487
91	0xbe07b730	-0.13253474
92	0xbe634c9c	-0.22197193
93	0xbda637e8	-0.08116132
94	0xbe23a240	-0.15979862
95	0xbe762ec0	-0.24041271
96	0xbdd6eb48	-0.10494095
97	0x3dc76751	0.09736503
98	0x3e6696ad	0.22518416
99	0x3daacea2	0.08340193
100	0x3ef50900	0.4785843
101	0xbe68d92c	-0.22739094
102	0xbebe0424	-0.37112534
103	0x3e8eab8c	0.27865255
104	0x3e39a1f8	0.18128192
105	0xbd7e9e40	-0.062162638
106	0x3e9ced62	0.3064986
107	0x3eb2e856	0.34942883
108	0xbd095d40	-0.033536196
109	0x3ebfa41a	0.37429887
110	0x3ea5f132	0.3241058
111	0x3e657404	0.22407538
112	0xbe020108	-0.12695706
113	0xbeb74510	-0.35794878
114	0xbec8a534	-0.3918854
115	0xbecd4a38	-0.40095687
116	0x3e15be92	0.14623478
117	0xbdb35bc8	-0.0875774
118	0xbcc7871d	-0.02435642
119	0xbe6a2bcf	-0.22868274
120	0x3ea5e7a2	0.32403284
121	0x3caa4e80	0.020789385
122	0xbeccee44	-0.40025532
123	0xbe2aeba8	-0.16691458
124	0x3e936ed6	0.287955
125	0xbed4a4dc	-0.41532028
126	0xbeffc278	-0.49953055
127	0xbe2f7034	-0.17132646
128	0xbdba1021	-0.090851076
129	0x3e2157e7	0.15756188
130	0x3e3edfd5	0.18640073
131	0x3f0c87a3	0.54894465
132	0x3e322c9c	0.1739983
133	0x3da162d8	0.07880181
134	0x3edb9e78	0.4289434
135	0x3ef15004	0.4713136
136	0x3ee14922	0.44001108
137	0xbe17e3a8	-0.14832938
138	0x3ef8f7ec	0.4862665
139	0xbe36ae38	-0.17839897
140	0xbe888480	-0.2666359
141	0x3e8e16e2	0.27751833
142	0xbe91076f	-0.28325984
143	0x3ec8e4c8	0.39237046
144	0xbdf709fb	-0.120624505
145	0xbe1ab461	-0.15107872
146	0xbcb11cf5	-0.021620253
147	0x3e819646	0.25309962
148	0x3ed69ca4	0.41916382
149	0xbefafd86	-0.49021548
150	0x3ee09960	0.43867016
151	0xbc04c900	-0.008104563
152	0xbdd9e9e0	-0.10640311
153	0xbe3f7f4c	-0.18700904
154	0x3eec1e34	0.46116793
155	0x3e03e4b4	0.12880212
156	0x3e50aaa4	0.20377594
157	0xbe212ffc	-0.15740961
158	0x3ec7d8e6	0.39032668
159	0xbd4f1390	-0.050555766
160	0xbe4c9641	-0.19979192
161	0x3f042933	0.51625365
162	0x3e6b49f9	0.22977437
163	0xbd13b26c	-0.03605883
164	0xbe168fbd	-0.1470327
165	0x3b9318fb	0.004489062
166	0x3e2f3a69	0.17112125
167	0x3e41dfa7	0.18932973
168	0x3e89cec8	0.26915574
169	0xbe44335c	-0.19160217
170	0xbed0766a	-0.40715343
171	0x3eca595c	0.395213
172	0x3e79c31c	0.24390835
173	0xbe0df9b0	-0.1386478
174	0x3e493866	0.1965042
175	0xbe55c9c3	-0.20877747
176	0xbdd34473	-0.1031579
177	0xbe1b1830	-0.15145946
178	0x3e8cb2fa	0.27480298
179	0xbeb31c3e	-0.34982485
180	0xbee19f11	-0.4406667
181	0xbe80d10c	-0.2515949
182	0xbb280b32	-0.0025641439
183	0xbedd5768	-0.43230748
184	0xbe601a8c	-0.21885127
185	0x3f12dc79	0.57367665
186	0x3e6334e2	0.22188142
187	0x3d8b7683	0.06809714
188	0x3cc1094b	0.023564002
189	0xbe962f58	-0.29332995
190	0xbc8d364d	-0.017237807
191	0xbefcdbe6	-0.4938652
192	0x3ec60192	0.38673073
193	0x3dce6bf8	0.10079187
194	0x3ea1341c	0.3148507
195	0xbe98683a	-0.2976702
196	0xbe7fb6f4	-0.24972135
197	0xbe981be6	-0.29708785
198	0x3ea6f4f8	0.3260877
199	0x3efaab9c	0.48959053
200	0xbe3db1cf	-0.1852486
201	0xbeeb06f2	-0.45903736
202	0xbe73355e	-0.23750827
203	0x3eb3b6f6	0.35100526
204	0xbeaa29ae	-0.33234924
205	0x3e2399f0	0.15976691
206	0xbecdcce2	-0.40195376
207	0x3ec77556	0.38956708
208	0x3d864938	0.06556934
209	0x3eb390be	0.35071367
210	0xbeefdb8a	-0.46847183
211	0x3d58be90	0.05291611
212	0x3eb80450	0.3594079
213	0x3c968900	0.018375874
214	0xbeeecb38	-0.4663942
215	0xbe42461c	-0.18972057
216	0x3d453659	0.048147533
217	0xbe313608	-0.17305768
218	0xbe14625b	-0.14490645
219	0xbed53c2e	-0.41647476
220	0xbde9b390	-0.11411202
221	0x3e958aa0	0.29207325
222	0x3eb58a7a	0.35457212
223	0x3e902d86	0.28159732
224	0x3e28e17d	0.16492267
225	0xbeb58f44	-0.35460865
226	0xbe8a5d4b	-0.27024302
227	0x3d1f5146	0.038895868
228	0xbefd4234	-0.4946457
229	0x3ed200a8	0.41016126
230	0xbeca921c	-0.39564598
231	0x3ea13000	0.31481934
232	0xbf5859a7	-0.845118
233	0xbd455b00	-0.048182487
234	0x3bc9a5b3	0.006153786
235	0xbebd1c3a	-0.36935598
236	0x3ec1d0ca	0.37854606
237	0xbebf4eca	-0.373648
238	0xbcfa4538	-0.030550584
239	0x3ea0e2eb	0.31423125
240	0x3ea60068	0.32422185
241	0xbedea526	-0.43485373
242	0xbef98f68	-0.48742223
243	0xbe2ec2dc	-0.1706652
244	0x3d9c2643	0.07624485
245	0x3f24d304	0.64384484
246	0xbd2a9c31	-0.041652862
247	0xbef93dbf	-0.4867992
248	0x3ed75b25	0.42061725
249	0xbe76fbd9	-0.2411951
250	0xbe24c334	-0.16090089
251	0xbe7e3ce1	-0.24827911
252	0x3f847e5e	1.0351064
253	0xbee91bc9	-0.4552901
254	0xbc410c6f	-0.01178275
255	0x3e51b89e	0.20480582

bias f4 [256]
0	0x3dda0ae8	0.106466115
1	0x3ef5e30a	0.4802478
2	0x3e482d9c	0.19548649
3	0x3ef1d99c	0.47236335
4	0xbccf4da0	-0.02530557
5	0x3ecd8cd6	0.40146512
6	0xbed6cbec	-0.41952455
7	0x3e46c24c	0.19410056
8	0xbe8e9c22	-0.27853495
9	0xbe5281c0	-0.20557308
10	0x3e8bfabf	0.27339742
11	0x3ea97a92	0.33101326
12	0xbee4e3cc	-0.44705045
13	0xbe62ee98	-0.22161329
14	0xbe860a04	-0.26179516
15	0xbec1ad48	-0.37827516
16	0xbe4153b8	-0.18879592
17	0x3dd553c8	0.10416371
18	0xbece2f0c	-0.4027027
19	0xbe475afa	-0.19468299
20	0xbe963f40	-0.2934513
21	0xbe908f0d	-0.2823414
22	0x3f2fc8da	0.6866585
23	0xbefdae7e	-0.4954719
24	0x3e5e69e6	0.21720085
25	0x3d3ca990	0.046060145
26	0x3ec44e58	0.38341022
27	0x3df572f8	0.11984819
28	0x3e5372a4	0.206492
29	0x3de25486	0.11051278
30	0x3d94b020	0.07260156
31	0xbd70a530	-0.058751285
32	0x3ee80bb5	0.45321432
33	0xbde4d080	-0.11172581
34	0x3ecb7714	0.39739287
35	0xbdb99109	-0.090608664
36	0x3f4a86bd	0.79111844
37	0xbe814298	-0.2524612
38	0x3ef4293a	0.47687703
39	0x3e894e40	0.26817513
40	0x3ef292df	0.4737768
41	0x3e65a6d8	0.22426927
42	0x3eae1b7a	0.34005338
43	0x3f0a1dfe	0.53952014
44	0x3ee1b2dd	0.44081774
45	0x3f1561be	0.5835227
46	0x3ebedd02	0.3727799
47	0x3e91df93	0.28490886
48	0x3d8f4dd8	0.069972694
49	0x3eca7d86	0.39548892
50	0x3c3ca90f	0.011514916
51	0xbe753b3c	-0.23948377
52	0xbed0af42	-0.4075871
53	0xbed3cde0	-0.41368008
54	0xbf2336e3	-0.63755625
55	0xbdd43748	-0.103621066
56	0x3eaef815	0.34173647
57	0xbea92834	-0.33038485
58	0x3f33ce3d	0.7023657
59	0x3e1c8559	0.15285243
60	0x3dfb5648	0.12272316
61	0x3f3d26ca	0.7388731
62	0x3d2400ea	0.040039934
63	0xbef3bfb4	-0.47607195
64	0x3e9a43b5	0.3012978
65	0x3e31616e	0.17322323
66	0xbe929442	-0.28628737
67	0xbef18ec2	-0.47179228
68	0x3e26fa98	0.16306531
69	0xbf21f2c0	-0.6326103
70	0xbe1e18e0	-0.15439177
71	0x3f431dd2	0.7621738
72	0x3eaecff8	0.34143043
73	0xbed976a8	-0.4247334
74	0xbcdb01a0	-0.026734173
75	0xbe62314c	-0.22089118
76	0xbe3cbcd8	-0.18431413
77	0x3f3df551	0.7420245
78	0x3c5f1a18	0.013617061
79	0xbe1545c4	-0.14577395
80	0x3f9d85af	1.2306422
81	0xbe09d9e0	-0.13462019
82	0x3cc5f420	0.02416426
83	0x3d359640	0.044332743
84	0x3e8158b5	0.2526299
85	0x3eecbbe5	0.46237102
86	0xbf0275cd	-0.50961
87	0x3eec3cc0	0.461401
88	0xbdf51bd8	-0.119682014
89	0x3f8c6436	1.0968082
90	0x3f7d3146	0.9890331
91	0x3f3efa3e	0.7460059
92	0x3df9ce68	0.12197572
93	0x3de93be8	0.11388379
94	0x3e3b171c	0.18270534
95	0x3ea254f0	0.31705427
96	0xbdcbf137	-0.099581175
97	0x3f4005ae	0.75008667
98	0xbfa9ae23	-1.3256267
99	0x3d4740a0	0.048645616
100	0x3dab2fba	0.083587125
101	0x3def20b1	0.11676157
102	0x3d35c4a0	0.04437697
103	0x3e9a5882	0.3014565
104	0xbe6546d4	-0.223903
105	0xbddc6748	-0.10761887
106	0xbd18ca80	-0.037302494
107	0x3e35944e	0.17732355
108	0xbd5a26b3	-0.053259563
109	0x3eadc9aa	0.3394292
110	0x3e890f69	0.2676957
111	0x3eb3403e	0.3500995
112	0xbdddb468	-0.108254254
113	0x3ef8d02f	0.4859633
114	0x3f00a079	0.5024486
115	0x3f4b8db9	0.79513127
116	0xbedacb72	-0.4273334
117	0x3ce74728	0.028232172
118	0xbec18ca6	-0.3780262
119	0xbe938de6	-0.28819197
120	0x3f56e25e	0.8393916
121	0xbeb2e6c7	-0.34941694
122	0xbe5661a8	-0.2093569
123	0x3ed5a904	0.4173051
124	0xbed570a8	-0.41687512
125	0x3ef97a78	0.4872625
126	0x3f0b6c61	0.5446225
127	0xbc682c80	-0.014170766
128	0xbe416888	-0.18887532
129	0x3e96a27c	0.2942084
130	0xbdebc720	-0.115125895
131	0x3ec76ab6	0.389486
132	0x3d02b9b0	0.031915367
133	0xbdf25a30	-0.11833608
134	0xbe259f65	-0.16174085
135	0xbe17d0f8	-0.14825809
136	0xbe7cbc70	-0.24681258
137	0x3eebd634	0.46061862
138	0x3da39d50	0.07988989
139	0x3e9edb48	0.31026673
140	0xbe8694e8	-0.2628548
141	0xbe260893	-0.16214208
142	0x3e810e90	0.25206423
143	0x3d44b9a0	0.04802859
144	0x3f095a75	0.5365365
145	0xbc9d18a0	-0.019176781
146	0xbe6fb3eb	-0.23408477
147	0xbf126bc0	-0.57195663
148	0xbe8acdea	-0.27110225
149	0xbf1b4a72	-0.6066047
150	0xbd0c6b20	-0.03428185
151	0x3e37148d	0.17878933
152	0xbea3bd04	-0.31980145
153	0xbe512805	-0.20425422
154	0x3f07ebc9	0.53094155
155	0xbe32bb44	-0.17454249
156	0xbe5a75f8	-0.21334064
157	0x3e46d87a	0.19418517
158	0x3ebd34ac	0.36954248
159	0xbeca9bcc	-0.3957199
160	0x3e823e8c	0.25438344
161	0xbc62241a	-0.013802553
162	0x3ddf9360	0.109167814
163	0xbf82562a	-1.0182545
164	0xbc3e66c0	-0.011621177
165	0xbe7a0be4	-0.24418598
166	0xbdc481d5	-0.09595076
167	0x3e204811	0.15652491
168	0x3de9d698	0.11417884
169	0x3eb4aac8	0.35286546
170	0xbc5eeae4	-0.013605807
171	0xbdc11968	-0.09428674
172	0x3e8f6b22	0.28011423
173	0x3ede38c6	0.4340269
174	0xbef3931c	-0.47573173
175	0xbe28c259	-0.16480388
176	0xbe80739a	-0.25088197
177	0x3f5811a7	0.84401935
178	0xbfa24806	-1.267823
179	0xbeb69818	-0.35662913
180	0x3ecc8abe	0.39949602
181	0x3e153623	0.14571433
182	0x3ef318b3	0.47479782
183	0x3ea251ee	0.31703132
184	0x3ead4a9e	0.3384599
185	0x3e11475c	0.14187378
186	0x3d8fd080	0.0702219
187	0x3e17b948	0.14816773
188	0x3e974ce1	0.2955084
189	0xbe0dfa5f	-0.1386504
190	0xbe5c1acc	-0.21494597
191	0xbe6e4fc4	-0.23272616
192	0x3f893c6c	1.0721564
193	0xbf04ec2e	-0.5192288
194	0x3e941988	0.2892573
195	0xbf12e856	-0.57385767
196	0xbd927893	-0.07151904
197	0x3eda657a	0.42655545
198	0xbd159bf0	-0.036525667
199	0x3e648fbc	0.22320455
200	0x3f04dbf5	0.5189813
201	0xbede4fe6	-0.43420333
202	0xbd677e80	-0.056517124
203	0x3e4659e4	0.19370228
204	0x3d7b9da0	0.06142962
205	0xbeef39f6	-0.46723908
206	0xbe1f0238	-0.1552819
207	0x3ec7016e	0.38868278
208	0xbe579e58	-0.21056497
209	0x3ee68da8	0.4502995
210	0xbed92f0c	-0.42418706
211	0x3d48b520	0.04900086
212	0x3d6a1e68	0.057157904
213	0x3edfb20e	0.43690532
214	0x3e82d538	0.25553298
215	0xbe0fdb7c	-0.1404857
216	0xbd9942ac	-0.0748342
217	0xbd53f02f	-0.05174273
218	0xbe68fb5c	-0.22752136
219	0xbf058d7d	-0.5216902
220	0x3e7991b0	0.24371982
221	0x3ef8dc58	0.4860561
222	0xbef606ac	-0.48051965
223	0xbd9b5260	-0.07584071
224	0xbec5aadc	-0.38606918
225	0x3edde782	0.4334069
226	0x3ef86fe2	0.4852286
227	0xbe037858	-0.12838876
228	0xbf8a2bf4	-1.0794663
229	0xbd865007	-0.06558233
230	0x3de93894	0.113877445
231	0xbf1d55fb	-0.6145932
232	0x3e2dfdf8	0.16991413
233	0xbea71172	-0.32630497
234	0xbce78c1b	-0.02826505
235	0x3f4f45bd	0.8096579
236	0xbe839703	-0.2570115
237	0x3eadd331	0.3395019
238	0x3ed57bca	0.41696006
239	0x3e8d92b0	0.27650976
240	0xbeaa1b17	-0.33223793
241	0xbe9fc386	-0.3120386
242	0x3ed053e0	0.40688992
243	0xbef799d5	-0.48359552
244	0xbd5ea760	-0.05435884
245	0xbe149a1e	-0.14511916
246	0x3db692a7	0.089146905
247	0xbf88d0c1	-1.0688707
248	0x3db96848	0.09053093
249	0xbe6ca1e0	-0.23108625
250	0x3ec4055c	0.3828534
251	0xbea032c9	-0.31288746
252	0xbe9e4bae	-0.30917114
253	0xbe89970a	-0.26873046
254	0x3ea6c8a2	0.32574946
255	0x3fd62eb5	1.6733004

weight f4 [128, 256]
0	0xba98c723	-0.0011656027
1	0xbd09fb80	-0.033687115
2	0x3d9c7943	0.07640316
3	0xbd199930	-0.037499607
4	0x3b842b3e	0.004033475
5	0xbd749e96	-0.05972155
6	0xbcb631d7	-0.022240562
7	0xbba01b03	-0.0048860325
8	0xbce5025f	-0.027955232
9	0x3d6cfde3	0.057859313
10	0x3db62342	0.08893444
11	0x3c7f7d4c	0.015593838
12	0x3c4b4d19	0.012408518
13	0x3da69dfc	0.08135602
14	0x3d936081	0.07196141
15	0x3d611109	0.054947887
16	0x3cb7d2c5	0.02243937
17	0x3da9b396	0.082862064
18	0x3cb0613d	0.021530742
19	0x3bfe3e96	0.0077589257
20	0xbc921c1a	-0.017835665
21	0xbc8362e6	-0.01603837
22	0x3d06340d	0.032764483
23	0xbd9d4c7a	-0.07680602
24	0x3d696559	0.05698142
25	0xbdbff806	-0.093734786
26	0x3ba7c033	0.0051193475
27	0x3db1f4d6	0.08689277
28	0xbbb4c12c	-0.005516192
29	0x3cd42608	0.025897041
30	0x3c092f6b	0.008373122
31	0xbd866f49	-0.06564195
32	0xbc8c14b6	-0.01709972
33	0x3d960c3e	0.07326554
34	0x3d5a5273	0.053301286
35	0xbcb376ea	-0.021907289
36	0x3765ce5d	1.3697511e-05
37	0x3cfc90bd	0.030830735
38	0x3dc875a8	0.09788066
39	0x3dc7e780	0.09760952
40	0x3cca0550	0.024660736
41	0x3d0450a1	0.032303456
42	0xbd517c63	-0.051144015
43	0xbc505df3	-0.012717712
44	0x3d8b10e2	0.067903295
45	0x3d44867b	0.047979813
46	0x3dc188e0	0.09449935
47	0x3ca6eeff	0.020377634
48	0x3da89d91	0.082331784
49	0x3db2677e	0.08711146
50	0x3c987150	0.01860872
51	0xbcf515dd	-0.029917652
52	0xbc3106d2	-0.010804849
53	0xbd08f2b9	-0.033434603
54	0xbd35b329	-0.044360314
55	0x3d92541f	0.07144951
56	0x3c62fa0a	0.013853559
57	0xbad8e0bf	-0.0016546472
58	0xbcbb90a9	-0.022896128
59	0x3d05bdbc	0.032651648
60	0xbd9d2173	-0.076723956
61	0xbda54e58	-0.080715835
62	0xbd9d4f46	-0.07681136
63	0x3dd90931	0.10597456
64	0x3c47e204	0.012199882
65	0xbca4301c	-0.020042472
66	0x3dc5424f	0.09631788
67	0xbcfb066b	-0.030642709
68	0xbd9bc9c4	-0.07606843
69	0x3cdeb7cb	0.027187249
70	0xbcb6aabf	-0.022298215
71	0x3cc9897c	0.02460169
72	0xbcb3dfbc	-0.02195727
73	0xbdc2c44e	-0.095100984
74	0xbda58c3a	-0.08083387
75	0x3cad647e	0.021166082
76	0x3dbf260e	0.0933343
77	0x3d6fc7cf	0.05854016
78	0x3d1771e8	0.036973864
79	0xbc6bc619	-0.014390492
80	0xbd26a21b	-0.04068194
81	0x3e1843aa	0.14869562
82	0xbdceee99	-0.10104103
83	0x3d93afb1	0.07211245
84	0x3ce2fc4b	0.027708193
85	0xbd94ffc4	-0.07275346
86	0x3dabe46a	0.08393176
87	0xbc31a638	-0.010842852
88	0xbd735f01	-0.059416775
89	0xbe1593f1	-0.14607216
90	0x3a6954b0	0.0008900864
91	0xbcd9a36f	-0.026567189
92	0x3dc14b80	0.094382286
93	0x3d2d9172	0.042375036
94	0x3ccfa804	0.02534867
95	0x3cbf460c	0.02334883
96	0xbd5b4d9a	-0.053540803
97	0x3d04f54c	0.032460496
98	0x3d8a2774	0.06745806
99	0x3d9a2dda	0.07528277
100	0xbd15a238	-0.036531657
101	0xbd6e6de7	-0.05821028
102	0xbb9406ee	-0.0045174276
103	0x3d3e3872	0.04644055
104	0xba173035	-0.0005767376
105	0xbd80466d	-0.06263433
106	0xbdb3efce	-0.087859735
107	0xbd966a38	-0.07344478
108	0xbd2f9c04	-0.042873397
109	0x3d203ba2	0.03911937
110	0x3d8fb9d0	0.07017863
111	0xbd81cd85	-0.06338028
112	0xbdd2a4d9	-0.102853484
113	0x3ac0aff4	0.0014700876
114	0x3d107d83	0.035275947
115	0xb9fce233	-0.00048233717
116	0xbcbfaa24	-0.023396559
117	0xbdb722ee	-0.08942209
118	0x3d886f2c	0.06661829
119	0xbd64bebf	-0.055845972
120	0xbc731383	-0.014836195
121	0xbc89ed66	-0.016836833
122	0xbb1d4715	-0.0023998667
123	0xbd02ed26	-0.031964444
124	0x3dd1162b	0.10209306
125	0xbd3e15ef	-0.046407636
126	0xbb663782	-0.00351283
127	0xbc3775c0	-0.011197507
128	0x3c4ef27d	0.012631056
129	0xbb5a1edf	-0.003328256
130	0xbdbfabda	-0.0935895
131	0xbd98ed91	-0.07467187
132	0x3c8991e5	0.0167932
133	0xbdd20aa9	-0.102559395
134	0x3ae63ee5	0.0017566351
135	0x3d432285	0.047640342
136	0xbce08d2e	-0.02741107
137	0x3c4e8333	0.0126045225
138	0xbd7965f5	-0.06088825
139	0xbc8092d7	-0.015695019
140	0xbdb645f9	-0.08900065
141	0xbb8048d2	-0.003914931
142	0xbd097c77	-0.033565965
143	0xbd1ac2ed	-0.037783552
144	0x3ce971d5	0.028496662
145	0xbd31098f	-0.043222006
146	0xbc2b187e	-0.010442851
147	0x3d5e021b	0.054201227
148	0x3853a4fc	5.0459974e-05
149	0xbcaef140	-0.021355271
150	0xbc53be8b	-0.012923847
151	0x3ca23e2f	0.019805042
152	0xbd5581e2	-0.05212582
153	0xbcbc6714	-0.02299837
154	0x3cf2fe9c	0.029662423
155	0xbc07995a	-0.008276308
156	0x3d4f87c6	0.050666593
157	0xbcda4031	-0.026641937
158	0xbdb34543	-0.08753445
159	0x3ca13981	0.01968074
160	0xbd9f7b0a	-0.0778714
161	0x3cba77d0	0.02276221
162	0x3d44e65a	0.048071243
163	0xbc1d1dff	-0.009589671
164	0xbdcd1f9f	-0.10015797
165	0x3c33159a	0.010930443
166	0x3dca53c4	0.09879258
167	0xbde58bcb	-0.11208304
168	0xbb786eb5	-0.0037907783
169	0xbd02ac7a	-0.031902768
170	0x3d4be139	0.049775336
171	0xbbb48f8c	-0.005510276
172	0xbd842394	-0.064520985
173	0x3d98f3e8	0.074683964
174	0x3d983544	0.074320346
175	0x3d63a58a	0.055577792
176	0xbcfbab89	-0.030721443
177	0xbdcac0c1	-0.09900046
178	0x3e01adf6	0.12664017
179	0x3cb8e37d	0.022569412
180	0x3bf00a8a	0.007325475
181	0x3c415d74	0.011802066
182	0x3c10ad30	0.008830354
183	0x3c0d39cf	0.00861974
184	0xbd32e8cd	-0.043679047
185	0x3da502a0	0.08057141
186	0x3d9ee0fc	0.07757756
187	0xbd60fea3	-0.05493034
188	0x3d8d1545	0.068888225
189	0xbcbc9fc9	-0.02302541
190	0x3d931182	0.07181074
191	0xbc27262e	-0.010201974
192	0xbda62d85	-0.08114151
193	0x3cc53594	0.0240734
194	0xbe21dbc6	-0.15806493
195	0x3d99eca5	0.075158395
196	0x3d9564b6	0.072946
197	0xbda03c71	-0.07824028
198	0x3c51e355	0.012810548
199	0xbd264db7	-0.04060146
200	0x3baff335	0.0053695687
201	0xbcca650a	-0.024706382
202	0xbccfa984	-0.025349386
203	0xbc605746	-0.013692683
204	0xbd608061	-0.05480993
205	0x3dc6f07a	0.09713836
206	0xbd52d944	-0.051476732
207	0xbdb600ca	-0.08886869
208	0x3d4c42a3	0.049868237
209	0xbc7dece0	-0.01549837
210	0xbcbd0924	-0.023075648
211	0x3c83a72c	0.016070925
212	0xbc269ec4	-0.010169689
213	0x3c45d4de	0.012074677
214	0xbd2c01e4	-0.04199399
215	0x3c946fc7	0.018119706
216	0xbdbd4360	-0.092413664
217	0xbdbf6f13	-0.093473576
218	0x3d9ffd74	0.07812014
219	0x3ca93598	0.020655438
220	0x3db076de	0.08616422
221	0xbc7f9925	-0.015600477
222	0x3c11da13	0.008902091
223	0xbd6375b4	-0.055532172
224	0xbc1f1e84	-0.009711865
225	0xbb1a4f35	-0.0023545746
226	0x3c8fa7f5	0.017536143
227	0xbdbab86f	-0.09117209
228	0x3dca03e5	0.09864024
229	0xbc3ea5b0	-0.011636183
230	0xbc5ddda6	-0.013541615
231	0xbdc93372	-0.098242655
232	0xbd97ea65	-0.07417754
233	0xbda25049	-0.079254694
234	0xbdccb503	-0.09995463
235	0xbd3cdb4e	-0.046107583
236	0x3d1c7b6a	0.038203634
237	0xbcd147a3	-0.025546854
238	0x3d6a359c	0.057180032
239	0xbc31d86e	-0.0108548235
240	0x3db37ea5	0.0876439
241	0x3dae060a	0.084972456
242	0x3bb8275e	0.0056199273
243	0x3cf6ee65	0.030142972
244	0xbda7cc26	-0.08193235
245	0xbca7e4e6	-0.02049489
246	0x3c7bd573	0.0153707145
247	0x3e0222a5	0.12708528
248	0xbd6a861f	-0.057256814
249	0x3c8a78a9	0.016903238
250	0xbcd98d52	-0.026556645
251	0x3da08e13	0.078395985
252	0x3d67dff3	0.05661006
253	0x3dbe4845	0.09291128
254	0xbc50a02e	-0.012733502
255	0xbdfac31b	-0.12244245

bias f4 [128]
0	0x3dbf6e1a	0.09347172
1	0x3d312802	0.043251045
2	0x3d810714	0.06300178
3	0x3c1ac0ed	0.009445411
4	0x3d6383f6	0.05554577
5	0xbc4f2224	-0.012642417
6	0x3d097718	0.033560842
7	0xbd218834	-0.039436534
8	0xbda631c2	-0.08114959
9	0xbd5f400d	-0.054504443
10	0x3d7601bf	0.06006026
11	0x3c080cef	0.008303865
12	0xbd8596d9	-0.065229125
13	0x3d9201ec	0.07129273
14	0x3c9e4988	0.019322172
15	0xb8792a23	-5.940547e-05
16	0x3c86ed8a	0.01647069
17	0xbda1ec0e	-0.07906352
18	0xbcd1aaac	-0.025594078
19	0x3c97ee6c	0.018546306
20	0x3d2af7e2	0.041740306
21	0xbc4473ea	-0.011990527
22	0xbc409fe0	-0.011756867
23	0xbd7a6ca3	-0.06113876
24	0xbd69eb51	-0.05710918
25	0x3c0ffcd0	0.008788303
26	0xbd470ca6	-0.048596047
27	0xbc165ea4	-0.0091778375
28	0x3bc4ac3b	0.006001977
29	0xbca61212	-0.020272288
30	0x3c122842	0.008920731
31	0x3d29fc17	0.041500177
32	0xbc8b9278	-0.017037615
33	0x3c3fb98c	0.011701953
34	0x3cc78d65	0.024359414
35	0xbc860725	-0.016360829
36	0xbcc4a4b1	-0.024004312
37	0x3b200427	0.0024416537
38	0xbd815044	-0.063141376
39	0xbbcbcc82	-0.0062194476
40	0x3c0e55cb	0.008687447
41	0xbd5f1e7b	-0.054472428
42	0x3b5152d8	0.0031940248
43	0x3d1577dd	0.036491264
44	0xbd3b10cd	-0.04567032
45	0x3cf4f17f	0.02990031
46	0x3d42e340	0.047580004
47	0xbcb5eccd	-0.022207642
48	0x3c36bb88	0.011153109
49	0xbd251496	-0.040302835
50	0xbd3eb26e	-0.046556883
51	0x3ce4faf7	0.0279517
52	0xbb40d490	-0.0029423572
53	0xbd14c2f7	-0.036318745
54	0x3d7335ee	0.059377603
55	0xbc8e8ad7	-0.017400188
56	0xbd094e14	-0.033521727
57	0xbd4fe2c3	-0.050753366
58	0x3d15807f	0.036499497
59	0xbc54f514	-0.012997884
60	0xbca224bf	-0.019792913
61	0xbc9c76b1	-0.019099565
62	0xbca9c96c	-0.020725928
63	0x3c718355	0.014740785
64	0xbd290334	-0.04126282
65	0xbc8145a7	-0.015780283
66	0x3cd5286c	0.026020251
67	0xbcfbc719	-0.030734586
68	0x3d6fef45	0.058577795
69	0x3c145566	0.009053564
70	0x3d316b23	0.043315064
71	0x3c707ef2	0.014678704
72	0xbd0d3ddc	-0.03448282
73	0x3c9c70de	0.019096788
74	0xbd57986d	-0.0526356
75	0xbc6d870b	-0.014497529
76	0xbd547b39	-0.051875327
77	0x3d7e3781	0.06206465
78	0xbc6d8112	-0.014496105
79	0x3c949147	0.01813568
80	0xbd8f5e08	-0.07000357
81	0xbd801d8d	-0.06255636
82	0xbc6deaa3	-0.014521274
83	0xbd15455a	-0.036443092
84	0xbcc1abee	-0.023641553
85	0x3bb510b4	0.005525673
86	0x3d03ef90	0.032210886
87	0x3ca3f479	0.020014035
88	0x3cba1371	0.022714349
89	0x3cf50817	0.029911084
90	0xbd192777	-0.037391152
91	0x3d57ff59	0.052733753
92	0x3ab108cc	0.001350665
93	0x3cf8b101	0.03035784
94	0x3d44ec12	0.048076697
95	0xbd9ebacd	-0.07750473
96	0x3cb4fa65	0.022092054
97	0xbc3e6f7e	-0.0116232615
98	0x3d619e61	0.055082683
99	0xbd853569	-0.06504328
100	0xbd23b33f	-0.039965864
101	0xbc19b911	-0.009382502
102	0xbd8bbdc5	-0.06823305
103	0xbd72b431	-0.059253875
104	0x3d0aeeb4	0.03391905
105	0xbd929c16	-0.07158677
106	0xbd1b6d4b	-0.037946027
107	0xbd66ac27	-0.05631652
108	0x3d497bed	0.04919045
109	0x3c7c7bd1	0.0154103795
110	0x3c967cdd	0.018370086
111	0x3d182704	0.037146583
112	0x3d169faa	0.03677336
113	0x3d2d840e	0.042362265
114	0x3d8e6567	0.06952935
115	0x3d895e8d	0.06707487
116	0x3cd86cc5	0.026419053
117	0xbc0bca63	-0.0085321395
118	0x3c74d46a	0.014943222
119	0x3d08ef61	0.033431415
120	0x3d2abb13	0.041682314
121	0xbc82b270	-0.015954226
122	0x3d5c05eb	0.05371658
123	0xbc6db793	-0.0145091
124	0xbcb63a42	-0.022244576
125	0x3d21368f	0.03935867
126	0xbc082a0d	-0.008310807
127	0xbd8dcf0c	-0.06924257

weight f4 [64, 128]
0	0x3daccdb7	0.084376745
1	0x3dc0a057	0.094055824
2	0x3d64381d	0.055717576
3	0xbd13d00a	-0.036087073
4	0x3dec6c82	0.11544134
5	0xbd6d0a14	-0.05787094
6	0x3dc75300	0.09732628
7	0x3d4fa4c5	0.050694246
8	0xbd2daaa8	-0.04239908
9	0x3df7ccf4	0.120996386
10	0xbe2d0ac2	-0.16898635
11	0x3dcc2b8b	0.09969243
12	0x3ca534e2	0.020166818
13	0x3da3630b	0.07977875
14	0xbd97d3a5	-0.07413415
15	0xbd030cb4	-0.031994537
16	0x3d06e45f	0.032932635
17	0xbdcd8360	-0.100348234
18	0x3c33d8de	0.010976998
19	0x3bd42d11	0.006475099
20	0xbc965e37	-0.018355472
21	0x3db98ead	0.09060416
22	0x3d49814e	0.04919558
23	0xbda6ab3f	-0.08138131
24	0xbde243d3	-0.11048093
25	0x3cda80dc	0.026672773
26	0xbd54d4a2	-0.051960595
27	0xbcfcd1c7	-0.030861748
28	0x3da2fb02	0.07958032
29	0x3cbec1e6	0.023285817
30	0xbd10829b	-0.035280805
31	0xba450fcc	-0.00075173075
32	0xbd7ff2b3	-0.062487315
33	0xbde11ceb	-0.10991844
34	0x3d81ada8	0.063319504
35	0x3d873a26	0.06602888
36	0xbd7bbfcb	-0.061462205
37	0xbd4847c5	-0.04889657
38	0xbd998247	-0.074955516
39	0xbd4e547e	-0.050373547
40	0x3d963f42	0.07336284
41	0x3c3c67a2	0.011499317
42	0xbd85b799	-0.06529159
43	0x3d7fda16	0.062463842
44	0xbda52b5b	-0.0806491
45	0xbdcbd504	-0.09952739
46	0xbd11ffe2	-0.03564442
47	0x3e14f659	0.14547099
48	0x3c876e96	0.016532224
49	0xbc803cfc	-0.01565408
50	0xbe33db53	-0.17564134
51	0xbc6c9666	-0.014440155
52	0x3d52bd5e	0.051450126
53	0x3d7abead	0.061217
54	0x3dd7f3f0	0.10544574
55	0xbd6ebf61	-0.058287982
56	0x3dcc62a4	0.09979752
57	0x3d10bb29	0.03533474
58	0xbd8ded47	-0.06930023
59	0x3c96da14	0.018414535
60	0xbca9278b	-0.020648738
61	0xbd335535	-0.04378243
62	0x3cc28adb	0.023747852
63	0xbdae78ae	-0.085191116
64	0xbc7354ac	-0.01485173
65	0x3c2ad31a	0.010426307
66	0x3dc7c0d9	0.0975358
67	0x3d191690	0.037375033
68	0x3c9adf88	0.018905416
69	0xbe09af68	-0.13445818
70	0xbd55889c	-0.052132234
71	0x3dd2e4ca	0.10297544
72	0x3dda7fb8	0.10668892
73	0x3db067f5	0.08613578
74	0x3df1bcb1	0.11803568
75	0xbd41a870	-0.047279775
76	0xbcadbd8a	-0.021208543
77	0xbc5b4a78	-0.013384454
78	0xbd7daa53	-0.061930012
79	0x3edb7b11	0.4286733
80	0x3d5c76a9	0.0538241
81	0xbde4be39	-0.111690946
82	0xbd2d07e0	-0.04224384
83	0xbc0e0301	-0.008667708
84	0x3d055478	0.03255126
85	0xbe0031c7	-0.12518989
86	0x3b9068f2	0.0044070417
87	0xbcdc0fc4	-0.026862986
88	0x3d81167f	0.06303119
89	0xbc448e8e	-0.011996878
90	0x3d41c4da	0.047306873
91	0xbcd143dd	-0.025545055
92	0x3d8d750d	0.06907091
93	0x3dd49021	0.10379053
94	0xbd16f61c	-0.036855802
95	0x3c451e7b	0.012031193
96	0xbcccaa7f	-0.024983643
97	0x3db17831	0.08665503
98	0x3da0e36c	0.07855877
99	0x3c22c9fa	0.00993585
100	0xbdaba6e3	-0.083814405
101	0x3dd262d9	0.1027276
102	0xbde47664	-0.11155394
103	0xbdbd92f6	-0.09256546
104	0xbbb20f8d	-0.0054339827
105	0xbd01358a	-0.0315452
106	0xbdb81185	-0.089877166
107	0xbc0bc2d1	-0.008530335
108	0xbbee01c7	-0.0072633955
109	0x3d8d19b1	0.06889666
110	0x3d5c5e2f	0.053800758
111	0xbd232a63	-0.039835345
112	0xbd4ca2d6	-0.04995998
113	0xbd5c82f1	-0.053835813
114	0x3d5b9f82	0.053618915
115	0xbb9a538d	-0.004709667
116	0x3db53255	0.08847491
117	0xbbd4fc8c	-0.0064998325
118	0x3cf3e778	0.029773459
119	0xbbb5f408	-0.0055527724
120	0x3dcd3b00	0.10021019
121	0xbc2bbd76	-0.010482183
122	0x3d1689ea	0.03675262
123	0xbd5ddc68	-0.054165274
124	0xbd55a853	-0.05216248
125	0x3cf2368e	0.02956703
126	0x3cefe6f0	0.029284924
127	0x3bb9be1a	0.005668414
128	0xbdbb8ea2	-0.091580644
129	0xbdc49fbc	-0.096007794
130	0x3cedb0b5	0.029014925
131	0xba87bec7	-0.0010356539
132	0xbddcd9e7	-0.10783749
133	0x3b8a749f	0.004225328
134	0x364f5a70	3.0898045e-06
135	0xbd52cb31	-0.05146331
136	0xbd2af420	-0.041736722
137	0xbdfe7e13	-0.124263905
138	0xbc266b69	-0.0101574445
139	0x3c28e0d7	0.010307512
140	0x3d38f8e3	0.045159232
141	0xbc61f027	-0.013790167
142	0x3db60e2e	0.08889423
143	0xbd78065d	-0.060552943
144	0xbdd90bec	-0.10597977
145	0xbcbee315	-0.02330164
146	0x3d43b7e7	0.047782805
147	0x3d68dd98	0.056851953
148	0xbc0e5434	-0.008687068
149	0x3b89ba9f	0.004203155
150	0x3da70265	0.081547536
151	0x3d158f2b	0.03651349
152	0x3ba90ec3	0.0051592304
153	0x3c0e2185	0.008674984
154	0x3ce0e4dc	0.027452879
155	0xbce71dc4	-0.028212436
156	0x3dc38a32	0.09547843
157	0xbc8d61c3	-0.01725853
158	0x3d1351fc	0.03596686
159	0xbcfb275e	-0.03065842
160	0x3d264c16	0.040599905
161	0x3d4ab846	0.049492143
162	0x3dc04648	0.09388405
163	0x3d0df146	0.034653924
164	0xbd214caf	-0.03937977
165	0x3ccbee09	0.024893777
166	0xbd430a5a	-0.047617294
167	0xbd7c9d7f	-0.061673637
168	0xbdb376d3	-0.08762898
169	0x3d723fd8	0.059142917
170	0xbce66aba	-0.028127063
171	0x3d4cfaca	0.05004386
172	0x3da54648	0.08070046
173	0x3d80d9c3	0.06291535
174	0x3c8ebcd1	0.017424019
175	0xbdd4322e	-0.103611335
176	0x3d881f83	0.066466354
177	0xbd8b6235	-0.06805841
178	0x3e06c582	0.13161281
179	0xbcdd9769	-0.027049737
180	0xbceb3133	-0.028709983
181	0xbcca2f88	-0.024680868
182	0xbddaafab	-0.10678037
183	0x3dc5de88	0.09661585
184	0xbcbebd22	-0.023283545
185	0x3dd1ac9f	0.10238003
186	0x3c83a334	0.016069032
187	0xbd8ebf7b	-0.06970116
188	0xbdc8e0de	-0.09808515
189	0xbcdf381d	-0.027248437
190	0xbde4a7ec	-0.11164841
191	0x3dad971f	0.0847609
192	0xbd8321dd	-0.06402943
193	0x3db5ae13	0.08871093
194	0xbd96c52e	-0.07361828
195	0xbd9865a4	-0.074412614
196	0x3d65a759	0.0560678
197	0x3db74785	0.08949188
198	0xbc108f57	-0.008823237
199	0x3cd7d8f1	0.026348563
200	0x3d19078e	0.03736072
201	0xbd2b1acb	-0.0417736
202	0xbdb3dd50	-0.087824464
203	0xbc5a512f	-0.01332502
204	0x3ccd5113	0.025063073
205	0xbcf57819	-0.029964494
206	0x3ca32efe	0.019919869
207	0xbeb129ba	-0.34602147
208	0x3d69e579	0.057103608
209	0x3d85865d	0.065197684
210	0x3cda5daf	0.026656
211	0xbd9a34ec	-0.07529625
212	0x3d0b8102	0.03405858
213	0x3d2a88fc	0.041634545
214	0x3d29a982	0.04142142
215	0x3d8862ab	0.066594444
216	0x3d9e4e48	0.07729775
217	0x3c257825	0.0100994455
218	0x3d9ff272	0.07809915
219	0xbd8d572f	-0.069013946
220	0xbbb54cf0	-0.0055328533
221	0xbdcf2829	-0.10115082
222	0x3d91cf58	0.07119626
223	0x3caa3ceb	0.020781001
224	0xbccf1436	-0.025278192
225	0xbca3d702	-0.019999985
226	0x3d4c376e	0.04985755
227	0x3c5ff031	0.013668106
228	0x3db08de4	0.086208135
229	0xbccbc284	-0.024873026
230	0x3daf01d0	0.085452676
231	0xbc439a14	-0.011938591
232	0x3d9a9056	0.07547061
233	0xbdc24be3	-0.094871305
234	0x3d82c257	0.06384724
235	0x3dc39805	0.0955048
236	0xbdc71516	-0.09720819
237	0xbda0e873	-0.07856836
238	0xbd3ca99b	-0.046060186
239	0xbd11694d	-0.035500813
240	0x3ca84256	0.020539444
241	0xbd11ed5d	-0.035626758
242	0xbcb36dd6	-0.02190296
243	0x3d0d4ab1	0.03449506
244	0xbdad0472	-0.084481135
245	0x3d2a0e0f	0.041517314
246	0xbd844961	-0.064593084
247	0xbceb462c	-0.028719984
248	0xbdd0b2d8	-0.10190362
249	0x3d4efa29	0.05053154
250	0xbd628d9f	-0.05531084
251	0xbd8fb82c	-0.0701755
252	0xbda5136a	-0.080603436
253	0xbdcb892a	-0.09938271
254	0xbdb1bab2	-0.086781874
255	0x3d44db82	0.0480609

bias f4 [64]
0	0xbd56e0ad	-0.05246036
1	0x3d48daf4	0.049036935
2	0xbd2ed483	-0.042683136
3	0x3c9b99ab	0.018994173
4	0xbcddcfa5	-0.027076552
5	0xbd5a4d6b	-0.053296488
6	0x3cde53fd	0.027139658
7	0xbd014a08	-0.031564742
8	0x3c1f35b0	0.00971739
9	0x3d4c8dbc	0.049939856
10	0xba97b87c	-0.0011575366
11	0xbdc6b2d3	-0.09702077
12	0xbc8e0245	-0.017335067
13	0xbd750e1c	-0.05982791
14	0x3c687982	0.014189126
15	0x3dc13cb3	0.094354056
16	0x3d518d92	0.051160403
17	0x3db187cb	0.086684786
18	0xbd539994	-0.051660135
19	0x3ce0648c	0.027391694
20	0x3d904d34	0.07045975
21	0xbdbf4a18	-0.09340304
22	0x3d2b4a64	0.04181899
23	0xbcf34b76	-0.029699069
24	0xbda404d2	-0.08008732
25	0xbd306418	-0.043064207
26	0xbcf02e08	-0.029318824
27	0xbc0ca67e	-0.008584617
28	0x3db42c74	0.08797541
29	0x3cf08c28	0.029363707
30	0x3d818845	0.063248195
31	0xbdf114d9	-0.117715545
32	0x3c2fb5f9	0.010724538
33	0x3b01dddf	0.0019816083
34	0x3cdecfe0	0.027198732
35	0x3d12522f	0.035722908
36	0xbd967c65	-0.07347945
37	0x3cbc3547	0.022974623
38	0xbc82090d	-0.015873456
39	0xbd75715d	-0.059922565
40	0x3d73f148	0.059556276
41	0xbdabd6b8	-0.08390564
42	0xbcf82c11	-0.03029445
43	0xbd0b3f59	-0.03399596
44	0xbdaf2a96	-0.085530445
45	0xbc15e4e2	-0.009148808
46	0xbca108a3	-0.019657439
47	0x3de22dff	0.11043929
48	0xbd91d49f	-0.071206324
49	0xbd9fd4ea	-0.07804282
50	0x3d8ead73	0.069666766
51	0x3c045950	0.008077934
52	0x3bf6acba	0.007527915
53	0x3ca3d303	0.01999808
54	0x3d80e29c	0.06293222
55	0xbd4c008d	-0.049805213
56	0x3d49e09b	0.049286466
57	0x3da4675a	0.08027525
58	0x3d284a23	0.041086327
59	0xbd953c07	-0.0728684
60	0x3ca6f868	0.020382121
61	0xbd80b4a1	-0.06284452
62	0x3d484703	0.048895847
63	0xbd814d0a	-0.06313522

weight f4 [32, 64]
0	0x3d85ae3c	0.06527373
1	0xbda5a6d1	-0.08088458
2	0x3f0c74ff	0.5486602
3	0xbe079565	-0.13240583
4	0xbf875a2b	-1.0574392
5	0xbf8f7fc0	-1.1210861
6	0xbe1b26f1	-0.15151574
7	0x3e062d3b	0.13103192
8	0x3ec74380	0.38918686
9	0xbda8e792	-0.082472935
10	0x3dfd979c	0.12382433
11	0xbd8a75cc	-0.06760749
12	0xbe515641	-0.2044306
13	0xbe4181fd	-0.18897243
14	0xbedd0ed1	-0.43175367
15	0xbd88f6d8	-0.06687707
16	0xbdecfd6b	-0.11571773
17	0xbe4f986c	-0.20272988
18	0xbe1b257e	-0.15151021
19	0x3e97e0d5	0.2966372
20	0xbe08d048	-0.13360703
21	0xbcaa24ec	-0.020769559
22	0x3d7811f0	0.06056398
23	0xbf2733f2	-0.6531364
24	0x3db9c962	0.09071614
25	0x3dba12cb	0.09085616
26	0xbc0ee566	-0.008721685
27	0x3dee36b8	0.116315305
28	0x3d7b1dad	0.061307598
29	0x3bb87e5b	0.005630297
30	0xbe6f7f01	-0.23388292
31	0xbf19e6fb	-0.60118073
32	0xbf23e28b	-0.6401755
33	0xbd6caa5c	-0.057779655
34	0xbd8140dd	-0.063112
35	0xbe8bb998	-0.27290034
36	0x3dcc6237	0.099796705
37	0xbd085dfb	-0.03329275
38	0xbbbc69a2	-0.005749897
39	0xbd29a260	-0.04141462
40	0x3f90656c	1.1280951
41	0x3dbdcc35	0.09267465
42	0xbeae78c9	-0.34076527
43	0xbd940b98	-0.07228774
44	0xbdb8a902	-0.09016611
45	0xbd9a0597	-0.075205974
46	0x3d429dcc	0.047513768
47	0x3d1c187b	0.038109284
48	0x3e1ed900	0.15512466
49	0x3e00427b	0.1252536
50	0xbe2580ed	-0.16162463
51	0x3e83b581	0.25724414
52	0xbd92badf	-0.07164549
53	0xbd7c112b	-0.06153981
54	0xbc320836	-0.010866215
55	0x3c17e41b	0.009270693
56	0xbd6d7584	-0.0579734
57	0xbd8d8007	-0.06909185
58	0xbd5eeb62	-0.054423697
59	0x3e0b863f	0.1362543
60	0x3e1c0ce3	0.15239291
61	0x3dd3d06d	0.103424884
62	0x3eb7cf87	0.35900518
63	0xbe889371	-0.2667499
64	0x3d0e6f2a	0.034773983
65	0xbd8e7b03	-0.069570564
66	0x3e903ed2	0.28172928
67	0xbcf2deef	-0.029647319
68	0xbecc3eb6	-0.39891595
69	0xbe70dda1	-0.23522045
70	0xbdd81134	-0.10550156
71	0x3de348f7	0.11097901
72	0xbcc32b98	-0.023824498
73	0xbd138448	-0.036014825
74	0xbd4a54d1	-0.049397293
75	0xbc9ef9e2	-0.019406263
76	0xbd85a0a4	-0.065247804
77	0xbd9b3267	-0.07577973
78	0x3c997298	0.0187314
79	0xbdbacccf	-0.091210954
80	0xbd63db20	-0.055628896
81	0xbe47a112	-0.19495037
82	0xbdc13dba	-0.094356015
83	0x3c770cc8	0.015078731
84	0xbd3e5d02	-0.046475418
85	0xbb2680e5	-0.0025406417
86	0x3c88ddaf	0.01670727
87	0xbf392725	-0.72325355
88	0xbd72485f	-0.05915105
89	0x3ce4700c	0.02788546
90	0x3dd3495a	0.10316725
91	0x3d8eb8fa	0.06968875
92	0xbdfc1c7b	-0.1231012
93	0x3d29ec3a	0.04148505
94	0xbe125d50	-0.14293408
95	0xbe14f71b	-0.14547388
96	0xbe56cd57	-0.20976768
97	0xbd7de599	-0.06198654
98	0xbdb69849	-0.08915765
99	0x3cdb2676	0.026751738
100	0x3ddd84bc	0.10816333
101	0x3d589fa2	0.052886613
102	0x3d228239	0.03967497
103	0xbb17942a	-0.0023129084
104	0x3e80498d	0.25056115
105	0xbd976818	-0.07392901
106	0xbc94b6cd	-0.018153572
107	0xbdc74b30	-0.09731138
108	0x3df32676	0.1187257
109	0xbe0111f3	-0.12604503
110	0x3d1e325e	0.038622253
111	0xbd95522f	-0.07291066
112	0x3e6f200d	0.2335207
113	0xbc5c0ba8	-0.013430513
114	0xbc3d7855	-0.011564334
115	0x3eaa12a1	0.33217338
116	0xbd6be693	-0.05759294
117	0xbe4cefdf	-0.20013379
118	0xbdab3124	-0.08358982
119	0xbe03d6fd	-0.1287498
120	0xbdd0cb94	-0.101950794
121	0xbe10510c	-0.14093417
122	0xbcc423f9	-0.023942934
123	0x3d9e953c	0.07743308
124	0x3d57b54f	0.052663144
125	0xbd6be15c	-0.057587966
126	0x3d3cfae5	0.04613771
127	0xbde90db1	-0.113795646
128	0x3dc5f361	0.096655615
129	0x3cea9238	0.028634176
130	0xbe116f48	-0.14202607
131	0xbc9db94f	-0.019253401
132	0x3eacef15	0.33776155
133	0x3e9b6ec4	0.30357945
134	0x3d553b61	0.05205858
135	0x3d6c2679	0.057653878
136	0x3ccf2dea	0.025290448
137	0x3d40ced0	0.04707223
138	0x3db65294	0.08902469
139	0xbd853a47	-0.06505256
140	0x3e5189b1	0.20462681
141	0x3dd48602	0.103771225
142	0x3e10293e	0.14078233
143	0x3dde78eb	0.10862907
144	0x3d318710	0.043341696
145	0x3e795fef	0.24353002
146	0x3d81eadc	0.06343624
147	0x3c978862	0.01849765
148	0x3da7c72d	0.08192287
149	0x3cce8d91	0.025213988
150	0xbd97abe0	-0.074058294
151	0x3eac49d1	0.33650067
152	0x3da27aa9	0.07933552
153	0xbe4fc852	-0.2029126
154	0xbdd0cfab	-0.101958595
155	0xbd9a97cd	-0.07548485
156	0x3dd28899	0.1027996
157	0x3b5625ca	0.0032676333
158	0x3d858e02	0.065212265
159	0x3e48e609	0.19619001
160	0x3dd596e3	0.1042917
161	0xbde47015	-0.111541905
162	0x3e06a10b	0.1314737
163	0xbae9544c	-0.0017801612
164	0x3d6f2680	0.058386326
165	0xbd3cc7ca	-0.04608897
166	0x3d58ef32	0.05296249
167	0xbe066b7c	-0.1312694
168	0xbde699fc	-0.11259839
169	0xbc52be99	-0.012862825
170	0x3d818c7f	0.06325626
171	0xbd6f710e	-0.058457427
172	0xbb5a5819	-0.003331667
173	0xbc4edf51	-0.012626485
174	0xbdb02cf6	-0.086023256
175	0xbd86dc92	-0.06585039
176	0xbe6a2ad2	-0.22867897
177	0xbd0ec07c	-0.034851536
178	0x3d46cfb1	0.048537914
179	0xbe619ea0	-0.22033167
180	0x3db1640b	0.0866166
181	0x3e606fff	0.21917723
182	0xbe279146	-0.16364011
183	0x3e01293a	0.12613383
184	0xbdb4d713	-0.08830085
185	0x3d979931	0.07402266
186	0x3df1bc73	0.11803522
187	0xbd80abbb	-0.06282755
188	0x3cbdf372	0.023187373
189	0x3daecdac	0.085353225
190	0xbceefbcb	-0.029172799
191	0x3cca5e84	0.024703272
192	0x3e486131	0.19568326
193	0xbe1a08fa	-0.15042487
194	0x3d154e0c	0.036451384
195	0x3e22be29	0.15892853
196	0x3d973cf0	0.0738467
197	0x3df16630	0.11787069
198	0x3c4774f7	0.012173883
199	0xbe521d9c	-0.20519108
200	0xbd59041e	-0.052982442
201	0x3d15225a	0.036409713
202	0xbe26fd08	-0.16307461
203	0x3c0565fb	0.00814199
204	0x3de0a016	0.10968034
205	0x3e0cf384	0.13764769
206	0x3d91e34c	0.071234316
207	0x3e510d48	0.20415223
208	0xbe613fec	-0.2199704
209	0xbcc3647d	-0.023851627
210	0xbc79b74f	-0.015241458
211	0x3d6cc7e9	0.057807837
212	0x3a6f6439	0.0009132061
213	0xbccf5fb8	-0.025314197
214	0x3db849fa	0.08998485
215	0x3d382f7e	0.044967167
216	0xbd907bf0	-0.07054889
217	0xbca9e91a	-0.020741034
218	0xbe317fce	-0.1733391
219	0xbba3f618	-0.005003702
220	0x3e162de4	0.14665943
221	0x3e0322c3	0.1280623
222	0x3cebbd62	0.028776828
223	0x3e33a9da	0.17545262
224	0xbcd52e6c	-0.026023112
225	0xbd813baa	-0.06310208
226	0x3d7affde	0.06127917
227	0x3c35bcbf	0.011092364
228	0x3e38664b	0.18007772
229	0x3def8a1b	0.116962634
230	0x3e14103f	0.14459322
231	0xbc04d5c7	-0.008107609
232	0xbd42feec	-0.047606394
233	0x3cf473bc	0.029840343
234	0xbd882810	-0.06648266
235	0xbd4660c2	-0.04843212
236	0xbdd3be99	-0.10339088
237	0x3d1cc72f	0.038275894
238	0xbe0aaa82	-0.13541606
239	0x3db74fce	0.089507684
240	0xbdb70e41	-0.089382656
241	0xbe3f6180	-0.18689537
242	0x3d11699c	0.035501108
243	0xbd98449b	-0.074349605
244	0x3a9f9873	0.0012176171
245	0x3dd598fa	0.104295686
246	0xbe5f42d7	-0.21802841
247	0xbd168b7b	-0.036754113
248	0x3e0d1ae6	0.13779792
249	0x3d35f122	0.044419415
250	0x3d33ed4f	0.043927487
251	0xbd899933	-0.067186736
252	0xbde1fed4	-0.11034933
253	0xbe26b37d	-0.16279407
254	0xbd279866	-0.040916823
255	0x3dd0aa28	0.10188705

bias f4 [32]
0	0x3ca4ad70	0.020102233
1	0x3d8c89d8	0.06862229
2	0xbdce895f	-0.10084795
3	0xbc9bf979	-0.019039856
4	0xbd7dc08c	-0.061951205
5	0xbd10bc2a	-0.035335697
6	0x3c8b6331	0.017015072
7	0xbdac72ce	-0.08420335
8	0x3dbee910	0.09321797
9	0x3c634ea8	0.013873734
10	0xbdc41d54	-0.095759064
11	0xba7ec596	-0.00097187737
12	0x3da8313f	0.08212518
13	0x3d53ad89	0.051679168
14	0xbd783b2f	-0.060603317
15	0x3d81a20a	0.063297346
16	0xbc1715de	-0.009221522
17	0x3dea4f4d	0.11440907
18	0xbe12f9f2	-0.14353159
19	0x3b516578	0.003195135
20	0x3cf06dc4	0.029349215
21	0xbda41058	-0.0801093
22	0x3dbc3966	0.091906354
23	0xbd55494f	-0.052071866
24	0xbd37254b	-0.0447133
25	0xbdf54f88	-0.1197806
26	0x3db09830	0.086227775
27	0xbdc66b33	-0.096884154
28	0x3cc60097	0.024170203
29	0xbc142eb4	-0.009044338
30	0xbd387994	-0.04503782
31	0xbd4bd7a8	-0.049766213

weight f4 [1, 32]
0	0xbecd04d9	-0.4004276
1	0xbe90bf78	-0.2827108
2	0x3eac0ae5	0.33602062
3	0x3e8a00c3	0.26953706
4	0xbe961612	-0.29313713
5	0x3ea75b21	0.32686713
6	0xbe8a3282	-0.2699166
7	0xbec71a35	-0.38887182
8	0x3eae3273	0.34022865
9	0x3eb7fe6b	0.35936293
10	0x3edbe472	0.42947727
11	0x3ea523f2	0.32253987
12	0xbe8e29ef	-0.27766368
13	0x3e5c1e37	0.21495901
14	0x3eb02c3b	0.34408745
15	0xbea5f21b	-0.32411274
16	0xbeb10a9b	-0.34578404
17	0x3ea426b4	0.32060778
18	0xbe9ab6fa	-0.30217725
19	0xbe916583	-0.2839776
20	0x3eaaa984	0.33332455
21	0xbef64244	-0.48097432
22	0x3e6f9d79	0.23399915
23	0xbe808c1b	-0.25106892
24	0xbea922ea	-0.3303445
25	0xbe7fd210	-0.24982476
26	0x3ef5d63f	0.4801502
27	0x3f498edc	0.7873361
28	0xbe988ca1	-0.2979479
29	0x3eb28c51	0.34872678
30	0xbeba2252	-0.3635431
31	0xbe8385da	-0.25688058
