Models/Playground_model_10.pth (torch, 278208 bytes, 5 tensors)

fc1.weight f4 [256, 10]
0	0x3e1ae04a	0.15124622
1	0xbe450091	-0.19238497
2	0xbe1927ed	-0.14956637
3	0xbf5547f7	-0.83312935
4	0xbecca93d	-0.3997287
5	0x3d6a2e7d	0.05717324
6	0xbe8c28f6	-0.27375
7	0x3b90f27e	0.0044234386
8	0x3e2ae31f	0.16688202
9	0x3e960955	0.29303995
10	0x3f10b54e	0.5652665
11	0xbd6879e0	-0.056756854
12	0xbcd94ebc	-0.026526801
13	0x3e911afd	0.28340903
14	0x3e6e4f6b	0.23272483
15	0x3eab7e37	0.33494732
16	0x3ebe3087	0.37146398
17	0x3ec11b45	0.37716118
18	0xbea97fe9	-0.331054
19	0xba84b635	-0.0010125103
20	0xbf053d0b	-0.5204627
21	0x3debcc49	0.11513574
22	0x3c891040	0.016731381
23	0x3e87384d	0.26410142
24	0x3d3ecbc6	0.046581052
25	0x3e11aee1	0.14226867
26	0xbd3a4f94	-0.045486048
27	0x3e71aa4d	0.23600121
28	0x3e290a75	0.16507895
29	0xbd650c8d	-0.055920172
30	0x3cba4b2e	0.022740927
31	0xbefa5ee5	-0.48900524
32	0xbe1b373f	-0.15157793
33	0xbf01d152	-0.5071002
34	0xbe1c5d3d	-0.15269943
35	0xbea48270	-0.32130766
36	0x3dce4362	0.10071446
37	0xbe1ce19d	-0.1532044
38	0x3d7a04c2	0.061039694
39	0x3e06d20e	0.13166067
40	0x3df8361c	0.121196955
41	0x3e515c8a	0.20445457
42	0x3e1f81fc	0.15576929
43	0xbe9a00d9	-0.30078772
44	0xbeb7eb0d	-0.35921517
45	0x3e681a21	0.22666217
46	0x3df03c38	0.11730236
47	0xbe952ddc	-0.2913655
48	0x3e6ad8a6	0.22934207
49	0xbeaf0a3e	-0.34187502
50	0x3ed986b7	0.42485592
51	0xbe26c547	-0.16286193
52	0x3c0f72a1	0.008755357
53	0x3be6b23b	0.0070402897
54	0xbd30dcec	-0.043179438
55	0xbaf9d148	-0.0019059563
56	0x3e787891	0.24264742
57	0xbdde010a	-0.10840042
58	0xbdc4d1ec	-0.09610352
59	0x3e02fa0e	0.12790701
60	0xbebb1933	-0.36542663
61	0x3e8b1e7c	0.27171695
62	0x3d093cfe	0.033505432
63	0x3f009af5	0.50236446
64	0xbe55ea62	-0.20890191
65	0xbc5519dd	-0.013006655
66	0x3c784a5b	0.0151544465
67	0x3e00a25c	0.12561935
68	0xbd1ba6e0	-0.03800094
69	0xbe832cf6	-0.2562024
70	0xbd267a89	-0.040644202
71	0xbe04ce82	-0.12969401
72	0xbe1edbf7	-0.15513597
73	0xbf9217db	-1.141353
74	0xbedf7a24	-0.43647873
75	0x3e6d4bf9	0.23173513
76	0xbee618d1	-0.44940808
77	0x3cf7bbde	0.03024095
78	0x3e818589	0.25297192
79	0x3f50e5b6	0.8160051
80	0x3e860611	0.26176503
81	0x3e22faa8	0.1591593
82	0xbe3ee60f	-0.18642448
83	0xbf93652d	-1.1515251
84	0xbe5329b9	-0.20621385
85	0xbe4b217a	-0.19836989
86	0x3dbabfb9	0.091185994
87	0x3d830f1a	0.06399365
88	0x3ed09099	0.4073532
89	0x3e3ab00f	0.18231224
90	0xbee32fc0	-0.44372368
91	0x3e2badd5	0.1676553
92	0x3d8abff9	0.06774897
93	0xbe35ad65	-0.17741926
94	0x3cd81464	0.02637691
95	0xbeed232f	-0.46315905
96	0xbe5c4980	-0.21512413
97	0xbe5d5ffd	-0.21618648
98	0xbea30c17	-0.3184516
99	0xbeed625e	-0.4636411
100	0x3eb598f1	0.35468248
101	0x3de8ceca	0.11367567
102	0xbe3e0313	-0.1855586
103	0xbf8aa10e	-1.08304
104	0xbea255ff	-0.31706235
105	0x3e1b2ee3	0.15154605
106	0x3dc99018	0.09841937
107	0x3e45fff7	0.19335924
108	0x3dc791b5	0.09744588
109	0x3f0f6b6e	0.560233
110	0x3e43c3d2	0.19117668
111	0xbe49e66e	-0.19716808
112	0x3dce9469	0.10086901
113	0x3e86e42f	0.26345965
114	0x3e2a4441	0.166276
115	0x3e1de41d	0.1541905
116	0x3ea19445	0.31558433
117	0xbcc21a3b	-0.023694148
118	0x3e3c721a	0.18402901
119	0xbd91084c	-0.07081661
120	0x3e9aeb1b	0.30257496
121	0x3e7764e1	0.24159576
122	0x3be6f819	0.0070486185
123	0xbd5720b3	-0.05252142
124	0x3e78eacd	0.2430832
125	0x3db456ab	0.08805593
126	0x3e6af7cb	0.22946088
127	0x3e988f44	0.29796803
128	0x3e3270f3	0.17425899
129	0xbec20927	-0.37897608
130	0xbe4ee28c	-0.20203608
131	0xbd3fdc48	-0.046840936
132	0x3d9e59e7	0.07731991
133	0x3f31b9f9	0.69424397
134	0xbd418bca	-0.047252454
135	0xbea9d166	-0.3316757
136	0x3e8e47d0	0.27789164
137	0x3ec47b85	0.38375488
138	0xbf01f5df	-0.50765795
139	0xbe7452a0	-0.23859644
140	0xbd2b1a3f	-0.041773077
141	0x3ca64baa	0.020299751
142	0xbe003618	-0.12520635
143	0xbf8b4e2b	-1.088323
144	0xbf05b8e9	-0.52235276
145	0xbdc4c69f	-0.096081965
146	0xbc0ec4fc	-0.008713957
147	0xbea0d78c	-0.3141445
148	0x3d611a71	0.054956857
149	0x3efe44ce	0.4966187
150	0xbea6cdfd	-0.32579032
151	0x3b16fa3f	0.0023037342
152	0x3d6010c4	0.05470349
153	0x3ed7b691	0.42131475
154	0xbeb724fd	-0.35770407
155	0xbdeb0019	-0.11474628
156	0x3e4c6edb	0.19964163
157	0x3e1df38b	0.15424936
158	0xbeb72835	-0.35772863
159	0xbd7697fb	-0.060203534
160	0x3dfb5e5d	0.12273858
161	0xbea9d703	-0.33171853
162	0xbdf0cba3	-0.117575906
163	0xbe9a50ff	-0.3013992
164	0xbf072781	-0.52794653
165	0xbea93232	-0.33046108
166	0x3d37eb31	0.04490203
167	0xbdba24e5	-0.09089068
168	0xbd3b9691	-0.04579789
169	0x3eb245e0	0.34818935
170	0x3edc2341	0.42995647
171	0xbe0315ce	-0.12801287
172	0x3caf9257	0.021432085
173	0x3cd57736	0.02605782
174	0xbe1953b8	-0.14973342
175	0x3cde6e56	0.027152222
176	0xbe0b7fc7	-0.13622962
177	0x3dd1d2d0	0.102452874
178	0xbd2305a7	-0.039800312
179	0xbe3789a6	-0.17923602
180	0xbeee7f51	-0.4658151
181	0x3ebe5938	0.37177444
182	0x3bce5032	0.006296181
183	0xbeeca3c9	-0.46218708
184	0xbe4dd89d	-0.20102163
185	0x3e43e2d2	0.19129494
186	0x3e58277a	0.21108809
187	0xbe8de222	-0.27711588
188	0x3eaddbf8	0.33956885
189	0x3e986903	0.29767618
190	0xbea1683b	-0.31524834
191	0x3da88d6a	0.082300976
192	0xbe1da9b9	-0.15396775
193	0xbfa37e04	-1.2772832
194	0xbea566fb	-0.3230513
195	0x3cba1bf5	0.02271841
196	0xbe4da13c	-0.20081037
197	0xbe0324a4	-0.12806946
198	0x3d9a9f42	0.07549907
199	0x3e943084	0.28943264
200	0x3df72595	0.12067715
201	0xbee94a3a	-0.45564443
202	0x3e03749e	0.12837455
203	0x3e3142b1	0.17310597
204	0xbe9f0e91	-0.310658
205	0xbe00a24a	-0.12561908
206	0xbd7fc273	-0.0624413
207	0xbedbed51	-0.42954496
208	0x3c1deeba	0.009639436
209	0xbe1ae11f	-0.1512494
210	0xbea9bfe6	-0.3315422
211	0x3e6dc3f9	0.23219289
212	0x3cd2f27d	0.025750393
213	0x3e94e282	0.29079062
214	0x3d8bbb43	0.06822827
215	0xbd65198d	-0.05593257
216	0xbeeebd03	-0.4662858
217	0xbd9a34c4	-0.075295955
218	0xbe5b8ba7	-0.21439992
219	0xbd99f2cd	-0.07517014
220	0xbcdb7459	-0.026788877
221	0x3cf4d57a	0.02988695
222	0xbe381cdf	-0.17979763
223	0xbf937f60	-1.1523247
224	0xbe09b53c	-0.13448042
225	0x3d9ba1a8	0.07599193
226	0xbe1c33c3	-0.1525412
227	0xbdfedfb7	-0.12445014
228	0x3f184a6f	0.59488577
229	0x3b921b24	0.004458802
230	0xbe909da6	-0.28245276
231	0x3e321d0a	0.1739389
232	0xbe098e4c	-0.13433188
233	0xbf79bd69	-0.9755464
234	0xbe043b9c	-0.12913364
235	0xbe6336ff	-0.22188948
236	0x3d00d126	0.03144946
237	0x3d5ecd85	0.054395217
238	0x3efdc1d4	0.49561942
239	0x3dd3c248	0.103397906
240	0xbe9c5db2	-0.30540234
241	0x3c0b4d31	0.008502291
242	0x3d9a5792	0.07536234
243	0xbe605593	-0.21907644
244	0x3d07d61e	0.033163182
245	0xbdbe385b	-0.09288093
246	0x3e7bf8df	0.24606656
247	0xbe8e7117	-0.27820656
248	0x3e1eb32c	0.15498036
249	0xbeadd8db	-0.3395451
250	0x3eaa9c02	0.3332215
251	0xbe3656c7	-0.1780654
252	0x3d70dd21	0.058804635
253	0xbdf02b46	-0.11727004
254	0x3e3c69cd	0.18399735
255	0x3e675575	0.22591193

fc1.bias f4 [256]
0	0x3e2f3c8d	0.17112942
1	0xbefc9efc	-0.49340045
2	0xbe689df1	-0.227165
3	0xbe483b69	-0.19553913
4	0xbc08ed7b	-0.008357401
5	0x3d8d4e80	0.06899738
6	0xbe0cf385	-0.1376477
7	0x3f44c1a6	0.76857984
8	0x3f1fd2e6	0.6243118
9	0x3e1b63ef	0.1517484
10	0x3edb01ff	0.4277496
11	0xbdc531e2	-0.09628655
12	0x3dcdc5fa	0.10047527
13	0xbed05077	-0.4068639
14	0x3efba1eb	0.4914697
15	0xbec1be05	-0.37840286
16	0xbda306e8	-0.07960302
17	0x3e1ebdf4	0.15502149
18	0x3ecbeffe	0.39831537
19	0x3d90385d	0.070420004
20	0xbd05c11d	-0.03265487
21	0xbe4bc3eb	-0.19898956
22	0x3e2ab066	0.16668853
23	0x3f0196af	0.5062055
24	0xbde64e53	-0.11245408
25	0xbeb5733d	-0.35439482
26	0xbee11765	-0.4396316
27	0x3f27d373	0.6555702
28	0xbe9a6c09	-0.3016055
29	0xbe0dd4cd	-0.13850708
30	0xbbe96c59	-0.0071235118
31	0x3de5d99b	0.112231456
32	0x3ebfc0b9	0.37451723
33	0x3e589cf0	0.21153617
34	0xbecfba4d	-0.40571824
35	0xbe27ec12	-0.16398647
36	0x3e2d8e84	0.16948897
37	0x3f07d99f	0.5306644
38	0x3edeb6e9	0.43498924
39	0x3e0f913f	0.1402025
40	0x3e916fa2	0.28405482
41	0x3f2b62b2	0.6694747
42	0x3d62835d	0.05530106
43	0x3df494ac	0.119424194
44	0x3ec86683	0.3914071
45	0x3e1ac4d8	0.15114152
46	0x3c717f89	0.014739879
47	0x3f189452	0.5960132
48	0xbc272475	-0.010201563
49	0x3efa452f	0.48880908
50	0x3eb1094b	0.34577402
51	0x3e7a0ea6	0.2441965
52	0xbe7ce34a	-0.24696079
53	0x3cd8ad24	0.026449747
54	0xbeae9d27	-0.34104273
55	0x3de2da18	0.11076754
56	0xbdcbc60e	-0.09949885
57	0x3e7b3eb5	0.2453564
58	0xbe92ccf2	-0.28671986
59	0xbe736167	-0.23767625
60	0x3ef7b831	0.48382714
61	0xbec965fb	-0.39335617
62	0xbe1618af	-0.14657854
63	0x3ee6197d	0.4494132
64	0xbda3dcc4	-0.08001092
65	0x3f57dc28	0.84320307
66	0x3dc54757	0.096327476
67	0x3ea4d747	0.32195494
68	0x3e60090f	0.21878456
69	0xbe96a1f9	-0.2942045
70	0x3e8dc12a	0.27686435
71	0x3eec4ba2	0.46151453
72	0x3e98a100	0.29810333
73	0xbe159b48	-0.14610016
74	0x3f4e573d	0.80601865
75	0x3f0dcea2	0.5539342
76	0xbe883ff3	-0.2661129
77	0xbd334ede	-0.043776385
78	0xbe4634a5	-0.1935602
79	0x3de9a986	0.11409287
80	0x3f101bcf	0.5629243
81	0xbe1a88db	-0.15091269
82	0xbd0d94dd	-0.034565795
83	0xbf0beed6	-0.5466131
84	0x3ed6e84d	0.41974106
85	0x3d560c8b	0.052258056
86	0x3e3acb31	0.18241574
87	0xbd03247d	-0.03201722
88	0x3eb1d084	0.34729397
89	0x3a0cc4c3	0.0005369896
90	0x3eb1f3b1	0.34756234
91	0x3e83ed30	0.25766897
92	0x3e600f57	0.21880852
93	0x3d88f0ef	0.066865794
94	0xbbfab6c2	-0.007651181
95	0x3db39406	0.087684676
96	0xbd87d0e0	-0.066316366
97	0x3eca2c7a	0.39487058
98	0x3edccae8	0.43123555
99	0xbebbb921	-0.3666468
100	0x3e7538e7	0.23947488
101	0x3f07a838	0.52991056
102	0x3d78e81b	0.060768228
103	0x3dea2127	0.114321046
104	0x3de9a667	0.11408692
105	0x3da45253	0.080235146
106	0x3f20fa90	0.6288233
107	0x3e740724	0.23830849
108	0x3ed542a9	0.4165242
109	0xbe135f60	-0.14391851
110	0xbe5ddf71	-0.21667267
111	0xbdedebf8	-0.11617273
112	0x3def1243	0.11673405
113	0x3e911550	0.28336573
114	0x3ce90063	0.028442567
115	0xbe8e7a0d	-0.27827492
116	0x3d2b29f5	0.04178806
117	0x3b726ef9	0.0036992414
118	0x3f14e39f	0.5815982
119	0xbe64ffa9	-0.22363152
120	0xbf05db16	-0.52287424
121	0x3daeb61c	0.08530828
122	0x3f0b66c5	0.5445369
123	0xbebfe8cf	-0.37482306
124	0x3efc947c	0.49332035
125	0x3eaa7fa5	0.3330051
126	0xbecfa363	-0.40554342
127	0x3f149b76	0.58049715
128	0x3df31276	0.118687555
129	0xbed4c199	-0.41553953
130	0xbe8efdd7	-0.2792804
131	0x3f1c3ae7	0.6102738
132	0x3dceb908	0.10093886
133	0xbe842e77	-0.258167
134	0xbec411b6	-0.38294762
135	0x3d3b6b41	0.045756582
136	0xbe366089	-0.17810263
137	0xbed966ff	-0.42461392
138	0x3e07de20	0.13268328
139	0x3e57f043	0.21087746
140	0xbd77f5f3	-0.06053729
141	0xbef14d0e	-0.471291
142	0xbeaf56aa	-0.34245807
143	0x3bf89080	0.007585585
144	0x3e8b7f36	0.27245492
145	0x3dfc0b3c	0.1230683
146	0x3e920423	0.2851878
147	0xbe6580dc	-0.22412437
148	0x3e6df345	0.23237331
149	0x3c9386ce	0.018008616
150	0x3e82f0c5	0.25574318
151	0x3f23a9d0	0.6393099
152	0xbdf67079	-0.12033171
153	0xbe4ba39e	-0.19886634
154	0x3ec1e94e	0.3787331
155	0xbe86741c	-0.2626046
156	0x3e934b57	0.28768417
157	0x3e2c40f9	0.1682166
158	0x3ed9687e	0.42462534
159	0xbeced897	-0.4039962
160	0x3eb742d0	0.3579316
161	0xbe23347d	-0.15937991
162	0x3ea90de6	0.33018416
163	0x3eb7ee47	0.3592398
164	0x3df5bd30	0.11998975
165	0xbeea6b29	-0.45784882
166	0x3eebf95c	0.46088684
167	0xbe4846ce	-0.1955826
168	0x3f0e7740	0.5565071
169	0xbb912b7c	-0.0044302326
170	0xbed6ada0	-0.4192934
171	0x3dc34b4f	0.09535848
172	0xbf2180d5	-0.6308721
173	0x3f038049	0.5136762
174	0x3f0bb4ff	0.54573053
175	0x3f04bc5a	0.518499
176	0xbee72a21	-0.4514933
177	0xbe5cfa36	-0.21579823
178	0xbe80f897	-0.2518966
179	0xbe7612c6	-0.24030599
180	0x3ec44756	0.38335675
181	0x3efaf9c8	0.49018693
182	0x3f02a83c	0.51037955
183	0xbea62ca1	-0.32455924
184	0xbd7e988b	-0.062157195
185	0x3e884358	0.2661388
186	0x3ea97423	0.33096418
187	0x3e528c1f	0.20561264
188	0x3e05201b	0.13000529
189	0x3f021828	0.5081811
190	0xbda27218	-0.07931918
191	0xbec811ac	-0.39075983
192	0x3dedfa38	0.11619991
193	0x3e9ff915	0.31244722
194	0x3e8f87de	0.28033346
195	0x3e75af8f	0.23992752
196	0x3f1d48e8	0.6143937
197	0xbe06d635	-0.13167651
198	0x3bb33b38	0.005469706
199	0x3f00c04c	0.5029342
200	0x3f05a3b5	0.5220292
201	0xbea7a0e0	-0.32739925
202	0x3de94455	0.113899864
203	0xbe8d0d07	-0.27549002
204	0xbd989d4c	-0.07451877
205	0x3e40a7c7	0.18814002
206	0x3efbca54	0.49177802
207	0x3f0aee49	0.54269844
208	0x3e1327fc	0.14370722
209	0x3f3227c9	0.6959196
210	0xbecdb088	-0.40173745
211	0x3f2707e3	0.6524641
212	0xbe6652b3	-0.22492485
213	0xbeb83a88	-0.35982156
214	0x3ece8a59	0.40339926
215	0x3c2cb17a	0.010540361
216	0x3eb1c2ac	0.34718835
217	0x3e880a20	0.26570225
218	0xbe0780f4	-0.13232785
219	0x3eb6311a	0.35584337
220	0x3f2f1a0e	0.6839913
221	0x3e941a42	0.28926283
222	0x3e81c8bc	0.2534846
223	0x3e8ab63c	0.2709216
224	0x3d5d28b0	0.05399388
225	0x3d994d28	0.074854195
226	0x3d0937ea	0.03350059
227	0xbe88eed3	-0.26744708
228	0x3f394567	0.72371525
229	0x3ec91baa	0.39278919
230	0xbcb29e08	-0.02180387
231	0x3df55fa0	0.1198113
232	0xbeb6630d	-0.35622445
233	0x3ecebb93	0.40377483
234	0xbe6dc407	-0.2321931
235	0xbe9b9d63	-0.30393514
236	0x3eaf41ab	0.34229788
237	0x3e13d4a8	0.1443659
238	0xbd244fa9	-0.040115032
239	0x3e2a1e4c	0.1661312
240	0x3ea1f3e8	0.31631398
241	0xbeee3151	-0.46522
242	0x3edfaee3	0.43688115
243	0x3eb465cb	0.35233912
244	0x3e88c760	0.2671461
245	0xbda5b603	-0.080913566
246	0x3ee51f9f	0.44750687
247	0x3f1a6d8a	0.60323393
248	0xbc5af1b2	-0.013363289
249	0x3f24dc81	0.6439896
250	0xbda64cca	-0.08120115
251	0xbedc3a98	-0.43013453
252	0x3f034c9c	0.5128877
253	0x3f152b16	0.5826887
254	0x3d9f41fc	0.077762574
255	0x3ef09b76	0.46993607

fc2.weight f4 [256, 256]
0	0xbd418e66	-0.047254942
1	0x3d8e38f9	0.069444604
2	0x3d830e26	0.06399183
3	0xbb5a6549	-0.003332453
4	0x3c974263	0.018464273
5	0xbc4f4e4e	-0.012652947
6	0x3ca82b0d	0.02052834
7	0x3d10afcb	0.0353239
8	0x3d38c212	0.045106955
9	0xbd4aa4c2	-0.04947353
10	0x3d165007	0.036697414
11	0x3d5ee886	0.05442097
12	0xbb979541	-0.0046259467
13	0x3cb47eb7	0.022033079
14	0x3c521383	0.012822035
15	0x3d449bd0	0.048000157
16	0xbd563d50	-0.052304566
17	0x3d243e56	0.04009851
18	0xbc380ed3	-0.011234003
19	0xbd6dafa5	-0.058028836
20	0xbd57e80b	-0.052711528
21	0x3d6e2e96	0.058149897
22	0x3ce35a90	0.027753145
23	0x3d18286e	0.03714793
24	0x3d55264e	0.052038483
25	0xbd674468	-0.05646172
26	0xbd49d9d2	-0.049279995
27	0x3d7f54d0	0.062336743
28	0xbd7093c6	-0.058734678
29	0x3ce8b38e	0.02840593
30	0x3c43954e	0.0119374525
31	0xbca14944	-0.019688256
32	0x3d058936	0.032601558
33	0x3d3ff37b	0.04686306
34	0x3d30dd0f	0.043179568
35	0x3ce9af53	0.028525984
36	0x3cc04076	0.023468237
37	0xbc34ce4b	-0.011035512
38	0xbd24ac31	-0.040203277
39	0x3d47eead	0.048811603
40	0xbb89d84f	-0.004206694
41	0x3c92ab71	0.017904015
42	0x3c9045a0	0.017611325
43	0xbc7c667b	-0.015405293
44	0x3b950c0b	0.004548555
45	0xbd583ef9	-0.05279443
46	0xbd66f1e7	-0.05638304
47	0x3d844c58	0.06459874
48	0x3cb7ca4d	0.022435332
49	0xbc2fb931	-0.010725305
50	0xb9f06568	-0.0004585192
51	0xbd51c2a1	-0.051211003
52	0x3c1e7386	0.009671098
53	0xbd0f9009	-0.035049472
54	0x3c8846a9	0.016635256
55	0x3ba759ab	0.005107125
56	0x3cf2bb72	0.029630397
57	0x3d42f6f3	0.04759879
58	0x3c95d9ac	0.01829227
59	0x3c7ad3f0	0.015309319
60	0x3cd5a7bb	0.026080957
61	0xbce8ae59	-0.028403448
62	0xbd55cef4	-0.05219932
63	0x3caefa7d	0.021359676
64	0xbd04bebe	-0.03240847
65	0xbb88732c	-0.00416412
66	0xbd598d4f	-0.053113278
67	0xbd514d15	-0.0510989
68	0xbd5c38d9	-0.05376515
69	0xbc9e8042	-0.019348267
70	0x3c897d7e	0.016783472
71	0x3b141283	0.0022594042
72	0xbd6478fc	-0.055779442
73	0x3d581f3d	0.052764166
74	0xbcf59077	-0.029976113
75	0xbc9ff13b	-0.019524207
76	0x3ba3a193	0.0049936264
77	0xbcc61760	-0.024181068
78	0x3cc32f46	0.023826253
79	0x3d615ece	0.055022053
80	0x3d52f0ef	0.051499303
81	0x3d1f8906	0.038949035
82	0x3b31eb55	0.0027148325
83	0xbc979e7a	-0.018508185
84	0x3b9b949a	0.0047479393
85	0x3d48ea4a	0.04905156
86	0xbd71f8b9	-0.05907509
87	0xbcdece28	-0.027197912
88	0xbd56fba6	-0.052486084
89	0x3d0ac80c	0.033882186
90	0x3cf7d570	0.030253142
91	0x3d057a0f	0.032587107
92	0xbd2409de	-0.040048473
93	0x3af2e87e	0.0018532423
94	0x3d70fb90	0.05883366
95	0x3be5fc7a	0.007018623
96	0xbc754bb0	-0.014971659
97	0x3b543c60	0.003238462
98	0xbc371e1f	-0.011176615
99	0xbd54daba	-0.051966406
100	0xbc76eb37	-0.015070728
101	0x3d6f1526	0.058369778
102	0x3af5efc6	0.0018763475
103	0x3e038561	0.12843849
104	0x3d011390	0.031512797
105	0x3c43904f	0.011936261
106	0x3d832eb0	0.06405389
107	0x3d4efa43	0.050531637
108	0x3ce8461a	0.02835374
109	0xbd734b27	-0.059397843
110	0xbd4b5720	-0.049643636
111	0xbd4d64ce	-0.050144963
112	0x3d5a07a6	0.05322995
113	0xbd37534d	-0.044757176
114	0x3c7a4d2a	0.015277186
115	0x3a96259b	0.0011455299
116	0xbc2b5b92	-0.010458844
117	0xbcd27955	-0.025692621
118	0xbd4dbd3d	-0.0502293
119	0x3d41491d	0.047188867
120	0x3cba91f5	0.022774676
121	0x3d227af2	0.03966803
122	0xbc89ef5f	-0.016837774
123	0xbcb53dcd	-0.022124195
124	0x3bbe9cbc	0.005817024
125	0xbb73c72a	-0.0037197568
126	0x3d954b6b	0.072897755
127	0xbcc9ed24	-0.02464921
128	0xbc49ccc7	-0.012316889
129	0xbd0f1b71	-0.03493828
130	0xbc607814	-0.013700504
131	0x3d34eb47	0.04416969
132	0xbd6a67e1	-0.057227973
133	0x3d52e26d	0.051485468
134	0xbd0c1811	-0.03420264
135	0xbd464db4	-0.048413947
136	0xbd190a9b	-0.03736363
137	0xbd0ec793	-0.034858298
138	0xbd252441	-0.040317778
139	0xbd7d3c7a	-0.061825253
140	0x3cbbecb9	0.022940027
141	0x398d07be	0.00026899384
142	0x3b043301	0.0020172002
143	0xbca298a4	-0.019848175
144	0xbd0a2a78	-0.033731908
145	0x3d4285a4	0.04749073
146	0x3ced1cb3	0.028944349
147	0xbc22ace8	-0.009928919
148	0x3a621cd1	0.000862551
149	0x3d52f35d	0.05150162
150	0xbcf7218f	-0.03016737
151	0xbd73baa4	-0.059504166
152	0xbd39d9f8	-0.045373887
153	0xbcd625ac	-0.02614101
154	0xbcd92189	-0.026505249
155	0x3c9c8656	0.019107025
156	0xbd1ff140	-0.039048433
157	0x3ce0889e	0.027408894
158	0x3d402edb	0.046919685
159	0x3c4c293f	0.012461006
160	0x3e24b1a4	0.1608339
161	0xbc952f82	-0.01821113
162	0xbd63444b	-0.05548505
163	0x3d68169a	0.05666218
164	0x3c3e649c	0.011620667
165	0xbd6d570a	-0.057944335
166	0xbd1c2383	-0.038119804
167	0xbd754aba	-0.059885718
168	0xbd2c8f67	-0.042128947
169	0xb9f56e23	-0.000468121
170	0x3c4d84f1	0.012543903
171	0xbd62cc94	-0.055370882
172	0x3d623648	0.055227548
173	0x3d28a20b	0.04117016
174	0x3d833471	0.06406487
175	0xbc6a27be	-0.014291702
176	0xbc38e215	-0.011284371
177	0x399c1807	0.0002977254
178	0x3c48407f	0.012222408
179	0xbb44d11e	-0.003003187
180	0x3d166384	0.036716
181	0xbd55ba25	-0.052179474
182	0xbb699d27	-0.0035646649
183	0x3d14c987	0.036325004
184	0xbd496778	-0.04917094
185	0xbc8c45e8	-0.017123178
186	0x3b44c66c	0.0030025495
187	0x3d86b37d	0.065772034
188	0xbd80cc4e	-0.06288968
189	0x3c5bb84e	0.013410641
190	0xbd23ed74	-0.040021375
191	0xbd48e16c	-0.049043104
192	0xbc6b6186	-0.014366513
193	0x3d0369c4	0.032083288
194	0x3db2661e	0.087108836
195	0xbd47cb91	-0.04877812
196	0x3cbe1f6e	0.023208346
197	0xbd735b1b	-0.059413057
198	0x3d3547d3	0.04425795
199	0xbac0ae7a	-0.0014700436
200	0xbd440793	-0.047858786
201	0xbc90a0cb	-0.017654797
202	0x3c3a9239	0.011387401
203	0x3d448a65	0.047983546
204	0x3cfd0c72	0.030889723
205	0x3d85eb60	0.06539035
206	0x3d4e94a5	0.050434727
207	0xbd131240	-0.035906076
208	0x3cb4ef7c	0.022086851
209	0x3ca8931a	0.020577956
210	0xbd5f7369	-0.054553423
211	0xbbaee6c6	-0.005337569
212	0xbcc0c3cb	-0.023530861
213	0x3d495219	0.04915056
214	0x3cda239e	0.026628312
215	0xbd5d1248	-0.053972512
216	0x3d4e64fc	0.050389275
217	0x3d13ff16	0.03613194
218	0x3c4f2c57	0.012644849
219	0x3d67de5e	0.05660855
220	0x3cb98d6c	0.022650443
221	0x3cbf4194	0.0233467
222	0xbc10dab2	-0.0088412035
223	0xbb8bf122	-0.0042706886
224	0x3d0f4c38	0.034984797
225	0xbd5d4956	-0.054025017
226	0xbd5c27be	-0.05374884
227	0x3c333ef3	0.010940301
228	0xbd14fd66	-0.036374472
229	0x3c00f710	0.007871404
230	0xbd499b99	-0.049220655
231	0xbcfd133f	-0.030892966
232	0xbd89753a	-0.06711812
233	0xbd0b2d87	-0.033978965
234	0x3d70a308	0.05874923
235	0x3bbe9d8e	0.005817122
236	0xbc9b7af4	-0.018979527
237	0xbd1af6b8	-0.037832946
238	0xbd15e0b2	-0.03659124
239	0x3d408858	0.047005028
240	0xbd49ebb5	-0.049297053
241	0xbd58cc84	-0.052929416
242	0xbca68997	-0.02032928
243	0x3d020b9e	0.03174936
244	0xbd3a3908	-0.045464545
245	0x3d26be01	0.040708546
246	0xbd59274b	-0.05301599
247	0xbcb48044	-0.022033818
248	0x3d428921	0.047494058
249	0xbc9dd92d	-0.019268597
250	0xbb129c30	-0.0022370927
251	0xbcf82be4	-0.030294366
252	0xbd033544	-0.03203322
253	0x3d2db0ff	0.042405125
254	0x3cbf8ef1	0.02338359
255	0xbd89d955	-0.06730906

fc2.bias f4 [256]
0	0xbc3bcaa3	-0.011461887
1	0x3d8ab965	0.067736425
2	0xbd07a5ac	-0.03311698
3	0x3da0c8bc	0.07850787
4	0x3e0ffa46	0.14060315
5	0xbd63b41a	-0.05559168
6	0x3d9c831c	0.07642195
7	0xbb96c760	-0.004601404
8	0xbd2897c6	-0.041160367
9	0xbc99b303	-0.018762117
10	0x3de99e7e	0.11407183
11	0x3dceafee	0.1009215
12	0x3df203be	0.1181712
13	0x3d3bf1f5	0.045885045
14	0x3d478223	0.048708092
15	0x3c3beaa0	0.011469513
16	0x3d8dd8bf	0.06926107
17	0x3d2d6a35	0.042337615
18	0x3dd1f849	0.10252435
19	0xbd143f45	-0.03619315
20	0xbd9ff3e7	-0.078101926
21	0x3e3b97f9	0.18319692
22	0xbd6ea02d	-0.058258224
23	0xbd8efc57	-0.06981724
24	0x3d00ae67	0.031416323
25	0x3cd8477a	0.02640127
26	0xbc7034be	-0.014661012
27	0x3c87e988	0.016590849
28	0x3dd96f69	0.10616953
29	0xbd71c05f	-0.05902135
30	0x3d3fbf2c	0.046813175
31	0x3d747787	0.059684303
32	0x3d720933	0.059090804
33	0x3c06fd2a	0.00823907
34	0xbd9aec65	-0.0756462
35	0x3c59907d	0.013279078
36	0xbc925cf9	-0.017866598
37	0xbd721d30	-0.059109867
38	0x3c8d5d7c	0.01725649
39	0xb92a0d65	-0.00016217453
40	0xbd83c7dc	-0.064346045
41	0xbd445a0a	-0.04793743
42	0xbc3c997f	-0.011511206
43	0xbd6a7210	-0.057237685
44	0x3e360486	0.17775163
45	0x3e5764f1	0.210346
46	0x3d3dfb81	0.04638243
47	0x3d4a4e52	0.0493911
48	0x3cb4ebce	0.022085097
49	0xbb5605af	-0.0032657196
50	0x3d32442b	0.04352204
51	0x3deba78f	0.11506569
52	0xbd15a39c	-0.036532983
53	0xbd8f059e	-0.06983493
54	0x3ace1465	0.0015722631
55	0x3ceacc76	0.028661948
56	0xbd8ccc33	-0.068748854
57	0xbd1e0185	-0.038575668
58	0x3d8a8467	0.06763535
59	0xbdb7f841	-0.089828975
60	0xbd8deb19	-0.06929607
61	0x3d70b735	0.05876847
62	0xbde7839a	-0.11304398
63	0xbdceb9fb	-0.10094067
64	0xbdc9c2f5	-0.09851638
65	0x3d03c23d	0.032167662
66	0x3e21c353	0.15797167
67	0xbb3661cf	-0.0027829295
68	0xbd2ab088	-0.04167226
69	0x3c95bca9	0.018278437
70	0x3e1078ca	0.14108577
71	0x3ce1684b	0.027515551
72	0xbce0d765	-0.027446458
73	0x3cbc6772	0.022998545
74	0x3cabaa2d	0.02095517
75	0xbc57f0ef	-0.013180002
76	0x3a034ccb	0.00050086965
77	0x3cc4cd4c	0.024023674
78	0x3dd148f1	0.102189906
79	0x3b572ebc	0.0032834252
80	0x3d3f9d64	0.04678096
81	0x3d4f3e8a	0.05059675
82	0x3b2e400c	0.0026588468
83	0x3c49a8a9	0.012308278
84	0xbe1410df	-0.14459561
85	0xbc06678b	-0.0082033975
86	0x3cb63f41	0.022246959
87	0xbc87a8f9	-0.016560065
88	0xbd271594	-0.040792063
89	0xbc29580e	-0.010335935
90	0x3d816eb1	0.06319941
91	0x3d337cfb	0.043820363
92	0xbc769fd1	-0.015052752
93	0x3da0a04d	0.07843075
94	0xbd88e7f8	-0.066848695
95	0x3da0461b	0.078258716
96	0x3e0d3e3a	0.13793269
97	0xbd0c7e58	-0.03430018
98	0x3d4c94c9	0.04994658
99	0x3cb456e2	0.022014085
100	0x3c1ecc81	0.009692312
101	0x3b620de0	0.0034493133
102	0xbc5b49ac	-0.013384264
103	0x3de9d941	0.11418391
104	0x3c91d948	0.017803803
105	0xbd01fc74	-0.0317349
106	0x3d6532d0	0.05595666
107	0xbcb5d488	-0.02219607
108	0xbd9154d7	-0.0709626
109	0xbce780cb	-0.028259655
110	0xbdc49cf4	-0.09600249
111	0x3cf6a7e7	0.030109359
112	0xbd2ef46c	-0.042713568
113	0x3d2c12ff	0.042010304
114	0xbdadedd5	-0.084926285
115	0x3aceaa1d	0.001576725
116	0x3d46b436	0.048511706
117	0x3c67759f	0.014127164
118	0x3cbcddd3	0.023054993
119	0x3a5c4aba	0.0008403469
120	0x3d8d32a3	0.06894424
121	0x3d7a8ce7	0.06116953
122	0x3cde1ccd	0.027113343
123	0xbd4a0e63	-0.049330126
124	0xbe0bd94a	-0.13657108
125	0x3cad783f	0.021175502
126	0x3da401cf	0.080081575
127	0x3e0caadf	0.13737057
128	0xbccd852d	-0.025087917
129	0xbd7305f5	-0.059331853
130	0x3d80d165	0.06289939
131	0x3d1cbb8c	0.038264796
132	0x3d8f93a0	0.07010579
133	0x3dfbf9cc	0.12303504
134	0xbd58ef14	-0.052962378
135	0xbd94d9a0	-0.07268071
136	0x3d0d3113	0.03447063
137	0xbd0340a7	-0.03204408
138	0x3c903f5d	0.017608339
139	0x3e052e84	0.13006026
140	0x3dbdc3bd	0.0926585
141	0x3da51eaa	0.08062489
142	0x3dca5186	0.098788306
143	0x3d55c55c	0.05219017
144	0x3cd9355d	0.026514703
145	0xbd819bf9	-0.063285775
146	0x3d23254d	0.039830495
147	0x3bfb1c35	0.0076632746
148	0xbc4ca86d	-0.012491328
149	0xbd846c16	-0.06465928
150	0x3e1f744c	0.15571707
151	0xbd91ad9d	-0.07113192
152	0x3d23ff2b	0.04003827
153	0xbce2f40f	-0.027704267
154	0xbdb65b53	-0.089041375
155	0xbd64fa9b	-0.05590306
156	0x3dd6a7a1	0.104811914
157	0x3d4ef59f	0.05052721
158	0x3e19bd27	0.15013562
159	0xbd10c611	-0.03534514
160	0xbcbc5e00	-0.022994041
161	0x3daa3706	0.08311276
162	0x3df94c43	0.12172749
163	0xbca64f0c	-0.020301364
164	0xbd883ebb	-0.0665259
165	0x3d814c94	0.06313434
166	0xbd08a63d	-0.033361662
167	0x3c8f748a	0.017511625
168	0xbbdfb45c	-0.0068269204
169	0x3c3cbd71	0.011519776
170	0x3db289f2	0.08717717
171	0xba99ad28	-0.0011724578
172	0xbdbc3799	-0.09190292
173	0x3d810077	0.06298917
174	0x3ceb4b72	0.028722499
175	0xbcf747df	-0.030185638
176	0x3cf23fd8	0.029571459
177	0xbdcd7acb	-0.100331865
178	0xbcb93017	-0.022605939
179	0x3e2a9094	0.16656715
180	0x3c6c53a9	0.014424243
181	0x3db9f5ae	0.09080063
182	0x3ccbebe5	0.024892757
183	0xbcffcebb	-0.031226506
184	0xbc4e30b4	-0.012584854
185	0xbbc59c3b	-0.006030587
186	0xbd3d208a	-0.04617361
187	0xbbf7e879	-0.0075655547
188	0xbd57c54a	-0.052678384
189	0xbd82fe9b	-0.063962184
190	0x3cef8020	0.0292359
191	0xbc5242ec	-0.012833338
192	0xbbbad1bf	-0.005701273
193	0xbc32c67b	-0.010911579
194	0x3d8c6f51	0.068571694
195	0xbd8c954d	-0.06864414
196	0x3c5285ae	0.0128492545
197	0x3d5a0081	0.053223137
198	0x3bf1bc26	0.0073771654
199	0x3c79c1a5	0.015243922
200	0xbd5b6f3a	-0.05357287
201	0x3d7573cf	0.059924897
202	0x3ddb5bce	0.1071087
203	0xbcd4d89b	-0.025982192
204	0xbe728751	-0.23684432
205	0xbd7403a3	-0.05957378
206	0xbd0d4b94	-0.034495905
207	0xbc82d3d2	-0.015970144
208	0xbd93d540	-0.072184086
209	0xbce5cdc7	-0.028052224
210	0x3d930a21	0.07179666
211	0xbd982a04	-0.07429889
212	0x3d06540b	0.032794993
213	0x3de4f5be	0.11179684
214	0x3cf1f45b	0.029535463
215	0x3cceff42	0.0252682
216	0x3d9d9360	0.07694125
217	0xbdb88744	-0.09010175
218	0x3e28ade6	0.16472587
219	0xbcd97da0	-0.02654916
220	0xbccf6b3e	-0.025319692
221	0x3d902455	0.0703818
222	0x3cc88220	0.024476111
223	0xbc4a4a60	-0.012346834
224	0x3cabbc19	0.020963715
225	0x3ce8ec6d	0.02843305
226	0xbc244c7c	-0.010028001
227	0xbc9164d8	-0.017748281
228	0x3db1bbf2	0.08678426
229	0xbd94e7aa	-0.07270749
230	0x3d00a9ea	0.031412043
231	0x3ca68d75	0.020331124
232	0x3be5d156	0.00701348
233	0x3c835f21	0.016036572
234	0x3c980fac	0.01856216
235	0xbbae9d60	-0.005328819
236	0x3d44bb8a	0.048030414
237	0xbcfa5ed1	-0.03056279
238	0x3c2733db	0.010205234
239	0x3d908619	0.07056827
240	0xbbad3a62	-0.005286501
241	0x3d44b9a1	0.048028592
242	0xbd80dd53	-0.06292214
243	0x3d2787c7	0.04090097
244	0xbd415cef	-0.04720777
245	0x3d1b61da	0.037935115
246	0x3d3ae553	0.045628857
247	0xbd0f21b3	-0.034944247
248	0x3d96a0f2	0.07354917
249	0xbd979971	-0.074023135
250	0x3cb2092c	0.02173289
251	0x3c97efda	0.018546987
252	0xba7f02b0	-0.00097278785
253	0x3c17d2fd	0.009266612
254	0x3d022dab	0.031781834
255	0x3daef1d6	0.0854222

fc3.weight f4 [1, 256]
0	0xb7cbca00	-2.429355e-05
1	0xbe0f0c5f	-0.13969563
2	0xb832ebfa	-4.2658277e-05
3	0x3d416bc1	0.047221903
4	0x3ceff80a	0.029293079
5	0x35832f40	9.774012e-07
6	0x3a3e9782	0.0007270501
7	0x38bfa935	9.139107e-05
8	0xbd739c64	-0.059475318
9	0x3c4d52ed	0.012531978
10	0x3cf04c26	0.029333185
11	0xbda22ae2	-0.079183355
12	0x3b4858ba	0.0030570463
13	0x3a2e090e	0.00066389225
14	0xbd0399ef	-0.032129224
15	0x3d28af6b	0.041182917
16	0x3b1dd9c5	0.00240861
17	0xbd9fbdc3	-0.07799866
18	0x3aebf3b2	0.0018001704
19	0x3c4a6e4f	0.012355401
20	0xbd8ce5ce	-0.06879769
21	0xbe05a051	-0.13049437
22	0xbd8ac8e3	-0.06776597
23	0xbd9b055f	-0.07569384
24	0xbd70d9e9	-0.058801565
25	0xbc7aca1a	-0.015306974
26	0x3d335724	0.043784276
27	0x3b85c34a	0.004082118
28	0x3d3f7bc3	0.046748888
29	0xbda6cf2b	-0.08144983
30	0x3b8ace6b	0.0042360327
31	0x3c428e35	0.011874725
32	0xbc437b0c	-0.011931192
33	0xb5fbc8e0	-1.875942e-06
34	0xbd924811	-0.07142652
35	0xbcc0d359	-0.023538278
36	0x3ba7b9a8	0.0051185675
37	0xbd3c5816	-0.045982443
38	0x3cec52d1	0.028848084
39	0x3a95ee35	0.0011438789
40	0xbdd85112	-0.10562338
41	0xbc93d302	-0.018044952
42	0xbb4d6b6a	-0.0031344541
43	0xbdc3c6c4	-0.09559396
44	0xbe1a9812	-0.15097073
45	0x3db21603	0.08695605
46	0x38b5acdc	8.66295e-05
47	0xbdb2bd77	-0.08727544
48	0xbc66edee	-0.014094813
49	0x3c2d592c	0.010580342
50	0x3d3dbe11	0.04632384
51	0x3d0705d8	0.032964557
52	0xbcbb9ed3	-0.022902882
53	0xbd213b03	-0.03936292
54	0x3c4d9ef8	0.012550108
55	0x3900e631	0.00012292784
56	0xbd8c6274	-0.06854716
57	0xbb93e15f	-0.0045129503
58	0xbd843a30	-0.06456411
59	0xbcb00e6a	-0.021491248
60	0xbc998779	-0.018741356
61	0x3b459e34	0.003015411
62	0xbde4713c	-0.1115441
63	0xbd2a3eae	-0.041563682
64	0xbd4b9fd1	-0.04971296
65	0x3d4186dd	0.047247756
66	0xbde8b55e	-0.11362718
67	0x3c114c1d	0.0088682445
68	0xbd9b147c	-0.075722665
69	0x3cd2e741	0.025745036
70	0xbdc000fc	-0.09375188
71	0x3d3dc7dc	0.04633318
72	0x3d39b303	0.045336735
73	0xbd0727c5	-0.03299691
74	0x3d190d52	0.03736622
75	0x3be8466c	0.007088473
76	0x3a81bd96	0.000989842
77	0x3cc73795	0.024318496
78	0x3a9a9bd7	0.0011795711
79	0x3c30c6c5	0.010789578
80	0xbd8d4403	-0.06897738
81	0xba898296	-0.0010491188
82	0x398ae320	0.00026490632
83	0x3d8650bc	0.065583676
84	0xbd644cb9	-0.05573723
85	0xbdc494ee	-0.095987186
86	0x3d477bf3	0.04870219
87	0xbd47c2ff	-0.048769947
88	0x3b911c5a	0.0044284286
89	0x3d057aa8	0.032587677
90	0x3b65892f	0.0035024395
91	0xbcf41d2f	-0.029799072
92	0x3be8d7ea	0.007105817
93	0x3d53fa17	0.051752176
94	0xbca6ebba	-0.020376075
95	0x3c5a8c87	0.013339168
96	0x3d730f74	0.05934091
97	0xb7ca0f34	-2.4087356e-05
98	0x3b9bbde1	0.00475286
99	0x3ca67848	0.020321026
100	0xbdae2bc5	-0.08504442
101	0xbce638a8	-0.028103188
102	0x37dcdbaa	2.6328333e-05
103	0xbdcf7e90	-0.10131562
104	0xbdd73ea9	-0.10509998
105	0xbc2ff4e3	-0.010739538
106	0x39041c63	0.00012599076
107	0x38504d78	4.9663213e-05
108	0xbe1ab97b	-0.15109818
109	0xbce385d2	-0.027773771
110	0xbcb810fb	-0.022469034
111	0xbd6fdf30	-0.058562458
112	0xbcedf11a	-0.02904563
113	0x3d4b592d	0.04964559
114	0xbcd127ba	-0.025531638
115	0xbda850ef	-0.08218562
116	0xbd7f0c56	-0.062267624
117	0x3cf02be8	0.029317811
118	0xbcc182a1	-0.023621859
119	0x3d5aaaf6	0.053385697
120	0x3d20d23b	0.03926299
121	0x3b2306e2	0.0024875929
122	0xbd25e12e	-0.04049795
123	0xbdc66e47	-0.096890025
124	0xbd54b0eb	-0.051926535
125	0xbd6f21d5	-0.058381874
126	0x3d898654	0.06715074
127	0xbd9ff45e	-0.07810281
128	0xbd0953c5	-0.033527154
129	0xbda9f904	-0.08299449
130	0x39f9f20a	0.00047673314
131	0x3c4a49a2	0.012346657
132	0xbe1a03f3	-0.15040569
133	0x3d1f3c91	0.03887612
134	0xbd096282	-0.03354121
135	0xbcdd418a	-0.02700879
136	0x3ce106bb	0.02746903
137	0xbd5c4d88	-0.053784877
138	0x391dbc11	0.00015042747
139	0xbc0008b3	-0.007814574
140	0x3b7cf274	0.0038596662
141	0x3c363ed3	0.011123377
142	0x3d95beef	0.07311808
143	0x3d26b707	0.040701892
144	0xbdb9be13	-0.09069457
145	0xbd9594f1	-0.07303799
146	0x3b24962c	0.0025113923
147	0xbc22549d	-0.009907869
148	0x3981deff	0.00024770942
149	0xbdd2d081	-0.10293675
150	0x3d99a07e	0.075013146
151	0xbcd7c353	-0.026338255
152	0xbdd14e63	-0.10220029
153	0x3c438433	0.011933374
154	0xbcfb3470	-0.030664653
155	0xbc13881f	-0.009004622
156	0x3d4f2bdd	0.05057894
157	0x3c5aac17	0.0133466935
158	0xbe1ab95b	-0.1510977
159	0xb761ab3a	-1.3450912e-05
160	0xbdab62c0	-0.083684444
161	0xbdc8de90	-0.098080754
162	0xbda93387	-0.08261781
163	0xbd5c6aab	-0.053812664
164	0xbdad766c	-0.08469853
165	0x3a00a288	0.00049070315
166	0xbd183b1e	-0.037165754
167	0x3d1ddf63	0.038543116
168	0xbd314eb6	-0.043287955
169	0x3b927474	0.0044694487
170	0x3c5d3aeb	0.013502817
171	0x3ac2b5ab	0.0014855167
172	0xbc9922ff	-0.018693445
173	0x3d3f4a5f	0.046701785
174	0x39288926	0.0001607282
175	0xb8c1e39e	-9.245354e-05
176	0xbd3da9be	-0.046304457
177	0xbd62ff7c	-0.05541943
178	0x3b83c608	0.00402141
179	0xbe36f85a	-0.17868176
180	0x3c07b803	0.008283618
181	0x3da61844	0.08110097
182	0x3c5cd487	0.013478405
183	0x3c8748df	0.01651424
184	0xbdafdd8f	-0.08587181
185	0x3c9a75e6	0.018855046
186	0x3874afe1	5.8337933e-05
187	0x3a829b35	0.0009964468
188	0xb7c1bf1a	-2.3096381e-05
189	0xbd3ba032	-0.04580707
190	0x3cf514bf	0.02991712
191	0x3c66b4fc	0.014081236
192	0x39caf49f	0.000387107
193	0xbcd8bc1f	-0.02645689
194	0x3c5178ad	0.012785119
195	0xbdd54fb1	-0.104155906
196	0x3caaf8e5	0.020870635
197	0xbaef8a2c	-0.0018275431
198	0x3bfd2e1d	0.0077264444
199	0x3cae5487	0.02128054
200	0xbda2029a	-0.079106525
201	0x3d164fff	0.036697384
202	0xbe48c0ad	-0.1960475
203	0xbcf2813e	-0.029602643
204	0xbea04869	-0.31305245
205	0xbcd8dc67	-0.026472284
206	0xbcb6efec	-0.0223312
207	0xbde24ce0	-0.11049819
208	0xbd30a2da	-0.043124057
209	0xbd52a1bb	-0.05142377
210	0x396b9a67	0.00022468866
211	0xbd6e3aa6	-0.0581614
212	0xbb8ef41e	-0.004362597
213	0x3d6408ed	0.055672575
214	0x3d1b3a0f	0.037897166
215	0xbd40d691	-0.047079626
216	0x3dc9f01c	0.0986025
217	0xbd494d2c	-0.049145862
218	0x3e5844b0	0.21119952
219	0x3d36a2fc	0.044589028
220	0x3b8e740f	0.0043473314
221	0x3d47b756	0.048758827
222	0x3d95595b	0.07292434
223	0x3d161f66	0.036651038
224	0x3917a74a	0.00014462802
225	0xbdd05328	-0.10172111
226	0xbd84933c	-0.06473395
227	0x3c9574f6	0.018244248
228	0x3c8d4b15	0.017247716
229	0xbcc55b39	-0.02409135
230	0xbd32d03e	-0.043655626
231	0xbd5e96b3	-0.054342937
232	0xbd9ecacd	-0.07753525
233	0xbdcc5d55	-0.09978739
234	0xbd38103f	-0.04493737
235	0xbd9acd2e	-0.07558666
236	0x36115518	2.1656215e-06
237	0xbd55901c	-0.052139387
238	0xbd7fba79	-0.062433694
239	0xbdc774a6	-0.09739046
240	0xbd124b4f	-0.03571635
241	0xbda59c65	-0.080864705
242	0x3c667243	0.014065328
243	0xbd906747	-0.070509486
244	0xbbdfdc6e	-0.006831697
245	0x396ff0c7	0.00022882513
246	0x3cac8b3d	0.021062488
247	0xb954da63	-0.00020299251
248	0x3db8179d	0.08988879
249	0xbddc6cf4	-0.10762969
250	0x3b1b5309	0.0023700616
251	0xbd5124b4	-0.051060393
252	0xbd022ed8	-0.031782955
253	0xbd4d684f	-0.050148305
254	0xbd82c31d	-0.06384871
255	0x3d06aaeb	0.032877844
