Models/Playground_model_10.pth (torch, 189728 bytes, 9 tensors)

weight f4 [256, 10]
-0.03670639 0.33435437 0.017682452 0.2640152 -0.18104741 -0.08646957 0.5077084 0.17091013
-0.059324216 -0.04383021 -0.22958633 -0.1326176 -0.1706727 0.13365029 -0.3213257 -0.055672955
-0.0068118637 -0.23424597 -0.36208206 0.015967684 -0.2462756 0.14544801 -0.039834034 0.36162594
0.3375508 0.3061893 0.110009655 -0.06382297 0.23408923 0.12651274 -0.034967072 0.030927503
-0.1884584 0.2724949 0.18421423 -0.2935927 -0.25454935 -0.10496572 -0.3465149 -0.27651423
0.26194093 -0.1729359 -0.037057146 0.635739 0.12007435 0.16320519 0.2934193 0.25342473
0.002641454 0.07975614 0.011176732 -0.23809351 0.009403196 -0.19325112 0.11626728 -0.19977899
-0.032564458 0.36296663 -0.08043655 -0.41430902 0.10373983 -0.0990429 -0.040221777 0.7547255
-0.038043812 0.2832633 0.36570716 0.12088563 0.5199733 0.29649922 0.25625515 -0.19724497
-0.24256918 -0.32324928 -0.018163389 0.18134354 -0.15820737 0.08022711 -0.039129995 -0.15685086
-0.23251717 -0.17928918 -0.03394336 -0.39627457 0.3918144 0.21553032 -0.017041855 0.25816548
0.11893338 0.6660233 -0.1914347 -0.082112506 0.2172036 0.354114 0.26799875 0.2935111
-0.2544983 -0.09081301 0.15029353 0.31451756 -0.4248659 0.117691964 0.03829902 1.4927456
-0.1844902 -0.123631276 -0.2585012 0.19579823 -0.0847845 -0.002505712 0.2425407 -0.2876132
0.0028492443 -1.2329786 -0.2512233 0.07570012 -0.15841924 -0.33016303 0.19312766 0.0059953206
-0.088504575 0.13089423 0.029155467 -0.24398112 -0.12701681 -0.15496589 0.015931156 -0.1265392
0.059412986 -0.05863195 -0.036357135 0.042506643 0.11198994 -0.110462256 0.19719249 0.08156962
0.24460606 0.176926 0.2221689 0.4116283 -0.18343219 -0.19549513 0.037299786 0.3814334
-0.08362723 -0.0991418 0.3580487 0.19660318 -0.37603807 -0.15099716 -0.0063523618 0.2551954
0.020151936 -0.37581772 -0.31699952 -0.2497982 -0.23085311 0.15929602 0.21564837 -0.130168
0.06569353 0.34201705 -0.009238591 -0.48943475 0.0589112 -0.10828114 -0.14194708 -0.03798219
-0.23897588 0.3566153 -0.043308426 -0.09063093 -0.135833 -0.08575068 -0.2919365 0.10562197
-0.15739417 -0.2584367 0.016130036 -0.034806635 0.20113447 -0.13261452 0.27946138 0.13027138
0.16342285 0.022434542 0.24236543 -0.037217505 0.06473032 0.011311324 -0.11768493 -0.1387063
0.318189 0.026985005 -0.2938878 -0.03607359 -0.08522555 0.2429937 -0.038269594 -0.06992537
0.09386637 0.035797093 -0.0059783454 0.59851676 -0.12070206 -0.016908847 -0.25487107 0.15275094
0.24612363 -0.13166428 0.10093102 -0.15160835 0.27796534 0.23212036 -0.12012479 0.26723692
-0.09438583 0.19187811 0.23028871 0.26761904 0.2641393 -0.101218246 -0.03985617 0.4854722
0.3023388 -0.041299377 0.1542202 0.24834263 0.3164898 0.1946995 0.41115513 0.046637014
0.18031947 0.25871783 0.016806595 0.22607528 0.5042032 0.16467117 0.03340956 0.54049
-0.11672295 -0.252394 0.26230493 -0.17213617 0.16102393 -0.019311367 -0.27354175 0.16331302
0.16860984 0.12577148 -0.2571528 -0.39675242 -0.007978789 -0.3648119 0.04161398 0.05006404
00000000: 7159 16bd 7f30 ab3e cada 903c 002d 873e
00000010: 7e64 39be f516 b1bd 2df9 013f 1103 2f3e
00000020: f3fd 72bd 4e87 33bd ae18 6bbe e8cc 07be
00000030: d3c4 2ebe 9fdb 083e cd84 a4be 5309 64bd
00000040: 0e36 dfbb 2dde 6fbe d262 b9be a9ce 823c
00000050: ac2f 7cbe 53f0 143e 0329 23bd 0927 b93e
00000060: 75d3 ac3e d8c4 9c3e be4c e13d 9eb5 82bd
00000070: 16b5 6f3e 8e8c 013e a239 0fbd ad5b fd3c
00000080: 3dfb 40be 7484 8b3e a8a2 3c3e c851 96be
00000090: 4b54 82be 44f8 d6bd 676a b1be 4693 8dbe
000000a0: 1f1d 863e 1c16 31be 3cc9 17bd cbbf 223f
000000b0: 8ae9 f53d 431f 273e 0e3b 963e e3c0 813e
000000c0: 3f1c 2d3b 3057 a33d 9d1e 373c c9ce 73be
000000d0: dd0f 1a3c 9fe3 45be 8a1d ee3d dd92 4cbe
000000e0: 4f62 05bd c3d6 b93e ebbb a4bd 5020 d4be
000000f0: 8c75 d43d 01d7 cabd 97bf 24bd b135 413f
00000100: d4d3 1bbd e307 913e f83d bb3e e392 f73d
00000110: f81c 053f bfce 973e e033 833e 96fa 49be
00000120: 0e64 78be ee80 a5be 63cb 94bc 1fb2 393e
00000130: 1d01 22be 1c4e a43d c646 20bd 839d 20be
00000140: fb18 6ebe 9597 37be 3108 0bbd 80e4 cabe
00000150: e69b c83e fbb3 5c3e 5c9b 8bbc 442e 843e
00000160: 5893 f33d 8180 2a3f 7507 44be 9a2a a8bd
00000170: 9f6a 5e3e 6e4e b53e 2237 893e 1647 963e
00000180: 9a4d 82be 2cfc b9bd 8ce6 193e 7208 a13e
00000190: 0688 d9be 7c08 f13d 6fdf 1c3d 4a12 bf3f
000001a0: 00eb 3cbe 6532 fdbd 455a 84be 557f 483e
000001b0: 7fa3 adbd df36 24bb 975c 783e 0a42 93be
000001c0: 63ba 3a3b 3ed2 9dbf 57a0 80be aa08 9b3d
000001d0: a738 22be 210b a9be 42c3 453e 6574 c43b
000001e0: e341 b5bd 2309 063e 72d7 ee3c 30d6 79be
000001f0: b210 02be 61af 1ebe 0e82 823c 7e93 01be
00000200: 085b 733d 0e28 70bd 38eb 14bd 721b 2e3d
00000210: fb5a e53d 093a e2bd d4ec 493e f90d a73d
00000220: 037a 7a3e 172c 353e 3e80 633e f2c0 d23e
00000230: a6d5 3bbe e02f 48be a9c7 183d 3d4b c33e
00000240: c144 abbd db0a cbbd 2952 b73e 5852 493e
00000250: 1088 c0be 009f 1abe 7927 d0bb f9a8 823e
00000260: ac15 a53c 2e6b c0be c34d a2be 19cb 7fbe
00000270: c264 6cbe 7f1e 233e edd2 5c3e c34a 05be
00000280: 548a 863d dc1c af3e 765d 17bc 3197 fabe
00000290: df4c 713d 81c2 ddbd 935a 11be 3693 1bbd
000002a0: 18b6 74be 4896 b63e 2d64 31bd b69c b9bd
000002b0: ce17 0bbe 0d9e afbd b378 95be 5550 d83d
000002c0: f02b 21be d151 84be 2323 843c 6791 0ebd
000002d0: 32f6 4d3e 1acc 07be 9015 8f3e dc65 053e
000002e0: 5258 273e a5c8 b73c a52e 783e 6271 18bd
000002f0: 5491 843d 2253 393c cc04 f1bd 0609 0ebe
00000300: abe9 a23e a80f dd3c 7678 96be e7c1 13bd
00000310: bc8a aebd 57d3 783e 94c0 1cbd 0835 8fbd
00000320: 033d c03d f99f 123d ffe5 c3bb 6538 193f
00000330: a432 f7bd 6c84 8abc 767e 82be be6a 1c3e
00000340: d507 7c3e 00d3 06be ecb4 ce3d 383f 1bbe
00000350: 7951 8e3e f6b0 6d3e fc03 f6bd 47d3 883e
00000360: 5c4d c1bd b27b 443e ced0 6b3e 5d05 893e
00000370: 443d 873e 834b cfbd 3940 23bd d08f f83e
00000380: 27cc 9a3e 8929 29bd e6eb 1d3e 884d 7e3e
00000390: f30a a23e 4e5f 473e ed82 d23e 7406 3f3d
000003a0: aba5 383e aa76 843e fcad 893c 4780 673e
000003b0: 7613 013f 8f9f 283e 76d8 083d 8d5d 0a3f
000003c0: 710c efbd c939 81be d54c 863e 7744 30be
000003d0: 75e3 243e df32 9ebc aa0d 8cbe 873b 273e
000003e0: 0fa8 2c3e 3dca 003e 88a9 83be 2223 cbbe
000003f0: 77b9 02bc a0c8 babe 6c73 2a3d f30f 4d3d

bias f4 [256]
0.21751495 -0.44629586 0.55460685 -0.14538723 0.2945111 -0.07092784 0.31516913 0.06878976
0.23722501 -0.14881797 -0.14561178 0.16982529 -0.3259435 0.04260908 -0.22848453 0.1896322
0.10982342 -0.36179432 -0.25559995 -0.12190565 0.2116445 0.22700939 0.11528627 0.31194964
0.24249952 0.16512012 0.51033074 0.46518457 0.3063741 0.09357366 0.14147298 0.2101396
0.5762926 -0.2197977 0.6969511 -0.22997807 -0.5928712 0.4649717 0.849413 0.053808473
0.035696637 -0.22442804 0.17780174 -0.3453495 0.13465412 -0.27758798 0.053377498 0.09605666
0.26081136 0.06822242 -0.036503643 0.39605168 -0.02372253 0.2428799 0.5613473 0.002601842
-0.1901132 0.37598908 -0.18205094 0.35503557 0.14958936 -0.04996037 -0.13956897 -0.46768132
0.30387592 -0.1755111 0.2804278 0.12592205 0.57901675 -0.099893086 -0.5957716 -0.2542868
0.04966181 0.16092484 0.19321448 -0.17684944 -0.2221001 -0.1653205 -0.2986097 -0.2595758
0.7192572 -0.6667247 0.13344629 -0.11031338 0.31304052 0.41759306 0.17640027 0.21760635
0.044676483 -0.225887 -0.69015783 -0.38153094 0.24340089 0.53127146 0.2302744 -0.8348014
0.37799436 -0.19262949 0.4032365 -0.30210593 -0.20554455 0.70449626 0.3682826 0.051694598
0.17954518 1.1413312 0.62579536 0.21364039 -0.029036023 -0.37167534 -0.12959711 0.27399775
-0.23682688 -0.19817199 0.09417814 0.12093236 0.33659527 0.6111426 0.10921975 -0.22913852
-0.042856585 0.29961014 0.8996531 0.15449375 -0.21396008 -0.309903 -0.27992973 -0.8222997
0.10354703 0.35901952 -0.25069717 -0.43766272 0.117941715 -0.5692774 0.33111903 -0.33891597
0.1946539 0.06585174 -0.13294038 -0.016063886 0.09858127 0.045753524 -0.1817609 0.15597102
-0.118292384 -0.66334265 -0.26866654 -0.35423318 0.7863943 -0.17996122 0.044271346 0.236433
-0.03223583 0.36336115 -0.6695819 0.05767134 0.33283612 -0.26970297 -0.14736873 -0.3853983
0.0040927855 0.21574283 0.28546998 0.025336316 -0.08069289 -0.27738744 -0.13148583 -0.4869566
-0.076588824 0.08233109 0.0815414 -0.9379356 0.21744312 0.051351067 0.0068911426 0.23100315
0.40244573 -0.018975148 0.0036097341 0.50080824 0.6469534 0.14903153 0.24262153 0.041099854
-0.044851255 0.035847247 0.538563 -0.26158562 -0.45694345 -0.9390589 0.51739264 -0.14274368
0.1268948 -0.17779475 -0.07999864 -0.21303137 0.12735064 -0.20587265 -0.08120426 0.14010654
-0.34468013 -0.13680382 0.23451516 0.13660854 0.26468882 -1.0816971 -0.55067664 0.087261945
0.11596903 -0.23683095 -0.3236374 0.11819942 0.36128208 0.06407136 0.16503444 0.2403784
0.31302524 0.3861536 -0.14822385 0.05976352 0.42516527 0.0891147 -0.19349802 0.20432232
-0.46255744 0.20261472 0.10839682 0.23011205 0.2336898 -0.017715365 0.021332283 0.16907722
0.12656394 -0.08834525 0.9149241 0.64989257 0.0020369356 -0.23084101 0.063747026 0.79784566
0.2727877 -0.3833464 -0.61168116 -0.15945894 -0.6357544 0.4244688 -0.3061496 0.068869635
-0.24434756 -0.040540345 -0.1859213 0.60715973 0.2136473 -0.20855477 -0.116496414 -0.26107723
00000000: 3dbc 5e3e e480 e4be b7fa 0d3f 64e0 14be
00000010: 29ca 963e 9e42 91bd d95d a13e a5e1 8c3d
00000020: 1deb 723e bd63 18be 411b 15be aee6 2d3e
00000030: 11e2 a6be dc86 2e3d d9f7 69be f22e 423e
00000040: 1aeb e03d 1b3d b9be ffdd 82be aba9 f9bd
00000050: 56b9 583e 2675 683e 351b ec3d ddb7 9f3e
00000060: cb51 783e 4015 293e 09a5 023f ac2c ee3e
00000070: 11dd 9c3e 8ca3 bf3d 4bde 103e d62e 573e
00000080: e987 133f a612 61be 636b 323f 5f7f 6bbe
00000090: 68c6 17bf c510 ee3e 2173 593f 4666 5c3d
000000a0: a336 123d 77d0 65be a911 363e a6d1 b0be
000000b0: c5e2 093e 0320 8ebe 5da2 5a3d 5bb9 c43d
000000c0: 1189 853e 32b8 8b3d d884 15bd 49c7 ca3e
000000d0: c055 c2bc 82b5 783e 75b4 0f3f aa83 2a3b
000000e0: 09ad 42be a481 c03e 906b 3abe 39c7 b53e
000000f0: f42d 193e 3fa3 4cbd 2beb 0ebe ed73 efbe
00000100: a095 9b3e 2fb9 33be 3c94 8f3e b6f1 003e
00000110: 713a 143f bf94 ccbd 7d84 18bf e131 82be
00000120: 2f6a 4b3d 7bc9 243e 04da 453e 0518 35be
00000130: 356e 63be c749 29be 5fe3 98be 1fe7 84be
00000140: 3d21 383f 78ae 2abf 25a6 083e fbeb e1bd
00000150: d946 a03e c2ce d53e 46a2 343e 33d4 5e3e
00000160: b0fe 363d ec4e 67be 2fae 30bf 0658 c3be
00000170: 153e 793e 6801 083f 0dcd 6b3e 8bb5 55bf
00000180: 7a88 c13e aa40 45be 0475 ce3e a1ad 9abe
00000190: 457a 52be de59 343f 898f bc3e b7bd 533d
000001a0: b1da 373e 2417 923f 2034 203f 8cc4 5a3e
000001b0: f4dc edbc 3b4c bebe 1bb5 04be 6f49 8c3e
000001c0: bf82 72be 99ed 4abe 78e0 c03d 63ab f73d
000001d0: 3756 ac3e d773 1c3f 9bae df3d 4aa3 6abe
000001e0: 638a 2fbd 8066 993e aa4f 663f 9c33 1e3e
000001f0: 5a18 5bbe 9bab 9ebe f352 8fbe 3c82 52bf
00000200: 7710 d43d 68d1 b73e 615b 80be 5415 e0be
00000210: 6d8b f13d 2abc 11bf 6f88 a93e 6586 adbe
00000220: 5a53 473e 47dd 863d 8621 08be 6998 83bc
00000230: fae4 c93d 0c68 3b3d 881f 3abe deb6 1f3e
00000240: 4743 f2bd d3d0 29bf a98e 89be 0d5e b5be
00000250: 2351 493f c147 38be df55 353d 7e1b 723e
00000260: b809 04bd 790a ba3e b869 2bbf c838 6c3d
00000270: 7f69 aa3e 8216 8abe d4e7 16be ed52 c5be
00000280: c61c 863b b0eb 5c3e 1f29 923e 1b8e cf3c
00000290: 5042 a5bd ba05 8ebe 39a4 06be 6052 f9be
000002a0: 9ada 9cbd 349d a83d 2dff a63d 8c1c 70bf
000002b0: 69a9 5e3e 7f55 523d 18cf e13b 178c 6c3e
000002c0: 5e0d ce3e c571 9bbc 4a91 6c3b f834 003f
000002d0: bd9e 253f b99b 183e c771 783e 5258 283d
000002e0: f3b5 37bd 90d4 123d 44df 093f 8dee 85be
000002f0: 7ef4 e9be 2a66 70bf d873 043f 662b 12be
00000300: b6f0 013e d40f 36be 54d6 a3bd e524 5abe
00000310: 3568 023e 48d0 52be 6b4e a6bd 1778 0f3e
00000320: ea79 b0be 4d16 0cbe be24 703e 1ce3 0b3e
00000330: 4b85 873e 0d75 8abf 25f9 0cbf 64b6 b23d
00000340: 2c81 ed3d d083 72be cdb3 a5be 8a12 f23d
00000350: f7f9 b83e d837 833d cafe 283e c125 763e
00000360: d844 a03e edb5 c53e fec7 17be 98ca 743d
00000370: 43af d93e c581 b63d 5824 46be df39 513e
00000380: 54d4 ecbe 3c7a 4f3e 27ff dd3d 7ea2 6b3e
00000390: 614c 6f3e d01f 91bc 0ac1 ae3c 9422 2d3e
000003a0: fa99 013e 5bee b4bd 7738 6a3f 5c5f 263f
000003b0: 1c7e 053b 9661 6cbe cd8d 823d 9d3f 4c3f
000003c0: d4aa 8b3e fb45 c4be 2397 1cbf 3449 23be
000003d0: cdc0 22bf f953 d93e a4bf 9cbe 860b 8d3d
000003e0: 3f36 7abe a20d 26bd 2762 3ebe d26e 1b3f
000003f0: 5cc6 5a3e 628f 55be ac95 eebd eaab 85be

weight f4 [128, 256]
-0.041801468 -0.034815006 0.17007215 -0.018882973 0.14264877 0.025677763 0.08891543 -0.075052746
0.23015748 0.043087456 0.014276013 -0.1541901 -0.09038777 0.052547798 -0.08010219 -0.11856696
0.029136116 0.023392085 0.05820608 -0.008969485 -0.004003058 -0.021401554 0.09501209 0.0048113046
0.043739848 0.08091821 0.03701861 0.04419211 0.021323945 -0.0032892097 -0.031917226 -0.044830404
-0.039644618 0.034311306 -0.06557594 -0.06568329 -0.2076029 0.09388135 0.013957747 0.077168174
-0.037563577 -0.04088785 0.082214415 -0.23829864 0.006456582 -0.0001107415 0.036421265 0.035000987
0.044318806 -0.07202167 -0.078055404 0.14347398 0.018974597 0.025519839 -0.034480195 -0.08185954
-0.034791585 0.30084753 0.07917241 0.03945808 0.0751633 -0.024938084 0.005944303 -0.13077082
-0.050703064 -0.009192714 0.050150026 0.12530284 0.08548277 -0.039077193 -0.1763755 0.042477734
-0.0012438096 0.004336335 0.20946969 0.04266262 0.0314151 0.1003256 0.01697825 0.17154045
-0.11896913 -0.3066615 0.065660134 -0.07316027 0.012816612 0.05208421 0.01986701 0.12942043
-0.2853944 0.01963284 -0.07242724 -0.08280607 0.015073451 -0.06307459 -0.022315506 -0.21052347
-0.040956073 0.017828632 -0.030246492 -0.015573506 0.01246626 0.0007446458 0.122926585 0.01402041
0.056222904 0.28630102 0.058688175 0.003069361 0.018629482 0.039114892 0.0541524 0.25147054
-0.02552507 -0.06132461 -0.02168476 -0.06785246 0.16584103 0.007692664 0.14653152 0.01702401
0.031668887 -0.0035596688 -0.11652307 -0.03043733 0.0022383113 -0.0351809 0.061408103 -0.19879627
-0.018811228 -0.0014126473 -0.10042593 0.10277444 -0.050308086 0.15394534 0.06623186 -0.08091256
0.14331685 0.031378835 0.012579111 0.077650346 0.004261435 -0.15669172 -0.09415648 0.08445134
-0.06971935 -0.3334483 0.020124486 -0.10336824 0.07378617 0.037459813 -0.15900773 0.23697233
-0.06878758 0.013630419 0.051399197 0.02472753 -0.015616557 0.041846283 -0.11771489 -0.1254708
0.07667772 0.027601887 0.20181611 -0.08496637 -0.066031106 0.07849542 -0.035185106 -0.14013761
-0.037824035 0.041310977 -0.013737856 0.002750472 0.084655605 0.05842688 -0.07919852 0.04774176
0.21293253 -0.12751174 0.0006852417 0.11213214 0.08855818 0.04861166 -0.08274069 -0.074233
-0.1599736 0.04139176 0.34142983 -0.10660941 -0.07522229 -0.26469874 0.07576976 -0.02901393
-0.031879954 0.038298555 0.09709951 -0.010028695 0.017507425 -0.016524907 0.26477024 0.030464275
0.06481168 -0.025848001 -0.021992892 -0.049316403 0.031066341 0.035661954 -0.22094963 0.00870254
-0.015844414 0.016840562 -0.07344184 0.045091055 0.29444456 -0.003131753 -0.025807217 0.18017001
0.055684302 0.036565483 -0.02987546 0.0053003957 0.058478944 0.06757183 0.111556694 0.06617775
-0.05386698 0.06398388 0.1382894 -0.035404608 -0.095603146 0.05743441 0.079895176 0.018963685
-0.033998955 -0.0059193694 0.25171846 -0.045023277 -0.026088882 -0.06339423 0.009961345 0.17196675
0.0151864635 -0.14053445 -0.088849515 -0.057998754 0.16429844 0.085458815 0.055842347 0.005995735
0.18443854 0.2351143 0.07147214 0.2789776 -0.037924066 -0.054927334 0.0098574 -0.11208604
00000000: 0438 2bbd 2e9a 0ebd 6527 2e3e 77b0 9abc
00000010: 8512 123e 2c5a d23c 4b19 b63d 41b5 99bd
00000020: 67ae 6b3e 797c 303d f0e5 693c 02e4 1dbe
00000030: 391d b9bd 5c3c 573d 9e0c a4bd 3cd3 f2bd
00000040: ddae ee3c c2a0 bf3c 8069 6e3d bff4 12bc
00000050: 162c 83bb 5052 afbc b395 c23d 26a8 9d3b
00000060: 8e28 333d 72b8 a53d d3a0 173d c902 353d
00000070: 8eaf ae3c c88f 57bb a3bb 02bd 16a0 37bd
00000080: 6562 22bd 038a 0c3d ae4c 86bd f684 86bd
00000090: db95 54be dd44 c03d 09af 643c 590a 9e3d
000000a0: 44dc 19bd 057a 27bd 0860 a83d 8f04 74be
000000b0: bc91 d33b e43d e8b8 772e 153d 325d 0f3d
000000c0: a387 353d 1980 93bd 83db 9fbd d8ea 123e
000000d0: 9d70 9b3c fb0e d13c 1b3b 0dbd f9a5 a7bd
000000e0: 9f81 0ebd b008 9a3e 2525 a23d cc9e 213d
000000f0: 37ef 993d f44a ccbc 6dc8 c23b c9e8 05be
00000100: 04ae 4fbd 099d 16bc 1d6a 4d3d 634f 003e
00000110: 9711 af3d 680f 20bd c79b 34be 22fd 2d3d
00000120: 5307 a3ba d117 8e3b 397f 563e 00bf 2e3d
00000130: 1fad 003d 8277 cd3d f915 8b3c 4da8 2f3e
00000140: 16a6 f3bd bc02 9dbe d278 863d 0dd5 95bd
00000150: c4fc 513c 4156 553d 24c0 a23c ca86 043e
00000160: 371f 92be 0dd5 a03c bc54 94bd 3b96 a9bd
00000170: a3f6 763c 402d 81bd 02cf b6bc 7793 57be
00000180: 8ec1 27bd 5a0d 923c 7ec7 f7bc 0528 7fbc
00000190: 493f 4c3c 5534 433a efc0 fb3d ddb5 653c
000001a0: fd49 663d 0c96 923e 0363 703d 5527 493b
000001b0: db9c 983c f036 203d e8ce 5d3d bfc0 803e
000001c0: f419 d1bc 842f 7bbd 3da4 b1bc 3bf6 8abd
000001d0: 3bd2 293e be12 fc3b 5c0c 163e f075 8b3c
000001e0: 3cb7 013d 5549 69bb a6a3 eebd b557 f9bc
000001f0: a2b0 123b d919 10bd 1087 7b3d 4091 4bbe
00000200: 011a 9abc 9428 b9ba 1cac cdbd 687b d23d
00000210: da0f 4ebd d9a3 1d3e 92a4 873d 7cb5 a5bd
00000220: a7c1 123e 1887 003d 9e18 4e3c 2507 9f3d
00000230: 82a3 8b3b cb73 20be 1dd5 c0bd d3f4 ac3d
00000240: 05c9 8ebd bcb9 aabe 1bdc a43c bab2 d3bd
00000250: 341d 973d 766f 193d ecd2 22be e0a8 723e
00000260: 81e0 8cbd 1f52 5f3c f787 523d 6491 ca3c
00000270: 96dc 7fbc 0267 2b3d 8114 f1bd 6b7b 00be
00000280: 3509 9d3d 5a1d e23c e2a8 4e3e d902 aebd
00000290: 513b 87bd 35c2 a03d 421e 10bd 3c80 0fbe
000002a0: 60ed 1abd b335 293d bf14 61bc 4341 343b
000002b0: eb5f ad3d 0651 6f3d d532 a2bd dd8c 433d
000002c0: fc0a 5a3e 7092 02be cba1 333a 89a5 e53d
000002d0: fe5d b53d 051d 473d f373 a9bd 7907 98bd
000002e0: 1fd0 23be 688a 293d e4cf ae3e 0956 dabd
000002f0: 250e 9abd 9886 87be 2d2d 9b3d 9fae edbc
00000300: 8e94 02bd f2de 1c3d 1cdc c63d 654f 24bc
00000310: bb6b 8f3c 3e5f 87bc f78f 873e 3790 f93c
00000320: fcbb 843d 30bf d3bc 702a b4bc ffff 49bd
00000330: d77e fe3c 4512 123d 9f40 62be 1995 0e3c
00000340: 25cc 81bc 38f5 893c ad68 96bd 66b1 383d
00000350: 70c1 963e 193e 4dbb a869 d3bc 7d7e 383e
00000360: 3915 643d b0c5 153d 61bd f4bc f1ae ad3b
00000370: 9e87 6f3d 1963 8a3d d677 e43d 3388 873d
00000380: 9fa3 5cbd fb09 833d bd9b 0d3e 6c04 11bd
00000390: 95cb c3bd 5840 6b3d 15a0 a33d bb59 9b3c
000003a0: 7d42 0bbd 45f7 c1bb 3ee1 803e 546a 38bd
000003b0: 5ab8 d5bc d6d4 81bd e934 233c 0d18 303e
000003c0: a5d0 783c 43e8 0fbe bcf6 b5bd 1a90 6dbd
000003d0: da3d 283e 0805 af3d f2ba 643d df77 c43b
000003e0: 75dd 3c3e cec1 703e fc5f 923d 27d6 8e3e
000003f0: 4456 1bbd 7cfb 60bd ef80 213c 5e8d e5bd

bias f4 [128]
0.074022196 -0.03671687 -0.050371807 0.0061744316 -0.0054526106 -0.02472523 0.0044985223 0.054584697
-0.06648666 0.04474986 0.019605309 0.02740664 -0.074727274 -0.011696391 0.016581474 -0.033068847
0.055071667 -0.014766434 -0.011994516 -0.0017589314 -0.08765731 0.06632523 -0.05262654 -0.0056416793
0.05706923 -0.022561088 -0.0052068452 -0.0036790369 0.07729238 0.036219336 0.028656488 -0.021147095
0.028987993 0.023511779 -0.012307522 -0.043252856 -0.082076184 -0.021478528 0.07294356 0.070839226
0.022274956 0.03566699 -0.03801575 0.038868032 -0.019537067 0.022220975 0.013536264 -0.038451944
0.055155963 0.0426874 -0.023125123 -0.03616281 0.06564923 0.07790145 -0.010988004 0.03802101
0.012939987 0.020091098 0.08723951 -0.015815454 0.0737804 -0.0024634767 -0.0056603584 0.031664066
-0.061067596 -0.019951014 0.02986438 0.010959245 0.024896348 0.016038483 0.02735974 -0.012994818
-0.04373033 0.020151844 0.005930629 0.054800935 -0.0037073498 0.00025779087 0.028251166 0.06508187
0.07372862 0.013565482 -0.057649612 -0.02581452 0.010000957 0.017977266 0.0036282206 0.024511637
0.02783732 -0.05628477 -0.06979097 0.07780711 0.029439984 0.021231335 0.06655819 -0.042005144
-0.027409723 -0.010015797 0.06768242 -0.015165928 -0.08809654 0.0789741 -0.01200294 0.053475015
0.02532512 -0.037835494 0.09121086 0.05521634 -0.0025226576 0.044072624 -0.034581207 -0.043406643
0.029846054 -0.06835299 -0.08482667 -0.0070972606 0.041073352 0.026295664 0.008218982 0.021386717
-0.033781316 0.022221489 -0.04180966 0.013251345 -0.057454817 0.0008051913 -0.034557443 0.024962159
00000000: f398 973d 6e64 16bd ab52 4ebd e352 ca3b
00000010: d0ab b2bb 918c cabc 5768 933b 3494 5f3d
00000020: 282a 88bd a14b 373d 509b a03c e483 e03c
00000030: 9d0a 99bd 38a2 3fbc dfd5 873c 3373 07bd
00000040: d492 613d eaee 71bc a584 44bc f28b e6ba
00000050: ad85 b3bd 86d5 873d ed8e 57bd d6dd b8bb
00000060: 6dc1 693d 08d2 b8bc 2f9e aabb ff1b 71bb
00000070: 784b 9e3d ba5a 143d 03c1 ea3c ac3c adbc
00000080: 3a78 ed3c c69b c03c 7da5 49bc e829 31bd
00000090: 8f17 a8bd bdf3 afbc 6f63 953d 2814 913d
000000a0: f879 b63c 8d17 123d 67b6 1bbd 1634 1f3d
000000b0: 330c a0bc c308 b63c 35c7 5d3c c97f 1dbd
000000c0: 38eb 613d fcd8 2e3d e670 bdbc 741f 14bd
000000d0: 1a73 863d cc8a 9f3d 0707 34bc ebbb 1b3d
000000e0: 3d02 543c 1696 a43c a1aa b23d 698f 81bc
000000f0: 2e1a 973d 4872 21bb 877a b9bb 2eb2 013d
00000100: 0422 7abd 4f70 a3bc 25a6 f43c 688e 333c
00000110: 6df3 cb3c 2363 833c 8921 e03c 38e8 54bc
00000120: 931e 33bd 7b15 a53c b955 c23b f276 603d
00000130: 02f7 72bb 1b28 8739 fd6e e73c a549 853d
00000140: 08ff 963d c141 5e3c 0022 6cbd f978 d3bc
00000150: 0edb 233c 0f45 933c 71c7 6d3b a1cc c83c
00000160: 170b e43c dc8a 66bd 91ee 8ebd 5659 9f3d
00000170: 1f2c f13c 56ed ad3c a94f 883d 960d 2cbd
00000180: 5b8a e0bc 4c19 24bc 159d 8a3d 837a 78bc
00000190: f56b b4bd 2cbd a13d fba7 44bc 9e08 5b3d
000001a0: a076 cf3c 64f9 1abd c2cc ba3d 872a 623d
000001b0: 2c53 25bb 7f85 343d 06a5 0dbd 2acb 31bd
000001c0: b67f f43c a7fc 8bbd 9bb9 adbd 2390 e8bb
000001d0: 883c 283d 016a d73c e9a8 063c 3233 af3c
000001e0: 475e 0abd d709 b63c 9b40 2bbd 2b1c 593c
000001f0: be55 6bbd 7913 533a 1b8c 0dbd 717d cc3c

weight f4 [64, 128]
0.019450748 0.030163696 -0.028653791 0.06602106 0.11496088 0.11907999 0.0811663 0.031164493
0.026276032 0.01111788 -0.052379426 -0.031518035 -0.075688854 0.08529317 0.042629298 0.078761585
-0.021809379 0.03113817 -0.10138804 -0.047287565 -0.018312257 -0.031495817 -0.08018001 0.043977734
-0.04060464 -0.008688455 0.09651963 0.100467026 0.02641508 0.10754974 0.076278016 -0.042192344
-0.063862376 0.0066432166 -0.027777812 0.016387735 0.054713417 -0.07290316 0.011899642 0.061310586
0.007127573 0.05526597 0.08040372 -0.044120878 -0.08422829 0.04403459 -0.06285269 0.0707715
-0.0036877734 0.018111963 -0.089624494 0.024577137 0.09381356 0.121668145 -0.046865713 -0.005858301
0.0036549189 0.06643092 0.04012972 0.0023079852 0.11798786 0.0726384 -0.07310668 -0.04229842
0.019687654 -0.058208983 -0.03304309 0.009053224 -0.0005571531 -0.020976575 -0.09067419 -0.031941988
-0.10647961 -0.06416953 0.032908037 0.05913299 0.018695135 0.017812563 0.054244686 -0.016938306
-0.036195457 -0.019618653 -0.051200725 -0.1139383 -0.067265086 0.0011612189 0.058714367 -0.032297272
0.009234834 -0.010811494 -0.094839714 0.09086497 0.044088323 -0.042774864 0.076509684 -0.046020232
0.04425568 -0.010811523 -0.05542719 0.10989281 -0.10454761 0.11252181 0.038376976 0.006003359
-0.02294308 0.06499247 0.07646405 0.08771609 -0.0010970846 0.022563787 -0.05008785 0.012716047
-0.057694234 0.043397907 -0.049674585 -0.0661557 -0.017110288 0.03188007 -0.05885862 -0.016475322
-0.006456213 -0.09016489 0.08119172 0.07300921 -0.09615338 -0.070480235 0.06005645 -0.07556583
0.022227222 0.10157178 0.014933156 -0.09924359 -0.11698854 0.02807631 0.017972449 -0.0393811
-0.0017543363 0.068054356 -0.009152439 -0.06366702 0.071456656 -0.0019917483 0.08380737 0.056813136
0.010971482 0.014841737 0.060803536 -0.11080419 -0.05338578 -0.052129593 0.100143865 -0.061511803
-0.10673437 -0.05459164 -0.0468837 -0.003097178 -0.068662785 0.039534822 -0.05017832 -0.10330951
0.08207705 -0.033526316 -0.06659975 0.046989143 0.10400908 0.07401014 0.09463858 -0.029738016
0.07130166 0.072375074 -0.11018599 0.03945511 0.119027786 0.038286883 -0.08082038 0.013490241
-0.010938968 0.065220624 -0.06807288 0.06831875 -0.11252396 -0.04532639 -0.064217955 0.05262712
0.0829941 0.041635804 -0.06330885 -0.046757694 -0.0068969633 -0.044498187 0.079555884 -0.026683677
0.07303302 -0.022957036 0.08170006 -0.05168577 0.05765779 0.028615216 0.02538857 -0.06714495
-0.002756327 -0.031791545 0.07615174 0.07842052 0.059268765 -0.07968162 -0.028498046 -0.07937539
-0.05479698 -0.043192513 -0.04949013 0.06700501 -0.080524534 0.009557646 -0.033102833 0.033558115
-0.06437003 -0.061403528 0.011156225 -0.0780805 -0.024546204 0.08171361 -0.12191789 -0.05491475
-0.09810333 -0.081968404 -0.059181478 0.0010013074 0.006842581 0.048411533 0.032724068 -0.04751307
0.015803777 -0.060476266 -0.015325163 -0.10590039 -0.061764613 0.03129211 -0.021070277 0.024147019
-0.08450779 0.041944444 0.055294164 0.047477562 0.008707602 -0.0073337452 0.089500576 0.02726884
0.037047274 -0.02333179 -0.016400281 0.015668597 0.124244146 0.054632004 -0.04789523 0.054482892
00000000: 2d57 9f3c db19 f73c 5bbb eabc 0d36 873d
00000010: 9c70 eb3d 36e0 f33d 843a a63d ae4c ff3c
00000020: d540 d73c c527 363c cf8b 56bd 0e19 01bd
00000030: c202 9bbd 2fae ae3d 0f9c 2e3d c14d a13d
00000040: 95a9 b2bc 7a15 ff3c 88a4 cfbd 9bb0 41bd
00000050: 9603 96bc c201 01bd 6b35 a4bd ff21 343d
00000060: 0d51 26bd 065a 0ebc 15ac c53d a8c1 cd3d
00000070: 7064 d83c 0a43 dc3d a637 9c3d e1d1 2cbd
00000080: 47ca 82bd 57af d93b 4b8e e3bc 923f 863c
00000090: 2d1b 603d 404e 95bd b7f6 423c cf20 7b3d
000000a0: 6a8e e93b 925e 623d b5aa a43d 18b8 34bd
000000b0: e27f acbd 9d5d 343d e9b8 80bd a6f0 903d
000000c0: 92ae 71bb 8a5f 943c 0c8d b7bd fe55 c93c
000000d0: 5321 c03d 262d f93d 43f6 3fbd fef6 bfbb
000000e0: 5d87 6f3b ef0c 883d 105f 243d 9141 173b
000000f0: 9fa3 f13d 71c3 943d f4b8 95bd 1c41 2dbd
00000100: 0148 a13c 8b6c 6ebd 3158 07bd f953 143c
00000110: e90d 12ba 11d7 abbc 64b3 b9bd 9ad5 02bd
00000120: fb11 dabd 516b 83bd 94ca 063d 6f35 723d
00000130: 8a26 993c a7eb 913c ad2f 5e3d 34c2 8abc
00000140: b041 14bd 4cb7 a0bc dab7 51bd 7c58 e9bd
00000150: 47c2 89bd 0a34 983a 7a7e 703d 254a 04bd
00000160: b44d 173c b122 31bc 533b c2bd 6a17 ba3d
00000170: f595 343d b234 2fbd 1cb1 9c3d b67f 3cbd
00000180: 7245 353d d022 31bc 9f07 63bd 7b0f e13d
00000190: 0f1d d6bd d671 e63d 2d31 1d3d d3b7 c43b
000001a0: 20f3 bbbc c61a 853d 2f99 9c3d 7ea4 b33d
000001b0: 0dcc 8fba b1d7 b83c eb28 4dbd f756 503c
000001c0: ca50 6cbd 01c2 313d 9477 4bbd a47c 87bd
000001d0: e02a 8cbc ad94 023d bc15 71bd 41f7 86bc
000001e0: a48e d3bb 5fa8 b8bd d847 a63d da85 953d
000001f0: 10ec c4bd f157 90bd c1fd 753d 42c2 9abd
00000200: dd15 b63c de04 d03d 32aa 743c 3940 cbbd
00000210: b097 efbd 4a00 e63c f53a 933c 144e 21bd
00000220: c2f1 e5ba 1560 8b3d 1df4 15bc db63 82bd
00000230: de57 923d fe87 02bb 33a3 ab3d e4b4 683d
00000240: bbc1 333c c22a 733c 210d 793d 4fed e2bd
00000250: 0cab 5abd d785 55bd 3a18 cd3d cdf3 7bbd
00000260: 8d97 dabd 7c9b 5fbd 1f09 40bd 06fa 4abb
00000270: 139f 8cbd 44ef 213d c887 4dbd f093 d3bd
00000280: 0318 a83d e452 09bd 7365 88bd b077 403d
00000290: b602 d53d a192 973d dfd1 c13d 249d f3bc
000002a0: 9b06 923d 6239 943d 31a9 e1bd ae9b 213d
000002b0: d7c4 f33d b5d2 1c3d 2885 a5bd 2c06 5d3c
000002c0: 5b39 33bc 6492 853d cb69 8bbd b3ea 8b3d
000002d0: f672 e6bd 2aa8 39bd b484 83bd 898f 573d
000002e0: d0f8 a93d 4e8a 2a3d 12a8 81bd ff84 3fbd
000002f0: ecff e1bb bb43 36bd 32ee a23d ba97 dabc
00000300: 5692 953d 6510 bcbc 5c52 a73d 75b4 53bd
00000310: 932a 6c3d 756a ea3c b1fb cf3c 4b83 89bd
00000320: 7ea3 34bb da37 02bd 72f5 9b3d f09a a03d
00000330: cec3 723d 1e30 a3bd bc74 e9bc 918f a2bd
00000340: cc72 60bd a2ea 30bd 2ab6 4abd ec39 893d
00000350: 0cea a4bd ac97 1c3c d696 07bd 3c74 093d
00000360: 6fd4 83bd 4482 7bbd 99c8 363c abe8 9fbd
00000370: 1f15 c9bc 7759 a73d 16b0 f9bd 4aee 60bd
00000380: 66ea c8bd 0ddf a7bd 4768 72bd 4d3e 833a
00000390: bb37 e03b 2c4b 463d ac09 063d 119d 42bd
000003a0: ec76 813c f6b5 77bd 6416 7bbc 4ee2 d8bd
000003b0: e4fc 7cbd 282c 003d 939b acbc f8cf c53c
000003c0: 6c12 adbd f0cd 2b3d 227c 623d d577 423d
000003d0: 54aa 0e3c ea4f f0bb 144c b73d e762 df3c
000003e0: e2be 173d 4f22 bfbc e259 86bc 6e5b 803c
000003f0: b773 fe3d cfc5 5f3d ca2d 44bd 7429 5f3d

bias f4 [64]
0.012158066 -0.06006249 0.0947781 -0.006797408 0.021347843 -0.116582714 -0.059498858 -0.004144444
0.05768962 -0.06215404 -0.071128845 -0.02204586 0.1104092 -0.0646911 -0.06528105 0.018125724
-0.107308425 -0.02503131 -0.039813828 0.10992216 0.038820945 0.091680646 -0.0064293863 -0.015269795
-0.07873166 -0.035515618 -0.11182972 -0.01701926 0.056360748 0.02183289 0.0845508 -0.062899925
0.07286012 0.06566088 0.07986564 0.049396746 0.046884544 0.0700043 0.09616475 0.020415884
-0.066201 -0.10502326 -0.022331843 0.04705217 -0.05374927 0.111057766 -0.061074708 -0.030079281
-0.009121567 -0.038590882 -0.024792472 -0.014752778 -0.007919781 0.03162001 -0.06901043 0.050011728
0.057953 0.013993732 0.0161998 0.121602036 0.06406209 0.118110865 -0.06771429 0.008443265
00000000: a032 473c 1604 76bd 051b c23d cbbc debb
00000010: ace1 ae3c ebc2 eebd 13b5 73bd 1ece 87bb
00000020: f34b 6c3d 3c95 7ebd 00ac 91bd 8599 b4bc
00000030: 381e e23d c47c 84bd 12b2 85bd 667c 943c
00000040: 85c4 dbbd 760e cdbc d313 23bd df1e e13d
00000050: b602 1f3d 10c3 bb3d 9aad d2bb 2a2e 7abc
00000060: 113e a1bd d378 11bd fb06 e5bd fa6b 8bbc
00000070: 87da 663d e4da b23c f828 ad3d add1 80bd
00000080: b037 953d 3679 863d 9990 a33d 3e54 4a3d
00000090: 020a 403d 6a5e 8f3d 06f2 c43d 363f a73c
000000a0: 6494 87bd 6f16 d7bd 45f1 b6bc c7b9 403d
000000b0: 3228 5cbd 4172 e33d 7929 7abd d368 f6bc
000000c0: a072 15bc 7911 1ebd 9519 cbbc a3b5 71bc
000000d0: f8c1 01bc fc83 013d 5755 8dbd 19d9 4c3d
000000e0: 2060 6d3d f745 653c 71b5 843c 7d0a f93d
000000f0: fc32 833d 1ce4 f13d caad 8abd 9f55 0a3c

weight f4 [32, 64]
-0.14079577 0.034041155 -0.14280082 -0.035748456 0.11715833 0.098677896 0.010120219 -0.09620155
-0.13421051 0.058684215 0.12799263 0.13394791 -0.07822584 -0.004736551 0.07219596 0.010404428
0.1531105 -0.02382748 0.14694582 -0.14465992 -0.061849978 0.036267247 0.0069543873 0.0926217
-0.037387025 -0.08245417 0.10243574 0.034990042 -0.08494065 -0.026580311 0.025807992 -0.06927902
-0.003581108 -0.057750713 0.018677529 0.04216914 -0.17999685 -0.08535041 -0.11548556 0.059997283
0.15605195 -0.01140715 0.014693431 -0.12754178 0.082432784 0.011469203 -0.08268571 -0.121558696
-0.15083301 -0.00739148 -0.036546264 0.053359956 0.020364746 -0.0076530175 0.25637376 -0.031061994
-0.05433644 0.25100228 -0.14366505 -0.17026323 -0.012468403 0.0067822197 0.11664062 0.1437863
-0.068590626 0.06301177 -0.028021391 0.06161891 0.08973057 0.07447555 0.08903076 -0.33936262
0.052998416 -0.056735847 0.069281854 0.5045009 -0.13690369 0.07509944 -0.1298666 -0.27784672
0.15866938 -0.11726685 0.22279808 -0.021922259 -0.31260404 0.06089004 0.0012898496 -0.028556181
-0.028417569 -0.034279432 0.1895212 -0.067009866 0.089658715 0.20131655 -0.151628 -0.014876382
0.015796551 -0.17099895 -0.0053642956 -0.0706246 -0.14603093 0.07703192 -0.12428135 0.14809385
0.06626053 -0.04440612 0.0077742906 -0.054627128 -0.0032973718 0.14723307 -0.1435848 -0.092658676
0.016460747 0.002244772 -0.017893298 0.13568844 0.15449913 -0.018179042 0.14501472 0.44581586
-0.14297517 -0.078288384 -0.02510149 0.03027432 0.07998787 -0.053184733 0.09812301 0.14829604
-0.108871326 -0.03697923 -0.04672406 -0.17172863 0.053043135 0.16968533 0.045695383 -0.034075145
-0.16653718 -0.08200662 0.16888924 0.103719026 -0.105436236 0.088737726 -0.09969654 0.12730733
0.1141392 -0.09650892 0.056686047 0.01149711 0.009913867 -0.03486902 0.102424815 0.167113
0.019501843 0.029384574 0.099106275 0.21638946 0.051714323 0.11614651 0.026020499 -0.11224125
-0.11715068 -0.078345545 0.03093047 -0.004610624 0.0012328009 -0.10995138 -0.114673294 -0.11266237
0.17848743 0.10620644 -0.13007031 -0.1240512 0.04950807 -0.024364674 -0.031212531 -0.06978265
-0.1252558 0.104303926 0.022491075 0.1221318 0.002333983 -0.06826528 0.06214303 0.017936112
0.047224533 0.080482885 -0.010649069 -0.1308438 0.042415794 -0.14389831 0.091896765 0.12244878
0.13027065 0.026985178 -0.085848235 0.014280438 0.002348516 -0.045085434 -0.2197211 0.18793552
0.1354912 -0.1446656 -0.022113714 0.009497843 -0.093091905 -0.12761755 -0.019874552 0.11348505
-0.101646885 0.09992896 -0.05046124 0.11080219 -0.038682416 0.15139645 -0.061453268 -0.055145737
-0.019609042 0.36901227 -0.06152897 -0.001705928 0.02689678 -0.034396395 0.19074284 0.21883297
0.079523884 0.12422657 0.12404559 0.07867482 0.1144246 -0.08494266 -0.03262034 -0.11494175
-0.0892908 -0.037265666 0.028596144 0.0039739953 -0.09707297 -0.21075037 0.13981728 0.21759915
0.3246366 -0.10921304 0.07562413 -0.038685005 -0.06574213 -0.083439544 -0.040201847 -0.10646493
0.010158159 -0.08896188 0.018573841 -0.085887894 -0.110566385 -0.056946263 0.022787191 -0.008692527
00000000: c42c 10be bd6e 0b3d 613a 12be f96c 12bd
00000010: b5f0 ef3d a317 ca3d 46cf 253c 5105 c5bd
00000020: 7b6e 09be dc5e 703d 8010 033e a429 093e
00000030: df34 a0bd 1235 9bbb 7adb 933d 5577 2a3c
00000040: 00c9 1c3e d931 c3bc f778 163e bb21 14be
00000050: 6756 7dbd f78c 143d a1e1 e33b 72b0 bd3d
00000060: 2323 19bd bbdd a8bd d4c9 d13d b851 0f3d
00000070: 5df5 adbd f4be d9bc 486b d33c 29e2 8dbd
00000080: 06b1 6abb 038c 6cbd 9e01 993c 8cb9 2c3d
00000090: 1851 38be 32cc aebd b183 ecbd b6bf 753d
000000a0: 15cc 1f3e 0ee5 3abc b7bc 703c 509a 02be
000000b0: 85d2 a83d 53e9 3b3c 2057 a9bd c4f3 f8bd
000000c0: f873 1abe 3a34 f2bb 89b1 15bd f88f 5a3d
000000d0: f8d3 a63c 2ac6 fabb 6c43 833e b975 febc
000000e0: e38f 5ebd 5f83 803e ee1c 13be 7c59 2ebe
000000f0: 4648 4cbc 623d de3b 47e1 ee3d b73c 133e
00000100: 3e79 8cbd 510c 813d 1e8d e5bc 1c64 7c3d
00000110: a9c4 b73d a386 983d c255 b63d f0c0 adbe
00000120: de14 593d d963 68bd a5e3 8d3d f926 013f
00000130: 7b30 0cbe bccd 993d c0fb 04be ed41 8ebe
00000140: 3a7a 223e 9a29 f0bd 2e25 643e 4f96 b3bc
00000150: a30d a0be d667 793d 2c10 a93a a7ee e9bc
00000160: f6cb e8bc 9768 0cbd d811 423e 783c 89bd
00000170: fd9e b73d ed25 4e3e 5f44 1bbe 12bc 73bc
00000180: c567 813c 591a 2fbe f9c6 afbb a1a3 90bd
00000190: 2289 15be e9c2 9d3d 3887 febd eaa5 173e
000001a0: 9ab3 873d 31e3 35bd 7abf fe3b b2c0 5fbd
000001b0: b818 58bb 44c4 163e e507 13be d5c3 bdbd
000001c0: b0d8 863c 061d 133b f794 92bc e9f1 0a3e
000001d0: 0535 1e3e 37ec 94bc bd7e 143e fa41 e43e
000001e0: 1568 12be a955 a0bd a4a1 cdbc da01 f83c
000001f0: aed0 a33d 3cd8 59bd b7f4 c83d ebda 173e
00000200: eef7 debd 8877 17bd ba61 3fbd a1d9 2fbe
00000210: c243 593d fec1 2d3e 152b 3b3d 6192 0bbd
00000220: b988 2abe 16f3 a7bd 4df1 2c3e a46a d43d
00000230: f4ee d7bd 20bc b53d b32d ccbd da5c 023e
00000240: d0c1 e93d 78a6 c5bd a12f 683d 605e 3c3c
00000250: c66d 223c d1d2 0ebd 1ac4 d13d ac1f 2b3e
00000260: 54c2 9f3c ebb7 f03c 3bf8 ca3d 3395 5d3e
00000270: 66d2 533d 39de ed3d f128 d53c bede e5bd
00000280: b2ec efbd a173 a0bd e661 fd3c b814 97bb
00000290: ef95 a13a 302e e1bd d5d9 eabd 87bb e6bd
000002a0: 69c5 363e c382 d93d 2731 05be 8e0e febd
000002b0: f9c8 4a3d 6d98 c7bc 6cb1 ffbc 35ea 8ebd
000002c0: 0e43 00be 4c9d d53d 343f b83c 3d20 fa3d
000002d0: bdf5 183b abce 8bbd b189 7e3d c1ee 923c
000002e0: 836e 413d 36d4 a43d 6f79 2ebc ebfb 05be
000002f0: 2fbc 2d3d 145a 13be 5f34 bc3d 6dc6 fa3d
00000300: ab65 053e 0510 dd3c 33d1 afbd 80f8 693c
00000310: 8fe9 193b 81ab 38bd 91fe 60be 2b72 403e
00000320: 35be 0a3e 3823 14be d227 b5bc d79c 1b3c
00000330: f8a6 bebd 2dae 02be f5cf a2bc da6a e83d
00000340: 3e2c d0bd 8ea7 cc3d 72b0 4ebd 42ec e23d
00000350: 7471 1ebd ac07 1b3e 6cb6 7bbd 7fe0 61bd
00000360: 24a3 a0bc 2def bc3e cd05 7cbd 7299 dfba
00000370: a356 dc3c 3ce3 0cbd 1752 433e c015 603e
00000380: 6bdd a23d 806a fe3d 9d0b fe3d 4420 a13d
00000390: 7257 ea3d 6bf6 adbd e89c 05bd 9566 ebbd
000003a0: 18de b6bd e2a3 18bd 7642 ea3c 4a38 823b
000003b0: 31ce c6bd f2ce 57be 432c 0f3e 50d2 5e3e
000003c0: c536 a63e 16ab dfbd d3e0 9a3d 2b74 1ebd
000003d0: cfa3 86bd 5ae2 aabd b1aa 24bd 490a dabd
000003e0: 686e 263c a531 b6bd 2b28 983c fee5 afbd
000003f0: a170 e2bd 7c40 69bd 34ac ba3c 1a6b 0ebc

bias f4 [32]
-0.12349849 0.051747408 -0.011040198 -0.060573995 0.0791194 0.053922232 -0.10951109 -0.0138479695
-0.02576211 0.092473656 0.09539379 0.13252887 -0.008196575 -0.047787104 0.09379397 0.07412621
0.10708278 -0.18544666 -0.06781522 -0.028147208 -0.15498531 -0.012999694 0.03784412 -0.07329366
-0.049146168 0.091596335 -0.089767985 -0.037677225 0.122585654 0.1330344 0.049177118 0.05412462
00000000: c7ec fcbd 17f5 533d f2e1 34bc 701c 78bd
00000010: 5a09 a23d 8fdd 5c3d 5a47 e0bd 98e2 62bc
00000020: 0f0b d3bc d462 bd3d d25d c33d a6b5 073e
00000030: ed4a 06bc 69bc 43bd 0e17 c03d 7bcf 973d
00000040: 374e db3d bbe5 3dbe b5e2 8abd f994 e6bc
00000050: 78b4 1ebe abfc 54bc 7002 1b3d fd1a 96bd
00000060: 7e4d 49bd dc96 bb3d 47d8 b7bd 6f53 1abd
00000070: 300e fb3d 2b3a 083e f26d 493d c7b1 5d3d

weight f4 [1, 32]
-0.3350777 -0.365637 -0.38844597 0.36164397 -0.34220514 0.44498807 0.2992196 0.3336773
0.30550086 0.33185738 -0.37895116 0.36642668 -0.36816266 -0.30102342 0.26226112 0.48329827
-0.3529065 -0.32325792 -0.2996331 -0.36098376 -0.2885308 -0.3474329 0.35489565 -0.36916515
-0.31199178 -0.41815037 0.27549914 -0.29600137 0.25270125 0.40268764 0.4066854 0.39307806
00000000: 4e8f abbe c634 bbbe 64e2 c6be 6629 b93e
00000010: 8335 afbe 7ad5 e33e 5033 993e c0d7 aa3e
00000020: 9c6a 9c3e 36e9 a93e e305 c2be 479c bb3e
00000030: d17f bcbe be1f 9abe 1747 863e df72 f73e
00000040: 29b0 b4be 1082 a5be 8269 99be ddd2 b8be
00000050: 4fba 93be bae2 b1be e2b4 b53e 3703 bdbe
00000060: 63bd 9fbe ce17 d6be 390e 8d3e 7e8d 97be
00000070: 0f62 813e 132d ce3e 1239 d03e 8741 c93e
