Models/Playground_model_4.pth (torch, 22198 bytes, 5 tensors)

weight f4 [64, 4]
000000 77 0d 34 bf 07 2a 06 3b 66 89 72 3e 09 3e 1b bf
       -0.70333046 0.0020471828 0.23685226 -0.60641533
000010 e9 02 8a bc 32 5c 54 be c1 83 ec bd 08 71 02 c0
       -0.01684709 -0.20738295 -0.115485676 -2.0381489
000020 c9 17 03 bf 8d a9 bc 3e 74 58 98 3e 14 63 e9 be
       -0.5120817 0.36848107 0.29754984 -0.45583403
000030 e2 eb ef 3e 5c c6 a0 be e0 8d a5 3e 70 3f e1 3e
       0.46859652 -0.31401336 0.32334805 0.4399371
000040 af bf a0 be 0c 25 0f bf 60 7a d1 bd b5 03 1a c0
       -0.31396243 -0.55915904 -0.10228419 -2.4064763
000050 d3 bb 2d be 2f 6f 03 3d be 56 3b 3e 97 8f 8a 3d
       -0.1696618 0.032088455 0.18294808 0.06765669
000060 ae 93 52 3e 22 f0 95 bd 40 43 1e be dc 1b b5 bf
       0.20564148 -0.07321192 -0.15455341 -1.4149127
000070 85 a8 e4 3e f8 10 4a bf 1f 3d 85 3e a7 e4 41 3f
       0.4465982 -0.7893214 0.26023194 0.7573952
000080 6c 41 8e 3f c7 89 cb 3e dd 75 6b bd 1b 73 ae 3e
       1.1113715 0.39753553 -0.05748545 0.34072194
000090 f1 f8 cc bd 2a 23 91 3c ae d3 d9 3e d7 70 18 bf
       -0.10008419 0.017716963 0.4254431 -0.5954718
0000a0 82 5d 1e 3f 15 b1 ae be 8a 13 22 bc 7b 16 66 3f
       0.6186143 -0.34119478 -0.009892354 0.8987805
0000b0 4a c9 eb 3d f8 00 14 bf 12 43 20 be 3f 6b 91 bf
       0.11513002 -0.5781398 -0.15650585 -1.1360854
0000c0 23 94 69 3e 85 1d 53 be 27 e6 0d be 62 a0 b7 bf
       0.22810416 -0.2061673 -0.13857327 -1.434582
0000d0 e1 73 44 be 0b 18 a9 bb 53 3c c1 bd c2 ea 3c c0
       -0.1918483 -0.005160337 -0.09435334 -2.9518285
0000e0 17 ba 4a be e2 cb 8e be 9b 7e ed bd 4e 92 ec bf
       -0.1979755 -0.27889925 -0.11596414 -1.8482149
0000f0 cf e0 16 bf 2a 04 44 3e 85 79 89 bd bb 21 17 c0
       -0.5893678 0.19142213 -0.06712631 -2.3614337
000100 94 ac a1 3e 38 67 be 3e 2f 29 d6 3e 3e 10 c9 be
       0.3157698 0.37188125 0.41828296 -0.39270204
000110 99 77 4e bf 17 ab e2 3e a3 73 c6 3e 60 ef f9 be
       -0.8065124 0.44271156 0.387601 -0.4881544
000120 c9 9d 0e bf a8 c0 09 3e d2 27 d9 bd 96 b4 07 c0
       -0.5570951 0.13452399 -0.10603298 -2.120397
000130 db 4d f1 3e 93 c5 89 be fb 93 18 be 85 ca 4d bf
       0.47129712 -0.2690855 -0.149002 -0.80387145
000140 8b c4 6c be 33 ea f0 be fa d0 ef bd de 3a f1 bf
       -0.2312185 -0.4705368 -0.11709781 -1.884609
000150 11 72 bf 3e 27 18 15 be d0 57 18 be 39 a6 ba bf
       0.37391713 -0.14559995 -0.14877248 -1.4581977
000160 2e 1d 14 bf aa d0 09 bd b3 92 7b 3c fc c2 bf be
       -0.57857025 -0.033646263 0.0153548 -0.3745345
000170 6d fc ef 3e 74 90 6f bd 2d 54 36 3e 03 e0 11 3f
       0.46872273 -0.05848737 0.17805548 0.5698244
000180 96 64 6c 3f c4 65 66 3e f9 92 41 bd b6 d4 c2 bd
       0.9234098 0.22499758 -0.047259305 -0.09513228
000190 84 43 61 be 9a c2 bd be fa 43 4d 3e b8 81 bd 3c
       -0.21998411 -0.37062532 0.20045462 0.023133144
0001a0 3d 7b e2 3c 18 91 b5 3e 02 41 31 be 4c 8e ba bf
       0.027646655 0.3546226 -0.17309955 -1.4574676
0001b0 16 bf 78 3e bf d4 c4 3e 53 97 11 3e 37 75 ed bd
       0.24291644 0.38443562 0.14217882 -0.115946226
0001c0 b0 d4 24 3e ce 99 9e 3e 19 48 c1 3e 82 32 33 3c
       0.16096759 0.3097672 0.3775032 0.010937335
0001d0 78 60 63 bd fb 91 db 3e dd a9 0e be e0 f8 d8 bf
       -0.05551192 0.42884812 -0.13931985 -1.6950951
0001e0 f1 b3 ec 3e 17 e2 8a 3d f4 21 2c be e3 89 dc bf
       0.46231034 0.067814045 -0.16809827 -1.722958
0001f0 af 93 11 3f d4 96 63 3e de e5 a1 3e f5 da c7 3e
       0.5686597 0.22225505 0.31620687 0.39034238
000200 f2 f1 69 bf de 53 89 3e 98 d9 05 3e e2 44 a3 bf
       -0.91384804 0.26821798 0.13071287 -1.2755396
000210 7f 19 f4 be d8 aa 0a be 0b 6c c8 3d f7 bd 1b 3d
       -0.47675702 -0.13541734 0.097862326 0.03802296
000220 74 35 cd bd f8 d8 c7 be 66 15 06 be 11 b6 a7 bf
       -0.10019961 -0.39032722 -0.130941 -1.3102437
000230 85 35 3a 3e a6 2d 67 be 08 92 20 be df 00 93 bf
       0.18184479 -0.22576007 -0.15680707 -1.1484641
000240 ef ba 73 3e c3 8b 0d be 80 51 1c be 48 ce d7 bf
       0.23801778 -0.13822846 -0.15265465 -1.6859827
000250 ba 2c 5c be a1 3e 7d 3e 70 64 d9 bd 9c 24 1a c0
       -0.21501437 0.24730922 -0.1061486 -2.4084845
000260 ed 24 38 3f 95 9e 24 be 3f f5 bd 3d 21 17 1b 3f
       0.71931344 -0.16076119 0.092752926 0.60582167
000270 23 6a ad 3e a4 10 5d 3d c2 c6 7d 3e b4 32 a6 3d
       0.33870038 0.053970948 0.24782851 0.081151396
000280 df 0a 47 3f c8 4b da be 07 e6 08 3d fc a1 29 3f
       0.7775096 -0.42635942 0.033422496 0.66262794
000290 8d a6 20 3e b8 33 bc be 23 13 62 3d 31 b4 25 bf
       0.15688534 -0.36758208 0.05519403 -0.64728075
0002a0 fb 03 41 bf 1d df 84 3d c6 65 43 3e cd c7 79 be
       -0.753967 0.06487868 0.19081792 -0.24392624
0002b0 d4 d1 d5 3e 9c 73 25 bf 73 35 27 3c 7c 2c 21 3f
       0.4176165 -0.6462953 0.010205614 0.629585
0002c0 c8 b3 49 bf 6e 48 ab 3e 1d da d8 3e 0e 4b ef be
       -0.7878995 0.33453697 0.42353907 -0.4673695
0002d0 a0 6a dc be f8 1a 8c 3e 86 f7 c0 3e 60 7a e4 be
       -0.43050098 0.27364326 0.37688845 -0.44624615
0002e0 de a5 c9 3e 31 34 ec be 05 45 f6 3d 75 91 33 be
       0.3938436 -0.4613357 0.12024883 -0.17535956
0002f0 79 30 0d 3f e8 eb 6a 3e 2e be 2b be 4a 3c 87 bf
       0.5515209 0.22941554 -0.16771767 -1.0565274
000300 f5 60 73 be 64 89 03 3f 28 44 ba 3e 62 aa d5 be
       -0.23767455 0.51381516 0.36380124 -0.41731554
000310 6c 9b 12 3f c2 e5 27 be cd 46 ba 3d 93 3b 8e 3f
       0.57268405 -0.1639624 0.090955354 1.1111931
000320 44 7c 15 bf 2d 33 ed be 91 e6 f1 bd a0 a7 aa bf
       -0.5839274 -0.46328107 -0.11811555 -1.3332405
000330 9a db 8c be 57 29 d4 bd 0f c5 aa bd 15 de 24 c0
       -0.27511293 -0.103594474 -0.08338367 -2.5760548
000340 36 ac 9b be 54 b0 93 3e 1c 4b cb bd 05 de 10 c0
       -0.30404824 0.28845465 -0.09926435 -2.263551
000350 60 9f 70 3e 07 e0 b9 3d ff 1d b2 3e 2f d8 13 be
       0.23498297 0.09075933 0.3478851 -0.14437936
000360 6a 9c 65 bf ea 8a 1f 3f 3a 80 12 3d fe 0c ca be
       -0.89691794 0.6232134 0.035766818 -0.39463037
000370 f7 42 8e bd be 67 6b 3e bf f0 fa bd 79 a0 0d c0
       -0.06946366 0.22988793 -0.1225295 -2.2129195
000380 6f cc c5 3e 24 4c 6b 3e 62 39 1d be 81 30 c2 bf
       0.38632533 0.22978264 -0.15353921 -1.5171052
000390 34 69 0d 3f 67 5e df bd 22 b9 13 be 11 b4 02 bf
       0.5523865 -0.10906678 -0.14426091 -0.5105601
0003a0 29 8b 67 3e c0 f2 00 bf c2 45 cd 3e ad 74 56 be
       0.22611679 -0.5037041 0.40092283 -0.20942946
0003b0 f3 ac be be ec 0d 47 3f 51 4d 99 bb 9d f3 75 bf
       -0.37241325 0.7775562 -0.0046784063 -0.9607485
0003c0 5c 37 12 bf 62 82 9f be 21 82 c7 3c 5a 7f 91 3e
       -0.5711572 -0.31154162 0.024354042 0.28417474
0003d0 41 bc 06 3f b2 a3 11 be b4 c6 b1 3e 99 6a 4b be
       0.52631 -0.14222601 0.3472191 -0.19864883
0003e0 ea 30 46 3f 76 9f 29 bf 83 0d 68 bc 0d ea 41 3f
       0.77418387 -0.66258943 -0.014163378 0.7574776
0003f0 63 15 ea 3e 5d 68 28 bc a4 b1 b8 3d e4 b9 cf be
       0.45719442 -0.010278788 0.09018257 -0.4057151

bias f4 [64]
000000 26 dd 1e be 63 f2 2b 3f 87 44 d4 3e 72 06 26 bf
       -0.15514049 0.6716673 0.41458532 -0.64853585
000010 90 4b 91 3e af d5 59 be 94 a1 7c 3e 39 c5 c7 be
       0.28377962 -0.2127292 0.24671012 -0.39017656
000020 92 97 08 3f 68 97 dc bc cf d2 ab 3c 18 13 be bc
       0.5335628 -0.026927665 0.020974545 -0.023202464
000030 b7 5f 08 3e 68 19 a2 3f e4 f9 ce 3e f0 48 68 3f
       0.13317762 1.2664003 0.40425026 0.90736294
000040 95 22 a6 be 79 ad 13 3f f2 73 f6 bd 64 b8 03 3e
       -0.3244826 0.57686573 -0.120338336 0.12863308
000050 a7 89 aa 3e 0a e7 2a 3f 5c 0b 61 3f 97 4e 3c bf
       0.33308145 0.6675879 0.8790796 -0.7355742
000060 7d 2e fd 3c 59 9e 31 bf c6 d1 69 3f 04 f4 25 bf
       0.030905956 -0.69382244 0.91335714 -0.64825463
000070 7e 0d ca be a3 0a d9 3e 5d bc 2c 3f cc d9 f4 3c
       -0.3946342 0.42390928 0.6747492 0.02988901
000080 a3 9e ba 3d 7e ad 04 3f 4e c7 08 3f 9d e0 f7 3e
       0.09112289 0.5182723 0.53429115 0.48413554
000090 d3 fd 19 3e a7 c2 7e 3f 16 c3 fc be da 78 00 bd
       0.15038233 0.99515766 -0.4936759 -0.031365253
0000a0 a4 14 35 bf 35 f2 39 3e 37 e8 1c 3f d5 f8 5d be
       -0.7073462 0.18158801 0.6129183 -0.21676953
0000b0 fc bb 20 3f 69 29 a7 3e 76 93 9d be 19 0e b2 3e
       0.6278684 0.3264878 -0.30776566 0.3477638
0000c0 99 4c f6 3d c3 df a2 3c 38 f2 a5 3e 10 e4 45 3f
       0.120263286 0.019882089 0.3241136 0.7730112
0000d0 54 d1 89 3f ed 06 72 3d 40 26 32 be a9 ea 13 3f
       1.0767007 0.059088636 -0.17397404 0.5777994
0000e0 15 49 53 3e 69 d7 3c 3f ef 3a 38 bf ff 97 3b 3f
       0.20633347 0.7376619 -0.71964926 0.732788
0000f0 65 bc d8 3e df a2 80 bc d5 e9 f9 be f5 b6 f1 be
       0.42331234 -0.015702663 -0.48811212 -0.47209898

weight f4 [64, 64]
000000 f4 b6 41 3d b0 db 18 3d 58 bd 64 3c 19 b4 fa bc
       0.04729362 0.037318885 0.013961159 -0.030603455
000010 4f 36 71 bd 82 e9 99 3d 2b 05 4f 3d 39 84 50 bd
       -0.058889683 0.07515241 0.050542038 -0.050907347
000020 ee 30 1d be 71 a9 05 3e fa 48 3d be 8b ec 6a bd
       -0.15350696 0.13052918 -0.1848487 -0.05735449
000030 e2 71 46 3d 5d 69 fa bd f6 05 4a 3c 26 e4 a6 3d
       0.04844845 -0.12227128 0.012330523 0.081489846
000040 3c 5e b1 3d 86 31 ad 3d fc 94 b0 3c 2a 0e a1 3c
       0.08660552 0.084567115 0.021555416 0.019660074
000050 d8 84 50 bd c0 ef 62 3d cf 76 07 3e 3e 2c a1 bd
       -0.05090794 0.055404425 0.13228916 -0.07869767
000060 01 62 9d bd 2e 08 f5 3c e6 c8 2d be da 87 50 bd
       -0.076847084 0.029911127 -0.16971168 -0.05091081
000070 0e e1 81 3d ba d2 43 bd 2c 4e 4d 3d ca 26 bd bc
       0.06341754 -0.047808386 0.05012338 -0.023089785
000080 92 35 c8 bc 16 61 5a bc 63 e2 92 3c 2b da 07 be
       -0.024439607 -0.013328811 0.017930215 -0.13266818
000090 3b d6 bb bd d1 80 0d bc d5 f7 d1 3d a2 f8 8f 3d
       -0.091717206 -0.008636669 0.10252348 0.07029845
0000a0 aa c0 63 bd 3d 72 db 3d 3c ef 96 b9 4f bb 11 be
       -0.05560366 0.107151486 -0.00028788473 -0.14231609
0000b0 11 3d ae bc 78 b9 db 3c d6 47 ee bd 55 e2 e6 3c
       -0.021269353 0.026821837 -0.11634795 0.028184095
0000c0 5f e9 be 3d 60 3c 26 3d c5 41 8c 3d 34 01 94 3d
       0.09321856 0.04058492 0.06848482 0.07226792
0000d0 8a e0 47 ba aa ee c5 bc b2 10 ad 3e e6 63 62 3c
       -0.00076247065 -0.024161655 0.338018 0.013817763
0000e0 63 8f a0 3d 17 23 a3 3d f9 75 74 bc 48 0c d6 3e
       0.07839849 0.07965677 -0.014920705 0.41806245
0000f0 e0 93 81 3e 8c fc c5 3d 1c f4 a6 be 2f e6 a1 3d
       0.25308132 0.0966731 -0.32608116 0.07905232
000100 e9 f6 7b bc c5 79 53 3d d0 e2 23 3d c8 86 ef bd
       -0.015378692 0.0516298 0.040011227 -0.11695629
000110 80 28 c9 bc ab 8a 89 3d a2 5a 1c 3e 50 f3 5a 3d
       -0.024555445 0.06715902 0.15268949 0.053454697
000120 41 f7 80 3d 6a 95 20 3c ad 95 d5 3d 47 e4 b8 bc
       0.0629716 0.009801248 0.10428939 -0.022569789
000130 bd 2d 1a 3e 73 f4 94 bc 4b 75 1f 3e c8 9d 8b bd
       0.1505651 -0.018182969 0.15572087 -0.06817204
000140 a7 5f 8c bd 8d 10 7c bd 05 a0 9a bd 63 e2 94 3d
       -0.06854182 -0.06153922 -0.075500526 0.07269742
000150 1d fe 35 3d e9 19 2a bd c7 a3 97 be 00 b5 f7 3d
       0.044431794 -0.041528616 -0.2961714 0.1209507
000160 a9 89 2f bd 55 d9 eb bc ca 16 8e bd b9 32 59 3d
       -0.042855892 -0.028790155 -0.069379404 0.05302689
000170 cf c1 e8 3d e9 21 27 3c 76 ed 07 3d 67 51 3c 3d
       0.11365091 0.010200956 0.033185445 0.04597607
000180 75 0c a8 bd 67 a7 e9 bd a4 f5 bb 3c b2 59 dc bb
       -0.08205501 -0.114088826 0.022944279 -0.0067245597
000190 b3 72 25 3d 47 8c 05 bd 7f 84 eb 3d 95 b4 eb 3d
       0.04039259 -0.032604482 0.11499881 0.11509053
0001a0 9b 36 88 3d 4c f3 f8 3d b7 7d d8 bd 9d 72 a3 3e
       0.0665104 0.1215578 -0.10570853 0.3192338
0001b0 87 e2 74 bd ef 36 0a be 1c 2a 45 bd 79 57 d5 3d
       -0.059786346 -0.13497518 -0.04813586 0.10417075
0001c0 ac 20 b3 3c b0 42 dc 3d bd cb 11 3e 74 2f 3e bd
       0.021866165 0.10754907 0.14237876 -0.046431974
0001d0 e3 e2 45 bc cd 3f 71 3d 43 f2 ae be fc 17 8f bd
       -0.01207802 0.058898736 -0.34169206 -0.069869965
0001e0 1a 39 44 3c cd 28 06 3e 60 d4 6a 3d d6 1e f6 be
       0.011976505 0.13101502 0.057331443 -0.480704
0001f0 6d 93 96 bd 48 8a 02 3d 9a 5b 9f 3e 12 b8 e9 3d
       -0.07352338 0.031870157 0.31124574 0.11412062
000200 4e cd ec bb 58 36 3b be 21 dd 81 3c 14 87 a9 3d
       -0.0072266227 -0.18282449 0.015852513 0.08277717
000210 c7 ec 1f be 44 52 6e 3b 80 d2 05 be fe 23 77 bd
       -0.15617667 0.0036364952 -0.1306858 -0.06033706
000220 38 cb 8a be 49 0c 87 bc 2c fd 1b bf 3b b8 af be
       -0.2710817 -0.01648535 -0.60933185 -0.34320244
000230 ff 2d a3 be 24 86 13 bd 0e ec 85 be 7b 7c 2f be
       -0.3187103 -0.0360166 -0.26156658 -0.1713733
000240 d6 ea 0c bc d4 7e bc bd 49 2b ac be b2 41 24 be
       -0.008600911 -0.09203878 -0.33626774 -0.16040686
000250 3a 8b 28 be 31 24 02 be 15 8c 5d 3f 1a 3f 3d be
       -0.1645936 -0.12709118 0.86541873 -0.18481103
000260 9f c8 a2 be 8c 38 58 bd e3 76 87 be df 58 02 bc
       -0.31793687 -0.052788302 -0.2645789 -0.007955759
000270 7d dc 8b bd ce 51 a9 be ec 91 09 be 46 02 e9 bd
       -0.06829164 -0.33070225 -0.13434571 -0.11377387
000280 92 29 91 bd 84 87 03 3e 9c 12 ab be 91 9f a7 be
       -0.07088007 0.12844664 -0.33412635 -0.32738927
000290 a7 9d a2 be 54 d3 27 bd fa 97 b9 bd 50 c7 39 bd
       -0.31760904 -0.040973023 -0.0906219 -0.045356095
0002a0 f2 9c ae be 48 60 08 3e f4 1c cc bc 9a 18 19 bf
       -0.34104115 0.13317978 -0.02491615 -0.59803164
0002b0 43 81 3e bd 4b 20 df bd 91 99 a0 3d 68 b4 1c be
       -0.046509992 -0.10894831 0.078417905 -0.15303195
0002c0 60 e2 e7 3d de 4f cf bd 88 68 51 be df c1 07 bd
       0.113224745 -0.10122655 -0.20450032 -0.033143874
0002d0 1f 8c 46 be 18 48 3d 3d 70 04 52 3e 16 6c 79 be
       -0.1938939 0.046211332 0.20509505 -0.24357638
0002e0 8b 79 8b be 1e 0b 17 be 4a 45 10 be a1 bc 46 3f
       -0.27241167 -0.14750335 -0.14088932 0.77631575
0002f0 d8 63 27 3f 39 70 2e 3d fa 11 4b bf ac 73 35 3d
       0.65386724 0.042587493 -0.79324305 0.044299766
000300 00 50 54 bd 92 b9 f3 3d 87 1a 00 bd c6 01 74 3d
       -0.051834106 0.11900629 -0.0312753 0.059572004
000310 2d fc f3 3d bd 0d c1 bc 90 ce b7 bd 64 f6 0a bc
       0.11913333 -0.023566121 -0.089749455 -0.008481596
000320 f5 b0 33 3c d5 f0 bf bd d1 4e 49 be 5d 35 00 be
       0.010967483 -0.09372107 -0.19658972 -0.12520356
000330 2e 5d dd 3d 0a 91 fb 3c 06 cc e9 bd 04 4f f4 3d
       0.10808788 0.030708808 -0.114158675 0.119291335
000340 ee af 40 bb 00 e7 b1 bc dc 14 89 3d eb 4a 98 3c
       -0.0029401737 -0.021716595 0.06693432 0.018590411
000350 52 9b 1e bd cb ce bb bd da f2 cc 3c f1 5d 90 bd
       -0.038722344 -0.09170302 0.025018144 -0.07049168
000360 7a 0c b2 bb 40 e7 8b bd 87 b1 d5 bd 0e 57 47 3d
       -0.005433616 -0.06831217 -0.10434251 0.048667006
000370 72 4c b2 3d b8 84 dc 3d 89 c4 5d 3d 27 d9 ce 3d
       0.08705987 0.107675016 0.05414251 0.10100012
000380 41 56 51 bd e1 b5 d0 3d 67 fa 69 bd c8 da 22 3c
       -0.05110765 0.10190941 -0.057123568 0.009939857
000390 4d 21 bb bc 2d 58 ed 3d eb 74 28 3d 9b f4 ee bd
       -0.022843027 0.11589084 0.041127127 -0.116677485
0003a0 7f 76 a2 bd 08 7d b3 bd c7 6a 6a bd 26 d5 7a be
       -0.079327576 -0.08764082 -0.057230737 -0.24495372
0003b0 04 8f fc 3d ff f6 87 bd 92 ba 96 bd 00 24 e0 3c
       0.123319656 -0.06638908 -0.07359804 0.027360916
0003c0 f1 cd 17 3d 64 d0 70 bd 9a 77 b4 3c 16 ae 14 3d
       0.037061635 -0.058792487 0.022029687 0.036298834
0003d0 09 8f 06 3d ad bc 84 bd f8 0c b0 3e fb 6f b4 bc
       0.032851253 -0.064812995 0.34384894 -0.022026053
0003e0 a9 2b 1c bd 88 e5 f8 bb 5b 3d b8 3d 58 9a b7 3e
       -0.038127575 -0.0075957216 0.089960776 0.35859942
0003f0 da bb 0b bd ea 1b bc 3d 70 2a 45 be cf ed 08 3d
       -0.034114696 0.09185012 -0.1925447 0.033429917

bias f4 [64]
000000 88 f0 d1 3c 13 38 05 be 1b 1d c6 3e 2a db a4 bd
       0.02562739 -0.13009672 0.3869408 -0.08049615
000010 2f fc fc bc 66 1a 76 3d ff 14 bf 3e 61 df 20 3e
       -0.03088197 0.06008377 0.37320706 0.15710212
000020 6b 2b 87 3d 86 d8 96 3e 19 cb 98 bd 58 e2 60 bd
       0.06600078 0.2946207 -0.07460613 -0.05490336
000030 38 28 9f bd a6 85 a9 3d a1 82 12 3e 53 e9 cc bd
       -0.07771343 0.082774445 0.14307643 -0.100054406
000040 70 e5 58 3e 8a 79 ec 3d 08 0f 2b 3e 3e 2c 13 bd
       0.21181273 0.11546619 0.16704953 -0.035930865
000050 2a 2d 46 3e 0d 68 05 be 8e c9 f9 3d 90 e1 17 3e
       0.19353166 -0.13027973 0.12196647 0.14832139
000060 fe 9f 8e 3d 37 6e 85 3e bf fd c0 3d c4 06 1a be
       0.0696411 0.2606065 0.09423398 -0.15041643
000070 0b de 7a bd 91 3a ee bd 76 9f de bc 87 ac 06 3c
       -0.061246913 -0.116322644 -0.027175646 0.008219845
000080 24 96 bd 3d eb 76 09 3e 87 6f 2c 3e 46 7c bd 3e
       0.09257153 0.1342427 0.1683942 0.37008876
000090 c8 87 b6 3d 16 52 07 be a8 3c 00 3d 30 61 83 bd
       0.08912617 -0.13214907 0.031307846 -0.064150214
0000a0 89 03 fe 3d b7 f4 50 be 09 02 27 3d 8b 77 bc 3b
       0.12403018 -0.20405851 0.040773425 0.0057515553
0000b0 b3 f5 86 bd cc bc d8 3c 87 25 85 bd a7 50 b5 3d
       -0.06589832 0.026457213 -0.065012984 0.08853274
0000c0 fb 48 cb 3e 98 79 19 be 01 17 99 3e 4b 8d 28 bc
       0.39704117 -0.1498779 0.29900363 -0.010287593
0000d0 3b 0e e2 3d d5 1e 72 3e 1a e6 a6 3d 2b ff d5 bd
       0.110378705 0.23644574 0.08149357 -0.1044906
0000e0 68 3e a5 3e d4 b8 ed 3d 6c 37 9a 3e 8c 27 03 3e
       0.32274175 0.11607519 0.3012041 0.12808055
0000f0 32 2a 8c 3e f1 6e 88 3e 3a ff 99 bd f7 65 fe bd
       0.27375942 0.26647142 -0.07519384 -0.12421792

weight f4 [1, 64]
000000 1d 89 9a 3d d7 cd e3 bd ff 95 05 3e b5 a0 ec 3b
       0.075456835 -0.11123245 0.130455 0.007221306
000010 b8 10 f1 bd 10 e4 a5 bd f0 5d 09 3e b3 45 01 3a
       -0.11770767 -0.0810014 0.1341474 0.00049313455
000020 18 9d e7 3d f6 d7 7a be a0 bf 29 bc dd fb d9 bd
       0.1130926 -0.24496445 -0.010360628 -0.10643742
000030 22 ef 63 3c 6d 4e 22 be 3f d0 76 3d 94 86 96 3c
       0.013911994 -0.1585023 0.060257193 0.018374719
000040 3e d2 6e 3e 90 2e 3c 3e 7e 5b 02 3e ba 09 f9 3d
       0.23322389 0.18377137 0.12730214 0.12160058
000050 d8 5c 2e be 9f 5b c9 bc 5d eb 52 3d bd bf 79 be
       -0.17027605 -0.024579821 0.05149399 -0.24389549
000060 16 18 52 bc 44 24 69 be 83 bb 10 bd c7 4c 65 bd
       -0.012823125 -0.2276774 -0.035335075 -0.055981424
000070 2b 24 84 bd 2a 30 b2 bc ee 81 b2 38 13 b4 24 be
       -0.06452211 -0.021751482 8.511903e-05 -0.16084318
000080 05 80 95 3d 5e 79 d0 bd d9 b2 b2 be c2 83 b9 be
       0.072998084 -0.10179399 -0.34902075 -0.36233336
000090 4b 8e 1a 3d 1c c8 98 bd 9b 57 e3 bc 07 90 a7 bd
       0.037733357 -0.07460043 -0.027751734 -0.08181768
0000a0 0c 0b 80 3d 13 0b ff be e2 2c f4 3c 7d d2 8f 3d
       0.06252107 -0.49813136 0.029806558 0.07022569
0000b0 1f b7 ed bd 63 b5 6a 3d d5 b1 b1 bb 3a f5 90 3d
       -0.11607193 0.05730189 -0.0054228106 0.07078023
0000c0 c7 d3 43 3e 3d 50 99 bc e4 b0 8a be f7 a9 ad 3d
       0.19123755 -0.018715018 -0.27088082 0.08479684
0000d0 e6 46 61 3a 16 3f 75 3e 19 70 8b 3c c8 a8 1c 3a
       0.00085936335 0.23949847 0.017021226 0.0005976078
0000e0 a3 1d 92 be 34 fb 50 3c f6 46 89 3e 45 5e 99 bd
       -0.28538236 0.012755204 0.2681195 -0.074886836
0000f0 b5 44 81 3e 87 8a a0 be b9 37 ba 3c 54 da 96 bd
       0.25247732 -0.31355688 0.022731649 -0.073658615
