Models/Playground_model_10.pth (torch, 23744 bytes, 5 tensors)

weight f4 [64, 10]
0	0xbea283ff	-0.3174133
1	0x3c828f8b	0.015937587
2	0x3d3893b9	0.045062754
3	0x3e2118d5	0.15732129
4	0xbe511b57	-0.20420586
5	0xbe96c8e4	-0.29450142
6	0xbebb0e90	-0.36534548
7	0x3d836bcb	0.06417044
8	0x3e969c64	0.29416192
9	0x3e7f277e	0.24917409
10	0x3eab0bf8	0.3340757
11	0x3d0b34ab	0.033985775
12	0x3e431b26	0.19053325
13	0xbc7ea3ce	-0.015541984
14	0xbd6d61db	-0.05795465
15	0x3d60aca8	0.054852158
16	0xbe3723bf	-0.1788473
17	0xbc05c3f2	-0.008164393
18	0xbe38bab9	-0.18039979
19	0xbda618fe	-0.08110236
20	0x3e7578a5	0.23971803
21	0xbdc59f14	-0.09649482
22	0x3e6da6c1	0.23208143
23	0x3ea1d3c3	0.31606874
24	0x3e76f431	0.24116589
25	0x3c2cb579	0.010541313
26	0x3dec9618	0.115520656
27	0x3e23d07f	0.15997504
28	0xbf24a435	-0.6431306
29	0x3bfae7e4	0.007657038
30	0xbe847c9a	-0.25876313
31	0x3c14784d	0.009061885
32	0xbdfaba97	-0.122426204
33	0xbf40ac61	-0.7526303
34	0xbf26b06c	-0.6511295
35	0xbca8c899	-0.020603465
36	0xbc8b512a	-0.017006475
37	0x3e7bc490	0.24586701
38	0xbded6b3a	-0.115927175
39	0x3ef68d29	0.48154572
40	0x3e96e46c	0.29471147
41	0xbdb06257	-0.08612507
42	0xbe0623d7	-0.1309961
43	0xbef9e4eb	-0.48807463
44	0xbec3a68b	-0.38213
45	0xbc8b6bbd	-0.017019147
46	0xbe2539ae	-0.16135284
47	0x3dfd1189	0.1235686
48	0x3e2fd2d7	0.17170273
49	0x3f158d7b	0.5841901
50	0xbe3a7f82	-0.18212703
51	0x3e65c57c	0.22438616
52	0xbe170ed4	-0.1475175
53	0xbfda1986	-1.7039039
54	0xbe42c6be	-0.19021127
55	0xbdbe7f2f	-0.09301602
56	0xbd959f01	-0.07305718
57	0x3e20ecf2	0.15715387
58	0x3f79cc9a	0.9757782
59	0xbae3d254	-0.0017381408
60	0x3d3fc71f	0.046820756
61	0x3e60c14d	0.21948738
62	0xbde9fe4a	-0.11425455
63	0xbf461158	-0.77370214
64	0xbee02e56	-0.43785352
65	0xbe73924f	-0.23786281
66	0xbd30214d	-0.043000508
67	0x3dfdc9d0	0.12392008
68	0x3f4b27b2	0.79357445
69	0x3e081f4b	0.13293187
70	0x3e16fd01	0.14744951
71	0x3d862987	0.065508895
72	0xbdd72699	-0.10505409
73	0xbf8ddc9e	-1.1082952
74	0xbe06a2d7	-0.13148056
75	0xbea8cd3b	-0.32969078
76	0xbb43aa6d	-0.002985622
77	0xbd35cb77	-0.044383492
78	0x3f81d175	1.0142046
79	0x3e65e175	0.22449286
80	0xbd739a5e	-0.059473388
81	0xbec762f9	-0.38942698
82	0x3d95f682	0.07322408
83	0xbe129d53	-0.14317827
84	0x3dddddd5	0.10833327
85	0xbda90fdd	-0.08254979
86	0xbd90cba1	-0.07070089
87	0x3e7d21f7	0.24719988
88	0xbef42aae	-0.47688812
89	0xbdc32719	-0.09528942
90	0xbf01655c	-0.5054529
91	0xbdc99337	-0.09842532
92	0x3ca9c4e4	0.020723768
93	0xbe2b5d63	-0.16734843
94	0xbed17881	-0.4091225
95	0x3e80137d	0.25014868
96	0x3e680096	0.22656474
97	0x3e4c80bc	0.19970983
98	0x3f287dfe	0.6581725
99	0xbde022c6	-0.109441325
100	0x3e808224	0.2509929
101	0xbeed9da0	-0.4640932
102	0x3d14a80b	0.03629307
103	0x3ef85471	0.48501924
104	0x3dc25a21	0.09489847
105	0xbcf29492	-0.02961186
106	0xbd806c12	-0.06270613
107	0xbe8df759	-0.27727774
108	0xbf09c458	-0.5381522
109	0xbefd72b4	-0.49501574
110	0xbe615348	-0.22004426
111	0x3e64b7ad	0.22335692
112	0x3e55d6a8	0.20882666
113	0x3da50616	0.080578014
114	0xbe6ae897	-0.22940288
115	0xbe0798fc	-0.13241953
116	0x3e93d2c9	0.28871754
117	0xbd3f67f0	-0.046729982
118	0x3e0753dc	0.13215584
119	0xbc1c78f0	-0.009550318
120	0x3f34be12	0.70602524
121	0x3ec0d6a8	0.3766377
122	0xbc557eb9	-0.013030701
123	0xbcabe38c	-0.020982526
124	0xbeb05b94	-0.3444487
125	0xbe3d46ff	-0.18484114
126	0xbd60fec6	-0.05493047
127	0x3e5df6ec	0.21676224
128	0xbc9b791a	-0.018978644
129	0x3e3593d9	0.1773218
130	0x3e7700e3	0.24121432
131	0xbd8f3ce5	-0.069940366
132	0x3e405c4b	0.18785207
133	0x3ed24413	0.41067562
134	0xbee32cd2	-0.44370133
135	0xbe2e81e9	-0.17041744
136	0x3e3576a6	0.17721042
137	0xbeada3ee	-0.3391413
138	0xbdcbfabb	-0.099599324
139	0xbe8aa7fa	-0.2708128
140	0x3db3279c	0.08747789
141	0xbd7c78ed	-0.06163876
142	0xbe1757e3	-0.1477962
143	0xbf9d07f9	-1.2268058
144	0xbe79b6a1	-0.24386074
145	0xbebb7842	-0.36615187
146	0x3dccf360	0.100073576
147	0xbe7e5e62	-0.24840692
148	0x3e5044ce	0.20338747
149	0x3e22cbee	0.15898106
150	0xbf489be8	-0.78362894
151	0x3ec9e067	0.39429018
152	0x3e2dfbbb	0.16990559
153	0xbefa9989	-0.48945263
154	0xbee1f5ae	-0.4413275
155	0xbe8cadc7	-0.27476332
156	0x3e1593ec	0.14607209
157	0x3d85c08f	0.06530868
158	0x3ee74d33	0.45176086
159	0xbe3a3d95	-0.18187554
160	0x3e6a2ada	0.22867909
161	0xbee37dcc	-0.44431913
162	0x3ce524c2	0.027971629
163	0xbcfbd303	-0.030740267
164	0xbd1c2be1	-0.038127784
165	0xbe8b9f96	-0.27270192
166	0x3e6b8909	0.23001494
167	0xbefd89f2	-0.49519306
168	0xbe9db569	-0.30802467
169	0x3b92d190	0.004480548
170	0xbf2c253f	-0.67244333
171	0x3edbd85e	0.42938513
172	0x3b49149f	0.0030682457
173	0xbe7d45d0	-0.24733663
174	0x3d948e31	0.07253683
175	0xbc8cb631	-0.01717672
176	0xbd2af7ed	-0.041740347
177	0x3d461eb8	0.04836914
178	0x3ecb6156	0.397227
179	0x3eb0cfe9	0.34533623
180	0x3f09fe6c	0.5390384
181	0xbe5f0f7f	-0.21783255
182	0xbe38931b	-0.18024866
183	0xbf977732	-1.183325
184	0x3ba763fd	0.005108355
185	0x3d53e214	0.051729277
186	0x3ddce36a	0.10785563
187	0x3d8056ae	0.06266533
188	0x3f09d6d4	0.53843427
189	0x3e266d30	0.16252589
190	0xbe335518	-0.1751293
191	0x3e95ef0e	0.29283947
192	0x3e077353	0.13227586
193	0xbdeb9da4	-0.11504677
194	0xbe86fbe9	-0.26364067
195	0x3e79436a	0.24342123
196	0xbe8b24c3	-0.27176484
197	0xbe406b91	-0.18791033
198	0x3e147139	0.14496316
199	0xba0d3ad0	-0.0005387487
200	0xbe56ff7a	-0.20995894
201	0xbe3a04bf	-0.18165873
202	0x3e6e5f86	0.23278627
203	0xbe8e042c	-0.27737558
204	0x3e7dcd57	0.24785362
205	0x3e3066d3	0.17226724
206	0x3e593bd5	0.2121423
207	0x3e72f01d	0.23724408
208	0x3e51c6dd	0.20486017
209	0x3dd5fb23	0.10448291
210	0x3e93fe1c	0.28904808
211	0xbe60ab0b	-0.21940248
212	0x3d2ddb15	0.04244526
213	0x3f872bee	1.0560281
214	0x3e362fe7	0.17791711
215	0xbd5a744d	-0.05333357
216	0x3eaef30e	0.3416981
217	0x3e266020	0.16247606
218	0xbf3ee231	-0.7456389
219	0xbf2c5516	-0.6731733
220	0xbd5d43e9	-0.054019842
221	0xbe16d31b	-0.14728968
222	0xbe1cb64a	-0.15303913
223	0xbf1f5441	-0.62237936
224	0xbef1ac47	-0.4720175
225	0x3de8ff3a	0.113768056
226	0xbe9721e8	-0.29518056
227	0x3e2abeae	0.16674301
228	0x3ed76469	0.42068794
229	0x3f1f7644	0.62289834
230	0x3da2a54d	0.07941685
231	0x3e33076f	0.17483304
232	0xbe2edbb8	-0.17076004
233	0x3b649a54	0.0034882026
234	0xbecc3dbd	-0.39890853
235	0x3d9ef6f8	0.07761949
236	0x3dd65652	0.10465683
237	0x3e8dc7f6	0.2769162
238	0x3aeca6de	0.0018055101
239	0xbe813a0d	-0.25239602
240	0x3ebaddf3	0.3649746
241	0xbebeb7ac	-0.37249506
242	0xbe1b58b7	-0.15170561
243	0xbd62103d	-0.055191267
244	0xbca79a25	-0.020459244
245	0xbe482b59	-0.19547786
246	0xbcc6375a	-0.024196316
247	0xbdb6b752	-0.08921684
248	0xbd4e6005	-0.05038454
249	0xbea85c83	-0.3288308
250	0x3ed378ba	0.41303045
251	0x3e553497	0.20820843
252	0x3d38a4a9	0.045078907
253	0xbca0bae8	-0.019620374
254	0x3dece958	0.11567944
255	0x3e54f15b	0.20795195

bias f4 [64]
0	0x3dfe5a38	0.124195516
1	0x3e46eaec	0.19425553
2	0xbef04646	-0.46928614
3	0x3e3081bb	0.17236988
4	0x3f0513fb	0.5198361
5	0x3e974a72	0.29548985
6	0x3f181708	0.5941014
7	0x3efec788	0.49761605
8	0xbde9c13a	-0.11413808
9	0x3ead14e6	0.33805007
10	0xbf0f0173	-0.55861586
11	0x3e8f3da6	0.27976722
12	0x3cbf39b6	0.023342948
13	0xbed53390	-0.41640902
14	0x3e45a453	0.19300966
15	0x3e3c7727	0.18404828
16	0xbcc04083	-0.023468262
17	0x3f32e047	0.6987347
18	0x3e12ca44	0.1433497
19	0x3e063bb1	0.13108708
20	0xbec2292d	-0.3792204
21	0xbf528db2	-0.8224746
22	0x3edcf6ba	0.43156987
23	0xbb100f92	-0.0021981937
24	0x3dd3ef50	0.103483796
25	0xbee9a2cc	-0.45632017
26	0x3ec257e1	0.3795767
27	0x3e056511	0.13026835
28	0x3d148174	0.03625627
29	0x3edba722	0.4290095
30	0xbe3a190b	-0.18173616
31	0x3f0b473b	0.54405564
32	0xbd960fbe	-0.07327221
33	0xbde90080	-0.113770485
34	0x3d905e33	0.07049217
35	0x3e530846	0.20608625
36	0xbde0d6c1	-0.10978461
37	0x3f66f8af	0.9022321
38	0x3cfcf00c	0.030876182
39	0x3f2c98eb	0.67420834
40	0x3e303663	0.17208247
41	0xbedb8f5e	-0.42882818
42	0x3e7b966e	0.24569103
43	0x3eb264a7	0.34842417
44	0x3ccb9ce8	0.024855092
45	0x3eeeb3f2	0.46621662
46	0xbe07b05a	-0.13250867
47	0xbe81bcc0	-0.25339317
48	0x3f194fc2	0.59887326
49	0x3e952c07	0.29135153
50	0xbec847d6	-0.39117306
51	0x3eb75043	0.35803422
52	0x3e4392b4	0.19098932
53	0xbe2649ff	-0.16239165
54	0xbe98b90e	-0.29828686
55	0x3f02c67f	0.5108413
56	0x3e75f84b	0.24020498
57	0x3e6cab9b	0.23112337
58	0x3ed27355	0.41103616
59	0x3ecb6175	0.3972279
60	0xbe9ebf57	-0.31005356
61	0x3edd48fc	0.43219745
62	0xbe15cb1a	-0.14628258
63	0x3f16cc25	0.5890525

weight f4 [64, 64]
0	0x3d9e4ede	0.077298865
1	0x3db48c90	0.08815873
2	0xbe098ae5	-0.1343189
3	0xbdb97baa	-0.0905679
4	0xbe8176d8	-0.25285983
5	0xbe844fb4	-0.2584206
6	0xbe312c50	-0.1730206
7	0xbe97c0ad	-0.29639187
8	0x3dae0a7a	0.08498092
9	0x3ece8bfc	0.40341175
10	0xbd4cbdb6	-0.04998561
11	0xbe010a2c	-0.12601537
12	0xbd64f878	-0.05590102
13	0xbdde1c4c	-0.10845241
14	0xbe086695	-0.13320382
15	0x3d0173c8	0.03160456
16	0x3ba70bf3	0.00509786
17	0x3f16e212	0.58938706
18	0xbdd57fe5	-0.104247846
19	0x3de35d21	0.11101747
20	0xbd2aa90a	-0.041665114
21	0xbe568a99	-0.20951308
22	0xbe8b315b	-0.27186093
23	0x3d0c8103	0.034302723
24	0xbe477b8e	-0.19480726
25	0x3d03ca2a	0.03217522
26	0xbe802ef2	-0.25035816
27	0xbd6e41fd	-0.0581684
28	0xbd9284b8	-0.0715422
29	0x3ce31e51	0.027724417
30	0xbda63158	-0.0811488
31	0xbe1952e8	-0.14973032
32	0xbe028d5a	-0.12749234
33	0x3caec045	0.021331916
34	0xbd583fba	-0.05279515
35	0xbd99d70e	-0.075117216
36	0xbe2b4f20	-0.16729403
37	0x3ee70928	0.45124173
38	0xbd476184	-0.048676983
39	0x3f25381a	0.6453873
40	0xbd9aa8c8	-0.07551724
41	0xbbeaad10	-0.007161744
42	0xbdb54849	-0.08851678
43	0xbe425d10	-0.18980813
44	0xbe5259fc	-0.20542139
45	0xbe525693	-0.20540838
46	0xbe229d10	-0.15880227
47	0x3da99a87	0.08281427
48	0xbe81a7f7	-0.2532346
49	0xbd8c4b79	-0.06850333
50	0xbe114fea	-0.14190641
51	0xbde1c501	-0.11023904
52	0xbe412360	-0.1886115
53	0x3d23cf24	0.039992467
54	0xbe61c3e0	-0.22047377
55	0xbe582138	-0.21106422
56	0xbe169250	-0.14704251
57	0xbd06534c	-0.03279428
58	0xbe806b92	-0.2508207
59	0x3d50945d	0.05092274
60	0xbd44b0c8	-0.048020154
61	0x3e5f4ad1	0.21805884
62	0xbe1b2d40	-0.1515398
63	0xbde4fa47	-0.11180549
64	0xbd44b902	-0.048028
65	0x3d3b975f	0.045798656
66	0x3db9b921	0.09068514
67	0x3cde5919	0.027142094
68	0x3dd6a325	0.10480336
69	0x3e1f45e2	0.15554002
70	0x3e78a981	0.2428341
71	0x3d240978	0.040048093
72	0xbdee14d1	-0.11625064
73	0xbeacf311	-0.33779195
74	0x3d9f8b0f	0.07790195
75	0x3d487439	0.048938964
76	0x3d706fbc	0.05870031
77	0x3e18c30f	0.14918159
78	0x3e0118ab	0.12607066
79	0x3cc8edb8	0.024527416
80	0x3c1622a3	0.0091635315
81	0xbf8d0ed1	-1.1020147
82	0x3e081c1b	0.13291971
83	0xbdd1f695	-0.1025211
84	0x3d9bfd88	0.076167166
85	0x3e4d64a3	0.20057921
86	0x3e2b1e7f	0.16710852
87	0x3dd86e6f	0.105679385
88	0x3d08184a	0.03322629
89	0x3ca78cb9	0.020452844
90	0x3e78919b	0.24274294
91	0xbc8e845d	-0.0173971
92	0x3e840d0a	0.25791198
93	0xbca4833f	-0.020082114
94	0xbd8ca8a6	-0.06868105
95	0x3e83cc69	0.2574189
96	0x3dc74f8a	0.09731968
97	0xbdc9535c	-0.09830353
98	0x3dd88646	0.105724856
99	0x3e3fe27d	0.18738742
100	0x3e4b0545	0.19826229
101	0xbf3de288	-0.74173784
102	0xbdc2f4ba	-0.09519334
103	0xbf65b068	-0.897223
104	0x3d3c39e6	0.045953654
105	0x3e197026	0.14984187
106	0x3e56e3be	0.20985314
107	0x3cc05ed8	0.023482725
108	0x3ddac002	0.10681154
109	0x3e60302c	0.21893376
110	0x3dba47ff	0.090957634
111	0x3e09474d	0.13406105
112	0x3d6e0c95	0.058117468
113	0xbdf0ab5f	-0.117514364
114	0x3e285c8f	0.16441558
115	0x3e43866c	0.19094247
116	0x3da13228	0.07870895
117	0xbda44dd2	-0.080226555
118	0x3e7155b8	0.23567855
119	0x3e1929a0	0.14957285
120	0x3e392573	0.18080692
121	0xbe0600e7	-0.13086282
122	0x3dae6702	0.08515741
123	0xbdcc5019	-0.09976215
124	0xbdbe86c6	-0.0930305
125	0xbed54b52	-0.41659027
126	0x3e29bae5	0.16575201
127	0x3df5e0d5	0.12005774
128	0xbdbc0109	-0.09179885
129	0x3d350725	0.044196267
130	0x3dcd682f	0.10029637
131	0xba83c69c	-0.0010053697
132	0xbdc92a0c	-0.09822473
133	0xbe12c8de	-0.14334437
134	0x3d707ff2	0.05871577
135	0xbd991c98	-0.07476157
136	0x3dad2a09	0.08455283
137	0x3e47275d	0.1944861
138	0x3dbf22f8	0.09332842
139	0xbc6446c3	-0.0139328865
140	0xbe229e3a	-0.15880671
141	0xbcef608e	-0.029220846
142	0xbda3ea87	-0.08003717
143	0x3dba0cdb	0.09084483
144	0xbcd966a7	-0.026538206
145	0x3ea1addd	0.3157796
146	0xbd94a1ba	-0.072574094
147	0xbd943e6e	-0.0723847
148	0x3daf5816	0.08561723
149	0xbdcc8964	-0.09987143
150	0x3d94f15d	0.07272599
151	0xbe42a142	-0.19006827
152	0xbe2f00d5	-0.17090161
153	0xbd225c62	-0.039638884
154	0x3c09f9bd	0.008421359
155	0x3cd8fb04	0.026486881
156	0xbd8f7bca	-0.07006033
157	0x3c834a90	0.016026765
158	0x3df7d2ed	0.12100778
159	0xbdf6b42b	-0.12046083
160	0x3d64b618	0.05583772
161	0x3db3aa76	0.08772747
162	0x3dd50ea7	0.10403185
163	0x3d655310	0.055987418
164	0xbde3c27f	-0.111210816
165	0x3ec1aba7	0.37826273
166	0x3e0e0242	0.13868049
167	0x3edd6e67	0.43248293
168	0x3d9f1104	0.07766917
169	0x3d004dc3	0.03132416
170	0x3c0c4f9e	0.008563904
171	0x3d997f2d	0.0749496
172	0xbd93ca48	-0.072163165
173	0x3d88dfaf	0.06683289
174	0xbe0f9ec3	-0.14025407
175	0x3d948a7e	0.07252978
176	0xbdea4c28	-0.11440307
177	0x3e0a3284	0.13495833
178	0x3d3d7a39	0.04625914
179	0xbdc3ba4e	-0.09557019
180	0xbd782adc	-0.06058775
181	0x3db9ab17	0.09065836
182	0xbe429ed8	-0.19005907
183	0xbda08a49	-0.07838876
184	0xbe141891	-0.14462496
185	0xbd409746	-0.047019266
186	0xbdbe86f7	-0.09303086
187	0x3dcc1527	0.09964972
188	0x3d71d935	0.059045035
189	0x3e2f222b	0.17102878
190	0xbdbb2b34	-0.091391
191	0x3d66aa39	0.05631468
192	0x3b2c5d84	0.0026300857
193	0xbd9637f3	-0.0733489
194	0x3d72ce92	0.059279032
195	0x3e87919e	0.26478285
196	0x3d7ad4a1	0.061237935
197	0x3d498610	0.049200118
198	0x3e3290cc	0.17438048
199	0x3d5e2475	0.054233987
200	0x3de892be	0.11356114
201	0xbef9cb63	-0.48787984
202	0x3db1954d	0.08671055
203	0xbce0b060	-0.027427852
204	0x3e90ebeb	0.2830499
205	0xbd13910e	-0.036027007
206	0x3e56c2eb	0.20972793
207	0xbdffe31f	-0.12494492
208	0xbda5fc7a	-0.08104797
209	0xbfc8c70d	-1.5685745
210	0x3e6d1d88	0.23155797
211	0xbd26dc15	-0.04073723
212	0xbd31b349	-0.04338387
213	0x3e914a2a	0.28376895
214	0x3d817b06	0.06322293
215	0x3e0b895c	0.13626617
216	0x3e67871a	0.22610131
217	0x3e1bbb29	0.15208115
218	0x3e6cb09c	0.23114246
219	0x3e02f927	0.12790357
220	0x3d830e79	0.06399245
221	0xbdf32058	-0.118714035
222	0x3daa497d	0.08314798
223	0x3e7a143a	0.24421778
224	0xbd209e71	-0.0392136
225	0xbe9fce82	-0.3121224
226	0xbd91600d	-0.07098398
227	0x3e01196f	0.12607358
228	0x3dc9672b	0.09834131
229	0xbfacf2ba	-1.3511574
230	0x3caf51cc	0.021401308
231	0xbfb6c0a1	-1.4277536
232	0x3d216086	0.039398693
233	0x3e1c3ab8	0.15256774
234	0x3ddea73c	0.10871741
235	0x3da634bb	0.08115526
236	0x3df22d56	0.118250534
237	0x3dae02c1	0.08496619
238	0x3d948289	0.0725146
239	0x3dbcfcf1	0.09227932
240	0x3da29dd9	0.07940263
241	0x3c97e5f5	0.01854227
242	0x3e2d6b81	0.1693554
243	0x3d84caef	0.06484019
244	0x3df4df03	0.119565986
245	0x3e121a00	0.1426773
246	0x3e973d8e	0.2953915
247	0x3e73fae7	0.2382618
248	0x3e3e86b9	0.1860608
249	0xbcaa67c8	-0.02080144
250	0x3e5cc72f	0.21560358
251	0xbddc2e63	-0.10751035
252	0xbdd3ddd0	-0.10345042
253	0xbedf7baa	-0.43649036
254	0x3e1bc7c0	0.15212917
255	0x3e04e438	0.12977684

bias f4 [64]
0	0x3da0c622	0.07850291
1	0xbe887304	-0.2665025
2	0x3d1de7e6	0.038551234
3	0xbdff5e87	-0.124692015
4	0x3ce70dc7	0.028204812
5	0x3e5735ea	0.2101666
6	0xbc87dd38	-0.016584978
7	0x3cfdd3a0	0.0309847
8	0x3ea22342	0.31667525
9	0x3d8f0e1e	0.069851145
10	0x3e568270	0.20948195
11	0xbd649ef0	-0.055815637
12	0x3e774850	0.24148679
13	0x3ccb58f5	0.024822691
14	0x3e381f5d	0.17980714
15	0x3dc862b5	0.09784452
16	0x3e033902	0.12814716
17	0x3d81b434	0.06333199
18	0x3d998d86	0.074976966
19	0x3ea93566	0.33048552
20	0x3e809523	0.25113782
21	0xbb81a9f5	-0.003957028
22	0x3e1e66fc	0.15468973
23	0x3d2e25c3	0.04251648
24	0x3ead7c77	0.33884022
25	0x3e175a9a	0.14780656
26	0x3e5fe82e	0.21865913
27	0x3d8de7cd	0.06928978
28	0xbdc30718	-0.095228374
29	0xbdb5400f	-0.08850109
30	0x3ed2c4dd	0.4116582
31	0xbd1effe4	-0.038818255
32	0xbe1347ee	-0.14382908
33	0x3daadaa9	0.08342487
34	0x3d82251b	0.063547336
35	0x3e1c72de	0.15278193
36	0xbd751b20	-0.05984032
37	0xbe09f403	-0.1347199
38	0x3deed8e2	0.11662461
39	0x3b51937a	0.0031978772
40	0x3cd2b700	0.025722027
41	0xbd9de030	-0.07708776
42	0x3ddd5682	0.10807516
43	0x3dc52131	0.096254714
44	0x3d34bbde	0.044124477
45	0x3e1bd28b	0.15217035
46	0x3d5801ac	0.05273597
47	0x3e0963d6	0.1341699
48	0x3c30df37	0.010795406
49	0x3eb49849	0.35272434
50	0xbd4a9fe8	-0.049468905
51	0xbe3e06ab	-0.18557231
52	0x3c99f0a9	0.018791514
53	0x3c59bb91	0.013289348
54	0xbd194b61	-0.037425403
55	0x3dd6b791	0.10484231
56	0x3cfad3e0	0.030618608
57	0x3e0ee0a3	0.1395288
58	0xbde3e786	-0.11128144
59	0x3db6c632	0.089245215
60	0x3b384c6e	0.0028121728
61	0x3df4e208	0.119571745
62	0x3d9abfcc	0.075561136
63	0x3d758a0a	0.059946097

weight f4 [1, 64]
0	0xbdcb34a4	-0.0992215
1	0xbec99763	-0.3937331
2	0x3e0bbcb9	0.1364621
3	0xbf3e7df8	-0.74410963
4	0x3d9174a5	0.07102326
5	0x3e4535c7	0.19258796
6	0xbe36cb94	-0.17851096
7	0xbc8f9f2f	-0.01753196
8	0xbea16fab	-0.31530508
9	0xbe005a02	-0.12534335
10	0xbe82c62d	-0.2554182
11	0xbdbd6d66	-0.09249382
12	0xbea2311a	-0.31678087
13	0xbdef5d0c	-0.11687669
14	0x3e0dac41	0.13835241
15	0xbe5e86a5	-0.2173105
16	0xbe825383	-0.2545434
17	0x3e0bd817	0.1365665
18	0x3dc5b419	0.096534915
19	0xbebc0542	-0.3672276
20	0xbeb14089	-0.3461955
21	0x3da077bd	0.07835338
22	0x3e2093cf	0.15681385
23	0x3dc85a02	0.09782793
24	0xbe8e2652	-0.2776361
25	0x3d2e45cc	0.042547032
26	0xbd946bbe	-0.07247113
27	0x3e02c576	0.12770638
28	0xbdc0b5ce	-0.094096765
29	0xbbb76871	-0.005597167
30	0x3f0ec2f8	0.5576625
31	0x3e1875b4	0.1488865
32	0xbddb1683	-0.10697653
33	0xbe56193f	-0.20908068
34	0x3e0f2a43	0.13980965
35	0xbe7a9462	-0.24470666
36	0x3d2d8bee	0.042369775
37	0xbdf382b2	-0.118901625
38	0x3d9ad56a	0.07560237
39	0xbd160b4d	-0.03663187
40	0x3dd60a91	0.10451234
41	0x3dd2ff5a	0.10302611
42	0x3d26f1ff	0.04075813
43	0x3dcc383f	0.099716656
44	0xbe0fe85e	-0.14053485
45	0x3d975a98	0.07390326
46	0xbcef0bf7	-0.02918051
47	0x3d5ac497	0.05341014
48	0x3e414003	0.18872075
49	0x3ea07cd4	0.31345236
50	0x3dda1426	0.10648374
51	0xbdc3a2fd	-0.09552572
52	0xbdb53c99	-0.08849449
53	0xbe258bbd	-0.16166587
54	0xbca0e26a	-0.019639213
55	0xbe17d372	-0.14826754
56	0xbe1cc5d1	-0.15309836
57	0x3e633721	0.22188999
58	0xbe35287d	-0.17691226
59	0x3e1653c8	0.14680398
60	0x3d89c09a	0.06726189
61	0xbe9cd526	-0.3063137
62	0x3dd80299	0.105473705
63	0xbe20619f	-0.1566224
